results/RollerAgents/RollerAgent/RollerAgent-226330.pt (torch, 431578 bytes, 39 tensors)

network_body._body_endoder.seq_layers.0.weight f4 [128, 1]
-0.41435808 0.22457893 0.6411131 0.2981333 -0.15671785 -0.23126657 0.34181616 0.83511364
0.6934905 1.4396473 -1.6102252 -0.21775596 0.37539414 0.6757209 -0.849059 -1.4370717
-1.0311687 -1.4233404 0.8392918 -1.49926 -0.09305302 0.63684255 -0.19886898 -0.63791925
-0.06734681 0.38878867 0.8077486 1.4203416 1.0831125 1.4842339 -0.7582439 2.7076817
0.12762095 -0.37375104 0.31711286 0.6465535 -0.13447118 -0.62352157 -0.49596283 0.63411283
-0.8522449 0.21148086 0.7420028 -0.91983396 0.34412006 -1.5605112 0.25591266 -2.088967
-0.18619405 -1.119628 -0.085668534 0.6744737 -0.49059072 -0.2605201 -1.4204154 0.51312864
0.5466642 -0.6276972 0.69224536 -0.8068701 -0.4488763 0.255054 -0.7627047 0.950001
-0.33038628 0.12162832 0.039238814 2.2023778 -2.0447624 0.32216346 -0.3005631 0.071605235
-0.3270794 1.1056806 -1.0630784 0.85791177 1.4905447 -1.6975391 2.5199358 0.5406512
-0.19993953 -0.5532055 0.96337396 2.0798664 -0.8476359 -1.3423302 -0.44763935 -0.79602355
0.9986291 -0.8015257 0.42967638 -0.43614122 -1.345891 0.6639952 -0.32988176 -1.4931124
0.07768823 -0.14504454 -0.86953926 -0.6254773 1.4677228 -1.2495004 0.365974 1.1580617
0.8852421 -0.40080202 -0.0016597048 -0.7086079 0.18455829 -0.009374889 0.07022703 1.2071129
-1.0372639 -1.0369262 0.8229379 -0.39881724 -0.68298745 -1.4625238 -1.4872363 0.26574787
1.8015507 0.34432045 0.50858754 0.33102918 0.78078574 0.44441766 -0.70569354 -0.23635972
00000000: be26 d4be 05f8 653e fd1f 243f eea4 983e
00000010: a57a 20be 25d1 6cbe 8702 af3e 02ca 553f
00000020: 9888 313f 5d46 b83f dc1b cebf 6bfb 5ebe
00000030: a933 c03e 0bfc 2c3f ee5b 59bf f7f1 b7bf
00000040: 56fd 83bf 0530 b6bf d4db 563f c0e7 bfbf
00000050: 9592 bebd 1d08 233f 4fa4 4bbe ad4e 23bf
00000060: 20ed 89bd 4f0f c73e 9dc8 4e3f c1cd b53f
00000070: 6ea3 8a3f 60fb bd3f 461c 42bf a84a 2d40
00000080: 11af 023e 4c5c bfbe 9e5c a23e 8884 253f
00000090: d0b2 09be 1c9f 1fbf d7ee fdbe 3855 223f
000000a0: b92c 5abf 708e 583e e5f3 3d3f 3d7a 6bbf
000000b0: 8130 b03e d5be c7bf fc06 833e a3b1 05c0
000000c0: a7a9 3ebe f84f 8fbf fc72 afbd 4faa 2c3f
000000d0: b52e fbbe e462 85be 2cd0 b5bf 665c 033f
000000e0: 2ff2 0b3f c4b0 20bf fe36 313f 0a8f 4ebf
000000f0: 1dd3 e5be 7096 823e 9d40 43bf 4433 733f
00000100: 6428 a9be 4518 f93d e1b8 203d c2f3 0c40
00000110: 63dd 02c0 9cf2 a43e 68e3 99be c4a5 923d
00000120: f376 a7be f186 8d3f f412 88bf 1ba0 5b3f
00000130: 2bca be3f f648 d9bf a146 2140 1e68 0a3f
00000140: f3bc 4cbe e09e 0dbf ad9f 763f 881c 0540
00000150: abfe 58bf 7ad1 abbf fc30 e5be 33c8 4bbf
00000160: 28a6 7f3f ca30 4dbf 8bfe db3e e74d dfbe
00000170: 2846 acbf 97fb 293f 43e6 a8be 4f1e bfbf
00000180: 021b 9f3d 8e86 14be 209a 5ebf 481f 20bf
00000190: 57de bb3f a1ef 9fbf f260 bb3e 5e3b 943f
000001a0: 3a9f 623f ec35 cdbe 748a d9ba 5467 35bf
000001b0: d9fc 3c3e 2299 19bc 30d3 8f3d ad82 9a3f
000001c0: 10c5 84bf ffb9 84bf 0fac 523f c631 ccbe
000001d0: 44d8 2ebf fb33 bbbf c25d bebf 1b10 883e
000001e0: 3799 e63f c54a b03e cb32 023f a87c a93e
000001f0: 93e1 473f b68a e33e 55a8 34bf 4808 72be

network_body._body_endoder.seq_layers.0.bias f4 [128]
0.0078316815 7.740538e-05 -0.0017563689 -0.0047199954 0.001161021 0.0023694835 0.0018598958 -0.0026004156
-0.00017487274 -0.0042321477 0.00280854 -0.0006697699 -0.0006620769 -0.0016807312 0.00046181522 -0.0015439168
0.0015248113 -0.0020068004 -0.0022839352 -0.00084933493 0.0014900282 -0.004264775 -0.0015870064 -0.0033500104
-0.00026693795 -0.00016197242 -0.004134776 -0.00060771237 -0.009982857 -0.0036797943 -0.0007886324 -0.00118917
-0.001731621 0.0022719095 -0.0026169415 -0.004191196 0.0056032715 -0.00011045276 -0.0024279153 -0.0045919274
-0.0010690052 0.0007220782 -0.0026889902 0.0007699838 -0.0022071241 1.6176771e-05 -0.0016720513 3.4104505e-05
0.0021766524 -0.00068993104 0.010483806 -0.001869564 -0.0019157112 -0.0006916155 -0.0016285989 -0.0014102206
0.001118192 -0.0019630766 -0.0026734718 -0.0019669237 0.0004542252 0.0010361283 -0.0017236724 -0.0015015695
-0.00067756313 -0.0030203422 -0.003612002 -0.001327295 -0.002485621 -0.013537025 -0.001491343 -0.0028604965
-0.0024720575 -0.0028582804 -0.0009112773 -1.1585513e-05 -0.0015420925 0.0009032254 -0.0069321166 -0.0013097716
3.902269e-05 -0.002466478 -0.000574179 -0.0046301456 -0.002699565 0.0005316585 -4.9602502e-05 0.0008013253
-0.0024668388 0.00030539036 -0.00041459134 0.0011152669 -0.0015992185 0.0014937274 0.00055021775 -0.0010760282
0.0006705913 0.00022281635 -0.00047756237 -0.002068807 -0.013044507 0.0011437854 -0.00052748335 -0.0019301863
0.00019236428 0.0002956079 0.0015447272 0.0003313208 -0.0015979527 0.0004994394 -0.0054450226 -0.0020339787
-0.0018778994 -0.0013237012 -0.0017551812 0.00034188444 -0.0024166687 0.0027399906 -0.00034139925 0.0009486029
-0.0019358059 -0.0010363171 -0.0027302227 -0.0044352137 -0.0010776245 -0.0027349868 -0.003367119 -0.0015060217
00000000: 7450 003c b254 a238 f635 e6ba 31aa 9abb
00000010: 662d 983a 5649 1b3b bfc7 f33a bc6b 2abb
00000020: 0b5e 37b9 d4ad 8abb 7b0f 383b 7f93 2fba
00000030: 3b8f 2dba fb4b dcba ca1f f239 405d caba
00000040: 2ddc c73a 8684 03bb 13ae 15bb e7a5 5eba
00000050: 0d4d c33a 87bf 8bbb 1903 d0ba d98b 5bbb
00000060: cef3 8bb9 24d7 29b9 047d 87bb e34e 1fba
00000070: 238f 23bc b428 71bb 39bc 4eba eddd 9bba
00000080: 8ff7 e2ba 51e4 143b fe80 2bbb 4d56 89bb
00000090: a69b b73b e0a2 e7b8 a91d 1fbb e177 96bb
000000a0: dd1d 8cba d949 3d3a c539 30bb bdd8 493a
000000b0: 66a5 10bb 5ab3 8737 bb28 dbba 6f0b 0f38
000000c0: 2ba6 0e3b 7ddc 34ba 45c4 2b3c 280c f5ba
000000d0: 9a18 fbba 884d 35ba b676 d5ba 27d7 b8ba
000000e0: 4c90 923a f6a6 00bb 6a35 2fbb 81e7 00bb
000000f0: 1325 ee39 b2ce 873a d9ec e1ba 50d0 c4ba
00000100: 7e9e 31ba eff0 45bb 56b7 6cbb a1f8 adba
00000110: cde5 22bb 66ca 5dbc 2b79 c3ba 2b77 3bbb
00000120: 3e02 22bb fd51 3bbb c9e2 6eba 665f 42b7
00000130: 0a20 caba 6ec6 6c3a cf26 e3bb a4ac abba
00000140: 4bac 2338 a2a4 21bb 8084 16ba 7ab8 97bb
00000150: 2feb 30bb ff5e 0b3a 480c 50b8 0810 523a
00000160: b0aa 21bb cd1c a039 825d d9b9 262e 923a
00000170: de9c d1ba 2dc9 c33a 7d3c 103a 8409 8dba
00000180: 9fca 2f3a cfa3 6939 5661 fab9 d294 07bb
00000190: a1b8 55bc 12eb 953a cf46 0aba 4efe fcba
000001a0: 65b5 4939 d2fb 9a39 7278 ca3a 20b5 ad39
000001b0: 6572 d1ba d0ec 023a 296c b2bb 804c 05bb
000001c0: d923 f6ba 0b80 adba 1c0e e6ba f43e b339
000001d0: f960 1ebb 6a91 333b d5fd b2b9 aaab 783a
000001e0: deba fdba 08d5 87ba 89ed 32bb 4555 91bb
000001f0: 143f 8dba 773d 33bb e2aa 5cbb b465 c5ba

network_body._body_endoder.seq_layers.2.weight f4 [128, 128]
0.051309053 0.011188326 0.18676032 0.04625357 -0.020491559 0.005923318 0.055727504 -0.047176216
0.0072656204 0.12028074 0.06269434 -0.017767316 0.098002456 0.11021765 0.11880985 -0.09903976
-0.06844539 0.17364047 -0.023396958 -0.053707417 -0.030076629 -0.027364952 0.05125953 0.004042617
0.07795086 0.012175626 0.15271334 -0.033129282 0.17095378 0.08135449 -0.048425615 -0.048691448
-0.22054058 0.12985642 0.06803621 0.0405324 -0.10170291 -0.19111624 -0.09167954 0.045997053
0.06216942 0.081483044 0.06674048 0.017765023 -0.062177967 -0.042955972 0.0599255 -0.13231288
0.04937401 -0.0411113 0.12639259 -0.16518688 0.03370871 -0.04849433 0.018608686 -0.16242488
-0.050984517 0.118539095 -0.04155806 -0.106100604 -0.06268172 0.011464981 0.013468688 -0.14923155
-0.10860209 -0.03587511 0.041165743 -0.020226046 0.06038639 0.045817092 -0.06987797 0.07443279
-0.12623514 -0.039899122 0.054771 0.13142377 0.086737245 -0.08743067 0.04760156 -0.015970752
-0.007181863 -0.13590333 -0.07103409 0.054062184 0.042261176 -0.14520042 0.013061937 -0.1045055
-0.12691711 0.042155255 -0.007858949 -0.006653626 0.087261476 0.17453171 -0.06220764 0.060761295
-0.17130738 0.033487428 -0.18130931 0.07906343 0.089290515 0.018874686 -0.08671701 0.093340576
0.2319538 -0.08713621 0.07954656 -0.08353231 0.021789337 0.12702802 0.07885998 -0.0839439
0.026999446 -0.1411278 0.22018982 0.058506917 0.043124378 0.0045263018 -0.16758354 -0.075114645
0.16074686 0.07698213 0.0037632454 0.07811345 -0.10430611 0.07305535 -0.028859263 0.026380228
0.010371488 -0.00035279736 0.025396511 -0.049015783 0.026754398 -0.05516214 0.06712904 0.0031424556
0.053230736 -0.026964372 0.043554775 -0.09802225 0.14861506 -0.038412757 0.003200397 0.030642737
0.08629668 0.11754863 0.00952093 -0.015954792 0.17110738 -0.11258697 -0.055705037 -0.0264201
-0.007415801 -0.05367634 -0.048743885 -0.016175207 0.08778164 -0.0006096848 -0.078029685 -0.055900317
-0.08097301 0.046794016 0.033007573 0.0024450675 -0.08979081 -0.0067211 -0.13199466 -0.03524374
-0.052170515 -0.004047628 -0.124110006 0.022820728 0.06959389 0.009412663 0.17727259 0.12642717
0.051341526 0.053445365 0.11024882 0.19401886 0.054483093 -0.07281365 0.20889264 0.25434884
-0.032496165 -0.1253936 -0.025841938 0.113635674 0.072703816 -0.06991766 0.23495926 0.0070264116
0.06410448 0.0942508 -0.014766869 0.024734156 0.0038404586 -0.0010307278 0.104903646 -0.022069195
-0.0107955225 -0.028121045 0.004281977 0.1652019 -0.060130768 -0.07386493 0.19230106 0.085443
0.13364857 0.021839313 0.10674714 -0.07810124 -0.13585204 0.018704731 0.08620365 -0.11149065
0.12364212 0.09800694 0.023169022 -0.022391714 0.08294438 -0.11066748 0.114625834 -0.04665695
-0.08155547 0.1034165 -0.12579387 -0.17996423 -0.08069368 -0.151512 -0.1418827 0.004960549
-0.023157405 0.026962912 -0.009021595 -0.112093434 0.08564282 0.0662068 0.10032999 0.08930255
-0.0007638993 -0.09087677 0.02602532 -0.032145645 0.010249214 0.14966497 -0.03283993 -0.088482656
-0.06671832 -0.13727678 -0.009884256 0.08324124 -0.017795341 0.1692284 -0.13071306 -0.0714039
00000000: 7129 523d 3e4f 373c 193e 3f3e 6274 3d3d
00000010: eadd a7bc 6518 c23b 8642 643d d93b 41bd
00000020: 7114 ee3b c055 f63d e465 803d c38c 91bc
00000030: 83b5 c83d cbb9 e13d 9452 f33d 5cd5 cabd
00000040: 192d 8cbd cfce 313e faaa bfbc 4ffc 5bbd
00000050: 4363 f6bc 772c e0bc 83f5 513d ee77 843b
00000060: b3a4 9f3d 477c 473c e360 1c3e 92b2 07bd
00000070: 820e 2f3e 2f9d a63d f059 46bd af70 47bd
00000080: 64d5 61be 15f9 043e 9256 8b3d 4d05 263d
00000090: 9e49 d0bd fab3 43be 7cc2 bbbd 6867 3c3d
000000a0: 5da5 7e3d 95e0 a63d 3caf 883d f487 913c
000000b0: 53ae 7ebd 9af2 2fbd 7174 753d 077d 07be
000000c0: 673c 4a3d 5364 28bd 0f6d 013e c026 29be
000000d0: 2512 0a3d fea1 46bd 3e71 983c b552 26be
000000e0: 24d5 50bd a0c4 f23d c938 2abd 464b d9bd
000000f0: 465f 80bd 9ed7 3b3c c6ab 5c3c 28d0 18be
00000100: c66a debd c8f1 12bd 699d 283d 18b1 a5bc
00000110: b857 773d b4aa 3b3d 2e1c 8fbd 3870 983d
00000120: c943 01be 436d 23bd 8e57 603d f493 063e
00000130: 4ca3 b13d da0e b3bd daf9 423d 18d5 82bc
00000140: d555 ebbb 3e2a 0bbe 527a 91bd 4f70 5d3d
00000150: 0e1a 2d3d 6baf 14be bc01 563c fb06 d6bd
00000160: 8ff6 01be fdaa 2c3d d2c2 00bc a906 dabb
00000170: 25b6 b23d 71b8 323e 70cd 7ebd d6e0 783d
00000180: 346b 2fbe 1d2a 093d 26a9 39be 02ec a13d
00000190: f2dd b63d 169f 9a3c b098 b1bd 5829 bf3d
000001a0: 4c85 6d3e 7874 b2bd 4fe9 a23d fd12 abbd
000001b0: 8d7f b23c a213 023e 5781 a13d c8ea abbd
000001c0: f12d dd3c ce83 10be 7179 613e f3a4 6f3d
000001d0: 30a3 303d 5f51 943b 059b 2bbe b5d5 99bd
000001e0: d39a 243e cfa8 9d3d c8a0 763b f2f9 9f3d
000001f0: 719e d5bd 0b9e 953d 436a ecbc 591b d83c
00000200: 2ced 293c a9f7 b8b9 580c d03c c6c4 48bd
00000210: 0a2c db3c b2f1 61bd f37a 893d a8f1 4d3b
00000220: 7908 5a3d 63e4 dcbc 7e66 323d e4bf c8bd
00000230: 8c2e 183e b256 1dbd c0bd 513b 7a06 fb3c
00000240: 50bc b03d 56bd f03d adfd 1b3c a0b3 82bc
00000250: c636 2f3e ff93 e6bd f72a 64bd f76e d8bc
00000260: 3f00 f3bb b9db 5bbd aba7 47bd de81 84bc
00000270: dcc6 b33d 41d3 1fba 07ce 9fbd bbf7 64bd
00000280: 2dd5 a5bd 15ab 3f3d f332 073d 6d3d 203b
00000290: 3fe4 b7bd ac3c dcbb 9c29 07be bd5b 10bd
000002a0: c0b0 55bd f7a1 84bb 632d febd 89f2 ba3c
000002b0: 3e87 8e3d 9237 1a3c f286 353e 2076 013e
000002c0: 7e4b 523d 87e9 5a3d 22ca e13d e1ac 463e
000002d0: aa29 5f3d 531f 95bd f4e7 553e 033a 823e
000002e0: b31a 05bd 2e67 00be 79b2 d3bc d2b9 e83d
000002f0: bde5 943d fd30 8fbd 2999 703e d03d e63b
00000300: 3649 833d 9006 c13d bdf0 71bc 499f ca3c
00000310: 34b0 7b3b 7c19 87ba b9d7 d63d 75ca b4bc
00000320: b4df 30bc 1b5e e6bc d44f 8c3b b02a 293e
00000330: ae4b 76bd 7f46 97bd 92ea 443e bdfc ae3d
00000340: 2cdb 083e 5ce8 b23c 3f9e da3d 8bf3 9fbd
00000350: cc1c 0bbe aa3a 993c 8a8b b03d 3655 e4bd
00000360: 1438 fd3d ddb7 c83d f6cc bd3c d46e b7bc
00000370: bede a93d a2a5 e2bd f3c0 ea3d 5c1b 3fbd
00000380: 8e06 a7bd 08cc d33d 1cd0 00be 8b48 38be
00000390: ba42 a5bd f625 1bbe b349 11be 1a8c a23b
000003a0: 99b4 bdbc 53e1 dc3c 50cf 13bc 3e91 e5bd
000003b0: 8165 af3d 6e97 873d cf79 cd3d 41e4 b63d
000003c0: 6a40 48ba 9a1d babd 0d33 d53c 27ab 03bd
000003d0: 52ec 273c c641 193e 2a83 06bd 6536 b5bd
000003e0: 9da3 88bd 4992 0cbe 93f1 21bc 627a aa3d
000003f0: 89c7 91bc 364a 2d3e a5d9 05be 353c 92bd

network_body._body_endoder.seq_layers.2.bias f4 [128]
0.00032139872 -0.0014642882 -0.00286127 0.00057242176 -0.0018923612 -0.0009428685 0.0006273322 -0.0012357897
-0.0022045954 0.00023815593 -0.0027922695 -0.00093780947 -0.0016228434 -0.0021813253 -0.0014178257 0.00077267765
-0.0017723386 -0.0030899048 -0.00046853238 0.0005000281 -0.0015612354 -0.0021720377 -0.00072925584 -0.0031099005
-0.0013251621 -0.0012869652 -0.002188681 -0.0027605274 -0.001780565 -0.0024216752 0.00020534213 -0.0016556383
-0.00089596305 -0.0022727787 0.00025658056 0.0008660227 -0.00011189125 -0.0024793895 -0.002275561 -0.0014943688
-0.0019902652 -0.0013489571 0.0004838876 -0.0009700031 -0.0010914309 0.0022137896 5.426659e-05 -0.002911743
-0.0028494415 -0.00090217195 -0.0009658607 -0.0037711333 -0.005027677 -0.0019673847 -0.002661902 -0.0021208376
-0.0014198679 -0.0015571039 -0.0003982309 0.00089433877 9.888445e-05 -0.0014151298 -0.0024715003 -0.0014698338
-0.00042737686 -0.0021205198 -0.0016856312 0.0007608572 0.0028977476 -0.00027821783 0.00028257252 -0.0023181972
-0.002499319 -0.0007319376 -0.0018783179 -0.00066401856 0.00010615443 -0.0039756936 -0.0022595958 -0.0017694352
8.5534826e-05 -0.0019215053 -0.003357662 -0.0014982272 0.00015946182 -0.0003446446 0.0024710963 -0.0023031067
-0.0014091075 0.00019079009 -0.0028747537 0.00038753537 0.000258127 0.0029047164 -0.00085496524 -0.0018555232
-0.0024239847 -0.00045362115 -0.0013996516 -0.0027737082 -0.001023379 0.0017507258 -0.0015231564 -0.00023575193
-0.0007899231 -0.0031934606 -0.0019917493 8.881439e-05 0.001740518 -0.0021471945 -0.0013107234 -0.0068262494
0.00030302771 -0.00045640013 -0.0026544065 -0.0010844233 -0.0026385959 -0.0016583044 -0.0025432557 -0.00019799185
-0.0015209431 -0.0015841876 -0.001584648 -0.0002085934 -0.0011361656 -0.00061477773 0.00016686809 0.00011705382
00000000: 6881 a839 5ced bfba 2584 3bbb 930e 163a
00000010: 1b09 f8ba d52a 77ba 8d73 243a 39fa a1ba
00000020: f97a 10bb 7fb9 7939 82fe 36bb 54d7 75ba
00000030: 97b5 d4ba 91f4 0ebb 56d6 b9ba 858d 4a3a
00000040: d14d e8ba 0080 4abb 5aa5 f5b9 5114 033a
00000050: 5ea2 ccba bf58 0ebb 882b 3fba 79cf 4bbb
00000060: 10b1 adba 63af a8ba f96f 0fbb f7e9 34bb
00000070: d961 e9ba f8b4 1ebb 1c51 5739 0102 d9ba
00000080: 10df 6aba e6f2 14bb a985 8639 cd05 633a
00000090: 28a7 eab8 417d 22bb 9421 15bb b2de c3ba
000000a0: 1c6f 02bb 7dcf b0ba 4bb2 fd39 ce47 7eba
000000b0: 580e 8fba 3a15 113b 4f9c 6338 f1d2 3ebb
000000c0: b2bd 3abb bc7f 6cba d031 7dba 1e25 77bb
000000d0: 36bf a4bb 3def 00bb 4e73 2ebb c0fd 0abb
000000e0: dc1a baba bd17 ccba a6c9 d0b9 0f72 6a3a
000000f0: 2f60 cf38 e07b b9ba e5f8 21bb 70a7 c0ba
00000100: 8d11 e0b9 6bf8 0abb 66f0 dcba 4374 473a
00000110: 23e8 3d3b c4dd 91b9 3e26 9439 e5ec 17bb
00000120: 9dcb 23bb 80df 3fba e431 f6ba 8811 2eba
00000130: 3a9f de38 8946 82bb ba15 14bb 65ec e7ba
00000140: 2961 b338 05db fbba 380c 5cbb 2a60 c4ba
00000150: 3535 2739 6ab1 b4b9 1ef2 213b b8ef 16bb
00000160: cdb1 b8ba d30e 4839 5d66 3cbb 1e2e cb39
00000170: 3855 8739 0e5d 3e3b bf1f 60ba 0735 f3ba
00000180: b7db 1ebb 00d4 edb9 8474 b7ba 1ac7 35bb
00000190: e722 86ba 9c78 e53a a6a4 c7ba 2d34 77b9
000001a0: d812 4fba 6149 51bb 0288 02bb dd41 ba38
000001b0: 1822 e43a f2b7 0cbb 94cc abba bbae dfbb
000001c0: b1df 9e39 fd48 efb9 8df5 2dbb 3523 8eba
000001d0: 4bec 2cbb 765b d9ba c0ac 26bb 089c 4fb9
000001e0: 625a c7ba 84a4 cfba f7b3 cfba ddb9 5ab9
000001f0: 64eb 94ba 0929 21ba 50f9 2e39 cb7a f538

action_model._continuous_distribution.log_sigma f4 [1, 2]
-0.04439629 -0.052370623
00000000: e2d8 35bd 9482 56bd

action_model._continuous_distribution.mu.weight f4 [2, 128]
0.010125272 -0.02255251 0.006779066 0.01769471 -0.008582499 0.0041135484 0.023770606 0.0071355524
-0.01896353 0.018557027 0.016870592 -0.00038993094 -0.02973794 -0.016288688 -0.030965736 0.025546301
0.0008291108 0.00923379 0.0040012808 -0.021011468 -0.036445383 -0.008436417 -0.016895916 0.00781911
0.005043138 -0.0046231137 -0.011049266 0.011542554 0.0034352178 0.01715671 0.010987452 -0.027083842
0.0069440734 -0.04044585 0.016821655 0.012872605 0.01166884 0.019698756 -0.009990793 -0.0032873226
-0.015866231 -3.21577e-05 0.013328834 -0.0010329918 -0.013126526 -0.0067085344 -0.017884688 0.00049161015
-0.020081198 -0.0152983 0.0072358795 0.0032853873 -0.0003826936 0.001500095 -0.0029111772 -0.0065456834
0.004095579 -0.024617344 0.007387018 -0.003622657 -0.0032124144 -9.009743e-06 -0.013772358 -0.00071716896
0.0014772519 -0.01780944 0.004101361 -0.012614839 -0.024335597 0.012683343 0.016225358 -0.035244163
0.034361377 -0.018818371 -0.018554531 0.010792282 0.0068659764 1.5081716e-05 -0.008626432 -0.021335062
-5.2857195e-05 -0.004901825 0.006449751 -0.005106752 -0.035190076 0.0189671 -0.015591634 0.0071492516
-0.00351149 0.01576351 0.0037009758 0.019309327 0.0134983165 0.00083374185 0.008976366 -0.0002999378
0.0015541245 0.021303905 0.0015143014 -0.023019193 -0.009616199 0.0007018898 -0.008610497 0.010501119
0.0060848785 -0.005006821 -0.0047812536 0.013916537 -0.012231607 0.007933414 -0.006875112 -4.1859206e-05
0.011188233 -0.020423938 0.0027518973 0.010771607 0.0018778772 -0.0020903219 0.021673543 0.0061155166
0.011752126 -0.03169071 1.923807e-06 0.016368369 -0.010399942 0.0064277854 0.015187338 -0.016780216
-0.027285576 -0.020949086 0.010364261 -0.01218361 0.017809018 0.00037119444 0.0006698143 0.04750957
-0.038351346 0.013772371 0.006529683 -0.0046256185 -0.005757249 0.0024421983 -0.021239843 -0.005687252
-0.042982243 -0.004419758 0.0016356756 -0.0069722165 0.008979765 0.008716284 0.015681045 -0.002311149
-0.0004700287 0.02537831 0.0096895 0.0074689575 0.007971641 0.031582315 -0.012256818 -0.005976914
-0.0045828964 -0.008199013 -0.004384538 0.029379744 0.010330149 0.002888885 -0.00267143 0.002369952
-0.002518335 -2.4932877e-05 -0.020875296 -0.02885086 -0.005865977 -0.013594827 0.013927095 -0.016502038
-0.005163782 0.009586628 -0.016542822 0.0040901056 0.002287868 -0.0065185763 -0.0085884 0.0005583986
0.020438643 -0.012873129 0.020728875 0.023186263 -0.014119451 8.747197e-07 0.0022908126 0.023522587
-0.001158849 0.005305147 0.020717561 0.0073980438 0.016444808 0.012517825 -0.0060061314 -0.01772397
0.014912088 0.01768811 0.013271527 -0.001062676 -0.020028697 -8.631776e-05 0.017161937 0.01699316
-6.415855e-05 -0.010431214 -0.0056974315 -0.004307166 -0.0047799423 0.0039189965 0.025976975 0.021479215
0.027987614 0.0134208 -0.011930354 0.012872135 -0.03737261 0.00032806472 0.0079154605 0.018198663
-0.042948805 -0.0045729177 -0.009864435 -0.016687682 -0.03152226 -0.0022833792 -0.02169556 0.01047075
0.006974034 0.0010137443 0.017392205 -0.009703044 0.0026892324 0.0072419876 -0.0051884693 0.0021512788
-0.0137180425 0.021084195 0.0074939444 0.024760207 0.0024063003 0.0073692477 0.0038947521 -0.012428197
-0.030267343 0.024634887 2.5598232e-05 -0.004745255 -0.0022686825 0.013335398 0.016018592 -0.0009204601
00000000: 78e4 253c 0bc0 b8bc ed22 de3b 7ff4 903c
00000010: 9c9d 0cbc f2ca 863b 93ba c23c 5ad1 e93b
00000020: 6859 9bbc e804 983c 3234 8a3c a56f ccb9
00000030: fb9c f3bc db6f 85bc dbab fdbc 7a46 d13c
00000040: af58 593a 5349 173c 2d1d 833b 3e20 acbc
00000050: c147 15bd e638 0abc 4e69 8abc b91b 003c
00000060: e840 a53b 7d7d 97bb fb07 35bc fb1c 3d3c
00000070: 6421 613b 3b8c 8c3c b704 343c efde ddbc
00000080: 1c8b e33b 8caa 25bd 91cd 893c 9ee7 523c
00000090: aa2e 3f3c 495f a13c 6cb0 23bc 1f70 57bb
000000a0: e6f9 81bc 11e1 06b8 2f61 5a3c 7465 87ba
000000b0: a410 57bc 44d3 dbbb e982 92bc 66df 003a
000000c0: 5381 a4bc b9a5 7abc f51a ed3b a74f 573b
000000d0: 44a4 c8b9 d69e c43a 73c9 3ebb 2c7d d6bb
000000e0: 3534 863b 50aa c9bc cc0e f23b 196a 6dbb
000000f0: 5f87 52bb 8d28 17b7 75a5 61bc 6500 3cba
00000100: 59a0 c13a 1ae5 91bc b664 863b 78ae 4ebc
00000110: 725b c7bc cccd 4f3c 0beb 843c 2f5c 10bd
00000120: 84be 0c3d fc28 9abc acff 97bc 1dd2 303c
00000130: fcfb e03b 7a07 7d37 e155 0dbc dec6 aebc
00000140: fbb2 5db8 7d9f a0bb 6f58 d33b 8a56 a7bb
00000150: 7823 10bd e460 9b3c 0e74 7fbc 4544 ea3b
00000160: 0721 66bb 7a22 813c 128c 723b 982e 9e3c
00000170: 0b28 5d3c 788f 5a3a 9c11 133c f840 9db9
00000180: c4b3 cb3a 8785 ae3c 867b c63a bf92 bcbc
00000190: 438d 1dbc 07ff 373a 0b13 0dbc e30c 2c3c
000001a0: a963 c73b 4210 a4bb 10ac 9cbb 3002 643c
000001b0: 1467 48bc 26fb 013c 9f48 e1bb fb91 2fb8
000001c0: da4e 373c 1a50 a7bc 2d59 343b 657b 303c
000001d0: 1a23 f63a c8fd 08bb b78c b13c ac64 c83b
000001e0: fd8b 403c 1ece 01bd c11a 0136 f516 863c
000001f0: 8564 2abc 2ca0 d23b 50d4 783c aa76 89bc
00000200: 0086 dfbc 6b9d abbc ddce 293c c49d 47bc
00000210: 38e4 913c e09c c239 7a96 2f3a 6599 423d
00000220: 4d16 1dbd 83a5 613c f3f6 d53b 8092 97bb
00000230: 4ea7 bcbb 4a0d 203b 2eff adbc 215c babb
00000240: 260e 30bd 9ed3 90bb 2a64 d63a 3177 e4bb
00000250: dd1f 133c bfce 0e3c 8975 803c a576 17bb
00000260: 2f6e f6b9 2ce6 cf3c b5c0 1e3c 28be f43b
00000270: 7c9b 023c 755c 013d d2d0 48bc fdd9 c3bb
00000280: 1f2c 96bb 2755 06bc 2cac 8fbb caad f03c
00000290: c93f 293c 7353 3d3b 2813 2fbb 3251 1b3b
000002a0: a60a 25bb f226 d1b7 ab02 abbc a458 ecbc
000002b0: 6237 c0bb d6bc 5ebc 782e 643c 482f 87bc
000002c0: f134 a9bb 3b11 1d3c d084 87bc 4b06 863b
000002d0: 0ef0 153b c899 d5bb 5cb6 0cbc 7f61 123a
000002e0: f16e a73c d1e9 52bc 9acf a93c 1ef1 bd3c
000002f0: 4555 67bc 48ce 6a35 7521 163b 71b2 c03c
00000300: 85e4 97ba ccd6 ad3b e0b7 a93c 4a6b f23b
00000310: 43b7 863c 9017 4d3c 15cf c4bb dc31 91bc
00000320: d551 743c a8e6 903c d270 593c 7d49 8bba
00000330: 3913 a4bc 7f05 b5b8 3197 8c3c 3d35 8b3c
00000340: dc8c 86b8 afe7 2abc 85b1 babb 2123 8dbb
00000350: 10a1 9cbb ed6a 803b aacd d43c 2ef5 af3c
00000360: 4846 e53c eae2 5b3c 8877 43bc a6e5 523c
00000370: 0614 19bd 1a00 ac39 d9af 013c 5d15 953c
00000380: 16eb 2fbd 6ad8 95bb 709e 21bc 9bb4 88bc
00000390: 7c1d 01bd bfa4 15bb e3ba b1bc 828d 2b3c
000003a0: 7086 e43b 9ddf 843a 197a 8e3c 84f9 1ebc
000003b0: d53d 303b 324e ed3b 0904 aabb 78fc 0c3b
000003c0: a4c1 60bc c3b8 ac3c c38f f53b ebd5 ca3c
000003d0: 05b3 1d3b bb79 f13b 193f 7f3b a39f 4bbc
000003e0: 38f3 f7bc 1acf c93c c9bb d637 167e 9bbb
000003f0: 2dae 14bb b77c 5a3c 6c39 833c 084b 71ba

action_model._continuous_distribution.mu.bias f4 [2]
0.0012308382 -0.00056680397
00000000: 1454 a13a 9295 14ba

action_model._discrete_distribution.branches.0.weight f4 [1, 128]
-0.0008325024 -0.0014929118 0.0039389147 -0.004982594 0.0022476383 -0.014163404 -0.0037793275 0.010125832
0.0077916207 -0.011235535 -0.005200686 -0.008369225 -0.005947415 0.0070805135 0.009487818 0.0046601654
0.009360942 0.014749825 -0.0072309314 -0.00024194321 0.009203832 -0.010320443 -0.001581366 0.00292386
-0.0077303657 0.014605017 0.00016647103 -0.008191495 0.010045043 0.0070418045 -0.0017906892 0.005951767
-0.0051558884 0.011089294 0.016831296 0.0040499447 -0.010028294 -0.011000807 0.012532313 -0.0032930195
0.008329148 0.0065679126 0.010118291 -0.005822697 -0.00705512 0.0073783607 -0.0035734442 -0.007839619
-0.006481455 0.0043604965 0.0070588994 0.016708974 0.004882397 0.0051533473 -0.013000681 0.006783855
0.0027535965 0.0022968638 0.008863329 0.0050397995 -0.0032113295 0.009922887 0.016490694 0.004433025
0.0026652468 -0.00059250946 -0.0022927136 0.024991423 0.008594139 0.015988518 0.004683619 0.00080280844
0.0034622294 0.007064802 -0.012510501 0.004051635 0.006658816 -0.008227873 0.003845157 0.0058621694
-0.0049152663 0.010739434 -0.009112674 0.0050057564 -0.00473975 -0.009978882 -0.00113091 -0.0028178112
-0.016423598 0.0020228084 -0.00031710626 0.010864817 0.0036370778 -0.009227726 0.014859609 0.0146556785
0.016814647 0.00029019878 -0.0012437816 0.013455759 -0.003674661 -0.010684526 0.0016246693 -0.012718448
0.0015707376 -0.0012257065 -0.008531318 0.0070481524 0.0028960917 0.0019462191 0.009616061 -0.003099025
0.012573994 0.018448833 0.0027264804 -0.0039002236 0.0067972927 -0.0015949944 0.0014261453 -0.0028497283
0.018048152 0.0013930197 -0.012425524 0.0028185702 -0.0061415434 0.0025081132 -0.0084065115 -0.0017104596
00000000: 4a3c 5aba cfad c3ba 0312 813b 0745 a3bb
00000010: 1d4d 133b 9f0d 68bc 98ae 77bb d1e6 253c
00000020: da50 ff3b 4015 38bc 846a aabb 131f 09bc
00000030: 88e2 c2bb a703 e83b cb72 1b3c 4db4 983b
00000040: a35e 193c 40a9 713c 73f1 ecbb 23b2 7db9
00000050: abcb 163c 1317 29bc d745 cfba 3b9e 3f3b
00000060: 024f fdbb e249 6f3c ba8e 2e39 9f35 06bc
00000070: f793 243c f0be e63b 8fb5 eaba 0a07 c33b
00000080: baf2 a8bb dfaf 353c c9e1 893c 66b5 843b
00000090: b74d 24bc bb3c 34bc 5554 4d3c b3cf 57bb
000000a0: fb76 083c a537 d73b 30c7 253c 53cc bebb
000000b0: a32e e7bb 2dc6 f13b 7230 6abb bf71 00bc
000000c0: 6362 d4bb 7fe2 8e3b 574e e73b 42e1 883c
000000d0: 84fc 9f3b 69dd a83b cf00 55bc 1a4b de3b
000000e0: af75 343b fb86 163b 7f37 113c e724 a53b
000000f0: 2b75 52bb 9b93 223c 7e17 873c e942 913b
00000100: 6cab 2e3b a352 1bba 5a41 16bb d0ba cc3c
00000110: 6ece 0c3c 5afa 823c 0b79 993b 9073 523a
00000120: 92e6 623b db7f e73b d8f8 4cbc 94c3 843b
00000130: 3232 da3b 33ce 06bc 08ff 7b3b 7117 c03b
00000140: 3e10 a1bb 73f4 2f3c 534d 15bc 5407 a43b
00000150: e84f 9bbb 777e 23bc 0b3b 94ba 07ab 38bb
00000160: c88a 86bc 1891 043b 4841 a6b9 5802 323c
00000170: 0a5c 6e3b e32f 17bc b875 733c 5f1e 703c
00000180: dfbe 893c d225 9839 6306 a3ba 8b75 5c3c
00000190: 95d2 70bb 260e 2fbc dbf2 d43a 0a61 50bc
000001a0: 35e1 cd3a e3a7 a0ba f1c6 0bbc 30f4 e63b
000001b0: 5bcc 3d3b 4718 ff3a af8c 1d3c 0319 4bbb
000001c0: 2703 4e3c 0222 973c c0ae 323b e59a 7fbb
000001d0: d3bb de3b 220f d1ba 7fed ba3a 82c2 3abb
000001e0: b8d9 933c fc95 b63a 6d94 4bbc c3b7 383b
000001f0: 003f c9bb 285f 243b 77bb 09bc 8031 e0ba

exp_avg f4 [128, 1]
-2.013218e-07 -0.00010228482 0.00028668455 0.00014982544 1.4287971e-06 -5.24274e-06 -0.0002732364 4.8399004e-05
-1.1289801e-05 0.000110654095 7.6113245e-08 -3.6534366e-06 -0.00026824267 5.814168e-05 -7.945942e-06 1.1919657e-07
-7.820195e-06 4.882079e-07 0.00035447805 -1.2430453e-06 -4.3688e-05 0.00017358547 9.627105e-06 8.364192e-06
5.0275987e-05 2.5128243e-06 0.00014147986 4.7279682e-05 1.1561896e-05 -0.00015550315 -1.0711246e-05 0.00015111045
0.00013639429 -1.1042953e-05 -4.151759e-05 8.153957e-06 1.7112823e-05 -1.8040639e-05 5.1062593e-06 -5.057645e-05
1.5935791e-05 -5.1145227e-05 9.421484e-05 5.4036474e-07 0.00020804814 -4.1437175e-07 0.00015637203 -4.7698585e-08
-1.3334236e-05 2.731894e-06 1.05211775e-05 0.0002253221 6.0729974e-07 2.8051696e-07 -9.3558543e-07 0.00031826584
-0.00015650777 -7.90194e-06 9.535386e-05 2.829807e-06 -1.4978202e-05 0.0001663312 2.2485028e-05 7.416805e-05
-2.8644124e-06 8.213966e-05 -2.8688924e-05 -1.5710966e-05 4.1267583e-08 7.5951025e-06 1.2609523e-05 -4.058851e-06
-5.250208e-06 2.4502559e-05 -1.2835183e-06 -0.0004351359 0.00018311052 -5.3666554e-07 7.383167e-05 4.716553e-05
-9.512864e-06 2.466172e-05 -0.00017014708 -1.7353424e-06 2.3173482e-06 -2.6402554e-06 -6.315804e-06 -2.650718e-06
0.0001902899 -4.4783133e-06 -6.897964e-05 -1.24893695e-05 1.1718531e-06 -0.00037876944 -7.4346594e-06 1.9453535e-07
0.00019788348 1.946685e-05 -1.2831892e-05 -3.2996431e-06 3.4804668e-06 -1.5681962e-06 -0.00017784629 -7.918271e-05
-0.00019023681 -1.5559648e-05 6.103342e-06 -5.6442314e-06 -7.520431e-05 -8.7586544e-05 3.8472393e-05 -3.7763893e-05
1.1081698e-05 1.8111965e-06 -4.3922384e-05 1.0137147e-05 1.7147197e-05 -2.3743341e-07 3.6676812e-07 -0.00015312685
-0.00016804115 -5.4573313e-05 2.026635e-05 5.9087928e-05 -8.8346926e-05 0.0002378173 2.6291008e-07 -4.72101e-08
00000000: ea2a 58b4 bf81 d6b8 264e 9639 761a 1d39
00000010: 18c5 bf35 cbea afb6 2b41 8fb9 0900 4b38
00000020: 5369 3db7 f70e e838 b373 a333 902d 75b6
00000030: eca2 8cb9 27dd 7338 904f 05b7 02f9 ff33
00000040: 7b33 03b7 640d 0335 3dd9 b939 b6d6 a6b5
00000050: a23d 37b8 7f04 3639 1a84 2137 ee53 0c37
00000060: 6edf 5238 fea1 2836 365a 1439 2c4e 4638
00000070: f7f9 4137 8f0e 23b9 74b4 33b7 6773 1e39
00000080: 1005 0f39 1f45 39b7 2c23 2eb8 fbcc 0837
00000090: 828d 8f37 fa55 97b7 6f56 ab36 0d22 54b8
000000a0: daad 8537 c584 56b8 3595 c538 950d 1135
000000b0: 7f27 5a39 d276 deb4 ccf7 2339 26dd 4cb3
000000c0: 1cb6 5fb7 9555 3736 1d84 3037 7144 6c39
000000d0: 5205 2335 f599 9634 f124 7bb5 ebdc a639
000000e0: 3c1c 24b9 9392 04b7 b7f8 c738 b7e7 3d36
000000f0: e34a 7bb7 3169 2e39 3b9e bc37 ab8a 9b38
00000100: 3b3a 40b6 6542 ac38 ffa8 f0b7 0bcb 83b7
00000110: 303e 3133 6fd9 fe36 7d8d 5337 4431 88b6
00000120: f12a b0b6 d88a cd37 5a45 acb5 f422 e4b9
00000130: 5b01 4039 600f 10b5 13d6 9a38 9ad3 4538
00000140: 7199 1fb7 a4e0 ce37 8269 32b9 e9e9 e8b5
00000150: bd83 1b36 3e2f 31b6 58ec d3b6 fde2 31b6
00000160: 8e88 4739 6b44 96b6 2aa9 90b8 6f89 51b7
00000170: 9148 9d35 9395 c6b9 3d77 f9b6 78e1 5034
00000180: f17e 4f39 be4c a337 8e48 57b7 706f 5db6
00000190: f791 6936 d07a d2b5 407c 3ab9 e50e a6b8
000001a0: 4e7a 47b9 1786 82b7 4fcb cc36 9463 bdb6
000001b0: 02b7 9db8 abae b7b8 6b5d 2138 ac64 1eb8
000001c0: 88eb 3937 3d18 f335 4d39 38b8 b712 2a37
000001d0: 53d7 8f37 33f1 7eb4 3ae8 c434 ad90 20b9
000001e0: 3434 30b9 a6e5 64b8 a801 aa37 2ed5 7738
000001f0: e546 b9b8 985e 7939 1626 8d34 0ec4 4ab3

exp_avg_sq f4 [128, 1]
3.299584e-11 1.1729618e-06 5.853707e-06 2.996748e-07 4.1080885e-09 6.4433603e-10 9.0152145e-07 1.6378968e-07
8.5553745e-07 2.2875325e-07 8.16885e-13 3.1449504e-10 1.6724669e-06 9.963401e-07 5.3911915e-09 2.32678e-12
1.2749642e-09 3.4215956e-11 1.869538e-06 2.7780707e-11 2.0235781e-07 7.439578e-07 1.6045103e-09 1.3398637e-09
4.404002e-08 6.236422e-08 3.6917743e-07 3.539173e-07 2.0388802e-08 3.4732767e-07 2.7268225e-09 1.2835226e-06
1.9274235e-07 1.3932941e-09 2.9678384e-07 5.2241592e-08 5.6382286e-09 4.536916e-09 2.1640782e-09 3.4481195e-07
4.9584017e-09 5.889364e-08 2.5913184e-07 3.4612216e-10 6.7578327e-07 2.1167011e-12 1.9919878e-06 2.951744e-14
4.732865e-09 1.5208919e-10 3.8492804e-09 5.2468636e-07 1.2807088e-08 1.290485e-11 2.243393e-11 1.3121314e-06
7.3471404e-07 2.3176994e-09 8.9573376e-08 2.2485696e-09 1.2082213e-08 2.860122e-06 8.153191e-09 7.2246803e-07
1.7631244e-09 8.012743e-08 4.267556e-08 3.775395e-07 3.811865e-14 1.5080294e-08 2.0558915e-09 2.8751484e-07
1.389159e-09 1.1387199e-06 1.0549836e-10 3.0194665e-06 1.1761423e-06 5.2677463e-12 1.426792e-07 1.7978468e-07
4.983982e-09 7.502783e-09 1.3712062e-06 6.2335283e-07 1.15816766e-10 8.878687e-11 8.53215e-10 4.2630752e-09
8.3780435e-07 1.8852628e-09 1.17691464e-07 1.0889673e-08 2.6834354e-11 5.3385766e-06 5.440119e-09 3.3465422e-12
1.0396647e-06 8.666905e-09 3.3499632e-09 5.6887215e-09 2.1002663e-08 2.9958338e-11 9.3082065e-07 1.1010974e-07
5.1371535e-07 4.634129e-09 1.1325594e-08 1.7770524e-09 2.2378718e-07 1.4071354e-07 7.947273e-08 4.90722e-07
1.5890161e-09 3.3994685e-10 1.1990332e-06 1.3293162e-09 3.725519e-09 9.862711e-13 7.3306465e-12 2.7887177e-07
5.968352e-07 2.3805985e-07 2.4998403e-07 1.9421833e-07 5.0095235e-07 9.456126e-07 9.787924e-10 2.273785e-10
00000000: 031e 112e a96e 9d35 f66a c436 fee2 a034
00000010: 2127 8d31 1e1d 3130 1500 7235 2ade 2f34
00000020: 16a8 6535 379f 7534 c5ee 652b 3ee5 ac2f
00000030: 8679 e035 fcb9 8535 6c3d b931 8bbb 232c
00000040: d13a af30 be7b 162e d6ec fa35 975c f42d
00000050: b147 5934 64b4 4735 b085 dc30 4326 b830
00000060: 8426 3d33 18ed 8533 5c33 c634 0602 be34
00000070: 7323 af32 5a78 ba34 c562 3b31 8045 ac35
00000080: 9df4 4e34 2e7e bf30 a955 9f34 3d60 6033
00000090: 62ba c131 23e3 9b31 deb6 1431 981e b934
000000a0: 905e aa31 3ef2 7c33 cf1e 8b34 5d48 be2f
000000b0: 7967 3535 19f3 142c 17ae 0536 4bef 0429
000000c0: b99e a231 4d39 272f a142 8431 2cd8 0c35
000000d0: 2b06 5c32 4706 632d b854 c52d 7e1c b035
000000e0: 2a39 4535 6645 1f31 7c5b c033 4185 1a31
000000f0: 2292 4f32 86f0 3f36 1d12 0c32 a0ef 4135
00000100: 6d52 f230 8512 ac33 464a 3733 a2b0 ca34
00000110: d0ab 2b29 eb89 8132 a047 0d31 bd5b 9a34
00000120: b0ec be30 1ed6 9835 4cfe e72e 0aa2 4a36
00000130: f1db 9d35 a457 b92c 5c33 1934 d60a 4134
00000140: 923f ab31 97e5 0032 490a b835 7b54 2735
00000150: 0baf fe2e 903e c32e ab87 6a30 687a 9231
00000160: 7ae5 6035 e58d 0131 91bd fc33 4a15 3b32
00000170: 9809 ec2d 0622 b336 cbeb ba31 f27d 6b2c
00000180: 9b8a 8b35 74e5 1432 2d35 6631 8676 c331
00000190: 5869 b432 17c2 032e 82dd 7935 7875 ec33
000001a0: 40e6 0935 3b3a 9f31 7d92 4232 793c f430
000001b0: 274a 7034 0b17 1734 98aa aa33 29ba 0335
000001c0: 8964 da30 44e3 ba2f 78ee a035 28b3 b630
000001d0: 0302 8031 29ce 8a2b 4cf6 002d d8b7 9534
000001e0: 3436 2035 659d 7f34 8b35 8634 548a 5034
000001f0: 2f79 0635 01d6 7d35 3286 8630 5c01 7a2f

exp_avg f4 [128]
-4.0264364e-08 -2.0456971e-05 5.733691e-05 2.996509e-05 2.8576005e-07 -1.048548e-06 -5.4647262e-05 9.679801e-06
-2.2579604e-06 2.213082e-05 1.5222652e-08 -7.306873e-07 -5.3648553e-05 1.1628323e-05 -1.5891885e-06 2.3839311e-08
-1.5640388e-06 9.764161e-08 7.0895614e-05 -2.4860907e-07 -8.737605e-06 3.471712e-05 1.9254207e-06 1.6728379e-06
1.0055199e-05 5.0256403e-07 2.829597e-05 9.455937e-06 2.3123787e-06 -3.1100626e-05 -2.14225e-06 3.022211e-05
2.7278857e-05 -2.2085906e-06 -8.303524e-06 1.6307914e-06 3.4225648e-06 -3.608128e-06 1.021252e-06 -1.011529e-05
3.1871587e-06 -1.0229046e-05 1.8842968e-05 1.0807281e-07 4.1609634e-05 -8.287436e-08 3.1274398e-05 -9.539717e-09
-2.6668476e-06 5.463787e-07 2.1042354e-06 4.506443e-05 1.214594e-07 5.61034e-08 -1.8711714e-07 6.365318e-05
-3.1301566e-05 -1.5803877e-06 1.9070767e-05 5.659613e-07 -2.9956395e-06 3.3266253e-05 4.4970043e-06 1.4833604e-05
-5.728826e-07 1.6427932e-05 -5.7377833e-06 -3.1421962e-06 8.253519e-09 1.5190209e-06 2.521905e-06 -8.117757e-07
-1.0500413e-06 4.90051e-06 -2.5670357e-07 -8.702721e-05 3.6622107e-05 -1.0733311e-07 1.47663295e-05 9.433101e-06
-1.9025714e-06 4.9323444e-06 -3.4029417e-05 -3.4707253e-07 4.634697e-07 -5.280511e-07 -1.2631608e-06 -5.301441e-07
3.8057984e-05 -8.956628e-07 -1.379593e-05 -2.497874e-06 2.3437065e-07 -7.575388e-05 -1.4869315e-06 3.890705e-08
3.9576695e-05 3.89337e-06 -2.566378e-06 -6.599285e-07 6.9609035e-07 -3.1363916e-07 -3.556925e-05 -1.5836544e-05
-3.804735e-05 -3.111929e-06 1.2206688e-06 -1.1288458e-06 -1.50408605e-05 -1.7517305e-05 7.694481e-06 -7.55278e-06
2.2163397e-06 3.6223926e-07 -8.7844855e-06 2.02743e-06 3.429438e-06 -4.748668e-08 7.335358e-08 -3.0625375e-05
-3.360823e-05 -1.0914661e-05 4.0532723e-06 1.1817589e-05 -1.7669388e-05 4.756344e-05 5.258214e-08 -9.442031e-09
00000000: 23ef 2cb3 039b abb7 0a7d 7038 8a5d fb37
00000010: 906a 9934 d6bb 8cb5 0d35 65b8 6e66 2237
00000020: 7787 17b6 93a5 b937 f7c2 8232 7324 44b5
00000030: b204 61b8 4417 4337 1a4c d5b5 33c7 cc32
00000040: f7eb d1b5 0baf d133 cbad 9438 9278 85b4
00000050: ba97 12b7 399d 1138 7a36 0136 4686 e035
00000060: c0b2 2837 f0e7 0635 225d ed37 f1a4 1e37
00000070: 5d2e 1b36 0b72 02b8 93c3 0fb6 7d85 fd37
00000080: e6d4 e437 4c37 14b6 5d4f 0bb7 91e1 da35
00000090: 37af 6536 2b23 72b6 f411 8935 d7b4 29b7
000000a0: f8e2 5536 6b9d 2bb7 f710 9e37 a815 e833
000000b0: 0186 2e38 a9f8 b1b3 a12c 0338 1ee4 23b2
000000c0: 18f8 32b6 dcaa 1235 7d36 0d36 9003 3d38
000000d0: 816a 0234 57f6 7033 5eea 48b4 8a7d 8538
000000e0: cd49 03b8 b51d d4b5 29fa 9f37 90ec 1735
000000f0: b208 49b6 5e87 0b38 f9e4 9636 d8dd 7837
00000100: 31c8 19b5 b7ce 8937 2f87 c0b6 85de 52b6
00000110: 5ccb 0d32 29e1 cb35 ff3d 2936 cde8 59b5
00000120: 25ef 8cb5 0f6f a436 12d1 89b4 6182 b6b8
00000130: b09a 1938 007f e6b3 e7bc 7737 dc42 1e37
00000140: db5b ffb5 8480 a536 cfba 0eb8 4955 bab4
00000150: cad2 f834 65bf 0db5 e089 a9b5 3a4f 0eb5
00000160: 73a0 1f38 7b6d 70b5 1175 67b7 26a1 27b6
00000170: 50a7 7b34 0ede 9eb8 9492 c7b5 c11a 2733
00000180: 27ff 2538 cba3 8236 0a3a 2cb6 f125 31b5
00000190: f7da 3a35 3d62 a8b4 3130 15b8 b8d8 84b7
000001a0: 0895 1fb8 88d6 50b6 dcd5 a335 d982 97b5
000001b0: 0158 7cb7 20f2 92b7 8b17 0137 e36d fdb6
000001c0: 6dbc 1436 c979 c234 1461 13b7 fb0e 0836
000001d0: 4c25 6636 28f4 4bb3 8f86 9d33 bf73 00b8
000001e0: 90f6 0cb8 1d1e 37b7 5801 8836 2944 4637
000001f0: b938 94b7 db7e 4738 add6 6133 7e36 22b2

exp_avg_sq f4 [128]
1.3198342e-12 4.691845e-08 2.3414836e-07 1.1986991e-08 1.6432354e-10 2.5773456e-11 3.6060865e-08 6.551586e-09
3.422146e-08 9.15012e-09 3.2675424e-14 1.25798035e-11 6.68987e-08 3.985366e-08 2.1564761e-10 9.3071106e-14
5.099856e-11 1.3686408e-12 7.478141e-08 1.1112275e-12 8.094314e-09 2.9758297e-08 6.4180355e-11 5.35945e-11
1.7616001e-09 2.494572e-09 1.4767093e-08 1.4156698e-08 8.1555307e-10 1.3893102e-08 1.0907295e-10 5.1340926e-08
7.7096995e-09 5.5731697e-11 1.1871341e-08 2.0896638e-09 2.2552908e-10 1.8147664e-10 8.6563035e-11 1.3792474e-08
1.9833632e-10 2.3557452e-09 1.0365277e-08 1.3844884e-11 2.703135e-08 8.4667936e-14 7.967959e-08 1.1806975e-15
1.8931429e-10 6.0835716e-12 1.5397127e-10 2.0987425e-08 5.122835e-10 5.1619413e-13 8.973569e-13 5.2485195e-08
2.9388588e-08 9.270791e-11 3.5829393e-09 8.9943e-11 4.8328824e-10 1.1440489e-07 3.2612782e-10 2.8898729e-08
7.052501e-11 3.2050937e-09 1.7070241e-09 1.5101556e-08 1.5247463e-15 6.032124e-10 8.2235586e-11 1.1500607e-08
5.5566322e-11 4.554885e-08 4.2199347e-12 1.2077865e-07 4.704574e-08 2.1070983e-13 5.707166e-09 7.1913866e-09
1.9935938e-10 3.0011144e-10 5.4848257e-08 2.4934128e-08 4.6326692e-12 3.5514757e-12 3.41286e-11 1.705231e-10
3.3512197e-08 7.541046e-11 4.70766e-09 4.3558684e-10 1.0733749e-12 2.1354296e-07 2.1760463e-10 1.3386167e-13
4.158665e-08 3.4667635e-10 1.3399848e-10 2.2754865e-10 8.4010654e-10 1.1983334e-12 3.723282e-08 4.404393e-09
2.054863e-08 1.8536542e-10 4.53024e-10 7.1082064e-11 8.951482e-09 5.628542e-09 3.1789116e-09 1.9628873e-08
6.356056e-11 1.3597878e-11 4.79613e-08 5.317257e-11 1.4902075e-10 3.9450864e-14 2.9322592e-13 1.1154864e-08
2.3873419e-08 9.522406e-09 9.999349e-09 7.768732e-09 2.0038097e-08 3.7824478e-08 3.915166e-11 9.095141e-12
00000000: 0ac0 b92b 6283 4933 366a 7b34 58ef 4d32
00000010: f7ac 342f aab4 e22d 57e1 1a33 5c1c e131
00000020: e5fa 1233 a732 1d32 3328 1329 664e 5d2d
00000030: f3a9 8f33 902b 2b33 681b 6d2f d793 d129
00000040: 464b 602e 7b9e c02b 8497 a033 3164 9c2b
00000050: 2b0f 0b32 309f ff32 5422 8d2e 0bb6 6b2e
00000060: cb1c f230 fa6c 2b31 5db2 7d32 d135 7332
00000070: 722d 6030 82ae 6e32 9dda ef2e f281 5c33
00000080: 9e73 0432 501c 752e b6f2 4b32 c199 0f31
00000090: cbf8 772f 2289 472f a85a be2e f1f3 6c32
000000a0: b612 5a2f b5e2 2131 f812 3232 d08f 732d
000000b0: 9132 e832 bea7 be29 511c ab33 0d28 aa26
000000c0: 3c27 502f f10b d62c 0f4b 292f d647 b432
000000d0: bfd0 0c30 b54b 112b 6195 7c2b 156c 6133
000000e0: 3072 fc32 eadd cb2e bc37 7631 68c9 c52e
000000f0: 63d8 0430 c1ae f533 694a b32f fa3c f832
00000100: 0d16 9b2e 9b40 5c31 929c ea30 acb8 8132
00000110: 36bd db26 4dcf 2530 85d6 b42e 3494 4532
00000120: 1e62 742e 7da1 4333 cb79 942c 62af 0134
00000130: 570f 4a33 f93c 6d2a c318 c431 1b18 f731
00000140: ad32 5b2f eefc a42f 4c92 6b33 ba2e d632
00000150: 60ff a22c b3e9 792c 6319 162e fc7d 3b2f
00000160: 0def 0f33 51d4 a52e 04c1 a131 6677 ef2f
00000170: 6810 972b 3e4a 6534 4242 6f2f 00b7 162a
00000180: 019d 3233 5c96 be2f 3855 132f 4031 7a2f
00000190: 3eed 6630 83a6 a82b ebe9 1f33 7355 9731
000001a0: ea82 b032 bacf 4b2f 760d f92f a54f 9c2e
000001b0: 09c9 1932 2e65 c131 0174 5a31 599c a832
000001c0: 6ac5 8b2e 6637 6f2d 02fe 4d33 feda 692e
000001d0: 9dd9 232f c0ab 3129 4f12 a52a 9ca3 3f32
000001e0: 3412 cd32 fc97 2332 9ac9 2b32 3f77 0532
000001f0: 3e20 ac32 7474 2233 da30 2c2e e000 202d

exp_avg f4 [128, 128]
2.0355641e-05 -7.418766e-05 -0.00026959286 -0.000106186264 2.1500498e-05 2.4227562e-05 -0.00012678995 -0.000359858
-0.00029443364 -0.0006294866 2.2530105e-07 2.401613e-05 -0.0001423825 -0.00028591085 5.2534133e-06 4.7560724e-07
2.5899749e-06 5.04349e-07 -0.00036185433 3.6359012e-07 1.5679312e-05 -0.00026740658 2.3518458e-05 1.1031242e-05
1.227051e-05 -0.00014891863 -0.0003472103 -0.0006213151 -0.00047119273 -0.00064899266 7.3194533e-06 -0.0011853895
-3.6518108e-05 2.1883576e-05 -0.00011493288 -0.0002719074 1.9786117e-05 1.1562299e-05 1.6760801e-05 -0.00026593477
5.1891902e-06 -6.871597e-05 -0.0003168767 4.0146565e-06 -0.0001276545 2.788735e-07 -8.7519955e-05 2.6589209e-08
2.303237e-05 1.8091463e-06 1.4506053e-05 -0.00028542412 1.6996033e-05 2.4377034e-05 5.105077e-07 -0.0002085791
-0.0002247955 1.1396929e-05 -0.00029369144 6.1335177e-06 1.883554e-05 -8.742707e-05 7.2067546e-06 -0.0004122113
2.3259454e-05 -3.433623e-05 -9.199252e-06 -0.00096408976 3.2443584e-08 -0.000116281735 2.3947483e-05 -1.8259883e-05
2.3337132e-05 -0.00048187867 2.2735949e-06 -0.00037042116 -0.0006521256 1.5308837e-07 -0.0011026935 -0.00022172762
2.3551434e-05 1.4321902e-05 -0.00041830397 -0.000910103 5.2731384e-06 7.1384824e-07 1.8882429e-05 6.396237e-06
-0.0004340801 6.2654335e-06 -0.00016833487 1.9388895e-05 7.0280845e-07 -0.00028066765 2.328206e-05 3.7385638e-07
-2.0363073e-05 2.0704085e-05 4.8565653e-06 1.148017e-05 -0.0006409707 1.0566758e-06 -0.00013798483 -0.0005052255
-0.0003829016 2.0840676e-05 2.9370136e-07 8.722121e-06 -5.7629066e-05 2.0126179e-06 -1.7730823e-05 -0.0005269939
2.523623e-06 2.5264717e-06 -0.00035429362 2.0932152e-05 9.507943e-06 4.2764503e-07 3.8375836e-07 -9.198593e-05
-0.00078840106 -0.00012777327 -0.00020620068 -0.00012132516 -0.00033490974 -0.00017537619 8.786725e-06 2.4293124e-05
5.660527e-06 -2.0701047e-05 -7.502207e-05 -2.9602465e-05 5.995249e-06 6.745396e-06 -3.5271514e-05 -0.00010016403
-8.204563e-05 -0.00017526162 6.287335e-08 6.6898315e-06 -3.958164e-05 -7.955337e-05 1.4646253e-06 1.3212309e-07
7.2157076e-07 1.4018308e-07 -0.000100750425 1.0102884e-07 4.3524715e-06 -7.453178e-05 6.5493173e-06 3.0762835e-06
3.4181667e-06 -4.1538813e-05 -9.67221e-05 -0.00017306856 -0.00013117728 -0.00018065303 2.0392117e-06 -0.00033013592
-1.0204544e-05 6.0902516e-06 -3.1929263e-05 -7.566837e-05 5.4953703e-06 3.2159353e-06 4.6623245e-06 -7.3973606e-05
1.4474741e-06 -1.9114601e-05 -8.820869e-05 1.1202625e-06 -3.5555393e-05 7.759682e-08 -2.4329189e-05 7.3951782e-09
6.4106457e-06 5.0356465e-07 4.031647e-06 -7.9521844e-05 4.7259955e-06 6.788148e-06 1.418591e-07 -5.812934e-05
-6.262899e-05 3.167468e-06 -8.180652e-05 1.7052855e-06 5.248442e-06 -2.440905e-05 2.0099078e-06 -0.0001147297
6.473196e-06 -9.575386e-06 -2.5223076e-06 -0.00026850114 9.053399e-09 -3.2312004e-05 6.6685234e-06 -5.0420986e-06
6.494153e-06 -0.00013412158 6.318029e-07 -0.00010308553 -0.00018165381 4.2635655e-08 -0.00030709765 -6.169876e-05
6.5632016e-06 3.9888846e-06 -0.00011650703 -0.00025334535 1.4712098e-06 1.9856003e-07 5.261648e-06 1.7838532e-06
-0.00012085087 1.7468964e-06 -4.6820398e-05 5.4037328e-06 1.9561017e-07 -7.818515e-05 6.485717e-06 1.0435551e-07
-5.7131115e-06 5.76434e-06 1.3498521e-06 3.1912184e-06 -0.00017839346 2.9379763e-07 -3.8453905e-05 -0.00014069123
-0.00010656286 5.80469e-06 9.911263e-08 2.4314454e-06 -1.5980939e-05 5.613943e-07 -4.907656e-06 -0.00014667779
7.0319345e-07 7.0258284e-07 -9.858905e-05 5.830447e-06 2.6477232e-06 1.1916905e-07 1.0711672e-07 -2.5596815e-05
-0.00021953443 -3.5626075e-05 -5.747555e-05 -3.3844517e-05 -9.31876e-05 -4.8898994e-05 2.4420262e-06 6.7656715e-06
00000000: 68c1 aa37 3295 9bb8 2458 8db9 51b0 deb8
00000010: f85b b437 4b3c cb37 ebf2 04b9 53ab bcb9
00000020: 375e 9ab9 2104 25ba 48ea 7134 3f76 c937
00000030: 834c 15b9 4ee6 95b9 7a46 b036 f656 ff34
00000040: 6ecf 2d36 9962 0735 44b7 bdb9 7233 c334
00000050: 1187 8337 b432 8cb9 8149 c537 d312 3937
00000060: 70dd 4d37 0a27 1cb9 c709 b6b9 c0df 22ba
00000070: 6b0a f7b9 2921 2aba a099 f536 125f 9bba
00000080: 052b 19b8 9f92 b737 1f08 f1b8 cb8e 8eb9
00000090: 5dfa a537 b2fb 4137 8c99 8c37 296d 8bb9
000000a0: ce1e ae36 9b1b 90b8 7922 a6b9 a3b5 8636
000000b0: feda 05b9 15b8 9534 eb8a b7b8 4a66 e432
000000c0: a335 c137 cbd1 f235 065f 7337 faa4 95b9
000000d0: b492 8e37 487d cc37 d209 0935 07b6 5ab9
000000e0: 15b7 6bb9 7035 3f37 99fa 99b9 84ce cd36
000000f0: 0401 9e37 0d59 b7b8 8dd1 f136 101e d8b9
00000100: 4c1d c337 3f04 10b8 7d56 1ab7 f8ba 7cba
00000110: 1958 0b33 48dc f3b8 d4e2 c837 cd2c 99b7
00000120: 1cc4 c337 a9a4 fcb9 1094 1836 1635 c2b9
00000130: 68f3 2aba 9c60 2434 4188 90ba 8e7f 68b9
00000140: 5290 c537 1a48 7037 cf4f dbb9 fa93 6eba
00000150: eaef b036 479f 3f35 b565 9e37 429f d636
00000160: 3f95 e3b9 aa3b d236 0c83 30b9 56a5 a237
00000170: a1a8 3c35 9326 93b9 d84d c337 6eb6 c834
00000180: 5ed1 aab7 afad ad37 94f5 a236 f49a 4037
00000190: d106 28ba 1bd3 8d35 05b0 10b9 1c71 04ba
000001a0: 2fc0 c8b9 03d3 ae37 02ae 9d34 3955 1237
000001b0: bdb6 71b8 8310 0736 a7bc 94b7 f625 0aba
000001c0: 835b 2936 748c 2936 7cc0 b9b9 7497 af37
000001d0: 4e84 1f37 1697 e534 5907 ce34 92e8 c0b8
000001e0: b3ac 4eba e0fa 05b9 9337 58b9 f36f feb8
000001f0: d396 afb9 30e5 37b9 b26a 1337 16c9 cb37
00000200: 8fef bd36 29a7 adb7 2b55 9db8 cf52 f8b7
00000210: cc2a c936 8356 e236 80f0 13b8 270f d2b8
00000220: ea0f acb8 6fc6 37b9 fd04 8733 3779 e036
00000230: 7604 26b8 e4d5 a6b8 2494 c435 b8dd 0d34
00000240: f7b1 4135 3b85 1634 f949 d3b8 31f5 d833
00000250: 720b 9236 f24d 9cb8 35c2 db36 2672 4e36
00000260: a863 6536 f639 2eb8 48d7 cab8 bd79 35b9
00000270: a28c 09b9 ae6d 3db9 64d9 0836 1816 adb9
00000280: 2f34 2bb7 dd5a cc36 c9eb 05b8 26b0 9eb8
00000290: df64 b836 59d1 5736 1071 9c36 4722 9bb8
000002a0: d546 c235 4b58 a0b7 aefc b8b8 ed5b 9635
000002b0: 5021 15b8 4ea3 a633 8916 ccb7 ad18 fe31
000002c0: 071b d736 b32c 0735 9647 8736 f7c4 a6b8
000002d0: fe93 9e36 bfc5 e336 ef51 1834 e7cf 73b8
000002e0: af57 83b8 b090 5436 8a8f abb8 2ae1 e435
000002f0: c61b b036 09c2 ccb7 f4e1 0636 0a9b f0b8
00000300: 5534 d936 f8a5 20b7 ea44 29b6 9dc5 8cb9
00000310: 4589 1b32 c086 07b8 2ec2 df36 4c2f a9b6
00000320: 59e8 d936 fda2 0cb9 2a99 2935 9f2f d8b8
00000330: 537a 3eb9 661e 3733 f301 a1b9 4564 81b8
00000340: 7939 dc36 42d8 8536 3c55 f4b8 70d3 84b9
00000350: 6276 c535 c433 5534 368d b036 bb6c ef35
00000360: 5171 fdb8 e776 ea35 0561 44b8 b651 b536
00000370: ea08 5234 55f7 a3b8 e39f d936 0c1a e033
00000380: 41b3 bfb6 4e6b c136 912c b535 b728 5636
00000390: 210f 3bb9 3dbb 9d34 9149 21b8 8486 13b9
000003a0: 807a dfb8 e8c5 c236 bfd7 d433 ea2b 2336
000003b0: ce0e 86b7 b9b2 1635 72ac a4b6 85cd 19b9
000003c0: 16c3 3c35 2099 3c35 98c1 ceb8 29a3 c336
000003d0: 8aaf 3136 e1e9 ff33 0a08 e633 beb8 d6b7
000003e0: d332 66b9 356d 15b8 e711 71b8 46f4 0db8
000003f0: b66d c3b8 e518 4db8 b1e1 2336 ad04 e336
