results/RollerAgents/RollerAgent/RollerAgent-500246.onnx (onnx, 75694 bytes, 8 tensors)

network_body._body_endoder.seq_layers.0.weight f4 [128, 1]
0.5325774 -1.4032655 0.13883018 -0.83282244 0.76654774 -1.4864656 0.00886729 -0.2286249
1.9273173 -2.0632372 0.34083226 0.17090672 0.68333924 -1.2114799 -1.1957 -0.3451433
-2.8672712 -0.5775085 0.5723093 0.5046958 -0.027207308 -0.3443281 0.61308765 0.9535533
0.89182895 1.2958848 0.8933749 -0.28524438 -0.65911174 -0.5627898 0.17732702 0.5923918
-0.016833663 1.5139867 -1.5144793 0.41194358 2.2969527 -0.13245213 0.31774926 -1.3920381
-1.4638917 -1.4597609 -0.77314496 -0.47721672 -0.04290817 0.69955266 1.8783857 -1.2883378
0.5291463 -0.88311714 -0.19085863 0.4836785 0.17060006 -0.3619012 -0.7102901 0.29306358
0.2107804 1.4920735 -1.0874236 -0.6369844 -0.12620099 -0.63335675 0.7506559 -1.4438359
-1.7706062 -0.45234767 0.66635114 -1.182479 -0.6101469 -0.21538234 -1.1852967 0.299922
-0.9731831 -0.5993008 -1.3810045 0.8012973 -0.11265894 -1.0515003 -1.8352166 -1.6481484
0.66754776 1.135163 -1.6485387 0.57780546 1.1784954 -1.246878 -0.3477999 -0.6596496
1.2262844 -1.0534683 1.1498946 -1.7298306 -0.5849386 0.07713281 -0.817531 1.130255
-0.30291715 -0.6096224 -0.6907 0.019274512 -1.00499 -0.9543139 -0.4965651 -1.2134788
-1.0089151 -0.6143883 -0.57995445 -0.0037155086 1.1274476 1.052753 -0.987138 -0.40802354
-1.4450796 0.36613938 -0.4457728 -0.49029168 -1.0356863 -0.3527809 -0.23893224 1.7545166
0.0020755513 -0.70457196 0.6170434 0.1042386 -0.05977955 2.2574036 -0.30506182 0.4308378
00000000: fe56 083f 349e b3bf 8029 0e3e da33 55bf
00000010: 793c 443f 8144 bebf 1c48 113c a51c 6abe
00000020: 55b2 f63f 140c 04c0 9181 ae3e 2c02 2f3e
00000030: 52ef 2e3f c611 9bbf b30c 99bf 9fb6 b0be
00000040: 5f81 37c0 99d7 13bf dd82 123f be33 013f
00000050: dce1 debc c64b b0be 50f3 1c3f 121c 743f
00000060: e74e 643f 8edf a53f 38b4 643f 8d0b 92be
00000070: 8cbb 28bf fe12 10bf 3795 353e fda6 173f
00000080: c0e6 89bc 51ca c13f 75da c1bf 45ea d23e
00000090: 4601 1340 88a1 07be 08b0 a23e 4e2e b2bf
000000a0: ce60 bbbf 72d9 babf d4ec 45bf c055 f4be
000000b0: 7ac0 2fbd e215 333f f16e f03f 41e8 a4bf
000000c0: 2276 073f f713 62bf 7270 43be b5a4 f73e
000000d0: c8b1 2e3e 1d4b b9be 92d5 35bf 6e0c 963e
000000e0: d1d6 573e 44fc be3f b230 8bbf 6911 23bf
000000f0: d53a 01be ab23 22bf fc2a 403f 9dcf b8bf
00000100: 39a3 e2bf 1d9a e7be fd95 2a3f 795b 97bf
00000110: 9632 1cbf 308d 5cbe cdb7 97bf 608f 993e
00000120: 8722 79bf c76b 19bf c1c4 b0bf d221 4d3f
00000130: bbb9 e6bd 9097 86bf 61e8 eabf 87f6 d2bf
00000140: 69e4 2a3f 054d 913f 5103 d3bf 0feb 133f
00000150: f0d8 963f b399 9fbf d412 b2be ccde 28bf
00000160: e3f6 9c3f 0dd8 86bf bf2f 933f 176b ddbf
00000170: 89be 15bf cff7 9d3d b649 51bf 32ac 903f
00000180: f517 9bbe 3710 1cbf b7d1 30bf 95e5 9d3c
00000190: 83a3 80bf ea4d 74bf c83d febe 4653 9bbf
000001a0: 2124 81bf 8d48 1dbf e577 14bf e47f 73bb
000001b0: 3450 903f 9cc0 863f 13b5 7cbf 76e8 d0be
000001c0: 5ef8 b8bf 9f76 bb3e 553c e4be 8307 fbbe
000001d0: 5e91 84bf b39f b4be a7aa 74be 0094 e03f
000001e0: f905 083b d45e 34bf 8ef6 1d3f 0c7b d53d
000001f0: 67db 74bd 4d79 1040 1031 9cbe c696 dc3e

network_body._body_endoder.seq_layers.0.bias f4 [128]
-0.006354384 0.0007088076 -0.0024646807 -0.0012834851 -0.0034345943 -0.0027292315 -0.0018656849 0.00064680213
-0.0009323896 -0.00073221314 -0.013971591 -0.016950727 -0.0023264682 0.00015713197 -0.0054741316 0.0007729844
0.0001617857 -0.0039011529 0.0010429575 -0.0028873063 -0.00041644165 -2.264897e-05 -0.0041093593 -0.0115945665
0.000800886 0.00096319267 0.0007685289 -0.00087463675 -0.00040235856 -0.0003744016 -0.0037114834 -0.0025026894
0.004319034 -0.0023803345 0.0033796001 -0.0037711198 -0.00068009703 0.0037915995 -0.0040293075 0.0015809833
-0.0020659782 -0.001312805 0.0024102642 -0.0073025194 -0.0012227199 -0.001133912 -0.008844086 -0.0021154997
0.00045969916 0.0042904466 0.0039734365 -0.004093236 0.0026521485 0.0011620945 0.001906901 -4.9119964e-05
0.00036769328 -0.00085056573 0.0003900897 0.0014738453 -0.0019964422 0.0005015892 -0.0061482117 0.0015177589
-0.002764642 -0.0017004545 -0.0017184361 -5.8304016e-05 -0.00037580216 -0.0012386566 -0.00079988485 -0.0026236684
-0.0014751999 -0.00032989559 -0.0012659264 -0.0053327866 0.0003655552 -0.002240186 0.00027128553 -0.013352855
-0.00060899777 -0.007081833 -0.0002647657 0.0011630345 -0.0031181138 -6.98524e-05 -0.00069033884 -0.0017945147
-0.0038052788 -0.00083432207 -0.00061976037 -0.0034630336 0.0005257989 -0.004679558 -0.003973344 -0.005495479
-0.0012245348 0.00050729833 0.0004224636 -0.0031035205 -0.00163322 -0.0009984698 -0.010198919 -0.0015093525
-0.0047736466 -0.0034889642 -0.0018478077 0.0013790737 -0.0057297815 -0.0047465963 -0.0018198581 -0.0037072692
-0.0040515102 -0.0034450137 -0.0081893485 0.00030425997 -0.01628021 -0.0033510032 0.00897659 -0.004455076
-0.002149906 -0.0019486852 -0.0035744265 -0.007923992 0.0049027926 -0.019838491 -0.0051618153 -0.010940107
00000000: 7038 d0bb 46cf 393a 7b86 21bb 9d3a a8ba
00000010: ee16 61bb e8dc 32bb ff89 f4ba 288e 293a
00000020: 9b6b 74ba fef1 3fba 1ae9 64bc 40dc 8abc
00000030: a977 18bb cbc3 2439 5860 b3bb 1ba2 4a3a
00000040: 05a5 2939 7caa 7fbb d9b3 883a f638 3dbb
00000050: da55 dab9 4bfe bdb7 cea7 86bb 23f7 3dbc
00000060: 8df2 513a c47e 7c3a 1a77 493a e147 65ba
00000070: a7f3 d2b9 554b c4b9 5c3c 73bb 2904 24bb
00000080: af86 8d3b 63ff 1bbb 487c 5d3b e424 77bb
00000090: 8a48 32ba 7c7c 783b 4808 84bb ff38 cf3a
000000a0: 5d65 07bb 6d12 acba 86f5 1d3b f949 efbb
000000b0: ac43 a0ba c69f 94ba c9e6 10bc 32a4 0abb
000000c0: c703 f139 e096 8c3b 9a33 823b 8d20 86bb
000000d0: abcf 2d3b 6c51 983a fbf0 f93a 2906 4eb8
000000e0: f5c6 c039 80f8 5eba f484 cc39 0b2e c13a
000000f0: bed6 02bb 157d 033a f076 c9bb 8aef c63a
00000100: ff2e 35bb c9e1 deba 263d e1ba 768b 74b8
00000110: 5007 c5b9 6b5a a2ba 5daf 51ba daf1 2bbb
00000120: 7f5b c1ba d6f5 acb9 71ed a5ba a8be aebb
00000130: fda7 bf39 16d0 12bb 543b 8e39 efc5 5abc
00000140: 26a5 1fba b90e e8bb 40d0 8ab9 f670 983a
00000150: 4559 4cbb b97d 92b8 dbf7 34ba ec35 ebba
00000160: fc61 79bb 68b6 5aba 6a77 22ba 10f4 62bb
00000170: c4d5 093a fa56 99bb d332 82bb 6b13 b4bb
00000180: 9280 a0ba 37fc 043a 1b7e dd39 6f64 4bbb
00000190: c511 d6ba 16df 82ba 5e19 27bc 77d5 c5ba
000001a0: 406c 9cbb 1ba7 64bb 2332 f2ba 09c2 b43a
000001b0: e4c0 bbbb 5689 9bbb 4e88 eeba a8f5 72bb
000001c0: 88c2 84bb bdc5 61bb 9e2c 06bc 1585 9f39
000001d0: 135e 85bc 819c 5bbb 8c12 133c e3fb 91bb
000001e0: 70e5 0cbb 066b ffba ed40 6abb a2d3 01bc
000001f0: 9ba7 a03b 5584 a2bc 7224 a9bb 223e 33bc

network_body._body_endoder.seq_layers.2.weight f4 [128, 128]
0.07594978 0.049377777 0.16631636 0.11513369 -0.13622569 -0.04425886 0.055208515 -0.0060131173
0.00995205 -0.085988894 0.074965894 0.044989534 0.21133031 -0.006046462 0.046995837 -0.008928129
-0.03378497 -0.04135496 0.092955805 -0.116763875 0.08986101 0.03593313 0.055056017 0.06560268
0.072645314 -0.055968564 -0.042601112 0.07772137 -0.034468062 -0.17171621 -0.040409714 -0.021362022
-0.052467752 -0.18212011 0.18346976 -0.07656059 0.004745282 -0.19413376 -0.04231448 -0.084993556
-0.027068399 0.015899532 0.03399605 0.04461853 0.10696996 0.13481121 -0.119696565 0.010397914
-0.11756395 0.00033761325 -0.075943455 0.03275984 0.049056277 -0.050150644 -0.05263392 -0.034458958
-0.07176977 0.07947165 0.19163927 -0.023800248 0.07539758 0.072225496 -0.04724177 0.077286385
0.04179395 0.030955048 0.058648553 0.0316065 -0.10575832 0.01931093 0.016338333 0.013393702
-0.0052795256 0.14727917 -0.06708128 -0.101080716 0.1448114 0.032097775 -0.033646088 -0.10304606
0.10381307 -0.10237777 0.047270205 0.023189219 0.043990206 -0.055453114 -0.05874346 -0.03801868
-0.04201993 -0.13882385 -0.055945624 0.07945012 -0.12947729 -0.040978372 7.544319e-05 -0.009736561
-0.08081407 -0.024429541 0.009559864 -0.0016245756 -0.013687324 -0.14512351 -0.10193565 -0.045744255
-0.09996799 0.060496878 -0.09871111 0.105695024 0.044198528 -0.06415212 0.054205652 0.008589093
0.08135939 -0.18009256 0.05386334 0.05749805 -0.0016163412 -0.17440721 -0.11133509 -0.0006193343
0.046672013 -0.06933147 0.04001207 0.039764825 -0.012835501 0.079183824 -0.021780437 -0.048665635
-0.12532836 -0.024459347 0.047187097 -0.019368723 0.028553614 0.04096108 0.038203284 0.094017945
-0.038648553 0.008332287 0.07185802 -0.0014630535 0.024288991 -0.08006869 -0.12033363 -0.050290693
-0.048596293 -0.12329525 0.042215697 -0.08333491 -0.009271977 0.08321706 -0.07386588 -0.003679994
0.105008356 -0.12297286 -0.013558062 0.18946655 -0.028716428 -0.00058439455 -0.027393298 -0.03303048
-0.043123096 0.14825693 0.00033261575 0.102985054 -0.04145652 -0.0038375906 0.011818611 0.01559866
0.11231224 -0.07303572 -0.08410073 0.09940364 0.20411702 -0.2108898 0.07730148 -0.00030473797
-0.12739456 -0.060060415 0.061923005 0.08431705 0.06383591 0.069290824 0.045315456 0.021684403
0.067457 -0.028054943 -0.05075136 0.007463857 0.00029049098 0.009600736 0.10025682 -0.045128476
-0.21468225 -0.0057061026 -0.018397672 -0.05179483 0.09930533 -0.12760195 -0.025608592 0.04895292
0.0626126 -0.07005964 -0.10458531 -0.060932655 -0.033344626 0.10942253 -0.071926646 -0.074462086
0.051972605 -0.1082593 0.01467678 -0.11708382 0.14796712 -0.0799554 0.14068629 0.036832873
-0.15171099 -0.035817932 -0.017952085 0.084958725 -0.08423853 0.13492422 -0.08277471 -0.115843154
-0.13177446 -0.011307623 0.053315964 0.061318386 -0.002279154 -0.10933848 -0.021015724 0.045060076
-0.061263036 -0.0288016 -0.15379211 0.10941314 -0.11527665 -0.14005177 0.017064163 -0.01097076
0.11086305 0.085259214 -0.023751728 -0.063761815 0.012351161 0.03175564 -0.10009843 -0.00071315217
-0.04922827 0.1098726 -0.03405389 -0.051384605 -0.022941446 0.028926164 0.04304714 0.026273014
00000000: 8f8b 9b3d 5a40 4a3d d64e 2a3e 36cb eb3d
00000010: bf7e 0bbe c748 35bd 5322 623d af09 c5bb
00000020: ec0d 233c f21a b0bd b887 993d f246 383d
00000030: f966 583e 6621 c6bb b57e 403d 4a47 12bc
00000040: 1c62 0abd d263 29bd 9d5f be3d e621 efbd
00000050: 0d09 b83d 9e2e 133d 6b82 613d b35a 863d
00000060: 11c7 943d 4b3f 65bd 817e 2ebd 622c 9f3d
00000070: 622e 0dbd 60d6 2fbe a884 25bd 68ff aebc
00000080: 6de8 56bd b27d 3abe 7fdf 3b3e cccb 9cbd
00000090: 507e 9b3b 00cb 46be f351 2dbd 1a11 aebd
000000a0: 8cbe ddbc bc3f 823c 713f 0b3d ebc1 363d
000000b0: 1113 db3d f30b 0a3e 7923 f5bd 035c 2a3c
000000c0: 5ec5 f0bd af01 b139 3e88 9bbd 2f2f 063d
000000d0: 3cef 483d c36a 4dbd aa96 57bd d624 0dbd
000000e0: 07fc 92bd 08c2 a23d 163d 443e bdf8 c2bc
000000f0: 0c6a 9a3d f6ea 933d 9680 41bd 5348 9e3d
00000100: 2230 2b3d 7195 fd3c 7739 703d d175 013d
00000110: d197 d8bd f531 9e3c f8d7 853c 4271 5b3c
00000120: dfff acbb 5ad0 163e e961 89bd 6803 cfbd
00000130: 7149 143e f578 033d 7bd0 09bd d009 d3bd
00000140: f29b d43d 70ab d1bd 679e 413d 51f7 bd3c
00000150: 132f 343d ce22 63bd fb9c 70bd 7ab9 1bbd
00000160: 171d 2cbd d727 0ebe 3d27 65bd bfb6 a23d
00000170: b295 04be f0d8 27bd 4137 9e38 1986 1fbc
00000180: d981 a5bd 7620 c8bc faa0 1c3c b6ef d4ba
00000190: cc40 60bc 429b 14be a3c3 d0bd 545e 3bbd
000001a0: 04bc ccbd 93cb 773d 0d29 cabd a276 d83d
000001b0: 8409 353d 3062 83bd bf06 5e3d 44b9 0c3c
000001c0: c09f a63d 2f6a 38be ce9f 5c3d 1383 6b3d
000001d0: 69db d3ba ce97 32be a703 e4bd d25a 22ba
000001e0: 272b 3f3d a8fd 8dbd b2e3 233d 71e0 223d
000001f0: fe4b 52bc 212b a23d e36c b2bc 9e55 47bd
00000200: 1456 00be f85e c8bc 4247 413d 28ab 9ebc
00000210: 45e9 e93c cec6 273d 0c7b 1c3d 7b8c c03d
00000220: f24d 1ebd 2584 083c 4c2a 933d eec3 bfba
00000230: b5f9 c63c 0efb a3bd 7a71 f6bd 9dfd 4dbd
00000240: e80c 47bd 3882 fcbd 5eea 2c3d 7eab aabd
00000250: 7de9 17bc b56d aa3d ff46 97bd 0e2c 71bb
00000260: 9f0e d73d 32d9 fbbd a222 5ebc 8503 423e
00000270: b73e ebbc 0e32 19ba e967 e0bc f84a 07bd
00000280: d8a1 30bd aad0 173e ee62 ae39 d4e9 d23d
00000290: 50ce 29bd 1680 7bbb d9a2 413c 8691 7f3c
000002a0: f603 e63d c093 95bd 013d acbd 2394 cb3d
000002b0: 0d04 513e 7ff3 57be 3d50 9e3d 3dc5 9fb9
000002c0: b873 02be e901 76bd faa2 7d3d 6bae ac3d
000002d0: 67bc 823d 59e8 8d3d b39c 393d 7da3 b13c
000002e0: e526 8a3d 7bd3 e5bc a8e0 4fbd 5f93 f43b
000002f0: 0a4d 9839 684c 1d3c 7353 cd3d a3d8 38bd
00000300: aad5 5bbe 42fa babb b7b6 96bc d126 54bd
00000310: 9860 cb3d 16aa 02be 1cc9 d1bc db82 483d
00000320: 093b 803d 6e7b 8fbd d330 d6bd 8594 79bd
00000330: 6094 08bd eb18 e03d 474e 93bd 947f 98bd
00000340: 3ae1 543d 0db7 ddbd e176 703c a4c9 efbd
00000350: b184 173e a8bf a3bd 1110 103e 11de 163d
00000360: 205a 1bbe d3b5 12bd 4010 93bc d7fe ad3d
00000370: 4085 acbd 9329 0a3e ca85 a9bd 2d3f edbd
00000380: e2ef 06be 9c43 39bc d761 5a3d fd28 7b3d
00000390: dc5d 15bb daec dfbd 2b29 acbc ea90 383d
000003a0: f3ee 7abd 55f1 ebbc ae7b 1dbe ff13 e03d
000003b0: 2a16 ecbd bb69 0fbe 25ca 8b3c b4be 33bc
000003c0: 2b0c e33d 629c ae3d fc92 c2bc 8e95 82bd
000003d0: 865c 4a3c 3412 023d 6800 cdbd d5f2 3aba
000003e0: 95a3 49bd e304 e13d 177c 0bbd aa78 52bd
000003f0: b3ef bbbc 90f6 ec3c 3352 303d 813a d73c

network_body._body_endoder.seq_layers.2.bias f4 [128]
0.001706889 -0.0008690835 0.00046620966 -0.0031411028 -0.0009976305 -3.4689358e-05 0.00072614645 -0.0011278836
-0.0013168365 -0.0038456067 -0.0036249897 0.0014219129 -0.0017367348 -0.003252917 -0.00055547984 0.0023037181
-0.00141143 -0.0033878828 -0.001188221 -0.0036135335 -0.00042674423 0.0021196727 0.0007605053 -0.000563383
-0.0030711237 0.0011495571 -0.0014809084 -0.0020338711 0.0008392722 -0.0044044917 -0.0020566774 -0.0035679354
-0.0024278434 -0.00263292 -0.0019052684 -0.00014098098 -0.0027859975 -0.0024113788 0.00031113357 -0.0023266084
-0.00041702075 -0.0006739145 -0.0016994681 -0.004559875 -0.001646781 -0.0024546527 -0.0025259324 -0.0026885276
-0.00083673105 -0.0029021942 -0.004854766 0.00040049618 0.0015153347 -0.0023272145 -0.0014951552 0.0023858387
-0.0028907333 -0.0027805828 -0.00096278737 -0.0016199657 -0.00023849362 0.0023877423 -0.0019298017 0.0015659662
-0.00014949348 -0.00035081286 -0.00035574194 -0.0048934347 -0.0037867653 -0.0035323359 0.0010655175 -0.00011609916
-0.0013584747 0.0037483436 -0.002059407 -0.00074752804 0.0001269477 -0.0036100901 -0.001487624 -0.0012826028
-0.0028473262 -0.0007834389 -0.0040146695 -0.00029940397 -0.003445544 0.00062643125 -0.0014351397 -0.0029058596
-0.0021477789 -0.0028469677 0.0035295296 -0.005292877 -0.0015025736 -0.0025360722 -0.0035631869 8.913678e-05
-0.00045804627 -0.0020416032 -0.0029643788 -0.00162352 4.4338023e-05 -0.00035052653 0.00022189689 -0.0031732877
-0.0007642346 -0.002488412 -0.0030944513 -0.0019010832 -0.0011617999 0.00027092622 -0.0002872623 0.0005390951
-0.0011796247 -0.00045241156 -0.00034459104 9.1875205e-05 -0.0023277807 -0.0015663764 -0.002886323 -0.00075780635
-0.0029461144 0.0006635167 -0.00077570474 -0.0017135108 0.0012097319 -0.0027572305 -0.001765008 0.0008192136
00000000: b1b9 df3a 35d3 63ba 9a6d f439 f6da 4dbb
00000010: edc2 82ba 6a7f 11b8 dd5a 3e3a 7ed5 93ba
00000020: b399 acba 9306 7cbb 3c91 6dbb 7b5f ba3a
00000030: 26a3 e3ba e42e 55bb 9f9d 11ba faf9 163b
00000040: bbff b8ba 3e07 5ebb 15be 9bba 08d1 6cbb
00000050: a4bc dfb9 35ea 0a3b a65c 473a feaf 13ba
00000060: e844 49bb bcac 963a 0a1b c2ba b24a 05bb
00000070: 9b02 5c3a 8e53 90bb 52c9 06bb 06d4 69bb
00000080: 741c 1fbb 118d 2cbb 33ba f9ba 4bd4 13b9
00000090: 4895 36bb 3908 1ebb a41f a339 037a 18bb
000000a0: 94a3 dab9 a3a9 30ba b0c0 deba 016b 95bb
000000b0: cdd8 d7ba 3dde 20bb 1d8a 25bb 0232 30bb
000000c0: 1258 5bba bd32 3ebb bb14 9fbb b0f9 d139
000000d0: 329e c63a 2e84 18bb 15f9 c3ba bb5b 1c3b
000000e0: 7572 3dbb 703a 36bb 9163 7cba 0755 d4ba
000000f0: 2514 7ab9 ab7b 1c3b 66f1 fcba 1b41 cd3a
00000100: 5ac1 1cb9 4eed b7b9 e082 bab9 1b59 a0bb
00000110: 612b 78bb c37e 67bb d6a8 8b3a 437a f3b8
00000120: d90e b2ba c5a6 753b 1ef7 06bb c2f5 43ba
00000130: 441d 0539 4397 6cbb 61fc c2ba 021d a8ba
00000140: 359a 3abb b25f 4dba 7d8d 83bb 52f9 9cb9
00000150: a3ce 61bb 1737 243a 4c1b bcba 3c70 3ebb
00000160: c0c1 0cbb 3194 3abb ae4f 673b df6f adbb
00000170: 01f2 c4ba 3b34 26bb 5b84 69bb f2ee ba38
00000180: ee25 f0b9 6bcc 05bb 0646 42bb 4bcc d4ba
00000190: 97f7 3938 e0c6 b7b9 feac 6839 eff6 4fbb
000001a0: ea56 48ba a014 23bb 47cc 4abb c42d f9ba
000001b0: 8947 98ba 1a0b 8e39 b19b 96b9 0f52 0d3a
000001c0: a39d 9aba a731 edb9 3aaa b4b9 20ad c038
000001d0: ae8d 18bb df4e cdba 7728 3dbb 86a7 46ba
000001e0: 9913 41bb daef 2d3a aa58 4bba e297 e0ba
000001f0: de8f 9e3a a7b2 34bb d757 e7ba 7ec0 563a

action_model._continuous_distribution.log_sigma f4 [1, 2]
-0.06805943 -0.08595717
00000000: be62 8bbd 500a b0bd

action_model._continuous_distribution.mu.weight f4 [2, 128]
0.0023929751 0.0077835 0.023800436 0.0042467527 0.010775948 -0.021812288 -0.006001559 -0.013233575
0.0058675087 -0.014961937 -0.0023688024 -0.0209857 0.016047461 0.0060543795 -0.00012549269 0.012775862
-0.019501902 0.0013365775 -0.013289003 0.0076969443 0.0048969975 -0.0044699735 0.005437709 -0.025972879
0.0073320386 0.025517842 -0.002539516 0.014542923 -0.005258059 -0.010853145 0.009598562 0.013124745
-0.012432462 -0.0018260368 0.0022105891 -0.019770956 -0.0050705764 0.007229695 -0.0099548595 0.022673937
0.011075375 0.0022344845 -0.011310855 0.0013803717 0.012347376 0.03304438 0.011602309 -0.003389219
-0.0044070217 0.0018698996 -0.008310203 -0.02320103 -0.037634555 0.0012645095 -0.01072366 0.02788581
0.0063097994 0.0072515975 0.007523535 0.018400878 0.017152466 -0.0036842835 0.016580213 -1.4712796e-05
-5.270737e-07 -0.00011104604 0.008081261 0.005631188 0.011855751 0.011557869 -0.014349789 0.0059791757
0.030541886 0.021520346 0.0054092277 -0.011355958 -0.009636647 -0.012903122 -0.0140908025 0.0058405134
0.029304361 0.009295367 -0.0014578648 -0.0005975476 0.011449504 -0.012915149 -0.0021908367 -0.005328024
0.031012464 0.0024207733 0.042806208 -0.005831757 0.027305488 -0.000121628116 -0.0018279864 -0.010327628
-0.026886879 0.0020921193 0.007346182 -0.0076075774 0.025969805 -0.00345538 0.014028921 0.017026622
-0.0076146247 0.026018055 -0.015199936 0.021298505 -0.016580125 -7.144706e-06 -0.0063016 -0.017340539
0.024152746 0.012263736 -0.027050413 -0.0077848537 -0.0011564068 -0.004044887 -0.0017000781 -0.029330023
0.012888142 0.001689487 0.0065725567 -0.0069574476 7.021393e-05 0.0106371455 -0.010396187 -0.0032465158
0.017854506 -0.0027524156 0.009677351 0.021622945 0.015599312 -0.0019800735 0.0134802405 -0.0058543887
0.021305196 0.0017792742 0.014786649 -0.008500893 0.014898769 0.0107266735 -8.726128e-06 0.006593898
-0.031255253 0.014505861 -0.0074018915 -0.01476566 0.019248795 -0.013991203 0.0137318345 -0.0013254624
0.0009231604 -0.0131706055 -0.014403011 0.008569869 -0.004727424 0.01133323 0.008043819 -0.0059309294
-0.013329724 -0.009309918 0.025067342 0.0024903254 -0.008826549 0.007698574 -0.030972483 -0.0025869133
-0.02170689 -0.014823484 -0.008987652 -0.0028091623 0.011176338 0.013841171 0.03025994 -0.0063346936
0.008626409 0.0061436496 0.003814951 0.017077833 0.00829303 -0.023864867 -0.0047045113 -0.025812918
-0.0011270156 0.041190136 0.007783778 0.0141679635 -0.013692667 -0.029981663 0.0024286187 0.0019542652
-8.893618e-06 0.015713641 0.022689922 -0.003067499 -0.0036716557 -0.010394878 0.013862653 -0.0052587576
0.012131424 -0.030886672 -0.005455868 -0.018851878 0.0021374547 0.028102558 -0.01652352 -0.009678252
-0.013370933 0.016896592 1.3018385e-05 -0.0018172341 -0.012430071 0.019655807 -0.02993531 -0.008511703
0.00716087 -0.04663455 -0.0039777826 0.0030088178 0.0010910188 0.005875675 0.0022019707 0.009508702
-0.015175664 -0.033113994 0.0018341012 -0.021601027 -0.03841759 0.015384387 0.00028624872 -0.027722005
0.0024195777 0.01097622 -0.0060226955 0.004913337 -0.02731481 -2.2910115e-05 0.011092353 0.006401511
0.0126008075 -0.0064457725 -0.016685864 0.010880426 -0.0194565 -0.043248136 -0.0011731199 -0.00508382
-0.018670216 0.002871154 0.007701401 -0.02206663 0.012042933 -0.0344134 -0.0189887 0.04646827
00000000: 76d3 1c3b bb0c ff3b 22f9 c23c 5828 8b3b
00000010: 9a8d 303c afaf b2bc baa8 c4bb a3d1 58bc
00000020: 3b44 c03b ea22 75bc e93d 1bbb 34ea abbc
00000030: f775 833c d163 c63b b096 03b9 d951 513c
00000040: 74c2 9fbc 1930 af3a 1eba 59bc a636 fc3b
00000050: fe76 a03b db78 92bb cf2e b23b 13c5 d4bc
00000060: 9941 f03b cb0a d13c 026e 26bb 7145 6e3c
00000070: cc4b acbb 64d1 31bc 4943 1d3c 2c09 573c
00000080: 86b1 4bbc a157 efba 88df 103b b3f6 a1bc
00000090: 1427 a6bb 14e7 ec3b b519 23bc b1be b93c
000000a0: 7d75 353c 6e70 123b 2a51 39bc 97ed b43a
000000b0: a64c 4a3c 8b59 073d 9c17 3e3c a91d 5ebb
000000c0: c768 90bb 6b17 f53a 8527 08bc 1610 bebc
000000d0: b126 1abd e6bd a53a 4ab2 2fbc c870 e43c
000000e0: 6fc2 ce3b cf9e ed3b fc87 f63b 70bd 963c
000000f0: 5483 8c3c 0574 71bb 3ad3 873c fad6 76b7
00000100: 3b7c 0db5 64e1 e8b8 4467 043c d485 b83b
00000110: a03e 423c 375d 3d3c 611b 6bbc f6ec c33b
00000120: fa32 fa3c 704b b03c e43f b13b 570e 3abc
00000130: 07e3 1dbc 9e67 53bc 1cdd 66bc c761 bf3b
00000140: b30f f03c 984b 183c d315 bfba bea4 1cba
00000150: b396 3b3c 109a 53bc 2494 0fbb b496 aebb
00000160: da0d fe3c d6a5 1e3b 9055 2f3d 5318 bfbb
00000170: c2af df3c 9912 ffb8 0c99 efba 3635 29bc
00000180: df41 dcbc f01b 093b 3eb8 f03b fc48 f9bb
00000190: a1be d43c a873 62bb 8fd9 653c 6a7b 8b3c
000001a0: 1a84 f9bb d123 d53c 2709 79bc 347a ae3c
000001b0: 0bd3 87bc 8fbc efb6 a77d cebb bf0d 8ebc
000001c0: fbdb c53c d6ed 483c d498 ddbc 1618 ffbb
000001d0: 9392 97ba f98a 84bb 28d5 deba 8445 f0bc
000001e0: c928 533c c771 dd3a 9a5e d73b 4dfb e3bb
000001f0: d13f 9338 6c47 2e3c c554 2abc 7fc3 54bb
00000200: 9d43 923c df61 34bb c18d 1e3c 9a22 b13c
00000210: 4294 7f3c 1fc4 01bb 3adc 5c3c 2cd6 bfbb
00000220: 3c88 ae3c 8936 e93a b343 723c 5447 0bbc
00000230: f719 743c eebe 2f3c 6f66 12b7 a011 d83b
00000240: 8205 00bd fea9 6d3c 918b f2bb abeb 71bc
00000250: a6af 9d3c 5c3b 65bc 7dfb 603c 23bb adba
00000260: 3f00 723a 86c9 57bc 9bfa 6bbc a368 0c3c
00000270: 82e8 9abb 03af 393c 39ca 033c 3e58 c2bb
00000280: ea64 5abc a088 18bc 075a cd3c ba34 233b
00000290: 3b9d 10bc 5244 fc3b 01ba fdbc 3489 29bb
000002a0: a6d2 b1bc 33de 72bc f240 13bc ec19 38bb
000002b0: f61c 373c 14c6 623c b2e3 f73c 4393 cfbb
000002c0: c855 0d3c ab50 c93b 4204 7a3b d0e6 8b3c
000002d0: 7ddf 073c 4180 c3bc 4d28 9abb 9d75 d3bc
000002e0: 5eb8 93ba fdb6 283d 100f ff3b bf20 683c
000002f0: 3557 60bc 1b9c f5bc 7629 1f3b 2113 003b
00000300: cc35 15b7 e5b9 803c 37e0 b93c 1808 49bb
00000310: 29a0 70bb 474f 2abc 2e20 633c a851 acbb
00000320: e1c2 463c 0c06 fdbc 23c7 b2bb 416f 9abc
00000330: 8a14 0c3b 5637 e63c 555c 87bc 8891 1ebc
00000340: c211 5bbc b96a 8a3c 8a69 5a37 4230 eeba
00000350: 7fa7 4bbc 3705 a13c e53a f5bc ac74 0bbc
00000360: bba5 ea3b df03 3fbd 0f58 82bb 962f 453b
00000370: 8400 8f3a bc88 c03b f04e 103b 63ca 1b3c
00000380: 59a3 78bc 8aa2 07bd 3966 f03a a3f4 b0bc
00000390: c35b 1dbd cc0e 7c3c a713 9639 4219 e3bc
000003a0: c791 1e3b 9ad5 333c 085a c5bb 0f00 a13b
000003b0: 4fc3 dfbc 192f c0b7 b3bc 353c c4c3 d13b
000003c0: 9e73 4e3c 0f37 d3bb cbb0 88bc d043 323c
000003d0: 3d63 9fbc f524 31bd 5fc3 99ba 2c96 a6bb
000003e0: 48f2 98bc f929 3c3b 095c fc3b 14c5 b4bc
000003f0: b94f 453c 11f5 0cbd 318e 9bbc 8355 3e3d

action_model._continuous_distribution.mu.bias f4 [2]
-0.0011938411 0.0011859912
00000000: a97a 9cba 4373 9b3a

action_model._discrete_distribution.branches.0.weight f4 [1, 128]
0.004641195 0.00042281012 -0.0014560805 -0.008965657 0.0027657892 -0.0045545907 -0.010919053 0.00015976773
0.0010493075 0.0012629488 -0.004021378 -0.0065257475 -0.005883885 -0.0039057133 0.012106902 -0.008052903
-0.0032697653 -0.0034971598 -0.010369844 0.0075583677 -0.0051790304 0.0045750453 0.010237986 -0.00584159
-0.008625768 -0.0001835699 -0.01412725 0.0019153996 -0.0057706507 0.0032726612 -0.0061833686 -0.0064397804
-0.006009951 -0.008000417 0.010097624 -0.00014870655 0.0035736382 0.004496166 -0.0076360786 -0.017994417
0.016370606 -0.009731043 0.004588421 -0.0077155465 -0.0088308295 -0.016189514 0.006195013 0.0033359572
0.018542154 -0.018525114 -0.0052601127 -0.006078975 0.0009939093 0.024418326 0.008127833 0.0070098224
0.01340606 0.012325357 0.008667137 -0.010911934 -0.003316054 -0.012008253 0.0036638395 0.001737892
-0.010293302 -0.013912168 0.009811475 -0.011420193 -0.0002922362 -0.007219861 -0.009979324 0.0041536707
-0.001978696 -0.008093007 0.0018306313 0.014995018 0.007727936 -0.008763435 0.01116999 -0.0015295743
-0.0027588978 0.007649263 0.0073527964 0.0033541985 0.008275128 -0.022411095 -0.006773314 -0.009542554
-0.0033294824 -0.0063586906 0.0013339837 -0.011684396 0.007464375 -0.0067599467 -0.0010319314 -0.0082437275
0.0068832594 0.0007030991 -0.006237137 0.006210534 -0.002649651 -0.005470529 0.0042258296 -0.0025638833
0.005627533 0.0067908564 -0.0038009433 -0.0012616863 -0.0033295357 0.0036970507 -0.01120164 -0.00049611775
0.00063451007 -0.006609514 -0.00014498305 0.006248525 0.0040997164 -0.013720609 -0.013039864 0.014715723
-0.008458295 0.0074848346 0.0036930118 -0.0053142314 -0.0038381496 -0.0051686624 -0.00229739 0.0050147874
00000000: 2a15 983b 9dac dd39 f4d9 beba b1e4 12bc
00000010: 3e42 353b ad3e 95bb d4e5 32bc 5387 2739
00000020: eb88 893a 8889 a53a c3c5 83bb f0d5 d5bb
00000030: 9bcd c0bb fff6 7fbb 075c 463c 53f0 03bc
00000040: 8f49 56bb 9b30 65bb 47e6 29bc 2fac f73b
00000050: dbb4 a9bb 43ea 953b 3abd 273c cf6a bfbb
00000060: 1853 0dbc ab7c 40b9 fb75 67bc 250e fb3a
00000070: ba17 bdbb 257a 563b db9d cabb cb04 d3bb
00000080: 1fef c4bb 2e14 03bc 8170 253c 1cee 1bb9
00000090: b333 6a3b 9354 933b 1238 fabb 0769 93bc
000000a0: a61b 863c f46e 1fbc 775a 963b b2d2 fcbb
000000b0: 2faf 10bc df9f 84bc 89ff ca3b 13a0 5a3b
000000c0: b7e5 973c fbc1 97bc 065d acbb 2332 c7bb
000000d0: 1046 823a f108 c83c 9a2a 053c a7b2 e53b
000000e0: 17a5 5b3c 4bf0 493c 9b00 0e3c f8c7 32bc
000000f0: 2752 59bb 43be 44bc 071d 703b fbc9 e33a
00000100: 3da5 28bc ddef 63bc 4fc0 203c c31b 3bbc
00000110: 4737 99b9 9594 ecbb 5280 23bc 841b 883b
00000120: 03ad 01bb 8898 04bc cbf1 ef3a aaad 753c
00000130: a03a fd3b 8394 0fbc 5502 373c ff7b c8ba
00000140: a0ce 34bb aba6 fa3b baef f03b 1dd2 5b3b
00000150: 6794 073c 7997 b7bc adf2 ddbb 5f58 1cbc
00000160: 7233 5abb 905c d0bb 11d9 ae3a e96f 3fbc
00000170: b797 f43b 8b82 ddbb df41 87ba b310 07bc
00000180: f78c e13b 2f50 383a e660 ccbb bc81 cb3b
00000190: c4a5 2dbb 2042 b3bb d478 8a3b d306 28bb
000001a0: 2b67 b83b d585 de3b 3f19 79bb 2b5f a5ba
000001b0: 5734 5abb 384a 723b 1587 37bc e60d 02ba
000001c0: 4055 263a 9f94 d8bb 9706 18b9 6dc0 cc3b
000001d0: ea56 863b 68cc 60bc 27a5 55bc 371a 713c
000001e0: a994 0abc 5843 f53b 7506 723b 0123 aebb
000001f0: 7789 7bbb e25d a9bb cf8f 16bb 1653 a43b
