results/RollerAgents/RollerAgent/RollerAgent-153729.pt (torch, 431578 bytes, 39 tensors)

network_body._body_endoder.seq_layers.0.weight f4 [128, 1]
0.41807315 -0.5226355 -0.5415824 -1.0996541 -0.03470527 -0.6958937 1.6540817 -0.6129487
0.5232119 -0.010684938 0.52752686 -0.14593792 0.8194298 -0.19337064 0.08256477 -0.8468694
0.34231463 -0.8633084 0.79081845 -0.90180403 -0.419673 -1.0085272 0.07704285 -0.6322509
1.5341115 -2.722362 0.5314005 -1.0654886 0.48063543 -0.36683398 -0.8055103 -0.5214236
0.53826654 -0.3693048 -0.9432917 1.2794435 -1.9296468 -0.7652689 -0.07711531 0.18854229
-0.0084478855 -0.7078412 0.6376412 1.7755041 1.1766909 1.6674895 1.2516394 1.2535017
0.985351 -1.2692243 -0.4079598 0.76634014 -0.91466916 0.43681663 1.3858242 -0.5787121
-1.5787904 -0.8382555 -0.19812863 -0.77223164 0.39669898 -1.3989283 -0.34616607 -1.8443029
-0.24431914 -1.0031596 -1.3559858 -0.07230996 -0.6334725 -0.34931538 1.1933365 -3.0237763
0.55818033 -1.3548402 2.047562 0.92253035 1.4015704 1.4161068 0.2970354 0.46046942
0.24934746 0.9774356 -1.2949773 2.1194992 -0.25602797 0.88795143 0.40297735 0.33047423
0.7264878 0.8419982 -1.4930489 2.0670717 0.05720697 0.20206453 0.9458577 0.013705275
0.6877578 -0.095171146 -0.16514266 0.862888 1.3906668 1.2548753 0.2713521 -0.32183126
-0.28966364 0.91284585 0.25070998 -1.4615846 -0.839658 0.43857774 0.073162906 -1.0126946
2.170263 -1.862666 -0.57303256 0.0053323167 2.213603 0.8743896 0.87371016 0.57426906
-0.8717429 -0.85753757 -1.3182266 1.0434357 -1.5542055 0.7040549 1.080525 0.3979057
00000000: af0d d63e 71cb 05bf 25a5 0abf 77c1 8cbf
00000010: 1d27 0ebd 1726 32bf f3b8 d33f 35ea 1cbf
00000020: 37f1 053f e10f 2fbc 000c 073f c070 15be
00000030: 27c6 513f f402 46be b817 a93d 6fcc 58bf
00000040: dd43 af3e c801 5dbf 1473 4a3f a1dc 66bf
00000050: 61df d6be 6b17 81bf a4c8 9d3d 32db 21bf
00000060: c45d c43f 2e3b 2ec0 dd09 083f ee61 88bf
00000070: d915 f63e aad1 bbbe ec35 4ebf 047c 05bf
00000080: d6cb 093f 8515 bdbe 917b 71bf cec4 a33f
00000090: abfe f6bf aae8 43bf a2ee 9dbd 3b11 413e
000000a0: 0069 0abc 1535 35bf 743c 233f b843 e33f
000000b0: cf9d 963f 4c70 d53f b835 a03f be72 a03f
000000c0: f73f 7c3f f175 a2bf 1be0 d0be de2e 443f
000000d0: c227 6abf 6ea6 df3e b062 b13f 7a26 14bf
000000e0: ce15 cabf ea97 56bf 3be2 4abe f9b0 45bf
000000f0: 211c cb3e 1510 b3bf ae3c b1be 1e12 ecbf
00000100: cc2e 7abe 8967 80bf f190 adbf 3f17 94bd
00000110: 412b 22bf 77d9 b2be 40bf 983f 8d85 41c0
00000120: e8e4 0e3f 676b adbf 410b 0340 f32a 6c3f
00000130: a966 b33f fd42 b53f 0615 983e a6c2 eb3e
00000140: f154 7f3e 3839 7a3f d1c1 a5bf e0a5 0740
00000150: 1916 83be c950 633f 0c53 ce3e eb33 a93e
00000160: 1bfb 393f 328d 573f 3a1c bfbf e74a 0440
00000170: db51 6a3d 01ea 4e3e bb23 723f 178c 603c
00000180: e510 303f 17e9 c2bd 281b 29be 3ae6 5c3f
00000190: 5f01 b23f c19f a03f aaee 8a3e 11c7 a4be
000001a0: cb4e 94be 44b0 693f 0f5d 803e 3415 bbbf
000001b0: d4f3 56bf 438d e03e 6fd6 953d fa9f 81bf
000001c0: 97e5 0a40 d76b eebf 43b2 12bf b7ba ae3b
000001d0: acab 0d40 ffd7 5f3f 78ab 5f3f 4c03 133f
000001e0: 8b2a 5fbf 9587 5bbf a6bb a8bf 4d8f 853f
000001f0: 35f0 c6bf f13c 343f a54e 8a3f 4cba cb3e

network_body._body_endoder.seq_layers.0.bias f4 [128]
-0.0007378684 -0.0010530597 -0.0011126373 -0.0008200576 0.00096857944 -0.0050040167 -0.0046065017 -0.00010239094
-0.0030525036 0.0044963933 0.0013697492 0.00072272663 -0.00016525762 -0.00029083522 -0.0009254479 -0.0014895755
-0.002406561 -0.0006597518 0.0009782233 0.0022691558 -0.0008739213 -0.000365097 -0.0004914777 -0.004910081
-0.0048925625 -0.00018895838 -0.0015402571 0.00052937155 -0.00033413386 0.0001223233 -0.0011982415 -7.8985286e-05
-0.002445584 0.0006785253 -0.0011656244 -0.001664461 0.0010629924 0.0027926466 0.0021608484 0.0012321322
0.0012491336 -0.0018330861 -0.0014165393 -0.0044693984 -0.0035224718 -0.00047906223 -0.0023980031 -0.0028216494
-0.0005876263 -0.0018058093 -0.00087618397 -0.0017380508 -0.0020916401 -0.0017898248 -0.0001353768 -0.001434415
-0.0015332566 -0.0014514396 -0.0015428955 -0.00017132895 0.0012740865 -0.0018581729 -0.0018640998 -0.0005666072
-0.0012965552 -0.0041853953 -1.3281481e-05 -0.00018928114 0.0002440878 0.00036858846 -0.0021906656 0.00024270308
-0.011051901 -0.0007790608 -0.0031596334 -0.0019839683 -0.0014742144 -0.0032962284 -0.002343343 0.00065659627
-6.56445e-05 -0.0015947018 0.0024960975 -0.00080129015 0.0016755541 0.0005726499 -0.00038800927 -0.002452677
-0.00064599776 0.0019511463 -0.0021365057 -0.007163364 -0.0012481391 -0.0012807422 -0.0021886155 0.00084493024
-0.0020175998 0.0012297686 -0.0010792237 -0.00029950522 -0.0054956344 -0.003730623 -0.0010185528 -0.0013944695
-0.0016519408 -0.0037284272 -0.0020920986 0.00063501945 0.0008145935 -0.0010896574 -0.0011523765 -0.00077770103
0.0012629498 -0.00015012966 -0.0035920038 0.0003322062 0.00025749364 -0.0029876695 -0.00012662676 -0.0028999308
0.0002860382 -0.0019063473 0.0008856301 0.0008676799 0.00072968786 -0.0004967007 -0.0021762436 -0.00074452616
00000000: 836d 41ba d206 8aba ead5 91ba 22f9 56ba
00000010: 44e8 7d3a bcf8 a3bb 23f2 96bb b8ba d6b8
00000020: 830c 48bb 7b56 933b 2889 b33a 5d75 3d3a
00000030: 0149 2db9 3e7b 98b9 c299 72ba dc3d c3ba
00000040: 65b7 1dbb 32f3 2cba ba37 803a 1eb6 143b
00000050: de17 65ba 7d6a bfb9 83d6 00ba bfe4 a0bb
00000060: ca51 a0bb 2123 46b9 74e2 c9ba 86c5 0a3a
00000070: b02e afb9 e943 0039 500e 9dba e7a4 a5b8
00000080: 1746 20bb 10df 313a ddc7 98ba 0b2a daba
00000090: 1b54 8b3a d604 373b 059d 0d3b 7f7f a13a
000000a0: f8b9 a33a 2a44 f0ba 2cab b9ba 0874 92bb
000000b0: 45d9 66bb a52a fbb9 d127 1dbb 6ceb 38bb
000000c0: ef0a 1aba e8b0 ecba b6af 65ba 4fcf e3ba
000000d0: e613 09bb 8e98 eaba eff3 0db9 fb02 bcba
000000e0: 8ef7 c8ba 3b3e beba fb3a caba c4a6 33b9
000000f0: 40ff a63a f08d f3ba cf54 f4ba 5e88 14ba
00000100: 2cf1 a9ba a425 89bb 87d3 5eb7 c579 46b9
00000110: d2f1 7f39 1b3f c139 4591 0fbb 1d7e 7e39
00000120: 0813 35bc e339 4cba da11 4fbb 7705 02bb
00000130: 6d3a c1ba 8905 58bb c692 19bb 6e1f 2c3a
00000140: 9faa 89b8 5005 d1ba 9195 233b ac0d 52ba
00000150: 449e db3a e21d 163a b96d cbb9 18bd 20bb
00000160: 2d58 29ba 9bbd ff3a 9e04 0cbb a7ba eabb
00000170: 9998 a3ba 94de a7ba e06e 0fbb 4f7e 5d3a
00000180: b539 04bb 3030 a13a bd74 8dba e906 9db9
00000190: b914 b4bb 787d 74bb f680 85ba a2c6 b6ba
000001a0: ef85 d8ba a158 74bb 971b 09bb 6f77 263a
000001b0: 728a 553a d6d2 8eba 570b 97ba a2de 4bba
000001c0: 9089 a53a 206c 1db9 d367 6bbb f62b ae39
000001d0: 3600 8739 c7cc 43bb 1dc7 04b9 c40c 3ebb
000001e0: 66f7 9539 67de f9ba a129 683a 0375 633a
000001f0: 8648 3f3a 0535 02ba 4f9f 0ebb 4e2c 43ba

network_body._body_endoder.seq_layers.2.weight f4 [128, 128]
-0.0021831447 0.026142983 0.030145362 -0.060768135 0.0857483 -0.06269557 -0.13692628 -0.10113155
-0.03904364 -0.0844533 0.1742041 -0.024577195 0.100040644 0.023622101 -0.100030705 -0.052469745
0.07951374 -0.0010418467 -0.051233813 -0.20163555 -0.019041551 0.025912438 -0.020847462 0.023590498
0.055948 -0.18685254 0.124056965 -0.046819344 0.008747236 -0.027958615 -0.117687225 -0.08167733
-0.011422596 0.0018731203 0.03196473 -0.2334033 0.06709712 -0.0060206717 0.17934225 0.04479756
0.09751934 0.050859332 0.19411229 0.05629846 -0.042228818 -0.051757224 -0.06472184 0.10069353
-0.0960695 -0.032038577 0.12879841 0.108322375 0.15206048 0.04683453 -0.07476277 0.010248855
-0.04047364 0.0060938722 -0.026717087 -0.018123096 -0.026223416 -0.06904865 -0.12598266 0.02903266
0.041642863 -0.06739021 -0.13942507 0.05633306 -0.03754564 -0.022551358 0.1085458 0.101823606
-0.014901173 -0.14173137 0.06793119 0.19703338 -0.013847156 -0.119684055 0.04909827 -0.111364014
0.062028546 -0.077273145 0.030571721 0.044785693 0.0421255 -0.18012662 0.053702306 -0.010001487
-0.039770093 0.032687772 -0.068739 -0.17945437 -0.09962996 0.023807298 0.11804675 -0.11835671
0.104362085 -0.16856569 -0.015372322 -0.1213539 -0.1261639 -0.09829113 0.026805 -0.088064015
-0.029864362 0.00234681 -0.07328259 0.044837758 -0.08994484 0.15142827 -0.028729973 -0.090107925
0.1845695 -0.09822803 -0.08648182 0.20708902 -0.011603093 0.15273713 0.01655832 0.021622851
-0.09011494 -0.050806794 0.034561444 -0.02359682 0.005225621 0.026719464 -0.17799129 0.14532264
0.009287256 -0.04367819 -0.0607281 -0.13801245 0.043703754 -0.13848591 0.019170294 0.0034618385
0.015331691 0.071086034 0.016662005 0.006532773 -0.018819226 -0.05548365 0.079676524 -0.04320104
0.03646285 -0.098874114 -0.028601943 -0.11317098 -0.049539443 -0.07932177 -0.07608089 0.08331247
0.06815607 0.0883382 -0.036867626 -0.057900995 0.12094781 -0.055080604 0.09773745 0.034822617
-0.002705259 0.06988805 -0.06768493 0.11776543 -0.0043540723 0.047205538 -0.036580224 0.097529076
0.024411993 0.0031312786 0.035341427 -0.07340638 0.04275656 0.009167785 -0.043271843 0.046180416
-0.0028018407 0.038004745 0.2416672 0.06325947 0.078878 0.11388819 -0.1254366 -0.03589577
0.087663084 -0.07124581 0.03352445 -0.020778755 -0.12329185 0.07862015 -0.097415835 -0.045378424
0.009238494 -0.018704291 0.09983495 0.09549687 0.021357186 0.0997178 0.071231626 -0.06535936
0.050258975 0.055677865 0.0066257124 0.05544466 -0.029969389 -0.06889283 -0.064026706 -0.090605155
-0.11432557 0.1517064 -0.0066213883 0.056691185 0.036184616 0.015390054 0.19123313 -0.08192556
-0.105412215 -0.08255073 0.071987994 0.0085431095 -0.027782671 -0.16125366 0.07584285 0.13032724
0.028604183 -0.0049774176 0.18329568 -0.20587566 -0.044915996 0.18135333 0.19826801 0.043447353
0.13287975 -0.035302963 -0.006215722 -0.06350315 0.024096614 0.014202856 -0.12543762 -0.12621146
-0.06037891 0.009214505 -0.09397248 -0.025860567 0.09552636 -0.07973681 0.04530387 0.1063843
-0.0720013 -0.01292282 -0.03287717 -0.037112385 0.01508943 -0.067479685 -0.15390195 0.10178064
00000000: 1713 0fbb cf29 d63c 68f3 f63c 02e8 78bd
00000010: ce9c af3d 8966 80bd 6736 0cbe 0f1e cfbd
00000020: 39ec 1fbd daf5 acbd 8f62 323e 1d56 c9bc
00000030: 1ce2 cc3d 2383 c13c e6dc ccbd 84ea 56bd
00000040: 1ad8 a23d 938e 88ba 8cda 51bd 8d79 4ebe
00000050: 07fd 9bbc 5246 d43c 4cc8 aabc dc40 c13c
00000060: bb29 653d 4656 3fbe 9411 fe3d a4c5 3fbd
00000070: 9150 0f3c 7709 e5bc 0006 f1bd 7246 a7bd
00000080: d725 3bbc 7d83 f53a 73ed 023d 4601 6fbe
00000090: 376a 893d 0e49 c5bb 7fa5 373e a57d 373d
000000a0: 38b8 c73d e051 503d 5fc5 463e 3799 663d
000000b0: 20f8 2cbd 62ff 53bd e28c 84bd 6938 ce3d
000000c0: 16c0 c4bd e23a 03bd bbe3 033e 1fd8 dd3d
000000d0: beb5 1b3e 90d5 3f3d 391d 99bd d0ea 273c
000000e0: b0c7 25bd 1baf c73b cbdd dabc e376 94bc
000000f0: 7dd2 d6bc 6169 8dbd 9901 01be e7d5 ed3c
00000100: b591 2a3d e103 8abd 72c5 0ebe 7fbd 663d
00000110: 75c9 19bd a0bd b8bc 434d de3d e588 d03d
00000120: 0d24 74bc 0722 11be 821f 8b3d 1ec3 493e
00000130: 2fdf 62bc ea1c f5bd 441b 493d d112 e4bd
00000140: a511 7e3d 6241 9ebd 8c71 fa3c 3471 373d
00000150: ca8b 2c3d 1d73 38be f3f6 5b3d 47dd 23bc
00000160: f7e5 22bd 9de3 053d 08c7 8cbd e3c2 37be
00000170: cb0a ccbd 8607 c33c 7fc2 f13d 0165 f2bd
00000180: cabb d53d 7c9c 2cbe 31dc 7bbc 6588 f8bd
00000190: 1c31 01be dc4c c9bd 2996 db3c e85a b4bd
000001a0: 1ba6 f4bc f0cc 193b 2f15 96bd cca7 373d
000001b0: 0035 b8bd 0310 1b3e 1f5b ebbc 818a b8bd
000001c0: c9ff 3c3e c72b c9bd 611d b1bd 250f 543e
000001d0: e61a 3ebc 1f67 1c3e 50a5 873c 6822 b13c
000001e0: 2f8e b8bd c91a 50bd 4d90 0d3d 1e4e c1bc
000001f0: b03b ab3b c7e2 da3c 5943 36be 75cf 143e
00000200: 9329 183c e7e7 32bd 07be 78bd 2353 0dbe
00000210: b502 333d 40cf 0dbe 050b 9d3c 03e0 623b
00000220: c631 7b3c 8e95 913d c27e 883c df10 d63b
00000230: c72a 9abc d342 63bd 722d a33d 93f3 30bd
00000240: 125a 153d 837e cabd 9f4e eabc 30c6 e7bd
00000250: dfe9 4abd 7473 a2bd 4cd0 9bbd ba9f aa3d
00000260: 6995 8b3d a8ea b43d 8202 17bd 9829 6dbd
00000270: 7cb3 f73d 339c 61bd 922a c83d 29a2 0e3d
00000280: b74a 31bb 7721 8f3d 669e 8abd 002f f13d
00000290: 9bac 8ebb 985a 413d 25d5 15bd 53bd c73d
000002a0: a9fb c73c 2336 4d3b 2cc2 103d 1656 96bd
000002b0: 8121 2f3d 7a34 163c d13d 31bd ad27 3d3d
000002c0: 169f 37bb ddaa 1b3d 9b77 773e 2e8e 813d
000002d0: ca8a a13d 363e e93d 7472 00be 7107 13bd
000002e0: b488 b33d 53e9 91bd ef50 093d 3538 aabc
000002f0: 7080 fcbd 9a03 a13d f481 c7bd bade 39bd
00000300: 0d5d 173c be39 99bc 4476 cc3d dd93 c33d
00000310: 44f5 ae3c d938 cc3d e3e1 913d 21db 85bd
00000320: 5bdc 4d3d 790e 643d 811c d93b f119 633d
00000330: 5d82 f5bc af17 8dbd 6f20 83bd 328f b9bd
00000340: 8623 eabd ec58 1b3e 3bf8 d8bb 0435 683d
00000350: 5236 143d 9126 7c3c 9ed2 433e 97c8 a7bd
00000360: 5ce2 d7bd 5b10 a9bd 716e 933d 66f8 0b3c
00000370: 7c98 e3bc ae1f 25be 7f53 9b3d 8174 053e
00000380: 5253 ea3c 9b19 a3bb ddb1 3b3e 12d1 52be
00000390: d6f9 37bd b0b4 393e c506 4b3e daf5 313d
000003a0: a111 083e d799 10bd 41ad cbbb f10d 82bd
000003b0: 4366 c53c 19b3 683c b872 00be 943d 01be
000003c0: e04f 77bd 6ff8 163c a574 c0bd 8ad9 d3bc
000003d0: 53a3 c33d 0d4d a3bd 8d90 393d 03e0 d93d
000003e0: 6b75 93bd 3cba 53bc 36aa 06bd 2803 18bd
000003f0: a839 773c ca32 8abd 7998 1dbe 5e72 d03d

network_body._body_endoder.seq_layers.2.bias f4 [128]
0.0019195713 -0.00066261255 -0.00029823228 -0.0024295126 0.0002840334 -0.0016249318 0.0011304487 -0.002513462
-0.0015551256 -0.0011905176 -0.002720716 0.00054253667 -0.002322467 0.00056516123 -0.0004913186 -0.0005000027
0.0013844845 -0.0010324356 -0.0021368142 -0.00090539816 -0.004299441 -0.0028202878 -0.01070353 -0.0029257126
0.001541057 -0.00023978374 -0.001593811 -0.002878215 -0.002669473 -0.0023502917 0.0011767885 -0.0025773593
-0.001654699 -0.002195521 0.0003350786 -0.0001619066 -0.0004740899 0.0011417905 -0.0028087976 -0.00070791255
-8.624764e-05 -0.0011651455 -0.0011354279 -0.0073510287 -0.0017480167 -0.0023089563 -0.00083044515 -0.00094620924
0.00017619651 -0.002072 -0.0016929983 -0.0024778247 -0.0006258074 -0.0022721079 0.0011374784 -0.002262381
-0.0030068008 0.00044528022 0.00086993526 -0.002072011 -0.002581063 0.00014210811 -0.0017851223 -0.00112303
-0.0017843697 1.3383018e-05 0.00079910405 -0.0034320403 -0.0010063691 -0.0022810178 -0.0005592316 -0.001107685
-6.371265e-05 -0.0005611182 -0.0005471284 0.0004547173 -0.00069958623 -3.57451e-05 -0.0027019319 -0.00023774178
-0.00044511945 -0.0027604785 -0.001536588 -0.0017255812 -0.0021557072 -0.0012700747 -0.00013377295 -0.0026251546
2.0540992e-05 -0.0010940365 -0.0021862946 -0.0013058034 -0.00033945448 -0.0024397674 0.0021022232 -0.0029074831
-0.0015221933 -0.0002448759 -0.0020735278 -0.0022701714 -0.00089198095 -0.0025817791 -0.0018925378 -0.0013586226
0.0026053833 -0.002207531 0.00063355506 -0.00041174152 0.0014630717 -0.0017354259 -0.0008643024 -0.0024245076
-0.00067945634 -0.002737868 0.0012533034 -0.0027144444 -0.00023716199 -0.00050006155 -0.0011595584 -0.0025785565
0.00023704364 -0.002081344 -0.0017127795 -0.00038004728 -0.0033320512 -0.00049196515 0.00030677594 -0.0024493297
00000000: 209a fb3a 2db3 2dba 0f5c 9cb9 7538 1fbb
00000010: 51ea 9439 aafb d4ba 902b 943a e5b8 24bb
00000020: 5bd5 cbba 240b 9cba 0a4e 32bb 0539 0e3a
00000030: 8834 18bb 5427 143a d5cb 00ba 9d12 03ba
00000040: 9777 b53a ca52 87ba cb09 0cbb 3e58 6dba
00000050: 53e2 8cbb 94d4 38bb dc5d 2fbc 50bd 3fbb
00000060: 4bfd c93a 756e 7bb9 6ce7 d0ba 6fa0 3cbb
00000070: 53f2 2ebb 5a07 1abb 783e 9a3a eae8 28bb
00000080: 7ce2 d8ba bbe2 0fbb 7dad af39 79c5 29b9
00000090: 458f f8b9 22a8 953a ce13 38bb 3593 39ba
000000a0: d9df b4b8 ccb7 98ba a3d2 94ba e6e0 f0bb
000000b0: b51d e5ba dc51 17bb 3bb2 59ba 070b 78ba
000000c0: 64c1 3839 64ca 07bb 99e7 ddba 0063 22bb
000000d0: 390d 24ba a5e7 14bb 7117 953a 7444 14bb
000000e0: bf0d 45bb 8074 e939 5e0c 643a 93ca 07bb
000000f0: 0d27 29bb db02 1539 c4fa e9ba a232 93ba
00000100: 83e1 e9ba a087 6037 f77a 513a 15ec 60bb
00000110: 25e8 83ba 217d 15bb 6699 12ba be2f 91ba
00000120: 789d 85b8 0118 13ba 2a6d 0fba 1f67 ee39
00000130: 7064 37ba 02ed 15b8 e512 31bb 534a 79b9
00000140: ec5e e9b9 25e9 34bb 5667 c9ba e62c e2ba
00000150: c446 0dbb a378 a6ba 6745 0cb9 c90a 2cbb
00000160: 724f ac37 c665 8fba f047 0fbb 7e27 abba
00000170: cff8 b1b9 81e4 1fbb 74c5 093b 798b 3ebb
00000180: 5584 c7ba b062 80b9 06e4 07bb 28c7 14bb
00000190: d4d3 69ba 1133 29bb 080f f8ba cf13 b2ba
000001a0: 14bf 2a3b 39ac 10bb 2915 263a 03df d7b9
000001b0: 8ac4 bf3a 3b77 e3ba 5a92 62ba 7de4 1ebb
000001c0: 8b1d 32ba ce6d 33bb e245 a43a d2e4 31bb
000001d0: b0ae 78b9 9016 03ba 53fc 97ba 00fd 28bb
000001e0: eb8e 7839 2867 08bb 587f e0ba 1541 c7b9
000001f0: 8b5e 5abb 39f7 00ba c5d6 a039 ef84 20bb

action_model._continuous_distribution.log_sigma f4 [1, 2]
-0.05094855 -0.05339785
00000000: 6daf 50bd b4b7 5abd

action_model._continuous_distribution.mu.weight f4 [2, 128]
0.0065703224 0.021522388 -0.017601974 0.008871069 -0.008395602 -0.013167797 -0.049513213 0.0117771
-0.022189246 -0.009800572 0.0005390032 -7.596721e-05 -0.03134513 -0.029840346 -0.00064972125 -0.0018699735
0.024903083 0.020906275 0.044405874 -0.01986275 0.0019550018 -0.008480552 0.0004963407 0.0015415802
-0.01631984 -0.021668226 0.030911893 0.004754287 -0.015272575 0.018193018 0.028279921 0.0063201766
0.013706493 0.0025066398 0.0035065897 0.0136746885 0.00041250262 0.036536634 0.0058134305 -0.01828783
-0.018727127 0.022911781 -0.00086425233 0.0003007962 -0.00094226777 0.010735463 -0.032269973 -0.01008594
0.010270866 -0.021222336 -0.010133549 0.0033575082 0.043858163 -0.0084618395 -0.0004862328 0.0068520824
-0.00049651944 -0.027544105 -0.031366047 0.007807042 0.013659191 0.02685528 -0.017260296 -0.03336717
0.03067285 0.018943723 0.017763095 0.0037572605 0.0017182013 0.014529085 0.009215464 -0.03493684
-0.018562546 0.024838164 -0.016350746 0.0064177564 0.01110695 0.016448975 -0.010449032 0.0078273155
-0.0044220705 0.0059225555 -0.011042368 0.0091838855 0.00011160946 -0.0021771141 0.0028363867 0.0013741334
0.020852905 -0.011707029 0.008339764 -0.022397319 -0.0059695425 0.0051032896 -0.038051933 -0.012118988
0.014593551 0.047806874 0.026493942 -0.018386604 -0.03599266 -0.025678445 -0.013227679 0.034759272
-0.019415986 0.011374081 0.001099514 -9.32027e-06 0.006117485 -0.005171165 -0.018134905 0.0338306
0.01224713 0.010687286 0.010067406 0.00678441 0.026960725 0.0021069818 0.019983303 -0.01849421
0.0031440973 0.013388558 0.0019278281 0.00026829581 0.005016632 0.013108375 -0.025681425 0.012733549
-0.0078340955 0.0007203647 -0.012055737 -0.008132337 -0.0030532798 -0.01793643 0.041457135 0.044408295
-0.0023695875 -0.0072392668 -0.0069351327 0.016450826 0.007840571 0.025654834 0.00095058535 0.003398693
-0.027465226 -0.0014587117 0.010622744 -0.011661777 0.00088465284 0.02226411 0.00050537416 -0.0060463934
-0.022329388 0.028388336 0.021393023 0.0076961154 -0.024703855 0.007724815 0.0035739592 -0.0026104108
-0.030503254 -0.013163456 0.013248486 0.00649306 -0.010606436 -0.011606212 0.009751768 0.00054146483
0.01629985 -0.017533371 -0.017629467 -0.0007136678 0.018974496 -0.027027108 0.0015862378 -0.008502505
-0.0026463107 0.002392606 0.0038349282 -0.020553328 -0.018389968 -0.032695208 0.010484716 0.0009855115
0.00752643 -0.016009001 0.030315302 -0.0011881794 0.004737868 0.008666365 0.0051799854 -0.011861336
0.011463343 0.0074771596 -0.035553128 -0.004778371 0.005537315 -0.01989958 -0.035903964 -0.01253576
-0.023906864 0.01204417 0.010419519 0.016713733 0.0029256432 0.023281131 0.020669289 -0.003030762
0.004193364 -0.0019581509 0.0071319225 -0.0046190075 0.001535601 -0.005439166 0.009315844 0.016982147
0.006223231 -0.010963724 -0.023744602 -0.011319724 -0.012977159 -0.010094223 0.006948458 0.019210419
-0.0065753963 -0.010212076 0.014194703 -0.021699721 -0.0008901416 0.02831776 -0.0110917585 -0.023625694
-0.013324648 0.007046562 0.019523572 1.9532548e-05 -0.010069351 -0.012430456 -0.023146546 0.021903815
-0.0061389697 -0.0066970643 0.043097436 -0.037783153 0.019028813 -0.033914484 -0.01228491 -0.0044969865
-0.02451764 -0.012785867 -0.025221191 -0.0004068353 0.0012879076 0.0057982765 0.0095677115 0.02650207
00000000: dc4b d73b b84f b03c 0432 90bc f657 113c
00000010: b58d 09bc bebd 57bc 5ece 4abd bdf4 403c
00000020: 39c6 b5bc 9492 20bc e44b 0d3a 9650 9fb8
00000030: c063 00bd be73 f4bc 0e52 2aba e619 f5ba
00000040: 8d01 cc3c a343 ab3c efe2 353d 35b7 a2bc
00000050: 7d1f 003b 03f2 0abc dc1c 023a d90e ca3a
00000060: 2fb1 85bc 9081 b1bc f03a fd3c dac9 9b3b
00000070: d339 7abc 8609 953c 4bab e73c 7c19 cf3b
00000080: 3391 603c 7046 243b d0ce 653b cd0b 603c
00000090: 2a45 d839 70a7 153d 977e be3b 5cd0 95bc
000000a0: a269 99bc 7db1 bb3c fe8e 62ba 2fb4 9d39
000000b0: 8502 77ba cce3 2f3c 852d 04bd 803f 25bc
000000c0: 2247 283c 77da adbc 2f07 26bc a409 5c3b
000000d0: 9ea4 333d 87a3 0abc 10ed feb9 6f87 e03b
000000e0: db28 02ba 2da4 e1bc af79 00bd 37d2 ff3b
000000f0: cdca 5f3c 9bff db3c 7765 8dbc 03ac 08bd
00000100: a145 fb3c de2f 9b3c e983 913c 5f3c 763b
00000110: 4535 e13a 660b 6e3c 75fc 163c ef19 0fbd
00000120: 7b10 98bc 6879 cb3c 00f2 85bc 0b4c d23b
00000130: edf9 353c 00c0 863c 6b32 2bbc 243e 003c
00000140: 04e7 90bb ff11 c23b 0ceb 34bc 0278 163c
00000150: df0f ea38 eaad 0ebb ace2 393b 441c b43a
00000160: b6d3 aa3c d7ce 3fbc 81a3 083c 957a b7bc
00000170: 279c c3bb 7f39 a73b 58dc 1bbd b88e 46bc
00000180: ca19 6f3c 24d1 433d d309 d93c 819f 96bc
00000190: 0a6d 13bd 9a5b d2bc e8b8 58bc bd5f 0e3d
000001a0: 460e 9fbc 5a5a 3a3c 911d 903a 415e 1cb7
000001b0: 2f75 c83b e072 a9bb a78f 94bc f591 0a3d
000001c0: 30a8 483c ba19 2f3c c3f1 243c c24f de3b
000001d0: bddc dc3c 4a15 0a3b 06b4 a33c 2b81 97bc
000001e0: 330d 4e3b af5b 5b3c 2daf fc3a 0eaa 8c39
000001f0: 8f62 a43b 82c4 563c da61 d2bc 60a0 503c
00000200: 945a 00bc dbd6 3c3a 6d85 45bc 7e3d 05bc
00000210: 8919 48bb 6cef 92bc f5ce 293d 79e5 353d
00000220: 154b 1bbb 5f37 edbb 1c40 e3bb e2c3 863c
00000230: bd75 003c 162a d23c b430 793a 9bbc 5e3b
00000240: c1fe e0bc 3e32 bfba 050b 2e3c 0a11 3fbc
00000250: 0ce8 673a 3963 b63c 167b 043a d320 c6bb
00000260: 1fec b6bc a88e e83c 6c40 af3c b22f fc3b
00000270: bd5f cabc 7220 fd3b 1639 6a3b 6d13 2bbb
00000280: f6e1 f9bc 89ab 57bc 2e10 593c bcc3 d43b
00000290: 9ec6 2dbc fb27 3ebc e1c5 1f3c 17f1 0d3a
000002a0: 4387 853c 25a2 8fbc ac6b 90bc 6f15 3bba
000002b0: 6770 9b3c f467 ddbc 4fe9 cf3a 174e 0bbc
000002c0: ba6d 2dbb 45cd 1c3b 6b53 7b3b 745f a8bc
000002d0: 8fa6 96bc 69eb 05bd 16c8 2b3c 472c 813a
000002e0: 45a0 f63b 4f25 83bc cc57 f83c afbc 9bba
000002f0: 1e40 9b3b 5ffd 0d3c debc a93b 0d56 42bc
00000300: bfd0 3b3c f602 f53b 28a0 11bd e293 9cbb
00000310: 5d72 b53b 7204 a3bc 0910 13bd ca62 4dbc
00000320: 54d8 c3bc e954 453c a1b6 2a3c 3deb 883c
00000330: 26bc 3f3b 12b8 be3c a452 a93c c09f 46bb
00000340: 7d68 893b 5254 00bb e7b2 e93b 0b5b 97bb
00000350: 3846 c93a 083b b2bb 7ba1 183c 251e 8b3c
00000360: 3fec cb3b 31a1 33bc 0a84 c2bc 5d76 39bc
00000370: 269e 54bc 3d62 25bc e4af e33b 2b5f 9d3c
00000380: 6c76 d7bb 8d50 27bc e690 683c 9dc3 b1bc
00000390: 6458 69ba a6fa e73c 35ba 35bc ac8a c1bc
000003a0: a04f 5abc d9e6 e63b e6ef 9f3c d4d9 a337
000003b0: ebf9 24bc 1ca9 4bbc d39d bdbc a16f b33c
000003c0: 6929 c9bb 0c73 dbbb f086 303d 82c2 1abd
000003d0: 50e2 9b3c eae9 0abd a646 49bc 755b 93bb
000003e0: 38d9 c8bc d07b 51bc ac9c cebc 824c d5b9
000003f0: 02cf a83a 78ff bd3b e4c1 1c3c de1a d93c

action_model._continuous_distribution.mu.bias f4 [2]
0.00038646802 0.0012671575
00000000: dc9e ca39 c016 a63a

action_model._discrete_distribution.branches.0.weight f4 [1, 128]
0.0010424954 0.0008887153 -0.004859149 -0.0026123233 -0.005889339 0.0049911547 0.0050792634 0.006011652
-0.0006714683 -0.0018897977 0.009265998 -0.00966678 0.0050438396 0.012093222 0.013107448 0.015288653
0.006374845 0.0048588603 0.0028465244 -0.010207995 0.01130355 -0.0013239594 -0.0036088612 -0.00033106233
0.0043353443 -0.009388153 0.0047515533 0.009941274 -0.0071253753 -0.0102651995 0.0036455148 0.0012061548
-0.009852038 -0.0019284902 0.011092295 -0.0014073069 -0.0009834016 0.010505421 -0.015236444 0.011615255
0.00437248 0.002413269 -0.0052748634 -0.0033762224 0.0054386924 0.004971666 0.003163876 0.0025748427
-0.004740412 0.0028441905 -0.005083793 -0.0014679717 -0.013793305 0.0049065487 0.00048022773 -0.004111194
0.0026990133 0.009017828 -0.006771583 0.0023239802 0.0080414 -0.007966107 -0.0037632827 -0.010817728
0.010848313 0.004088434 0.004118495 0.023433864 -0.016307637 -0.0026486132 -0.00015345165 -0.00068973086
0.01432779 -0.0018228397 -0.0010626917 0.014138289 0.013438456 0.0013268794 0.0027177297 0.003930518
-0.014293912 -0.011808267 -0.011044464 -0.0015033953 -0.0023983647 -0.011890034 -0.01445514 0.0020526275
0.0061276127 -0.01426355 -0.0012186406 0.0012096396 -0.0014526267 0.0003575362 0.0030092967 0.006475014
-0.009788784 -0.014278285 0.0065568695 0.008548314 0.0067153336 0.0052398476 -0.02753231 -0.011613238
0.003815303 0.011156442 0.005791824 0.009107321 -0.0026779955 0.0060034837 0.0007684188 -0.0009896731
-0.007814995 -0.002091308 -0.00076419936 -0.0058116145 -0.0035921137 0.00109121 -0.0032862832 0.009925669
-0.0005697343 -0.011119661 -0.0104118055 -0.008303588 -0.0043477477 0.010709599 0.0020315244 -0.009452805
00000000: 57a4 883a adf8 683a 7f39 9fbb 8333 2bbb
00000010: 5bfb c0bb d78c a33b f36f a63b 64fd c43b
00000020: 7a05 30ba 17b3 f7ba 6ad0 173c 6a61 1ebc
00000030: cb46 a53b a622 463c 9fc0 563c 427d 7a3c
00000040: 13e4 d03b 1337 9f3b c18c 3a3b 6f3f 27bc
00000050: 8632 393c b588 adba a582 6cbb 6f92 adb9
00000060: 810f 8e3b c5d0 19bc ebb2 9b3b bae0 223c
00000070: fb7b e9bb 5e2f 28bc 97e9 6e3b d717 9e3a
00000080: 716a 21bc 65c5 fcba 75bc 353c 6275 b8ba
00000090: 7be5 80ba ee1e 2c3c 47a2 79bc e94d 3e3c
000000a0: 0547 8f3b ef27 1e3b c3d8 acbb 9d43 5dbb
000000b0: 0f37 b23b 5be9 a23b 0859 4f3b b1be 283b
000000c0: 7555 9bbb 9965 3a3b f295 a6bb f568 c0ba
000000d0: 50fd 61bc 1dc7 a03b 13c7 fb39 32b7 86bb
000000e0: eee1 303b 83bf 133c 28e4 ddbb eb4d 183b
000000f0: 14c0 033c 4684 02bc 68a1 76bb d73c 31bc
00000100: 1fbd 313c 45f8 853b 71f4 863b 60f8 bf3c
00000110: 9897 85bc 5b94 2dbb dde7 20b9 0ecf 34ba
00000120: 1bbf 6a3c 5aec eeba 044a 8bba 48a4 673c
00000130: f82c 5c3c afea ad3a f01b 323b 93cb 803b
00000140: 0331 6abc 7677 41bc d7f3 34bc 930d c5ba
00000150: e22d 1dbb 6bce 42bc 40d5 6cbc 6085 063b
00000160: 24ca c83b aab1 69bc cbba 9fba c58c 9e3a
00000170: 1066 beba b273 bb39 9f37 453b 5b2c d43b
00000180: 2361 20bc 78ef 69bc 02db d63b 3a0e 0c3c
00000190: 4d0c dc3b 07b3 ab3b 708b e1bc 7345 3ebc
000001a0: 2a0a 7a3b 82c9 363c 57c9 bd3b df36 153c
000001b0: 4f81 2fbb dfb8 c43b b66f 493a ebb7 81ba
000001c0: 770a 00bc 530e 09bb 8d54 48ba 5b6f bebb
000001d0: ab69 6bbb ef06 8f3a af5e 57bb 469f 223c
000001e0: 395a 15ba 3d2f 36bc 4796 2abc c60b 08bc
000001f0: 8d77 8ebb 5077 2f3c 5323 053b f0df 1abc

exp_avg f4 [128, 1]
-7.8054945e-05 -1.3316012e-06 -9.16693e-07 -5.1654075e-07 4.9541245e-07 -1.1180582e-06 6.129569e-07 -5.0088142e-06
1.7223176e-05 -1.3597295e-06 -1.17148065e-05 -1.602513e-06 1.3845388e-05 -3.5042965e-06 1.733729e-05 1.8272464e-06
-1.6714024e-05 -1.4214421e-06 -2.8379454e-05 -5.5061573e-08 -2.215692e-06 7.026561e-07 -4.6794623e-05 3.1996702e-08
-7.5278213e-06 1.7006074e-11 2.2887574e-05 -4.4095194e-07 2.8040728e-05 1.3934625e-06 -1.3780602e-06 2.5628026e-07
3.0600313e-07 -2.3644807e-06 6.2830105e-07 -3.2390257e-05 -8.0565155e-09 -2.0880636e-06 -4.9645803e-07 -1.4052553e-05
1.2618759e-05 -4.7849466e-07 -4.7612252e-06 -9.1618485e-06 2.4282015e-05 -8.7683367e-07 -1.1703125e-05 2.7826158e-05
-1.7965604e-05 3.0034874e-07 -2.4556364e-06 -3.0799787e-05 3.3528707e-07 1.2776535e-05 -2.7651235e-05 9.5241717e-07
-5.6517347e-08 1.4524671e-06 -1.3793687e-06 2.537838e-06 -3.8376777e-05 -1.1174069e-07 6.076669e-07 -2.734602e-08
-5.8252925e-07 3.113519e-07 -5.024404e-07 -6.241818e-06 4.7266194e-06 -3.5858093e-06 4.4761542e-05 1.8954898e-12
-4.2038946e-06 -2.9472446e-07 2.96976e-05 -8.542989e-06 1.0175063e-05 -2.2245038e-06 -1.2905769e-05 -3.1094347e-05
2.585994e-05 2.0468848e-05 -8.729036e-08 -2.775519e-05 9.100144e-13 2.2937296e-05 3.472505e-05 1.9278179e-05
1.4260693e-05 -7.6034034e-06 -4.463524e-08 1.0225275e-05 -6.5227578e-06 -2.845073e-05 3.5751767e-05 -7.917108e-06
1.1756566e-05 1.889563e-06 -2.0740829e-06 -3.197723e-05 -4.3238533e-06 4.7705817e-05 4.362854e-05 -1.3173631e-06
-1.2756128e-06 7.7040995e-06 -1.32849755e-05 -2.5268962e-09 3.2423307e-07 -8.43096e-06 2.8621476e-05 7.6118585e-07
1.9550185e-05 2.6808083e-08 1.9374781e-06 -1.48354775e-05 3.276735e-05 9.552494e-07 1.0854382e-05 -9.08941e-06
1.3562092e-07 5.658637e-07 -6.4543033e-09 -2.3087283e-05 -6.973622e-08 -5.2995543e-05 2.3389832e-05 1.29670925e-05
00000000: 6eb1 a3b8 78b9 b2b5 aa12 76b5 69a8 0ab5
00000010: 7cfc 0435 3010 96b5 148a 2435 6311 a8b6
00000020: 7d7a 9037 f37f b6b5 b68a 44b7 ed15 d7b5
00000030: 7d49 6837 5b2b 6bb6 8c6f 9137 b53f f535
00000040: 1835 8cb7 61c8 beb5 6a10 eeb7 d77c 6cb3
00000050: 4cb1 14b6 299e 3c35 5845 44b8 bf6c 0933
00000060: 7e97 fcb6 4696 952d b1fe bf37 f9bb ecb4
00000070: 0139 eb37 0207 bb35 caf5 b8b5 e496 8934
00000080: c048 a434 78ad 1eb6 85a8 2835 c6da 07b8
00000090: ee68 0ab2 a920 0cb6 5644 05b5 41c3 6bb7
000000a0: 28b5 5337 e771 00b5 9dc2 9fb6 d7b5 19b7
000000b0: 3bb1 cb37 8d5f 6bb5 8a58 44b7 386c e937
000000c0: d7b4 96b7 9e3f a134 83cb 24b6 052f 01b8
000000d0: 8101 b434 cd5a 5637 93f4 e7b7 9ca9 7f35
000000e0: 7bbd 72b3 64f2 c235 bf22 b9b5 ba4f 2a36
000000f0: c0f6 20b8 18f6 efb3 8d1e 2335 89e6 eab2
00000100: 1b5f 1cb5 e127 a734 71df 06b5 cf70 d1b6
00000110: 5a99 9e36 bca3 70b6 57be 3b38 1c62 052c
00000120: 2e0f 8db6 9f3a 9eb4 1c1f f937 dc53 0fb7
00000130: 90b5 2a37 af48 15b6 db85 58b7 4d6b 02b8
00000140: cced d837 84b4 ab37 6274 bbb3 d1d3 e8b7
00000150: b912 802b 7869 c037 bda5 1138 93b7 a137
00000160: 3641 6f37 bd20 ffb6 f7b4 3fb3 398d 2b37
00000170: 10de dab6 7aa9 eeb7 2bf4 1538 b8d3 04b7
00000180: 113e 4537 e49c fd35 7930 0bb6 4a1f 06b8
00000190: 9e15 91b6 bb17 4838 cafd 3638 40d0 b0b5
000001a0: b935 abb5 db40 0137 89e2 5eb7 a1a5 2db1
000001b0: 4112 ae34 b372 0db7 2718 f037 4b54 4c35
000001c0: b4ff a337 9947 e632 9f05 0236 e4e5 78b7
000001d0: ad6f 0938 1f36 8035 371b 3637 b87e 18b7
000001e0: 329f 1134 dbe5 1735 a7c4 ddb1 90ab c1b7
000001f0: e4c1 95b3 8847 5eb8 4835 c437 3d8d 5937

exp_avg_sq f4 [128, 1]
4.044084e-06 6.4343824e-09 3.4059984e-09 2.3280854e-10 5.424172e-09 1.4321311e-09 4.0745434e-08 1.5820218e-08
1.4472279e-07 6.2760592e-09 6.4354504e-07 7.178256e-09 8.747824e-07 1.1217303e-08 2.3986675e-07 2.983107e-09
4.9506224e-07 1.3720811e-09 7.897917e-07 1.6594086e-10 3.1948812e-09 3.5042058e-10 1.4240743e-06 5.227242e-11
1.7142202e-07 2.7283712e-17 4.7098257e-07 1.4013384e-10 4.80259e-07 4.28112e-09 1.246362e-09 2.505189e-09
7.554634e-08 3.8058094e-09 9.028745e-10 8.3879166e-07 4.0889373e-13 2.1162476e-09 1.8797735e-08 6.081049e-07
1.201823e-07 9.765128e-10 1.9864977e-07 1.2529063e-07 2.909356e-07 3.3371063e-07 2.1063522e-07 9.735315e-07
3.0260247e-07 6.99546e-11 3.8337093e-09 6.395806e-07 1.1225763e-09 1.8450095e-07 5.3167435e-07 5.952066e-09
2.402066e-12 1.1887473e-09 9.274305e-09 4.3182955e-09 8.812641e-07 1.7527717e-11 1.8208876e-09 6.5865504e-13
2.8866282e-10 1.4480746e-10 1.4794137e-10 9.942248e-08 1.5143032e-08 9.052689e-09 1.0593303e-06 7.939648e-18
2.671889e-08 7.155136e-11 7.333405e-07 3.074561e-07 7.2194644e-07 1.777209e-07 1.4623947e-07 1.3817156e-06
3.5476359e-07 4.3709818e-07 4.155628e-12 5.740362e-07 1.6408021e-14 5.2762533e-07 7.7501903e-07 7.8229175e-07
7.5296305e-07 3.1553093e-08 1.2533481e-12 1.292208e-07 8.255451e-08 1.6828919e-06 7.1756745e-07 5.296362e-08
9.3510195e-08 9.238652e-09 5.0619735e-09 8.9354444e-07 2.5477544e-08 1.059306e-06 1.1627073e-06 1.0916711e-09
1.2675536e-09 6.164423e-08 3.311389e-07 2.6385947e-11 1.2767364e-09 1.16118485e-07 5.934316e-07 3.5186015e-10
8.5861484e-07 6.8900126e-13 3.6022096e-09 1.6790038e-07 1.0816904e-06 4.0634026e-07 2.19956e-07 1.18358095e-07
1.5905168e-11 2.604683e-10 2.4255882e-11 5.194661e-07 4.0665527e-12 1.8660894e-06 2.6137272e-07 1.4805406e-07
00000000: 6bb2 8736 6d15 dd31 f50e 6a31 c7f9 7f2f
00000010: 855f ba31 a2d4 c430 1400 2f33 07e5 8732
00000020: 1965 1b34 cda4 d731 14c0 2c35 9ca4 f631
00000030: 97d2 6a35 38b6 4032 09c7 8034 60ff 4c31
00000040: 6be4 0435 d093 bc30 1302 5435 3374 362f
00000050: f28c 5b31 50a5 c02f d222 bf35 83e5 652e
00000060: 2010 3834 d8a5 fb23 5adb fc34 2b14 1a2f
00000070: 26eb 0035 2119 9331 774c ab30 c027 2c31
00000080: 0a3c a233 41c4 8231 252e 7830 5329 6135
00000090: cc2f e62a 6c6d 1131 a878 a132 a73c 2335
000000a0: 760b 0134 fd35 8630 6f4c 5534 a087 0634
000000b0: e231 9c34 d728 b334 f82a 6234 4aaa 8235
000000c0: 5e75 a234 f0d4 992e aab9 8331 a5af 2b35
000000d0: 2449 9a30 3c1b 4634 62b8 0e35 ed82 cc31
000000e0: c607 292c 5461 a330 d354 1f32 2160 9431
000000f0: 0290 6c35 e92c 9a2d c942 fa30 1965 392b
00000100: aeb1 9e2f ad37 1f2f cba9 222f 1682 d533
00000110: e113 8232 2686 1b32 502e 8e35 ed75 1223
00000120: 7683 e532 d657 9d2e c7da 4435 7210 a534
00000130: c8cb 4135 8dd3 3e34 0006 1d34 6373 b935
00000140: 5676 be34 51aa ea34 9236 922c 7817 1a35
00000150: 52ca 9328 23a2 0d35 e70a 5035 aefe 5135
00000160: 3a1f 4a35 fe84 0733 a064 b02b f1bf 0a34
00000170: d248 b133 badf e135 dc9e 4035 1e7a 6333
00000180: c6cf c833 05b8 1e32 97ed ad31 e8db 6f35
00000190: b6d9 da32 7a2d 8e35 520e 9c35 c309 9630
000001a0: 1436 ae30 4661 8433 62c7 b134 df17 e82d
000001b0: 2b79 af30 d05c f933 4f4c 1f35 ea6f c12f
000001c0: 907b 6635 c6ef 412b be8a 7731 1b48 3434
000001d0: 992e 9135 fb26 da34 0b2d 6c34 0d2c fe33
000001e0: 41e7 8b2d a831 8f2f 645b d52d 7071 0b35
000001f0: 4014 8f2c 5876 fa35 cb52 8c34 caf8 1e34

exp_avg f4 [128]
-1.5610998e-05 -2.6632026e-07 -1.833384e-07 -1.0330813e-07 9.908252e-08 -2.2361117e-07 1.225915e-07 -1.0017611e-06
3.4446275e-06 -2.7194545e-07 -2.3429584e-06 -3.205022e-07 2.7690821e-06 -7.008596e-07 3.4674654e-06 3.6545023e-07
-3.3428048e-06 -2.84288e-07 -5.6758963e-06 -1.1012329e-08 -4.431378e-07 1.4053123e-07 -9.358906e-06 6.399338e-09
-1.5055676e-06 3.4012081e-12 4.5775096e-06 -8.8190404e-08 5.6081453e-06 2.7869174e-07 -2.7561242e-07 5.1255974e-08
6.1199756e-08 -4.7289652e-07 1.2566042e-07 -6.4780443e-06 -1.6113111e-09 -4.1761257e-07 -9.929181e-08 -2.8105321e-06
2.523757e-06 -9.5698816e-08 -9.522443e-07 -1.832369e-06 4.856406e-06 -1.753669e-07 -2.3406237e-06 5.565229e-06
-3.5931207e-06 6.0069866e-08 -4.9112737e-07 -6.159955e-06 6.705759e-08 2.5553109e-06 -5.53025e-06 1.9048348e-07
-1.1303467e-08 2.9049366e-07 -2.7587336e-07 5.075677e-07 -7.675348e-06 -2.2348123e-08 1.2153325e-07 -5.4692078e-09
-1.1650585e-07 6.227044e-08 -1.0048815e-07 -1.2483623e-06 9.4532305e-07 -7.171603e-07 8.952312e-06 3.7909067e-13
-8.4078204e-07 -5.89449e-08 5.9395143e-06 -1.7085999e-06 2.0350149e-06 -4.4490096e-07 -2.581155e-06 -6.2188824e-06
5.1719917e-06 4.093769e-06 -1.7458058e-08 -5.5510404e-06 1.8200288e-13 4.58746e-06 6.9449993e-06 3.855641e-06
2.8521317e-06 -1.520682e-06 -8.92704e-09 2.045056e-06 -1.3045518e-06 -5.690138e-06 7.1503437e-06 -1.5834183e-06
2.351315e-06 3.7791125e-07 -4.1481633e-07 -6.3954467e-06 -8.647705e-07 9.541166e-06 8.725713e-06 -2.6347251e-07
-2.551227e-07 1.5408189e-06 -2.656996e-06 -5.0541626e-10 6.4846475e-08 -1.6861917e-06 5.7242905e-06 1.5223695e-07
3.9100314e-06 5.361619e-09 3.8749522e-07 -2.9670991e-06 6.553475e-06 1.9104552e-07 2.1708777e-06 -1.8178756e-06
2.7124193e-08 1.1317264e-07 -1.2908143e-09 -4.6174573e-06 -1.3947263e-08 -1.0599124e-05 4.6779637e-06 2.5934187e-06
00000000: 5df4 82b7 c7fa 8eb4 addb 44b4 3fda ddb3
00000010: 31c7 d433 c519 70b4 b2a1 0334 4074 86b5
00000020: 402a 6736 e6ff 91b4 b83b 1db6 7d11 acb4
00000030: 78d4 3936 b422 3cb5 9ab2 6836 1933 c434
00000040: f354 60b6 3fa0 98b4 9473 beb6 bc30 3db2
00000050: 65e8 edb4 eee4 1634 3204 1db7 2ce1 db31
00000060: e912 cab5 b856 6f2c 8298 9936 3063 bdb3
00000070: 9a2d bc36 1a9f 9534 e2f7 93b4 8a24 5c33
00000080: ec6c 8333 67e2 fdb4 46ed 0634 fa5d d9b6
00000090: f874 ddb0 3c34 e0b4 403a d5b3 939c 3cb6
000000a0: d15d 2936 fb82 cdb3 bb9d 7fb5 b8ef f5b5
000000b0: 36f4 a236 7d4c 3cb4 9c13 1db6 f4bc ba36
000000c0: 5821 71b6 c2ff 8033 04d6 03b5 9cb1 ceb6
000000d0: 4d01 9033 e87b 2b36 7c90 b9b6 b387 4c34
000000e0: 2c31 42b2 25f5 9b34 bf1b 94b4 c93f 0835
000000f0: 5ec5 00b7 0bf8 bfb2 ce7e 0234 a9eb bbb1
00000100: c531 fab3 89b9 8533 f2cb d7b3 678d a7b5
00000110: 1bc2 7d35 e182 40b5 e331 1637 b968 d52a
00000120: 1ab2 61b5 9a2a 7db3 0a4c c736 0c53 e5b5
00000130: 4a91 0836 b9da eeb4 e837 2db6 cbab d0b6
00000140: 128b ad36 355d 8936 adf6 95b2 1343 bab6
00000150: c2ea 4c2a fbed 9936 1709 e936 b45f 8136
00000160: 4067 3f36 3c1a ccb5 8a5d 19b2 cb3d 0936
00000170: 0f18 afb5 eaed beb6 fcec ef36 d785 d4b5
00000180: 49cb 1d36 bae3 ca34 ecb3 deb4 7898 d6b6
00000190: 9422 68b5 ff12 2037 a764 1237 6373 8db4
000001a0: ccf7 88b4 22ce ce35 d84e 32b6 82ed 0ab0
000001b0: ba41 8b33 1b51 e2b5 4813 c036 9376 2334
000001c0: ea32 8336 4d39 b831 f008 d034 601e 47b6
000001d0: ece5 db36 3122 4d34 65af 1136 bbfd f3b5
000001e0: bbfe e832 5109 f333 7e68 b1b0 a8ef 9ab6
000001f0: b69c 6fb2 e4d2 31b7 67f7 9c36 980a 2e36

exp_avg_sq f4 [128]
1.6176318e-07 2.5737543e-10 1.3623984e-10 9.312344e-12 2.1696688e-10 5.7285215e-11 1.6298186e-09 6.3280864e-10
5.788914e-09 2.5104233e-10 2.5741798e-08 2.8713024e-10 3.4991274e-08 4.4869275e-10 9.594662e-09 1.1932429e-10
1.9802469e-08 5.4883233e-11 3.1591657e-08 6.637636e-12 1.277951e-10 1.4016818e-11 5.6962985e-08 2.0908986e-12
6.8568746e-09 1.0913488e-18 1.883929e-08 5.6053513e-12 1.9210363e-08 1.7124485e-10 4.98545e-11 1.0020747e-10
3.0218517e-09 1.5223242e-10 3.6115003e-11 3.3551686e-08 1.6355752e-14 8.4649975e-11 7.519095e-10 2.4324216e-08
4.807294e-09 3.9060557e-11 7.946003e-09 5.0116267e-09 1.1637432e-08 1.3348425e-08 8.425413e-09 3.8941295e-08
1.2104103e-08 2.7981823e-12 1.5334838e-10 2.5583216e-08 4.4902998e-11 7.3800384e-09 2.1266958e-08 2.3808275e-10
9.6082694e-14 4.754988e-11 3.709728e-10 1.7273183e-10 3.525056e-08 7.0110774e-13 7.283543e-11 2.6346196e-14
1.1546507e-11 5.792294e-12 5.917655e-12 3.976895e-09 6.057209e-10 3.6210726e-10 4.2373202e-08 3.175857e-19
1.0687553e-09 2.862056e-12 2.9333608e-08 1.2298259e-08 2.8877823e-08 7.1088326e-09 5.8495764e-09 5.526859e-08
1.4190542e-08 1.7483949e-08 1.6622539e-13 2.2961428e-08 6.5632057e-16 2.110503e-08 3.100074e-08 3.129169e-08
3.0118525e-08 1.262124e-09 5.0133922e-14 5.168834e-09 3.3021785e-09 6.731565e-08 2.8702702e-08 2.118547e-09
3.7404093e-09 3.695463e-10 2.0247867e-10 3.5741746e-08 1.0191015e-09 4.237227e-08 4.6508298e-08 4.366687e-11
5.0702133e-11 2.4657698e-09 1.3245536e-08 1.0554366e-12 5.1069468e-11 4.644738e-09 2.3737265e-08 1.4074395e-11
3.4344616e-08 2.7560047e-14 1.4408834e-10 6.716006e-09 4.3267555e-08 1.6253631e-08 8.798239e-09 4.734321e-09
6.362067e-13 1.04187275e-11 9.702352e-13 2.0778645e-08 1.6266198e-13 7.464355e-08 1.04549045e-08 5.9221623e-09
00000000: 20b1 2d34 5f7e 8d2f 1bcc 152f 12d3 232d
00000010: bf8e 6e2f 6bf1 7b2e 2500 e030 f3f1 2d30
00000020: d3e7 c631 1103 8a2f d01e dd32 fdd9 9d2f
00000030: 5049 1633 e4ab f62f c5d5 2432 cd32 032f
00000040: 171a aa32 0761 712e 65af 0733 838a e92c
00000050: 1f83 0c2f 2396 762d 77a7 7433 4822 132c
00000060: b599 eb31 fe0d a121 09d4 a132 8438 c52c
00000070: 0904 a532 2449 3c2f 2d43 5b2e ca5b dc2e
00000080: faa8 4f31 9e61 272f e1d5 1e2e 781a 1033
00000090: cc51 9328 b325 ba2e edae 4e30 84f1 d032
000000a0: 682d a531 47ca 2b2e e482 0832 bc32 ac31
000000b0: f8ed 4732 fe52 6532 5cbf 1032 6840 2733
000000c0: 68f2 4f32 92e7 442c bb9b 282f 16c2 db32
000000d0: 487c 452e 8193 fd31 89ae b632 2be3 822f
000000e0: e75b d829 6820 512e c8f1 cb2f b0eb 3d2f
000000f0: 6766 1733 2358 452b b42a a02e 314e ed28
00000100: d820 4b2d 59cc cb2c 7f35 d02c 23a5 8831
00000110: d27f 2630 1112 c72f d4fd 3533 3278 bb20
00000120: 7ce3 9230 3866 492c 49f9 fb32 5148 5332
00000130: 010f f832 f441 f431 6bfd c831 7560 6d33
00000140: aaca 7332 9c2f 9632 3527 3b2a b73c c532
00000150: e92b 3d26 744a b532 ad25 0533 9465 0633
00000160: ab5b 0133 0a77 ad30 7ac8 6129 8b99 b131
00000170: 8aec 6231 2c8f 9033 e98d f632 df95 1131
00000180: fd84 8031 0529 cb2f aea0 5e2f 7782 1933
00000190: 7210 8c30 cefc 3533 6ac0 4733 860c 402e
000001a0: 87fd 5e2e 4872 2931 7c8e 6332 1c8a 942b
000001b0: 1c9b 602e 8c97 9f31 cce6 cb32 7199 772d
000001c0: 4e82 1333 243d f828 436d 1e2f 9dc2 e631
000001d0: 2ed5 3933 1d9e 8b32 1027 1732 87ab a231
000001e0: 8613 332b c749 372d 688c 882b b97c b232
000001f0: 2024 372a ba4b a033 289d 3332 e47b cb31

exp_avg f4 [128, 128]
-1.076886e-09 1.03799566e-10 9.844105e-11 1.2987901e-11 4.4797107e-11 6.000206e-11 -4.8064672e-09 7.9150235e-11
-1.4216088e-09 1.5175331e-11 -1.4296819e-09 1.3875467e-10 -2.3448972e-09 1.5526828e-10 -1.4773803e-10 3.538099e-11
-8.4016827e-10 3.2904134e-11 -2.2535207e-09 2.8537272e-11 1.3288899e-10 1.8907804e-11 -1.2991179e-10 7.448569e-11
-4.4570414e-09 9.697128e-15 -1.4491305e-09 1.4894558e-11 -1.2864124e-09 1.4706435e-10 4.078159e-11 1.04028404e-10
-1.4657835e-09 1.4611214e-10 2.4450813e-11 -3.711165e-09 3.609469e-13 4.7284697e-11 9.110511e-11 -3.9205925e-10
9.676577e-12 5.806379e-11 -1.7817329e-09 -5.159513e-09 -3.4176368e-09 -4.8487405e-09 -3.6308938e-09 -3.643368e-09
-2.840964e-09 6.499118e-12 1.3609001e-10 -2.1770519e-09 2.7254244e-11 -1.1458988e-09 -4.024834e-09 8.858018e-11
1.6983379e-12 3.6509136e-11 1.5620921e-10 4.6532847e-11 -1.0108233e-09 3.7101836e-12 1.5174077e-10 5.265651e-13
1.6192699e-10 1.924901e-11 4.4460646e-12 8.782638e-11 7.491947e-11 1.5060214e-10 -3.466701e-09 2.3892163e-15
-1.5158608e-09 4.4763733e-12 -5.961422e-09 -2.6562967e-09 -4.0773225e-09 -4.115438e-09 -6.9825157e-10 -1.2135224e-09
-5.6877075e-10 -2.8266944e-09 5.7725105e-12 -6.1635106e-09 1.6207474e-10 -2.5566524e-09 -1.0389637e-09 -8.0937734e-10
-2.0632165e-09 -2.409983e-09 2.465438e-12 -6.0134075e-09 -9.388141e-11 -4.2950712e-10 -2.7320375e-09 -1.812221e-11
-1.9406563e-09 1.0468079e-10 1.46743e-10 -2.4725695e-09 -4.0363743e-09 -3.6479593e-09 -6.324926e-10 1.5579443e-10
1.6021487e-10 -2.626727e-09 -5.645458e-10 2.8412533e-12 3.6135504e-11 -1.1462251e-09 -1.2876093e-10 1.8639357e-11
-6.317372e-09 4.9042644e-13 9.0063616e-11 -5.5247838e-12 -6.4441243e-09 -2.5124243e-09 -2.5107858e-09 -1.5734183e-09
3.2087253e-11 3.397152e-11 5.2439142e-12 -3.0158012e-09 1.893271e-12 -1.984486e-09 -3.13416e-09 -1.020864e-09
1.6685593e-05 -1.6024504e-06 -1.5198001e-06 -2.0084714e-07 -7.0557934e-07 -9.2998175e-07 7.433345e-05 -1.2256634e-06
2.1948526e-05 -2.1509915e-07 2.2150301e-05 -2.136985e-06 3.627449e-05 -2.3995756e-06 2.2526312e-06 -5.4479415e-07
1.2985609e-05 -5.094194e-07 3.4882716e-05 -4.427034e-07 -2.0579002e-06 -2.919262e-07 2.0321947e-06 -1.1513893e-06
6.8899215e-05 -1.5010188e-10 2.2353326e-05 -2.3099636e-07 1.986799e-05 -2.274899e-06 -6.315566e-07 -1.6114257e-06
2.2639806e-05 -2.2615193e-06 -3.7646157e-07 5.740312e-05 -5.6023075e-09 -7.332409e-07 -1.396628e-06 6.1022038e-06
-1.6146943e-07 -8.95875e-07 2.7515374e-05 7.977886e-05 5.2789408e-05 7.498411e-05 5.6138175e-05 5.6273966e-05
4.39653e-05 -1.000966e-07 -2.107646e-06 3.367997e-05 -4.1980118e-07 1.7669074e-05 6.223545e-05 -1.3654636e-06
-2.6348866e-08 -5.630748e-07 -2.4159503e-06 -7.1804993e-07 1.5657888e-05 -5.7364463e-08 -2.3426392e-06 -8.1707405e-09
-2.5026059e-06 -2.9675948e-07 -6.896326e-08 -1.3422132e-06 -1.1549084e-06 -2.330756e-06 5.356077e-05 -3.696225e-11
2.3500435e-05 -6.9279885e-08 9.209896e-05 4.104745e-05 6.298353e-05 6.3600215e-05 1.083399e-05 1.8808698e-05
8.752902e-06 4.365124e-05 -8.951632e-08 9.529217e-05 -2.505232e-06 3.9517254e-05 1.6032667e-05 1.2468157e-05
3.1846557e-05 3.7295267e-05 -3.8202973e-08 9.291954e-05 1.4434694e-06 6.6277335e-06 4.2193213e-05 3.0622118e-07
2.9994275e-05 -1.6314132e-06 -2.2681359e-06 3.826532e-05 6.240573e-05 5.6347442e-05 9.734929e-06 -2.4103022e-06
-2.4772958e-06 4.0628627e-05 8.72442e-06 -4.4069797e-08 -5.599603e-07 1.7704439e-05 1.9595195e-06 -2.870234e-07
9.766047e-05 -7.582991e-09 -1.3884066e-06 1.0533983e-07 9.960815e-05 3.880506e-05 3.8834867e-05 2.4382553e-05
-4.967843e-07 -5.2336185e-07 -8.135845e-08 4.666175e-05 -2.9397407e-08 3.0712235e-05 4.840805e-05 1.577064e-05
00000000: 8f01 94b0 f641 e42e 6279 d82e 4e7c 642d
00000010: 0f05 452e 28f2 832e 2226 a5b1 9f0d ae2e
00000020: 6a62 c3b0 cf7b 852d 767e c4b0 f88f 182f
00000030: de23 21b1 23b8 2a2f 8f70 22af 749b 1b2e
00000040: 96f1 66b0 c3b6 102e 5bdc 1ab1 3904 fb2d
00000050: ed1c 122f 9750 a62d ebd6 0eaf b7cb a32e
00000060: 8d24 99b1 1cb0 2e28 bf2a c7b0 9003 832d
00000070: 9dcd b0b0 efb2 212f fd5b 332e c9c2 e42e
00000080: ac74 c9b0 e9a6 202f 5612 d72d 8107 7fb1
00000090: ee31 cb2a d6f5 4f2e 9e57 c82e 6f89 d7af
000000a0: 6e3b 2a2d 045e 7f2e 27e1 f4b0 8e47 b1b1
000000b0: b4db 6ab1 f999 a6b1 5c83 79b1 cf5e 7ab1
000000c0: c43a 43b1 daaa e42c efa1 152f 1a9b 15b1
000000d0: 1abb ef2d bb7d 9db0 d04a 8ab1 35ca c22e
000000e0: 1205 ef2b a291 202e fcc0 2b2f 54a7 4c2e
000000f0: 2fed 8ab0 5d8a 822c 3bd7 262f 0437 142b
00000100: 650a 322f eb50 a92d 976e 9c2c db21 c12e
00000110: eabf a42e bc96 252f d93a 6eb1 4329 2c27
00000120: 9c56 d0b0 967f 9d2c 39d5 ccb1 118a 36b1
00000130: 8218 8cb1 c767 8db1 16ef 3fb0 06c9 a6b0
00000140: af57 1cb0 bc3f 42b1 271a cb2c d0c6 d3b1
00000150: fc33 322f 1bb1 2fb1 49cb 8eb0 de7a 5eb0
00000160: 7dc8 0db1 df9c 25b1 627d 2d2c 7e9e ceb1
00000170: 8972 ceae c11f ecaf 83be 3bb1 9767 9fad
00000180: 635c 05b1 0c32 e62e 7c58 212f e7e9 29b1
00000190: 53b0 8ab1 94af 7ab1 b6db 2db0 3c4c 2b2f
000001a0: 7a28 302f df81 34b1 612e 1bb0 78ef 472c
000001b0: f6ec 1e2e 3689 9db0 fb92 0daf 1af4 a32d
000001c0: 3110 d9b1 f30a 0a2b 4f0d c62e d462 c2ac
000001d0: 1e6b ddb1 09a7 2cb1 368a 2cb1 bc3f d8b0
000001e0: 091f 0d2e 8868 152e fb80 b82c 893e 4fb1
000001f0: 233a 052c 725f 08b1 ba60 57b1 754e 8cb0
00000200: 0af8 8b37 c713 d7b5 effb cbb5 71a8 57b4
00000210: 0b67 3db5 dca3 79b5 78e3 9b38 7981 a4b5
00000220: 1a1e b837 01f6 66b4 69cf b937 1f69 0fb6
00000230: 7025 1838 6508 21b6 e92b 1736 f83d 12b5
00000240: c4dc 5937 09bf 08b5 084f 1238 b1ac edb4
00000250: 751a 0ab6 08ba 9cb4 d760 0836 6f89 9ab5
00000260: fc7d 9038 ec09 25af 6783 bb37 cc07 78b4
00000270: 2faa a637 78aa 18b6 3d88 29b5 2a48 d8b5
00000280: 9dea bd37 9bc4 17b6 7c1c cab4 21c4 7038
00000290: 6b7e c0b1 eed3 44b5 c673 bbb5 88c1 cc36
000002a0: 6160 2db4 107c 70b5 d1d0 e637 f34e a738
000002b0: 326a 5d38 ca40 9d38 e875 6b38 b607 6c38
000002c0: 6267 3838 b0f4 d6b3 1571 0db6 9843 0d38
000002d0: 0961 e1b4 0c38 9437 6784 8238 f944 b7b5
000002e0: c555 e2b2 3526 17b5 b621 22b6 04c0 40b5
000002f0: 0f59 8337 e560 76b3 3c36 1db6 4c5f 0cb2
00000300: 71f2 27b6 5052 9fb4 f418 94b3 1826 b4b5
00000310: 5a02 9bb5 156a 1cb6 70a6 6038 cb8f 22ae
00000320: cd22 c537 05c7 94b3 4125 c138 5d2a 2c38
00000330: 0616 8438 1b61 8538 a2c3 3537 5fc7 9d37
00000340: 6ed9 1237 2916 3738 1e3c c0b3 98d7 c738
00000350: 8f1f 28b6 54bf 2538 e47d 8637 542e 5137
00000360: fb92 0538 7d6d 1c38 9d14 24b3 ccdd c238
00000370: 3bbd c135 cc63 de36 9ef8 3038 b866 a434
00000380: 379c fb37 eef6 dab5 4736 18b6 137f 2038
00000390: d2df 8238 9b56 6c38 3453 2337 adc0 21b6
000003a0: 9e3f 26b6 a868 2a38 195f 1237 4147 3db3
000003b0: 2e50 16b5 fe83 9437 4a80 0336 3218 9ab4
000003c0: 11cf cc38 5946 02b2 4a59 bab5 2f37 e233
000003d0: b8e4 d038 9ec2 2238 9fe2 2238 2289 cc37
000003e0: c25a 05b5 277d 0cb5 48b7 aeb3 acb6 4338
000003f0: 9585 fcb2 03d1 0038 bf09 4b38 314b 8437
