results/RollerAgents/RollerAgent/RollerAgent-499990.pt (torch, 431578 bytes, 39 tensors)

network_body._body_endoder.seq_layers.0.weight f4 [128, 1]
00000000: fe56 083f 349e b3bf 8029 0e3e da33 55bf
00000010: 793c 443f 8144 bebf 1c48 113c a51c 6abe
00000020: 55b2 f63f 140c 04c0 9181 ae3e 2c02 2f3e
00000030: 52ef 2e3f c611 9bbf b30c 99bf 9fb6 b0be
00000040: 5f81 37c0 99d7 13bf dd82 123f be33 013f
00000050: dce1 debc c64b b0be 50f3 1c3f 121c 743f
00000060: e74e 643f 8edf a53f 38b4 643f 8d0b 92be
00000070: 8cbb 28bf fe12 10bf 3795 353e fda6 173f
00000080: c0e6 89bc 51ca c13f 75da c1bf 45ea d23e
00000090: 4601 1340 88a1 07be 08b0 a23e 4e2e b2bf
000000a0: ce60 bbbf 72d9 babf d4ec 45bf c055 f4be
000000b0: 7ac0 2fbd e215 333f f16e f03f 41e8 a4bf
000000c0: 2276 073f f713 62bf 7270 43be b5a4 f73e
000000d0: c8b1 2e3e 1d4b b9be 92d5 35bf 6e0c 963e
000000e0: d1d6 573e 44fc be3f b230 8bbf 6911 23bf
000000f0: d53a 01be ab23 22bf fc2a 403f 9dcf b8bf
00000100: 39a3 e2bf 1d9a e7be fd95 2a3f 795b 97bf
00000110: 9632 1cbf 308d 5cbe cdb7 97bf 608f 993e
00000120: 8722 79bf c76b 19bf c1c4 b0bf d221 4d3f
00000130: bbb9 e6bd 9097 86bf 61e8 eabf 87f6 d2bf
00000140: 69e4 2a3f 054d 913f 5103 d3bf 0feb 133f
00000150: f0d8 963f b399 9fbf d412 b2be ccde 28bf
00000160: e3f6 9c3f 0dd8 86bf bf2f 933f 176b ddbf
00000170: 89be 15bf cff7 9d3d b649 51bf 32ac 903f
00000180: f517 9bbe 3710 1cbf b7d1 30bf 95e5 9d3c
00000190: 83a3 80bf ea4d 74bf c83d febe 4653 9bbf
000001a0: 2124 81bf 8d48 1dbf e577 14bf e47f 73bb
000001b0: 3450 903f 9cc0 863f 13b5 7cbf 76e8 d0be
000001c0: 5ef8 b8bf 9f76 bb3e 553c e4be 8307 fbbe
000001d0: 5e91 84bf b39f b4be a7aa 74be 0094 e03f
000001e0: f905 083b d45e 34bf 8ef6 1d3f 0c7b d53d
000001f0: 67db 74bd 4d79 1040 1031 9cbe c696 dc3e
0.5325774 -1.4032655 0.13883018 -0.83282244 0.76654774 -1.4864656 0.00886729 -0.2286249
1.9273173 -2.0632372 0.34083226 0.17090672 0.68333924 -1.2114799 -1.1957 -0.3451433
-2.8672712 -0.5775085 0.5723093 0.5046958 -0.027207308 -0.3443281 0.61308765 0.9535533
0.89182895 1.2958848 0.8933749 -0.28524438 -0.65911174 -0.5627898 0.17732702 0.5923918
-0.016833663 1.5139867 -1.5144793 0.41194358 2.2969527 -0.13245213 0.31774926 -1.3920381
-1.4638917 -1.4597609 -0.77314496 -0.47721672 -0.04290817 0.69955266 1.8783857 -1.2883378
0.5291463 -0.88311714 -0.19085863 0.4836785 0.17060006 -0.3619012 -0.7102901 0.29306358
0.2107804 1.4920735 -1.0874236 -0.6369844 -0.12620099 -0.63335675 0.7506559 -1.4438359
-1.7706062 -0.45234767 0.66635114 -1.182479 -0.6101469 -0.21538234 -1.1852967 0.299922
-0.9731831 -0.5993008 -1.3810045 0.8012973 -0.11265894 -1.0515003 -1.8352166 -1.6481484
0.66754776 1.135163 -1.6485387 0.57780546 1.1784954 -1.246878 -0.3477999 -0.6596496
1.2262844 -1.0534683 1.1498946 -1.7298306 -0.5849386 0.07713281 -0.817531 1.130255
-0.30291715 -0.6096224 -0.6907 0.019274512 -1.00499 -0.9543139 -0.4965651 -1.2134788
-1.0089151 -0.6143883 -0.57995445 -0.0037155086 1.1274476 1.052753 -0.987138 -0.40802354
-1.4450796 0.36613938 -0.4457728 -0.49029168 -1.0356863 -0.3527809 -0.23893224 1.7545166
0.0020755513 -0.70457196 0.6170434 0.1042386 -0.05977955 2.2574036 -0.30506182 0.4308378

network_body._body_endoder.seq_layers.0.bias f4 [128]
00000000: 7038 d0bb 46cf 393a 7b86 21bb 9d3a a8ba
00000010: ee16 61bb e8dc 32bb ff89 f4ba 288e 293a
00000020: 9b6b 74ba fef1 3fba 1ae9 64bc 40dc 8abc
00000030: a977 18bb cbc3 2439 5860 b3bb 1ba2 4a3a
00000040: 05a5 2939 7caa 7fbb d9b3 883a f638 3dbb
00000050: da55 dab9 4bfe bdb7 cea7 86bb 23f7 3dbc
00000060: 8df2 513a c47e 7c3a 1a77 493a e147 65ba
00000070: a7f3 d2b9 554b c4b9 5c3c 73bb 2904 24bb
00000080: af86 8d3b 63ff 1bbb 487c 5d3b e424 77bb
00000090: 8a48 32ba 7c7c 783b 4808 84bb ff38 cf3a
000000a0: 5d65 07bb 6d12 acba 86f5 1d3b f949 efbb
000000b0: ac43 a0ba c69f 94ba c9e6 10bc 32a4 0abb
000000c0: c703 f139 e096 8c3b 9a33 823b 8d20 86bb
000000d0: abcf 2d3b 6c51 983a fbf0 f93a 2906 4eb8
000000e0: f5c6 c039 80f8 5eba f484 cc39 0b2e c13a
000000f0: bed6 02bb 157d 033a f076 c9bb 8aef c63a
00000100: ff2e 35bb c9e1 deba 263d e1ba 768b 74b8
00000110: 5007 c5b9 6b5a a2ba 5daf 51ba daf1 2bbb
00000120: 7f5b c1ba d6f5 acb9 71ed a5ba a8be aebb
00000130: fda7 bf39 16d0 12bb 543b 8e39 efc5 5abc
00000140: 26a5 1fba b90e e8bb 40d0 8ab9 f670 983a
00000150: 4559 4cbb b97d 92b8 dbf7 34ba ec35 ebba
00000160: fc61 79bb 68b6 5aba 6a77 22ba 10f4 62bb
00000170: c4d5 093a fa56 99bb d332 82bb 6b13 b4bb
00000180: 9280 a0ba 37fc 043a 1b7e dd39 6f64 4bbb
00000190: c511 d6ba 16df 82ba 5e19 27bc 77d5 c5ba
000001a0: 406c 9cbb 1ba7 64bb 2332 f2ba 09c2 b43a
000001b0: e4c0 bbbb 5689 9bbb 4e88 eeba a8f5 72bb
000001c0: 88c2 84bb bdc5 61bb 9e2c 06bc 1585 9f39
000001d0: 135e 85bc 819c 5bbb 8c12 133c e3fb 91bb
000001e0: 70e5 0cbb 066b ffba ed40 6abb a2d3 01bc
000001f0: 9ba7 a03b 5584 a2bc 7224 a9bb 223e 33bc
-0.006354384 0.0007088076 -0.0024646807 -0.0012834851 -0.0034345943 -0.0027292315 -0.0018656849 0.00064680213
-0.0009323896 -0.00073221314 -0.013971591 -0.016950727 -0.0023264682 0.00015713197 -0.0054741316 0.0007729844
0.0001617857 -0.0039011529 0.0010429575 -0.0028873063 -0.00041644165 -2.264897e-05 -0.0041093593 -0.0115945665
0.000800886 0.00096319267 0.0007685289 -0.00087463675 -0.00040235856 -0.0003744016 -0.0037114834 -0.0025026894
0.004319034 -0.0023803345 0.0033796001 -0.0037711198 -0.00068009703 0.0037915995 -0.0040293075 0.0015809833
-0.0020659782 -0.001312805 0.0024102642 -0.0073025194 -0.0012227199 -0.001133912 -0.008844086 -0.0021154997
0.00045969916 0.0042904466 0.0039734365 -0.004093236 0.0026521485 0.0011620945 0.001906901 -4.9119964e-05
0.00036769328 -0.00085056573 0.0003900897 0.0014738453 -0.0019964422 0.0005015892 -0.0061482117 0.0015177589
-0.002764642 -0.0017004545 -0.0017184361 -5.8304016e-05 -0.00037580216 -0.0012386566 -0.00079988485 -0.0026236684
-0.0014751999 -0.00032989559 -0.0012659264 -0.0053327866 0.0003655552 -0.002240186 0.00027128553 -0.013352855
-0.00060899777 -0.007081833 -0.0002647657 0.0011630345 -0.0031181138 -6.98524e-05 -0.00069033884 -0.0017945147
-0.0038052788 -0.00083432207 -0.00061976037 -0.0034630336 0.0005257989 -0.004679558 -0.003973344 -0.005495479
-0.0012245348 0.00050729833 0.0004224636 -0.0031035205 -0.00163322 -0.0009984698 -0.010198919 -0.0015093525
-0.0047736466 -0.0034889642 -0.0018478077 0.0013790737 -0.0057297815 -0.0047465963 -0.0018198581 -0.0037072692
-0.0040515102 -0.0034450137 -0.0081893485 0.00030425997 -0.01628021 -0.0033510032 0.00897659 -0.004455076
-0.002149906 -0.0019486852 -0.0035744265 -0.007923992 0.0049027926 -0.019838491 -0.0051618153 -0.010940107

network_body._body_endoder.seq_layers.2.weight f4 [128, 128]
00000000: 8f8b 9b3d 5a40 4a3d d64e 2a3e 36cb eb3d
00000010: bf7e 0bbe c748 35bd 5322 623d af09 c5bb
00000020: ec0d 233c f21a b0bd b887 993d f246 383d
00000030: f966 583e 6621 c6bb b57e 403d 4a47 12bc
00000040: 1c62 0abd d263 29bd 9d5f be3d e621 efbd
00000050: 0d09 b83d 9e2e 133d 6b82 613d b35a 863d
00000060: 11c7 943d 4b3f 65bd 817e 2ebd 622c 9f3d
00000070: 622e 0dbd 60d6 2fbe a884 25bd 68ff aebc
00000080: 6de8 56bd b27d 3abe 7fdf 3b3e cccb 9cbd
00000090: 507e 9b3b 00cb 46be f351 2dbd 1a11 aebd
000000a0: 8cbe ddbc bc3f 823c 713f 0b3d ebc1 363d
000000b0: 1113 db3d f30b 0a3e 7923 f5bd 035c 2a3c
000000c0: 5ec5 f0bd af01 b139 3e88 9bbd 2f2f 063d
000000d0: 3cef 483d c36a 4dbd aa96 57bd d624 0dbd
000000e0: 07fc 92bd 08c2 a23d 163d 443e bdf8 c2bc
000000f0: 0c6a 9a3d f6ea 933d 9680 41bd 5348 9e3d
00000100: 2230 2b3d 7195 fd3c 7739 703d d175 013d
00000110: d197 d8bd f531 9e3c f8d7 853c 4271 5b3c
00000120: dfff acbb 5ad0 163e e961 89bd 6803 cfbd
00000130: 7149 143e f578 033d 7bd0 09bd d009 d3bd
00000140: f29b d43d 70ab d1bd 679e 413d 51f7 bd3c
00000150: 132f 343d ce22 63bd fb9c 70bd 7ab9 1bbd
00000160: 171d 2cbd d727 0ebe 3d27 65bd bfb6 a23d
00000170: b295 04be f0d8 27bd 4137 9e38 1986 1fbc
00000180: d981 a5bd 7620 c8bc faa0 1c3c b6ef d4ba
00000190: cc40 60bc 429b 14be a3c3 d0bd 545e 3bbd
000001a0: 04bc ccbd 93cb 773d 0d29 cabd a276 d83d
000001b0: 8409 353d 3062 83bd bf06 5e3d 44b9 0c3c
000001c0: c09f a63d 2f6a 38be ce9f 5c3d 1383 6b3d
000001d0: 69db d3ba ce97 32be a703 e4bd d25a 22ba
000001e0: 272b 3f3d a8fd 8dbd b2e3 233d 71e0 223d
000001f0: fe4b 52bc 212b a23d e36c b2bc 9e55 47bd
00000200: 1456 00be f85e c8bc 4247 413d 28ab 9ebc
00000210: 45e9 e93c cec6 273d 0c7b 1c3d 7b8c c03d
00000220: f24d 1ebd 2584 083c 4c2a 933d eec3 bfba
00000230: b5f9 c63c 0efb a3bd 7a71 f6bd 9dfd 4dbd
00000240: e80c 47bd 3882 fcbd 5eea 2c3d 7eab aabd
00000250: 7de9 17bc b56d aa3d ff46 97bd 0e2c 71bb
00000260: 9f0e d73d 32d9 fbbd a222 5ebc 8503 423e
00000270: b73e ebbc 0e32 19ba e967 e0bc f84a 07bd
00000280: d8a1 30bd aad0 173e ee62 ae39 d4e9 d23d
00000290: 50ce 29bd 1680 7bbb d9a2 413c 8691 7f3c
000002a0: f603 e63d c093 95bd 013d acbd 2394 cb3d
000002b0: 0d04 513e 7ff3 57be 3d50 9e3d 3dc5 9fb9
000002c0: b873 02be e901 76bd faa2 7d3d 6bae ac3d
000002d0: 67bc 823d 59e8 8d3d b39c 393d 7da3 b13c
000002e0: e526 8a3d 7bd3 e5bc a8e0 4fbd 5f93 f43b
000002f0: 0a4d 9839 684c 1d3c 7353 cd3d a3d8 38bd
00000300: aad5 5bbe 42fa babb b7b6 96bc d126 54bd
00000310: 9860 cb3d 16aa 02be 1cc9 d1bc db82 483d
00000320: 093b 803d 6e7b 8fbd d330 d6bd 8594 79bd
00000330: 6094 08bd eb18 e03d 474e 93bd 947f 98bd
00000340: 3ae1 543d 0db7 ddbd e176 703c a4c9 efbd
00000350: b184 173e a8bf a3bd 1110 103e 11de 163d
00000360: 205a 1bbe d3b5 12bd 4010 93bc d7fe ad3d
00000370: 4085 acbd 9329 0a3e ca85 a9bd 2d3f edbd
00000380: e2ef 06be 9c43 39bc d761 5a3d fd28 7b3d
00000390: dc5d 15bb daec dfbd 2b29 acbc ea90 383d
000003a0: f3ee 7abd 55f1 ebbc ae7b 1dbe ff13 e03d
000003b0: 2a16 ecbd bb69 0fbe 25ca 8b3c b4be 33bc
000003c0: 2b0c e33d 629c ae3d fc92 c2bc 8e95 82bd
000003d0: 865c 4a3c 3412 023d 6800 cdbd d5f2 3aba
000003e0: 95a3 49bd e304 e13d 177c 0bbd aa78 52bd
000003f0: b3ef bbbc 90f6 ec3c 3352 303d 813a d73c
0.07594978 0.049377777 0.16631636 0.11513369 -0.13622569 -0.04425886 0.055208515 -0.0060131173
0.00995205 -0.085988894 0.074965894 0.044989534 0.21133031 -0.006046462 0.046995837 -0.008928129
-0.03378497 -0.04135496 0.092955805 -0.116763875 0.08986101 0.03593313 0.055056017 0.06560268
0.072645314 -0.055968564 -0.042601112 0.07772137 -0.034468062 -0.17171621 -0.040409714 -0.021362022
-0.052467752 -0.18212011 0.18346976 -0.07656059 0.004745282 -0.19413376 -0.04231448 -0.084993556
-0.027068399 0.015899532 0.03399605 0.04461853 0.10696996 0.13481121 -0.119696565 0.010397914
-0.11756395 0.00033761325 -0.075943455 0.03275984 0.049056277 -0.050150644 -0.05263392 -0.034458958
-0.07176977 0.07947165 0.19163927 -0.023800248 0.07539758 0.072225496 -0.04724177 0.077286385
0.04179395 0.030955048 0.058648553 0.0316065 -0.10575832 0.01931093 0.016338333 0.013393702
-0.0052795256 0.14727917 -0.06708128 -0.101080716 0.1448114 0.032097775 -0.033646088 -0.10304606
0.10381307 -0.10237777 0.047270205 0.023189219 0.043990206 -0.055453114 -0.05874346 -0.03801868
-0.04201993 -0.13882385 -0.055945624 0.07945012 -0.12947729 -0.040978372 7.544319e-05 -0.009736561
-0.08081407 -0.024429541 0.009559864 -0.0016245756 -0.013687324 -0.14512351 -0.10193565 -0.045744255
-0.09996799 0.060496878 -0.09871111 0.105695024 0.044198528 -0.06415212 0.054205652 0.008589093
0.08135939 -0.18009256 0.05386334 0.05749805 -0.0016163412 -0.17440721 -0.11133509 -0.0006193343
0.046672013 -0.06933147 0.04001207 0.039764825 -0.012835501 0.079183824 -0.021780437 -0.048665635
-0.12532836 -0.024459347 0.047187097 -0.019368723 0.028553614 0.04096108 0.038203284 0.094017945
-0.038648553 0.008332287 0.07185802 -0.0014630535 0.024288991 -0.08006869 -0.12033363 -0.050290693
-0.048596293 -0.12329525 0.042215697 -0.08333491 -0.009271977 0.08321706 -0.07386588 -0.003679994
0.105008356 -0.12297286 -0.013558062 0.18946655 -0.028716428 -0.00058439455 -0.027393298 -0.03303048
-0.043123096 0.14825693 0.00033261575 0.102985054 -0.04145652 -0.0038375906 0.011818611 0.01559866
0.11231224 -0.07303572 -0.08410073 0.09940364 0.20411702 -0.2108898 0.07730148 -0.00030473797
-0.12739456 -0.060060415 0.061923005 0.08431705 0.06383591 0.069290824 0.045315456 0.021684403
0.067457 -0.028054943 -0.05075136 0.007463857 0.00029049098 0.009600736 0.10025682 -0.045128476
-0.21468225 -0.0057061026 -0.018397672 -0.05179483 0.09930533 -0.12760195 -0.025608592 0.04895292
0.0626126 -0.07005964 -0.10458531 -0.060932655 -0.033344626 0.10942253 -0.071926646 -0.074462086
0.051972605 -0.1082593 0.01467678 -0.11708382 0.14796712 -0.0799554 0.14068629 0.036832873
-0.15171099 -0.035817932 -0.017952085 0.084958725 -0.08423853 0.13492422 -0.08277471 -0.115843154
-0.13177446 -0.011307623 0.053315964 0.061318386 -0.002279154 -0.10933848 -0.021015724 0.045060076
-0.061263036 -0.0288016 -0.15379211 0.10941314 -0.11527665 -0.14005177 0.017064163 -0.01097076
0.11086305 0.085259214 -0.023751728 -0.063761815 0.012351161 0.03175564 -0.10009843 -0.00071315217
-0.04922827 0.1098726 -0.03405389 -0.051384605 -0.022941446 0.028926164 0.04304714 0.026273014

network_body._body_endoder.seq_layers.2.bias f4 [128]
00000000: b1b9 df3a 35d3 63ba 9a6d f439 f6da 4dbb
00000010: edc2 82ba 6a7f 11b8 dd5a 3e3a 7ed5 93ba
00000020: b399 acba 9306 7cbb 3c91 6dbb 7b5f ba3a
00000030: 26a3 e3ba e42e 55bb 9f9d 11ba faf9 163b
00000040: bbff b8ba 3e07 5ebb 15be 9bba 08d1 6cbb
00000050: a4bc dfb9 35ea 0a3b a65c 473a feaf 13ba
00000060: e844 49bb bcac 963a 0a1b c2ba b24a 05bb
00000070: 9b02 5c3a 8e53 90bb 52c9 06bb 06d4 69bb
00000080: 741c 1fbb 118d 2cbb 33ba f9ba 4bd4 13b9
00000090: 4895 36bb 3908 1ebb a41f a339 037a 18bb
000000a0: 94a3 dab9 a3a9 30ba b0c0 deba 016b 95bb
000000b0: cdd8 d7ba 3dde 20bb 1d8a 25bb 0232 30bb
000000c0: 1258 5bba bd32 3ebb bb14 9fbb b0f9 d139
000000d0: 329e c63a 2e84 18bb 15f9 c3ba bb5b 1c3b
000000e0: 7572 3dbb 703a 36bb 9163 7cba 0755 d4ba
000000f0: 2514 7ab9 ab7b 1c3b 66f1 fcba 1b41 cd3a
00000100: 5ac1 1cb9 4eed b7b9 e082 bab9 1b59 a0bb
00000110: 612b 78bb c37e 67bb d6a8 8b3a 437a f3b8
00000120: d90e b2ba c5a6 753b 1ef7 06bb c2f5 43ba
00000130: 441d 0539 4397 6cbb 61fc c2ba 021d a8ba
00000140: 359a 3abb b25f 4dba 7d8d 83bb 52f9 9cb9
00000150: a3ce 61bb 1737 243a 4c1b bcba 3c70 3ebb
00000160: c0c1 0cbb 3194 3abb ae4f 673b df6f adbb
00000170: 01f2 c4ba 3b34 26bb 5b84 69bb f2ee ba38
00000180: ee25 f0b9 6bcc 05bb 0646 42bb 4bcc d4ba
00000190: 97f7 3938 e0c6 b7b9 feac 6839 eff6 4fbb
000001a0: ea56 48ba a014 23bb 47cc 4abb c42d f9ba
000001b0: 8947 98ba 1a0b 8e39 b19b 96b9 0f52 0d3a
000001c0: a39d 9aba a731 edb9 3aaa b4b9 20ad c038
000001d0: ae8d 18bb df4e cdba 7728 3dbb 86a7 46ba
000001e0: 9913 41bb daef 2d3a aa58 4bba e297 e0ba
000001f0: de8f 9e3a a7b2 34bb d757 e7ba 7ec0 563a
0.001706889 -0.0008690835 0.00046620966 -0.0031411028 -0.0009976305 -3.4689358e-05 0.00072614645 -0.0011278836
-0.0013168365 -0.0038456067 -0.0036249897 0.0014219129 -0.0017367348 -0.003252917 -0.00055547984 0.0023037181
-0.00141143 -0.0033878828 -0.001188221 -0.0036135335 -0.00042674423 0.0021196727 0.0007605053 -0.000563383
-0.0030711237 0.0011495571 -0.0014809084 -0.0020338711 0.0008392722 -0.0044044917 -0.0020566774 -0.0035679354
-0.0024278434 -0.00263292 -0.0019052684 -0.00014098098 -0.0027859975 -0.0024113788 0.00031113357 -0.0023266084
-0.00041702075 -0.0006739145 -0.0016994681 -0.004559875 -0.001646781 -0.0024546527 -0.0025259324 -0.0026885276
-0.00083673105 -0.0029021942 -0.004854766 0.00040049618 0.0015153347 -0.0023272145 -0.0014951552 0.0023858387
-0.0028907333 -0.0027805828 -0.00096278737 -0.0016199657 -0.00023849362 0.0023877423 -0.0019298017 0.0015659662
-0.00014949348 -0.00035081286 -0.00035574194 -0.0048934347 -0.0037867653 -0.0035323359 0.0010655175 -0.00011609916
-0.0013584747 0.0037483436 -0.002059407 -0.00074752804 0.0001269477 -0.0036100901 -0.001487624 -0.0012826028
-0.0028473262 -0.0007834389 -0.0040146695 -0.00029940397 -0.003445544 0.00062643125 -0.0014351397 -0.0029058596
-0.0021477789 -0.0028469677 0.0035295296 -0.005292877 -0.0015025736 -0.0025360722 -0.0035631869 8.913678e-05
-0.00045804627 -0.0020416032 -0.0029643788 -0.00162352 4.4338023e-05 -0.00035052653 0.00022189689 -0.0031732877
-0.0007642346 -0.002488412 -0.0030944513 -0.0019010832 -0.0011617999 0.00027092622 -0.0002872623 0.0005390951
-0.0011796247 -0.00045241156 -0.00034459104 9.1875205e-05 -0.0023277807 -0.0015663764 -0.002886323 -0.00075780635
-0.0029461144 0.0006635167 -0.00077570474 -0.0017135108 0.0012097319 -0.0027572305 -0.001765008 0.0008192136

action_model._continuous_distribution.log_sigma f4 [1, 2]
00000000: be62 8bbd 500a b0bd
-0.06805943 -0.08595717

action_model._continuous_distribution.mu.weight f4 [2, 128]
00000000: 76d3 1c3b bb0c ff3b 22f9 c23c 5828 8b3b
00000010: 9a8d 303c afaf b2bc baa8 c4bb a3d1 58bc
00000020: 3b44 c03b ea22 75bc e93d 1bbb 34ea abbc
00000030: f775 833c d163 c63b b096 03b9 d951 513c
00000040: 74c2 9fbc 1930 af3a 1eba 59bc a636 fc3b
00000050: fe76 a03b db78 92bb cf2e b23b 13c5 d4bc
00000060: 9941 f03b cb0a d13c 026e 26bb 7145 6e3c
00000070: cc4b acbb 64d1 31bc 4943 1d3c 2c09 573c
00000080: 86b1 4bbc a157 efba 88df 103b b3f6 a1bc
00000090: 1427 a6bb 14e7 ec3b b519 23bc b1be b93c
000000a0: 7d75 353c 6e70 123b 2a51 39bc 97ed b43a
000000b0: a64c 4a3c 8b59 073d 9c17 3e3c a91d 5ebb
000000c0: c768 90bb 6b17 f53a 8527 08bc 1610 bebc
000000d0: b126 1abd e6bd a53a 4ab2 2fbc c870 e43c
000000e0: 6fc2 ce3b cf9e ed3b fc87 f63b 70bd 963c
000000f0: 5483 8c3c 0574 71bb 3ad3 873c fad6 76b7
00000100: 3b7c 0db5 64e1 e8b8 4467 043c d485 b83b
00000110: a03e 423c 375d 3d3c 611b 6bbc f6ec c33b
00000120: fa32 fa3c 704b b03c e43f b13b 570e 3abc
00000130: 07e3 1dbc 9e67 53bc 1cdd 66bc c761 bf3b
00000140: b30f f03c 984b 183c d315 bfba bea4 1cba
00000150: b396 3b3c 109a 53bc 2494 0fbb b496 aebb
00000160: da0d fe3c d6a5 1e3b 9055 2f3d 5318 bfbb
00000170: c2af df3c 9912 ffb8 0c99 efba 3635 29bc
00000180: df41 dcbc f01b 093b 3eb8 f03b fc48 f9bb
00000190: a1be d43c a873 62bb 8fd9 653c 6a7b 8b3c
000001a0: 1a84 f9bb d123 d53c 2709 79bc 347a ae3c
000001b0: 0bd3 87bc 8fbc efb6 a77d cebb bf0d 8ebc
000001c0: fbdb c53c d6ed 483c d498 ddbc 1618 ffbb
000001d0: 9392 97ba f98a 84bb 28d5 deba 8445 f0bc
000001e0: c928 533c c771 dd3a 9a5e d73b 4dfb e3bb
000001f0: d13f 9338 6c47 2e3c c554 2abc 7fc3 54bb
00000200: 9d43 923c df61 34bb c18d 1e3c 9a22 b13c
00000210: 4294 7f3c 1fc4 01bb 3adc 5c3c 2cd6 bfbb
00000220: 3c88 ae3c 8936 e93a b343 723c 5447 0bbc
00000230: f719 743c eebe 2f3c 6f66 12b7 a011 d83b
00000240: 8205 00bd fea9 6d3c 918b f2bb abeb 71bc
00000250: a6af 9d3c 5c3b 65bc 7dfb 603c 23bb adba
00000260: 3f00 723a 86c9 57bc 9bfa 6bbc a368 0c3c
00000270: 82e8 9abb 03af 393c 39ca 033c 3e58 c2bb
00000280: ea64 5abc a088 18bc 075a cd3c ba34 233b
00000290: 3b9d 10bc 5244 fc3b 01ba fdbc 3489 29bb
000002a0: a6d2 b1bc 33de 72bc f240 13bc ec19 38bb
000002b0: f61c 373c 14c6 623c b2e3 f73c 4393 cfbb
000002c0: c855 0d3c ab50 c93b 4204 7a3b d0e6 8b3c
000002d0: 7ddf 073c 4180 c3bc 4d28 9abb 9d75 d3bc
000002e0: 5eb8 93ba fdb6 283d 100f ff3b bf20 683c
000002f0: 3557 60bc 1b9c f5bc 7629 1f3b 2113 003b
00000300: cc35 15b7 e5b9 803c 37e0 b93c 1808 49bb
00000310: 29a0 70bb 474f 2abc 2e20 633c a851 acbb
00000320: e1c2 463c 0c06 fdbc 23c7 b2bb 416f 9abc
00000330: 8a14 0c3b 5637 e63c 555c 87bc 8891 1ebc
00000340: c211 5bbc b96a 8a3c 8a69 5a37 4230 eeba
00000350: 7fa7 4bbc 3705 a13c e53a f5bc ac74 0bbc
00000360: bba5 ea3b df03 3fbd 0f58 82bb 962f 453b
00000370: 8400 8f3a bc88 c03b f04e 103b 63ca 1b3c
00000380: 59a3 78bc 8aa2 07bd 3966 f03a a3f4 b0bc
00000390: c35b 1dbd cc0e 7c3c a713 9639 4219 e3bc
000003a0: c791 1e3b 9ad5 333c 085a c5bb 0f00 a13b
000003b0: 4fc3 dfbc 192f c0b7 b3bc 353c c4c3 d13b
000003c0: 9e73 4e3c 0f37 d3bb cbb0 88bc d043 323c
000003d0: 3d63 9fbc f524 31bd 5fc3 99ba 2c96 a6bb
000003e0: 48f2 98bc f929 3c3b 095c fc3b 14c5 b4bc
000003f0: b94f 453c 11f5 0cbd 318e 9bbc 8355 3e3d
0.0023929751 0.0077835 0.023800436 0.0042467527 0.010775948 -0.021812288 -0.006001559 -0.013233575
0.0058675087 -0.014961937 -0.0023688024 -0.0209857 0.016047461 0.0060543795 -0.00012549269 0.012775862
-0.019501902 0.0013365775 -0.013289003 0.0076969443 0.0048969975 -0.0044699735 0.005437709 -0.025972879
0.0073320386 0.025517842 -0.002539516 0.014542923 -0.005258059 -0.010853145 0.009598562 0.013124745
-0.012432462 -0.0018260368 0.0022105891 -0.019770956 -0.0050705764 0.007229695 -0.0099548595 0.022673937
0.011075375 0.0022344845 -0.011310855 0.0013803717 0.012347376 0.03304438 0.011602309 -0.003389219
-0.0044070217 0.0018698996 -0.008310203 -0.02320103 -0.037634555 0.0012645095 -0.01072366 0.02788581
0.0063097994 0.0072515975 0.007523535 0.018400878 0.017152466 -0.0036842835 0.016580213 -1.4712796e-05
-5.270737e-07 -0.00011104604 0.008081261 0.005631188 0.011855751 0.011557869 -0.014349789 0.0059791757
0.030541886 0.021520346 0.0054092277 -0.011355958 -0.009636647 -0.012903122 -0.0140908025 0.0058405134
0.029304361 0.009295367 -0.0014578648 -0.0005975476 0.011449504 -0.012915149 -0.0021908367 -0.005328024
0.031012464 0.0024207733 0.042806208 -0.005831757 0.027305488 -0.000121628116 -0.0018279864 -0.010327628
-0.026886879 0.0020921193 0.007346182 -0.0076075774 0.025969805 -0.00345538 0.014028921 0.017026622
-0.0076146247 0.026018055 -0.015199936 0.021298505 -0.016580125 -7.144706e-06 -0.0063016 -0.017340539
0.024152746 0.012263736 -0.027050413 -0.0077848537 -0.0011564068 -0.004044887 -0.0017000781 -0.029330023
0.012888142 0.001689487 0.0065725567 -0.0069574476 7.021393e-05 0.0106371455 -0.010396187 -0.0032465158
0.017854506 -0.0027524156 0.009677351 0.021622945 0.015599312 -0.0019800735 0.0134802405 -0.0058543887
0.021305196 0.0017792742 0.014786649 -0.008500893 0.014898769 0.0107266735 -8.726128e-06 0.006593898
-0.031255253 0.014505861 -0.0074018915 -0.01476566 0.019248795 -0.013991203 0.0137318345 -0.0013254624
0.0009231604 -0.0131706055 -0.014403011 0.008569869 -0.004727424 0.01133323 0.008043819 -0.0059309294
-0.013329724 -0.009309918 0.025067342 0.0024903254 -0.008826549 0.007698574 -0.030972483 -0.0025869133
-0.02170689 -0.014823484 -0.008987652 -0.0028091623 0.011176338 0.013841171 0.03025994 -0.0063346936
0.008626409 0.0061436496 0.003814951 0.017077833 0.00829303 -0.023864867 -0.0047045113 -0.025812918
-0.0011270156 0.041190136 0.007783778 0.0141679635 -0.013692667 -0.029981663 0.0024286187 0.0019542652
-8.893618e-06 0.015713641 0.022689922 -0.003067499 -0.0036716557 -0.010394878 0.013862653 -0.0052587576
0.012131424 -0.030886672 -0.005455868 -0.018851878 0.0021374547 0.028102558 -0.01652352 -0.009678252
-0.013370933 0.016896592 1.3018385e-05 -0.0018172341 -0.012430071 0.019655807 -0.02993531 -0.008511703
0.00716087 -0.04663455 -0.0039777826 0.0030088178 0.0010910188 0.005875675 0.0022019707 0.009508702
-0.015175664 -0.033113994 0.0018341012 -0.021601027 -0.03841759 0.015384387 0.00028624872 -0.027722005
0.0024195777 0.01097622 -0.0060226955 0.004913337 -0.02731481 -2.2910115e-05 0.011092353 0.006401511
0.0126008075 -0.0064457725 -0.016685864 0.010880426 -0.0194565 -0.043248136 -0.0011731199 -0.00508382
-0.018670216 0.002871154 0.007701401 -0.02206663 0.012042933 -0.0344134 -0.0189887 0.04646827

action_model._continuous_distribution.mu.bias f4 [2]
00000000: a97a 9cba 4373 9b3a
-0.0011938411 0.0011859912

action_model._discrete_distribution.branches.0.weight f4 [1, 128]
00000000: 2a15 983b 9dac dd39 f4d9 beba b1e4 12bc
00000010: 3e42 353b ad3e 95bb d4e5 32bc 5387 2739
00000020: eb88 893a 8889 a53a c3c5 83bb f0d5 d5bb
00000030: 9bcd c0bb fff6 7fbb 075c 463c 53f0 03bc
00000040: 8f49 56bb 9b30 65bb 47e6 29bc 2fac f73b
00000050: dbb4 a9bb 43ea 953b 3abd 273c cf6a bfbb
00000060: 1853 0dbc ab7c 40b9 fb75 67bc 250e fb3a
00000070: ba17 bdbb 257a 563b db9d cabb cb04 d3bb
00000080: 1fef c4bb 2e14 03bc 8170 253c 1cee 1bb9
00000090: b333 6a3b 9354 933b 1238 fabb 0769 93bc
000000a0: a61b 863c f46e 1fbc 775a 963b b2d2 fcbb
000000b0: 2faf 10bc df9f 84bc 89ff ca3b 13a0 5a3b
000000c0: b7e5 973c fbc1 97bc 065d acbb 2332 c7bb
000000d0: 1046 823a f108 c83c 9a2a 053c a7b2 e53b
000000e0: 17a5 5b3c 4bf0 493c 9b00 0e3c f8c7 32bc
000000f0: 2752 59bb 43be 44bc 071d 703b fbc9 e33a
00000100: 3da5 28bc ddef 63bc 4fc0 203c c31b 3bbc
00000110: 4737 99b9 9594 ecbb 5280 23bc 841b 883b
00000120: 03ad 01bb 8898 04bc cbf1 ef3a aaad 753c
00000130: a03a fd3b 8394 0fbc 5502 373c ff7b c8ba
00000140: a0ce 34bb aba6 fa3b baef f03b 1dd2 5b3b
00000150: 6794 073c 7997 b7bc adf2 ddbb 5f58 1cbc
00000160: 7233 5abb 905c d0bb 11d9 ae3a e96f 3fbc
00000170: b797 f43b 8b82 ddbb df41 87ba b310 07bc
00000180: f78c e13b 2f50 383a e660 ccbb bc81 cb3b
00000190: c4a5 2dbb 2042 b3bb d478 8a3b d306 28bb
000001a0: 2b67 b83b d585 de3b 3f19 79bb 2b5f a5ba
000001b0: 5734 5abb 384a 723b 1587 37bc e60d 02ba
000001c0: 4055 263a 9f94 d8bb 9706 18b9 6dc0 cc3b
000001d0: ea56 863b 68cc 60bc 27a5 55bc 371a 713c
000001e0: a994 0abc 5843 f53b 7506 723b 0123 aebb
000001f0: 7789 7bbb e25d a9bb cf8f 16bb 1653 a43b
0.004641195 0.00042281012 -0.0014560805 -0.008965657 0.0027657892 -0.0045545907 -0.010919053 0.00015976773
0.0010493075 0.0012629488 -0.004021378 -0.0065257475 -0.005883885 -0.0039057133 0.012106902 -0.008052903
-0.0032697653 -0.0034971598 -0.010369844 0.0075583677 -0.0051790304 0.0045750453 0.010237986 -0.00584159
-0.008625768 -0.0001835699 -0.01412725 0.0019153996 -0.0057706507 0.0032726612 -0.0061833686 -0.0064397804
-0.006009951 -0.008000417 0.010097624 -0.00014870655 0.0035736382 0.004496166 -0.0076360786 -0.017994417
0.016370606 -0.009731043 0.004588421 -0.0077155465 -0.0088308295 -0.016189514 0.006195013 0.0033359572
0.018542154 -0.018525114 -0.0052601127 -0.006078975 0.0009939093 0.024418326 0.008127833 0.0070098224
0.01340606 0.012325357 0.008667137 -0.010911934 -0.003316054 -0.012008253 0.0036638395 0.001737892
-0.010293302 -0.013912168 0.009811475 -0.011420193 -0.0002922362 -0.007219861 -0.009979324 0.0041536707
-0.001978696 -0.008093007 0.0018306313 0.014995018 0.007727936 -0.008763435 0.01116999 -0.0015295743
-0.0027588978 0.007649263 0.0073527964 0.0033541985 0.008275128 -0.022411095 -0.006773314 -0.009542554
-0.0033294824 -0.0063586906 0.0013339837 -0.011684396 0.007464375 -0.0067599467 -0.0010319314 -0.0082437275
0.0068832594 0.0007030991 -0.006237137 0.006210534 -0.002649651 -0.005470529 0.0042258296 -0.0025638833
0.005627533 0.0067908564 -0.0038009433 -0.0012616863 -0.0033295357 0.0036970507 -0.01120164 -0.00049611775
0.00063451007 -0.006609514 -0.00014498305 0.006248525 0.0040997164 -0.013720609 -0.013039864 0.014715723
-0.008458295 0.0074848346 0.0036930118 -0.0053142314 -0.0038381496 -0.0051686624 -0.00229739 0.0050147874

exp_avg f4 [128, 1]
00000000: 31b3 de39 1117 b5b3 397e 56b8 5451 cbb7
00000010: 5df3 743a c7ed 0936 6271 7037 fbb0 c1b6
00000020: e8f5 24b9 420f 4034 ce54 d738 209f 9536
00000030: 4297 2539 018a c835 95ee 59b6 0767 a0b7
00000040: 3c13 2030 2f07 b2b7 8c25 82ba 0391 cd38
00000050: 3d02 0dba a16f 7db8 7946 73b9 7312 f338
00000060: 8fd6 85ba 68e6 ccb9 a562 44ba 8290 bc36
00000070: ad78 bbb8 405b 44b8 f5b9 dc38 88e1 3039
00000080: f923 0bb8 0170 c438 c83a 11b5 d883 3a38
00000090: 543d f6b9 6bd2 c9b8 c8e4 3938 0217 29b6
000000a0: 16f5 cb35 be70 1535 0189 eab7 f052 6237
000000b0: bcbe a639 f4be 5a39 fa0a 2cb9 416b 4eb4
000000c0: d3b3 533a 8aa3 cdb5 9ee3 fcb7 dfe2 0439
000000d0: 23d7 ddb9 b840 2f38 15d1 b6b7 4b80 bbb9
000000e0: 8aee 203a 2282 e339 6021 24b7 1097 44b8
000000f0: b12b 9837 2404 0bb8 d3cb 8d39 b94a e1b5
00000100: f97a 08b3 5ee3 fd38 f877 fdb9 7224 75b7
00000110: f364 9d35 bc83 b737 45b3 b3b5 a367 0338
00000120: 21e0 8336 b5ad 8fb7 e520 9bb6 8632 5539
00000130: b939 d338 e374 3837 6e6c 2ab4 46af af34
00000140: c7ad 3dba ca0d d8b8 139f 6d35 599c 1cba
00000150: 2121 d339 9115 5136 5f80 0d34 9c5d 5fb7
00000160: 81bd 2d3a 35d0 8433 2a1b 8939 b214 82b4
00000170: d531 a3b7 526f 26b8 4228 1737 6853 fab8
00000180: 1713 b0b7 153f 35b7 e396 2ab7 1225 9338
00000190: 958b 94b6 c463 f837 7521 c736 887c 2f37
000001a0: f4e7 84b6 76aa e7b5 87ce 6db7 9bcf 0db9
000001b0: 97f4 3f3a 3c59 223a 13b7 f537 3d53 b737
000001c0: 74c4 d435 5524 8037 c768 8635 2334 7c38
000001d0: c903 8eb5 ac33 5637 13c4 12b3 d902 a6b8
000001e0: 3170 9037 0dda 7338 3c36 ce39 92ae 6e39
000001f0: b19f fab6 bdfa fc38 4947 2437 149d 3239
0.00042476648 -8.432665e-08 -5.113913e-05 -2.4237357e-05 0.0009344125 2.0552995e-06 1.4331514e-05 -5.7724515e-06
-0.00015731866 1.7886944e-07 0.00010267795 4.4590706e-06 0.00015791974 1.4941326e-06 -3.2474393e-06 -1.9121462e-05
5.8234995e-10 -2.1222599e-05 -0.0009929403 9.802172e-05 -0.00053790567 -6.0423863e-05 -0.00023200539 0.000115905794
-0.0010211038 -0.00039081578 -0.0007491506 5.6196595e-06 -8.9393325e-05 -4.6815025e-05 0.00010525055 0.00016868685
-3.3173685e-05 9.366871e-05 -5.410225e-07 4.4468645e-05 -0.0004696647 -9.62362e-05 4.4320506e-05 -2.5196355e-06
1.5196008e-06 5.5670887e-07 -2.7958771e-05 1.348996e-05 0.00031804095 0.00020861236 -0.00016407287 -1.9224264e-07
0.0008075807 -1.5321286e-06 -3.0146733e-05 0.00012673017 -0.00042312694 4.1783525e-05 -2.1793452e-05 -0.00035763005
0.0006139061 0.0004339377 -9.7829325e-06 -4.687073e-05 1.8140157e-05 -3.314404e-05 0.00027045477 -1.6785553e-06
-3.177681e-08 0.000121063305 -0.00048345304 -1.4611624e-05 1.1726792e-06 2.1876644e-05 -1.3388714e-06 3.1329353e-05
3.9301963e-06 -1.7127817e-05 -4.6231894e-06 0.00020332084 0.00010072016 1.0994469e-05 -1.587193e-07 3.2723818e-07
-0.00072356727 -0.00010302251 8.8520864e-07 -0.00059742254 0.0004026974 3.115598e-06 1.317835e-07 -1.3313631e-05
0.00066276646 6.1846016e-08 0.00026150915 -2.4229445e-07 -1.9454319e-05 -3.968116e-05 9.009675e-06 -0.000119364646
-2.0989724e-05 -1.0803128e-05 -1.0167921e-05 7.016411e-05 -4.426993e-06 2.961036e-05 5.934557e-06 1.04598075e-05
-3.9609095e-06 -1.7260452e-06 -1.4174387e-05 -0.00013524147 0.00073225185 0.00061931065 2.9291527e-05 2.185406e-05
1.5852406e-06 1.5275707e-05 1.0014272e-06 6.0130038e-05 -1.0580926e-06 1.2767425e-05 -3.4171602e-08 -7.916027e-05
1.721838e-05 5.813879e-05 0.0003933179 0.00022762481 -7.469171e-06 0.00012063 9.791759e-06 0.00017033919

exp_avg_sq f4 [128, 1]
00000000: ed9c 0135 d3ac 472d 6a47 e033 a9ac bb30
00000010: 95a3 0b36 16eb 9d2d 06bd cb34 8afb e32f
00000020: 9ac3 9e34 f03c a129 4aea c033 c5d4 d931
00000030: 96e2 8e35 e689 382f 10f1 c02d 5b3d de30
00000040: c4fc fa23 b86c 8f31 eba0 0036 6c10 6834
00000050: 847e 1435 7703 fa31 81ed 2734 65ea 3a33
00000060: 60e6 f835 3e3c b934 d57c bc35 880d af30
00000070: 4e20 b032 bd6f 7d31 57b6 2635 ca80 6034
00000080: b34b 1a32 d663 2336 329e 4a2d e533 8432
00000090: c884 1735 1189 9232 7999 d434 fa5a 782d
000000a0: d992 ad2c 6e41 fd2b 0f1d bd30 27bd 5931
000000b0: 54db 6f34 8572 c433 1b41 8733 0cf0 582e
000000c0: 9a98 2736 1aa1 9f2f 0864 e531 7af5 e033
000000d0: 41a2 e334 add9 9231 602e 2f31 69b5 3336
000000e0: 1d19 4535 f9a3 ca35 aae8 f52f fa06 8f32
000000f0: 03a9 5b33 c491 ef31 152f 3d34 b049 f72d
00000100: 2368 b72b 374c f832 c6f5 9135 c96e eb2f
00000110: 59fd bc31 5e44 e630 53a2 fe2e 413e 4434
00000120: 41e6 dd2f 270c 1e32 fd98 402e be18 8135
00000130: dc5f a432 3083 0c30 8f54 8d2b b45b 142a
00000140: 1de7 7735 035f 9133 55d7 392c db9a 6535
00000150: a474 e534 c263 a92d c31e 5031 62ee 8031
00000160: 6d7a 5835 1d1a 442f af25 3334 44f2 ca2a
00000170: 2a62 cb31 68ce 0e33 0eb8 3130 8dec 6333
00000180: bb9b b130 2fc6 6f32 39dc 7431 4027 6d34
00000190: 7f35 e52f 1318 0831 be28 5e30 58d4 712f
000001a0: 09bf 522e 45f2 b230 83ab 6231 010a 9d34
000001b0: cc21 8d35 cfb6 5335 aae0 2e31 ef46 9531
000001c0: 3033 022d d439 1335 c73d 432e 9fcf aa32
000001d0: 031d 012d d908 8e2f 8c17 622c ba5a db34
000001e0: 72de a034 ff57 8132 0be8 b334 59e6 0334
000001f0: 1576 8431 d8d4 2f33 81db ca2f 2aa2 0134
4.82846e-07 1.1350215e-11 1.0443803e-07 1.3655114e-09 2.0807831e-06 1.7953233e-11 3.794923e-07 4.146979e-10
2.9572112e-07 7.160407e-14 8.983314e-08 6.3397203e-09 1.064577e-06 1.6783694e-10 2.1934926e-11 1.6170064e-09
2.7212105e-17 4.1742076e-09 1.9167153e-06 2.1612658e-07 5.53184e-07 7.2763515e-09 1.563949e-07 4.351968e-08
1.8544488e-06 3.4502767e-07 1.4043422e-06 1.2736772e-09 2.0503787e-08 3.6879861e-09 6.210516e-07 2.0908479e-07
8.981192e-09 2.4347005e-06 1.1517497e-11 1.5390421e-08 5.6445106e-07 1.7058968e-08 3.9599743e-07 1.4117369e-11
4.933259e-12 1.7994892e-12 1.3759819e-09 3.1685177e-09 2.23384e-07 9.147792e-08 6.29827e-08 4.932592e-11
2.4973765e-06 2.90364e-10 6.6761494e-09 1.0475465e-07 4.24001e-07 4.273906e-09 2.5492213e-09 2.6778673e-06
7.3424764e-07 1.5097895e-06 4.4730558e-10 1.6650564e-08 5.1143626e-08 6.972387e-09 1.7619125e-07 2.8113373e-11
1.3031836e-12 2.8905658e-08 1.0874871e-06 4.2824969e-10 5.5003224e-09 1.6754134e-09 1.1579417e-10 1.827657e-07
4.036327e-10 9.1995735e-09 4.3791627e-11 9.61845e-07 1.9135705e-08 5.111813e-10 1.0042122e-12 1.3176857e-13
9.2350984e-07 6.769371e-08 2.6409615e-12 8.553449e-07 4.273944e-07 1.9257377e-11 3.028547e-09 3.7523913e-09
8.0644423e-07 1.7835373e-10 1.6684383e-07 3.6050514e-13 5.9192375e-09 3.3249677e-08 6.465378e-10 5.3067698e-08
1.2922706e-09 1.3956693e-08 3.5631855e-09 2.2086624e-07 4.1692869e-10 1.980429e-09 8.082103e-10 2.1994262e-10
4.7918145e-11 1.3020062e-09 3.2984822e-09 2.9250808e-07 1.0515155e-06 7.8869647e-07 2.544804e-09 4.344535e-09
7.40101e-12 5.484592e-07 4.4392736e-11 1.988502e-08 7.339243e-12 2.5835936e-10 3.2129603e-12 4.085794e-07
2.9964173e-07 1.5057593e-08 3.3510182e-07 1.2284126e-07 3.85513e-09 4.0938943e-08 3.6899553e-10 1.2073056e-07

exp_avg f4 [128]
00000000: f428 b238 51df 90b2 2e98 2bb7 78a7 a2b6
00000010: e5f5 4339 a4af dc34 a55a 4036 fdf3 9ab5
00000020: ecf7 03b8 cda5 1933 d643 ac37 0965 6f35
00000030: fd78 0438 636e a034 7758 2eb5 6d52 80b6
00000040: 660f 002f 236c 8eb6 123c 50b9 0374 a437
00000050: 2e9d e1b8 b4bf 4ab7 c79e 42b8 2975 c237
00000060: 1724 56b9 89eb a3b8 b91b 1db9 05da 9635
00000070: 24fa 95b7 cc15 1db7 c794 b037 3c81 0d38
00000080: f49f deb6 6726 9d37 045e e8b3 4636 1537
00000090: dffd c4b8 2275 a1b7 fdb6 1437 9b45 07b5
000000a0: 772a a334 c81a ef33 cda0 bbb6 270f 3536
000000b0: 6365 8538 2aff 2e38 62a2 09b8 9a22 25b3
000000c0: a85c 2939 d382 a4b4 ae4f cab6 319e d437
000000d0: e978 b1b8 c733 0c37 dd40 92b6 3b00 96b8
000000e0: d4be 0039 b701 b638 e74d 03b6 a745 1db7
000000f0: 1679 7336 066d deb6 b8df 6238 c43b b4b4
00000100: 4f5e dab1 4b1c cb37 62c6 cab8 281d 44b6
00000110: aad4 7b34 cacf 9236 9dc2 8fb4 703f d236
00000120: 3100 5335 bae2 65b6 a134 78b5 d68e 2a38
00000130: fbfa a837 b590 1336 ba56 08b3 398c 8c33
00000140: 39be 17b9 d5d7 acb7 dc18 3e34 c293 fab8
00000150: 4fe7 a838 7544 2735 5566 e232 4cb1 32b6
00000160: 01fe 0a39 0280 5432 aa5e 5b38 1f21 50b3
00000170: 478e 82b6 db25 05b7 05da f135 ba42 c8b7
00000180: 15dc 8cb6 44ff 10b6 b978 08b6 886e 6b37
00000190: 1bac 6db5 37b6 c636 f44d 9f35 9f63 0c36
000001a0: 53a6 54b5 3855 b9b4 d33e 3eb6 c7e5 e2b7
000001b0: 7890 1939 fce0 0139 7592 c436 fda8 9236
000001c0: c236 aa34 d906 4d36 0c0e 5734 4fc3 4937
000001d0: 4139 63b4 885c 2b36 38d3 eab1 12cf 84b7
000001e0: e119 6736 da14 4337 30f8 a438 0ff2 3e38
000001f0: bd7f c8b5 3262 ca37 3a6c 0336 11e4 0e38
8.4953295e-05 -1.6865359e-08 -1.0227826e-05 -4.847472e-06 0.00018688252 4.110599e-07 2.8662992e-06 -1.1544904e-06
-3.146373e-05 3.5773883e-08 2.0535586e-05 8.9181464e-07 3.158393e-05 2.988264e-07 -6.4948784e-07 -3.824293e-06
1.1647003e-10 -4.2445185e-06 -0.00019858804 1.9604346e-05 -0.00010758113 -1.2084773e-05 -4.6401077e-05 2.318116e-05
-0.00020422075 -7.8163175e-05 -0.00014983014 1.1239323e-06 -1.7878665e-05 -9.363004e-06 2.1050115e-05 3.373738e-05
-6.6347366e-06 1.8733741e-05 -1.0820443e-07 8.893729e-06 -9.3932955e-05 -1.924724e-05 8.864093e-06 -5.039271e-07
3.0392013e-07 1.1134176e-07 -5.591754e-06 2.6979922e-06 6.360819e-05 4.1722473e-05 -3.2814576e-05 -3.8448526e-08
0.00016151613 -3.0642568e-07 -6.029345e-06 2.5346033e-05 -8.462539e-05 8.356706e-06 -4.35869e-06 -7.1526e-05
0.0001227812 8.678756e-05 -1.9565866e-06 -9.374146e-06 3.6280303e-06 -6.6288076e-06 5.4090953e-05 -3.3571098e-07
-6.3553567e-09 2.421266e-05 -9.669062e-05 -2.9223247e-06 2.3453563e-07 4.375329e-06 -2.6777425e-07 6.265873e-06
7.8603904e-07 -3.4255631e-06 -9.2463785e-07 4.0664185e-05 2.0144033e-05 2.1988938e-06 -3.1743845e-08 6.5447644e-08
-0.00014471346 -2.0604502e-05 1.7704173e-07 -0.00011948451 8.053949e-05 6.2311966e-07 2.6356398e-08 -2.6627267e-06
0.0001325533 1.236913e-08 5.230183e-05 -4.8458897e-08 -3.890865e-06 -7.936232e-06 1.8019351e-06 -2.387293e-05
-4.197946e-06 -2.1606256e-06 -2.033585e-06 1.4032827e-05 -8.8539826e-07 5.9220724e-06 1.186911e-06 2.0919613e-06
-7.921819e-07 -3.452094e-07 -2.8348775e-06 -2.7048298e-05 0.00014645036 0.00012386212 5.858305e-06 4.370812e-06
3.170481e-07 3.0551366e-06 2.0028546e-07 1.2026007e-05 -2.1161851e-07 2.5534846e-06 -6.834309e-09 -1.583205e-05
3.4436746e-06 1.1627761e-05 7.866358e-05 4.5524965e-05 -1.4938338e-06 2.4126002e-05 1.9583517e-06 3.406784e-05

exp_avg_sq f4 [128]
00000000: 8ee7 a532 a395 ff2a d589 8f31 3d39 702e
00000010: fabc b233 bf22 4a2b 8064 8232 a7e8 912d
00000020: e337 4b32 8062 4e27 65ee 7631 7d69 8b2f
00000030: a3e4 3633 9e35 ec2c 2ef7 762b d43b 8e2e
00000040: bda1 a021 6195 372f 07a5 a433 6085 1432
00000050: 9212 be32 2d02 a02f 9af2 d631 7440 ef30
00000060: c94b 9f33 f319 6d32 9843 7133 5511 602e
00000070: 1d71 6130 0b33 222f 5764 d532 9fae 0f32
00000080: af7f c52f 8223 d133 eaac 012b 3838 2930
00000090: 9af1 c132 c990 3b30 3c10 8832 88f2 1e2b
000000a0: a42c 5e2a 5e15 a229 b910 722e 585a 0b2f
000000b0: 1a82 1932 d473 7b31 1720 2d31 04d7 0a2c
000000c0: eb85 d633 6653 4c2d 63cf 922f 3df9 8f31
000000d0: 95af 9132 d3f7 3b2f 653b e02e f306 e633
000000e0: 3b49 fc32 a8b0 8133 af61 9d2d 2613 3730
000000f0: 1995 0c31 1953 992f c127 f231 9c43 9e2b
00000100: bec2 6a29 18e9 9e30 1ad4 3a33 49ad 962d
00000110: 1ce8 712f e15e 932e 3ef7 a22c d930 fb31
00000120: 0304 8e2d e34c ca2f 5686 f62b 553e 2533
00000130: 3d66 5230 17db b32d 27e7 3429 03e6 bd27
00000140: 60a8 1e33 3013 3a31 81e0 ed29 80f2 1233
00000150: 0ada 9232 a4d1 582b 6232 052f 3708 252f
00000160: cc8b 0a33 ca02 fb2c 104f e531 b6e2 8128
00000170: 572a 822f d4ca b630 f27a e32d 16df 1131
00000180: b556 632e a674 1930 dcb5 1c2f 37c7 1732
00000190: a2b1 922d 6433 ae2e 892e 0e2e 51c5 1a2d
000001a0: 8ee0 062c 2c0d 652e 8d11 112f a002 4932
000001b0: 29a6 3433 387f 0733 eed7 df2e 1813 3f2f
000001c0: c8a7 a62a 1773 bc32 d9e8 f92b 4ea3 5a30
000001d0: c043 a52a dbcd 352d 08b3 102a 1163 8c32
000001e0: 8de9 4d32 5b8f 2530 c047 6632 04d5 a831
000001f0: dd8c 292f 6910 e130 28d4 812d 53ee a531
1.9313827e-08 4.540093e-13 4.1775174e-09 5.462052e-11 8.3231456e-08 7.1813036e-13 1.5179694e-08 1.658791e-11
1.1828862e-08 2.864164e-15 3.5933223e-09 2.5358907e-10 4.258312e-08 6.713476e-12 8.7739787e-13 6.46804e-11
1.0884833e-18 1.6696823e-10 7.6668634e-08 8.64506e-09 2.2127356e-08 2.9105376e-10 6.2558003e-09 1.7407857e-09
7.4178e-08 1.3801116e-08 5.617366e-08 5.0947097e-11 8.2015267e-10 1.4751948e-10 2.4842093e-08 8.3634e-09
3.5924816e-10 9.73878e-08 4.6069973e-13 6.1561733e-10 2.2578025e-08 6.8235956e-10 1.5839866e-08 5.6469456e-13
1.9733049e-13 7.197952e-14 5.5039282e-11 1.2674073e-10 8.935354e-09 3.6591148e-09 2.5193054e-09 1.9730337e-12
9.989511e-08 1.1614576e-11 2.6704602e-10 4.190183e-09 1.6960067e-08 1.7095596e-10 1.0196891e-10 1.0711474e-07
2.9369962e-08 6.039164e-08 1.7892214e-11 6.6602224e-10 2.0457434e-09 2.7889582e-10 7.0476465e-09 1.1245341e-12
5.212735e-14 1.1562262e-09 4.3499405e-08 1.712998e-11 2.2001284e-10 6.70164e-11 4.6317663e-12 7.310615e-09
1.6145313e-11 3.6798217e-10 1.7516637e-12 3.8473747e-08 7.6542844e-10 2.044724e-11 4.016852e-14 5.2707417e-15
3.6940378e-08 2.707747e-09 1.05638595e-13 3.4213826e-08 1.709579e-08 7.702955e-13 1.2114179e-10 1.5009581e-10
3.2257773e-08 7.1341587e-12 6.6737655e-09 1.4420197e-14 2.3676947e-10 1.329989e-09 2.586151e-11 2.1227087e-09
5.1690836e-11 5.5826843e-10 1.4252727e-10 8.834653e-09 1.6677163e-11 7.921733e-11 3.2328393e-11 8.7976995e-12
1.9167198e-12 5.208027e-11 1.3193908e-10 1.1700337e-08 4.2060638e-08 3.154784e-08 1.0179223e-10 1.7378132e-10
2.9603945e-13 2.1938417e-08 1.7757142e-12 7.954001e-10 2.93569e-13 1.0334368e-11 1.2851883e-13 1.6343195e-08
1.1985674e-08 6.023037e-10 1.3404076e-08 4.9136606e-09 1.5420505e-10 1.6375569e-09 1.4759818e-11 4.8292264e-09

exp_avg f4 [128, 128]
00000000: 8509 d3b2 40f8 882e 9fb5 9cb1 173c 2d30
00000010: b252 1fb3 6ee3 3e2e 3b5e 6baf 34f2 3b31
00000020: d4ca ccb3 619e 6d2c 53a7 72b2 18c7 c6b1
00000030: fe83 0cb3 01f5 192f bb9a 232f f06d 3131
00000040: 61d5 bd29 13ca ce30 e438 e6b2 dd5b c6b2
00000050: 59fd 2c30 af96 3131 a4a2 f8b2 3c76 48b3
00000060: 4b6c 3bb3 6987 89b3 d2c3 3bb3 11de 3b31
00000070: 5619 a030 e282 d830 0961 d4b1 3d33 efb2
00000080: e85f d02f cac2 a0b3 3901 2a2e 8bf8 9ab2
00000090: 0617 f4b3 e1c1 1831 6399 5fb2 37cf 8f2e
000000a0: 1294 522e 027c 562e b52a 5830 e535 0831
000000b0: 39f4 8230 5644 10b3 046b c7b3 79ab de2e
000000c0: ef15 d2b2 8cf4 0f30 a536 3431 d16b bcb2
000000d0: 8436 ccb1 463a 2d31 f3e3 8630 5660 4ab2
000000e0: 19f3 04b2 0a76 9eb3 1e3e 802f 6a55 ac30
000000f0: 9356 1531 193b ae30 ea9d 1bb3 fe4e 662e
00000100: c6c2 5b2d fd03 1131 a6a9 08b3 8e9a 2d2f
00000110: 6f7c bb30 1c28 3a31 9479 2b2f 3dfa 4fb2
00000120: fc2e ca2f b2ee c130 7a61 962e ea06 27b3
00000130: 8bf0 0a31 50f2 932f 3861 252d deed ba2d
00000140: 9afd 08b3 7e26 70b3 60c6 bc2d 23c8 e8b2
00000150: 0ca9 79b3 6ac3 042f 1fba 3031 caa9 9f30
00000160: 03f5 81b3 1cf1 922f f79a 73b3 a88b 832d
00000170: d8c3 ca30 86e7 19b1 69fd 3630 b026 6fb3
00000180: eaa7 3931 f3e5 bb30 aa1b 9030 60a1 04b0
00000190: 744c b22f 57d3 d92f bc73 0131 df75 182f
000001a0: 5a13 af2f 4fa4 b830 398d cd30 1da1 ba2e
000001b0: ce89 6eb3 a866 5eb3 7c50 bf2f b368 1f31
000001c0: e1f3 632e acd0 85b2 63ca 1231 504d 0431
000001d0: b0e5 9b2f 625a 2f31 88bb 3c31 8956 bab3
000001e0: 3478 31ae cc35 8930 7280 fab2 445c 5ab1
000001f0: 55bb aa30 0c7a efb3 db36 3931 1015 a3b2
00000200: be0b 83b7 0716 2a33 6aa7 42b6 6721 d734
00000210: c7db c5b7 7014 ed32 968c 12b4 a267 e935
00000220: 5d53 7eb8 d78a 1331 93a9 16b7 7ee5 76b6
00000230: b182 aeb7 ce2d bf33 a22f cb33 e959 dc35
00000240: 81be 6b2e 8f69 8035 8df4 8eb7 9153 76b7
00000250: 4fd4 d634 828b dc35 3d62 9ab7 88f2 f8b7
00000260: d1c1 e8b7 3ecb 2ab8 e92d e9b7 f14f e935
00000270: 15d5 4635 bf70 8635 a6e5 83b6 e688 94b7
00000280: 4085 8134 55a6 47b8 f81a d332 9772 40b7
00000290: a790 97b8 88b5 bd35 dada 0ab7 1197 3233
000002a0: 47c1 0233 ff30 0533 8939 0635 b02a a935
000002b0: 3ba8 2235 772a b3b7 89a7 77b8 0947 8a33
000002c0: 5472 82b7 a7c2 b234 d4cf df35 7dfc 69b7
000002d0: e896 7db6 0020 d735 1282 2735 d559 fbb6
000002e0: ff19 a5b6 b9c9 44b8 7c40 1f34 4901 5635
000002f0: 2571 b935 4063 5835 c342 c1b7 dbfe 0e33
00000300: 9678 0832 7417 b435 5cb9 a9b7 069a d733
00000310: 04d2 6835 922e e735 99f8 d433 2d27 01b7
00000320: 791c 7b34 8bd3 7035 37c2 3a33 1b6f cfb7
00000330: e589 ac35 e5be 3734 cf5c cd31 ff23 6832
00000340: 7220 aab7 df1d 15b8 f46b 6a32 df8b 90b7
00000350: c106 1bb8 52e1 a433 ce77 db35 264c 4635
00000360: 7f64 21b8 6180 3634 cd43 17b8 d45f 2332
00000370: 9fcb 7b35 ff2f bfb5 343c e334 4780 14b8
00000380: f390 e635 1055 6935 e9f3 3235 c1e9 a4b4
00000390: 2868 5d34 9d40 8734 37c6 a035 4955 bd33
000003a0: 596f 5934 4f49 6535 3441 7f35 8b77 6633
000003b0: 611e 14b8 5b19 0ab8 609a 6d34 c5f9 c535
000003c0: cf8d 0d33 fa31 26b7 8f4a b635 fe4b a435
000003d0: 0599 4134 dcc4 d935 c762 ea35 3b68 67b8
000003e0: c55d dfb2 9663 2a35 a28c 9bb7 259c 07b6
000003f0: 8416 5435 cab3 94b8 f302 e635 858a 4ab7
-2.4567962e-08 6.228662e-11 -4.5608455e-09 6.3022426e-10 -3.7095283e-08 4.3402996e-11 -2.1406603e-10 2.7349758e-09
-9.5363845e-08 3.3767644e-12 -1.4124299e-08 -5.7851928e-09 -3.2716336e-08 1.4002312e-10 1.4879735e-10 2.5819382e-09
8.4303014e-14 1.5045906e-09 -2.6801395e-08 -2.3092008e-08 6.2933264e-10 2.5842544e-09 -2.894496e-08 -4.6673662e-08
-4.3637822e-08 -6.4041906e-08 -4.3717428e-08 2.7338312e-09 1.1648733e-09 1.5753268e-09 -6.1810437e-09 -2.7846562e-08
3.7903125e-10 -7.4860125e-08 3.865461e-11 -1.8040984e-08 -1.1366323e-07 2.2229119e-09 -1.30151845e-08 6.539696e-11
4.7879985e-11 4.8768108e-11 7.864103e-10 1.982124e-09 9.528157e-10 -3.3589764e-08 -9.286126e-08 1.0125851e-10
-2.4457192e-08 5.237062e-10 2.622451e-09 -2.193511e-08 -5.943379e-09 2.5207938e-09 9.81457e-10 -1.1779852e-08
-7.738685e-09 -7.3789195e-08 2.33272e-10 1.2538923e-09 2.1731565e-09 1.2676963e-09 -3.623237e-08 5.2366105e-11
1.2491957e-11 2.1102544e-09 -3.1819262e-08 1.5789167e-10 1.3641407e-09 2.7089362e-09 1.5595553e-10 -1.2105883e-08
3.677697e-10 1.411044e-09 6.8385256e-11 -3.8889006e-08 2.0218376e-09 2.6911318e-10 9.400751e-12 2.1251386e-11
-3.1895617e-08 -5.5914363e-08 2.1461222e-11 -2.7099366e-08 -5.8128578e-08 1.2074755e-10 2.5717168e-09 1.161703e-09
-6.051598e-08 2.6728564e-10 -5.6718786e-08 1.4954996e-11 1.4753097e-09 -2.2396036e-09 6.657133e-10 -5.568171e-08
2.7016491e-09 1.3671396e-09 1.0485242e-09 -4.825065e-10 3.2432335e-10 3.9622236e-10 1.8837758e-09 1.3866196e-10
3.1846065e-10 1.3434461e-09 1.4955851e-09 8.48692e-11 -5.5539026e-08 -5.1781768e-08 3.4799885e-10 2.319706e-09
5.1830432e-11 -1.557813e-08 2.136084e-09 1.9252475e-09 2.8357539e-10 2.5517228e-09 2.74642e-09 -8.6770406e-08
-4.0351902e-11 9.983352e-10 -2.916224e-08 -3.1775622e-09 1.2422371e-09 -1.1151505e-07 2.6952225e-09 -1.8985276e-08
-1.5621885e-05 3.9601243e-08 -2.90057e-06 4.0071174e-07 -2.3586572e-05 2.7599725e-08 -1.3648454e-07 1.7390014e-06
-6.0635957e-05 2.1470237e-09 -8.980179e-06 -3.6790439e-06 -2.0803274e-05 8.9024624e-08 9.4615885e-08 1.6417445e-06
5.3602015e-11 9.567465e-07 -1.7041597e-05 -1.4682199e-05 4.001508e-07 1.6431879e-06 -1.8403976e-05 -2.9676841e-05
-2.7746808e-05 -4.0720442e-05 -2.7797143e-05 1.7383119e-06 7.4070823e-07 1.0016591e-06 -3.930839e-06 -1.7706723e-05
2.4125075e-07 -4.7600206e-05 2.4575897e-08 -1.1470772e-05 -7.227185e-05 1.413443e-06 -8.276396e-06 4.158125e-08
3.044377e-08 3.1011037e-08 5.0002615e-07 1.2603905e-06 6.059451e-07 -2.1358237e-05 -5.904542e-05 6.439047e-08
-1.5550446e-05 3.3296712e-07 1.6675281e-06 -1.3946669e-05 -3.7787777e-06 1.6028062e-06 6.2401625e-07 -7.4908407e-06
-4.9204095e-06 -4.691791e-05 1.4831488e-07 7.972308e-07 1.3816503e-06 8.06107e-07 -2.3038481e-05 3.329374e-08
7.94366e-09 1.3417871e-06 -2.0232685e-05 1.00397344e-07 8.673235e-07 1.7224395e-06 9.917239e-08 -7.6981205e-06
2.3386555e-07 8.97148e-07 4.3483137e-08 -2.472806e-05 1.2855131e-06 1.711265e-07 5.9768364e-09 1.3512362e-08
-2.0280688e-05 -3.5552188e-05 1.3645138e-08 -1.723127e-05 -3.696117e-05 7.6778306e-08 1.6351639e-06 7.387156e-07
-3.8478986e-05 1.6996775e-07 -3.606435e-05 9.5096375e-09 9.3801094e-07 -1.4244578e-06 4.2325848e-07 -3.5405417e-05
1.7178521e-06 8.6923046e-07 6.6665103e-07 -3.071746e-07 2.0620121e-07 2.5192722e-07 1.1978617e-06 8.8165116e-08
2.0250208e-07 8.5415826e-07 9.5089786e-07 5.365977e-08 -3.5314242e-05 -3.2925378e-05 2.2128506e-07 1.4750336e-06
3.2958095e-08 -9.906007e-06 1.3581756e-06 1.2241069e-06 1.8030194e-07 1.6225054e-06 1.7463107e-06 -5.5171764e-05
-2.6003258e-08 6.347485e-07 -1.8542927e-05 -2.0207456e-06 7.900892e-07 -7.090678e-05 1.7137194e-06 -1.207239e-05
