results/RollerAgents/RollerAgent/RollerAgent-103724.pt (torch, 431578 bytes, 39 tensors)

network_body._body_endoder.seq_layers.0.weight f4 [128, 1]
000000 fe 7d e0 be e3 da 3d bd 12 70 a8 bf ad 9b f5 bf
       -0.43846124 -0.046351325 -1.3159201 -1.9188133
000010 5d fd d0 3f 0d ed 91 bd 47 14 2d 3e b2 6b 4e 3d
       1.632732 -0.07125292 0.16902266 0.050395675
000020 2b 6c bb bf 9d d5 16 3d 8a 4c 7f bf e9 ab b0 bd
       -1.4642385 0.03682481 -0.99726164 -0.08626539
000030 ff 46 47 be 1d 21 51 be bb e6 9d 3f 32 b5 94 be
       -0.19460677 -0.20422788 1.2336038 -0.2904449
000040 c9 0d de 3e ea 42 b7 3e 3b 82 75 3f 36 95 1f 3f
       0.43369892 0.3579324 0.9590184 0.6233705
000050 c6 41 39 bf e5 48 27 3d 85 20 18 bf b0 b8 a2 bd
       -0.7236599 0.040841002 -0.5942462 -0.079453826
000060 c2 66 1d be a4 7d 53 3f 0f ce 2f 3f 20 0e 95 bd
       -0.1537123 0.8261359 0.68673795 -0.07278085
000070 16 57 32 be 82 6d a0 3f 52 31 a3 3b 25 5c 9f be
       -0.17416033 1.2533419 0.0049802447 -0.31124988
000080 c2 77 ed bd 9f d9 92 bc ad 13 28 3f 40 b6 bf 3f
       -0.115951076 -0.017926035 0.6565502 1.4977493
000090 b7 18 ba be 51 00 d2 bf 92 e9 03 c0 9c f7 da 3f
       -0.3634698 -1.6406347 -2.061131 1.7106814
0000a0 3f 09 ce be 43 b0 3a 3f 09 56 4d c0 99 a0 78 3e
       -0.4024143 0.72925204 -3.2083762 0.24280013
0000b0 d8 bb 5e 3f 38 ee 89 3f c9 8d 9b bf f0 a5 8d 3d
       0.87005377 1.0775824 -1.2152644 0.06916416
0000c0 6b 20 40 be 4f 21 38 3c 4f bb 3e bd 5e 5f 97 3f
       -0.18762366 0.01123841 -0.04656535 1.1825979
0000d0 97 79 3c bf d3 d0 d9 3f 95 48 78 be d8 27 48 3f
       -0.7362303 1.7016853 -0.24246438 0.78185797
0000e0 84 80 92 bf 9b e2 83 3e 71 a4 49 bd 9e 2f 21 bf
       -1.144547 0.25758824 -0.04922909 -0.62963283
0000f0 30 04 a2 3e 2a 5c 8d bf ef 6e d4 3f 26 79 11 be
       0.3164382 -1.1043751 1.6596354 -0.1420637
000100 08 55 32 bd c3 4f cd 3f 60 c2 46 3e 50 ec 29 3f
       -0.043538123 1.6039966 0.19410086 0.6637621
000110 52 1c 16 3e e9 77 d7 be cb 98 d0 bf 60 c0 9f bf
       0.14659241 -0.42083672 -1.6296629 -1.2480583
000120 0c 87 ee be 07 a8 c5 3f 75 30 f9 3e c3 fe ad 3f
       -0.46587408 1.5441903 0.48669782 1.3593372
000130 08 a7 28 3f c9 86 90 bf 56 1c 4c bf 33 34 9d bf
       0.6587987 -1.1291133 -0.7973074 -1.2281555
000140 90 95 1b bf e9 d0 33 bf 9c 4d c6 be 3c e5 bc 3f
       -0.6077509 -0.70240647 -0.38731086 1.4757457
000150 5b 15 73 bd b9 13 12 3f 99 be fb 3e d4 2f 51 be
       -0.059346538 0.57061344 0.49168852 -0.20428401
000160 46 78 b1 3a 47 54 ef 3c a4 0f 3e 3e 4b da ca bf
       0.0013539873 0.029214991 0.18560654 -1.5847868
000170 27 c2 94 bf 86 6f 5e bf e1 28 7c 3f 57 1c e5 3f
       -1.162175 -0.8688892 0.98499876 1.7899274
000180 ca c5 a5 3e a8 4c 57 be 89 ab 47 bf e3 34 83 3f
       0.32377464 -0.21025336 -0.77996117 1.0250515
000190 8c c4 1e 3f 83 17 83 3d 7d 8e ab 3f fe 79 87 bf
       0.62018657 0.06400969 1.3402859 -1.0584104
0001a0 62 f2 fe 3e 27 db 18 3f b4 a7 ae bd 66 78 98 3e
       0.49794298 0.597094 -0.085280806 0.29779357
0001b0 0c a9 f3 3c 33 5d 4c bc 89 dd d9 be 68 2d 01 3f
       0.029743694 -0.012473392 -0.4255183 0.5045991
0001c0 f4 2b 44 3f 0f 53 64 bf f7 ac ed 3e 03 4f 05 3f
       0.7662957 -0.8918924 0.46421024 0.5207369
0001d0 8b 6a 52 be 71 ea 26 3d 70 b1 b1 3f 17 5f 44 3f
       -0.20548455 0.040750924 1.3882275 0.76707596
0001e0 d9 3e cd 3e 8a f9 f2 3f 45 3f 83 3f b7 dc 14 bf
       0.4008701 1.8982403 1.0253683 -0.58149284
0001f0 61 fd 9f 3f 64 7b e8 bd b2 9b e2 be 48 56 1d 3e
       1.24992 -0.1135166 -0.4425941 0.15364945

network_body._body_endoder.seq_layers.0.bias f4 [128]
000000 66 51 1e 3a b8 e5 4b 39 e3 e5 5d b9 ee 0f b3 ba
       0.0006039351 0.00019445166 -0.00021161842 -0.0013661364
000010 85 4b 20 bb 44 d3 23 3a 58 f5 0c bb 4b e2 a5 ba
       -0.0024459076 0.00062494376 -0.002150854 -0.0012655942
000020 e9 b9 ce ba 95 27 d7 ba d0 d4 83 ba 5a bb 3b 3b
       -0.0015771958 -0.0016414995 -0.001005793 0.0028645606
000030 4f 3d 40 ba 9a fc 32 3b c6 8b 61 3a 91 e5 b2 39
       -0.00073333544 0.0027311207 0.0008603897 0.00034121846
000040 73 3d 28 3a c5 3a 8b ba af 2f 85 bc da 8d c0 3a
       0.0006417848 -0.0010622373 -0.016258089 0.0014690713
000050 52 21 2e 3a 99 1b b6 ba fb bc 02 bb 9c 0e 2b ba
       0.00066425384 -0.0013893723 -0.0019949067 -0.0006525309
000060 6f f2 86 ba d6 20 0b b9 c1 fd 07 b8 8c 12 04 ba
       -0.001029564 -0.00013268305 -3.2422835e-05 -0.0005038164
000070 59 4b e0 3a 53 02 8a ba 61 c7 fa 39 31 4e 75 b9
       0.0017112299 -0.0010529257 0.00047832265 -0.0002339415
000080 75 c2 e6 3a ee 4f 5d ba 55 50 b7 ba be 5f fd ba
       0.001760556 -0.00084423914 -0.0013985733 -0.0019330902
000090 b3 36 05 3a 5e b5 92 ba 96 2e b9 ba 98 79 01 3a
       0.0005081698 -0.0011192968 -0.0014128264 0.00049390784
0000a0 21 cf 2f 3a fb f3 0e bb 30 b4 4e b8 cc 43 9d ba
       0.0006706585 -0.0021812904 -4.928204e-05 -0.0011998354
0000b0 dc 01 2c ba 3d 91 94 ba 90 df cc ba 3b 05 0b bb
       -0.00065615564 -0.0011334788 -0.0015630592 -0.0021212834
0000c0 17 1a d3 3a c4 b3 b1 ba 16 40 7d b7 c1 04 48 bb
       0.0016105798 -0.0013557603 -1.5094896e-05 -0.0030520412
0000d0 94 04 8d ba ac d5 a0 ba 10 20 62 3b 94 f1 a3 3a
       -0.0010758811 -0.001227071 0.0034503974 0.0012507909
0000e0 f4 7e 53 ba 6b 75 ea ba df 29 c0 3a f0 6e a0 ba
       -0.0008067929 -0.0017887776 0.0014660916 -0.0012240093
0000f0 bb 17 fe b8 9a d1 5a bb bf 90 97 b9 8b 83 00 ba
       -0.00012116084 -0.0033389092 -0.0002890881 -0.0004902414
000100 44 9e 12 3a 6d 88 1e b9 35 ba 8a bb b8 de 95 39
       0.00055930414 -0.00015118877 -0.0042336234 0.00028585433
000110 5c 2d 9d ba e5 40 2e ba c2 62 02 3a 71 1a 4f ba
       -0.0011991668 -0.0006647243 0.00049738225 -0.00079003634
000120 63 00 54 bb d1 a9 84 39 ef 82 c5 b7 ee fa 41 bb
       -0.0032348863 0.00025303525 -2.35452e-05 -0.0029599029
000130 60 2b 30 bb bf 14 e5 ba 6d 9b a5 ba 4d cc 41 b9
       -0.0026881322 -0.0017477496 -0.0012634821 -0.00018482022
000140 79 16 de 39 46 00 83 3a c4 5b 4a ba 76 5a 67 ba
       0.00042359883 0.0009994588 -0.00077193626 -0.00088254304
000150 14 57 31 3b 6f ca 9e 3a b4 80 00 3a db 45 9f 3b
       0.002705996 0.0012114773 0.0004901991 0.0048606223
000160 81 6d 13 ba a5 fb b6 b9 fc ec b6 39 4c 4b c2 bb
       -0.00056239223 -0.00034901235 0.00034890312 -0.0059293862
000170 73 45 65 3b 6b 72 ba b5 fa db 5f b9 7d 41 ae b9
       0.0034984022 -1.389138e-06 -0.00021348885 -0.0003323666
000180 74 dc 2c ba ca e1 11 3a d8 e7 a2 b9 2c 7a d4 ba
       -0.00065941294 0.0005564956 -0.00031071785 -0.0016210726
000190 47 f9 49 b9 89 7f 80 ba 27 af 27 ba 63 03 ee ba
       -0.00019261717 -0.0009803633 -0.0006396644 -0.0018158968
0001a0 2f 00 26 3c 0d 1f 02 ba 92 fb b1 39 71 21 44 b9
       0.01013188 -0.00049637334 0.00033947505 -0.00018704474
0001b0 8d b9 d9 ba 7c c3 17 bb 70 8f e6 bb f0 6b 23 bb
       -0.0016611085 -0.002315729 -0.007036142 -0.0024936162
0001c0 f5 a7 92 39 e8 3a 09 3b 74 78 01 ba 0f 56 01 bb
       0.00027972428 0.0020939652 -0.00049389084 -0.0019735133
0001d0 1d 3c 8f 3a 48 ba 2c ba df e2 30 bb 5d a7 02 bb
       0.0010927949 -0.00065890374 -0.0026990694 -0.0019936182
0001e0 56 0e b7 38 0f 8d 4a bb 2e 2f 88 bb 0c 71 49 ba
       8.72879e-05 -0.0030906831 -0.004156015 -0.0007684387
0001f0 f3 8f df ba 26 af 3f ba 31 84 8b ba 42 f8 a0 bb
       -0.001705645 -0.0007312171 -0.0010644255 -0.004912407

network_body._body_endoder.seq_layers.2.weight f4 [128, 128]
000000 39 5f 68 3e 88 14 a0 bc db 0b 10 be ef 7d d7 3d
       0.22692575 -0.01954104 -0.14067023 0.10522067
000010 fb d8 93 bd fe 52 cb bd b9 45 54 3d ca cc d7 3b
       -0.0721912 -0.09927939 0.051824305 0.006585692
000020 c0 d0 88 be 7d 8b aa 3d d2 b0 75 3d f9 6c 15 be
       -0.26721764 0.083273865 0.059983082 -0.14592351
000030 6e d5 12 3e f3 68 6f be f8 f2 36 3c 55 6c aa bd
       0.1433923 -0.23379879 0.011166327 -0.08321444
000040 fe 3b 2b bd e0 24 8d bd 9c 72 fc 3c 2d 6e f7 bd
       -0.04180526 -0.06891799 0.030816369 -0.12081561
000050 d3 6d 9e 3d 7a 4f 09 bd 96 8c ae 3d 16 cd 33 3d
       0.07735791 -0.03352306 0.085229084 0.043896757
000060 bd 75 b8 3d 73 fb 35 bd f1 09 a7 bd 1d 65 2d 3d
       0.09006832 -0.044429254 -0.08156193 0.042332757
000070 14 c1 df bd 32 fc 21 bd 44 10 ab 3c d6 16 dd 3b
       -0.109254986 -0.039547153 0.02088178 0.006747107
000080 8d 0e 20 bc 8e cd 9b bc 5f 6e b7 bd 0b 40 9d 3d
       -0.009769094 -0.019018915 -0.089565985 0.07678231
000090 f4 4f e9 3c 3a cb f9 3b 42 1f d3 3d d0 29 8b bd
       0.028480507 0.0076231034 0.10308696 -0.067950845
0000a0 aa 3b 1d be aa 8e 15 bc 67 08 20 bd dd 99 b1 bd
       -0.15354791 -0.009128252 -0.039070513 -0.08671925
0000b0 c8 b3 54 3d 4e be 5e 3d 4c 66 dc bd c5 f2 90 3d
       0.051929265 0.054380707 -0.10761699 0.070775546
0000c0 2f 95 3a bd ba 43 bd bb e6 dc ff bc 60 ee 88 bd
       -0.04555243 -0.005775896 -0.031233262 -0.066860914
0000d0 f4 da 29 bd 69 aa 2c 3e ad 50 c2 bd f8 7b d5 ba
       -0.041468576 0.16861881 -0.09488044 -0.0016287556
0000e0 f3 05 19 ba 50 02 96 bd 17 7d ef bd 6f bf 94 3d
       -0.00058373733 -0.0732466 -0.11693781 0.072630756
0000f0 e6 4e 22 bd 8e 11 90 bc b8 b5 80 bd f4 3a cc 3a
       -0.039626025 -0.017586496 -0.0628466 0.0015581534
000100 9d 6b 3a bc 7d b6 0f bd ad 94 bd 3d 4f ec 00 3e
       -0.011378196 -0.035086144 0.09256873 0.12590145
000110 92 c9 06 3d 88 3b 05 bd 07 7f d4 3c 47 22 9e bc
       0.032907076 -0.032527477 0.025939478 -0.019303454
000120 c3 d3 7b bd ca 52 66 3d c0 51 4e bc 36 db ec bd
       -0.06148125 0.056231298 -0.012592733 -0.11565249
000130 e9 3d 73 bd 83 c3 ad bd ae 52 31 3e f7 a3 b9 3c
       -0.059385214 -0.084845565 0.17316696 0.022661192
000140 a2 09 48 bd 6f 2c 0d be 6a ee 9c 3d 29 1d 75 bd
       -0.04883731 -0.13786481 0.076626614 -0.059842262
000150 3f 2a 9e bc c2 15 bf 3d 50 e8 25 3e ac f7 d2 bd
       -0.019307254 0.09330322 0.16201901 -0.10301146
000160 5d d7 d6 3d fe 4a 33 3e d6 48 c5 bc fc 54 c0 bd
       0.10490296 0.17509076 -0.024082582 -0.093912095
000170 9b c3 80 3e f5 70 11 3d b7 ea e5 3d 0b a5 c3 3d
       0.25149235 0.035508115 0.11226409 0.09552964
000180 b9 4a 10 3e c8 1b 0d be 18 cd aa 3d 28 6b 02 bd
       0.14091004 -0.13780129 0.083399 -0.031840473
000190 86 6a 0f be 45 b4 1a 3d cd fd 80 bd cb bf 11 3d
       -0.14005479 0.037769575 -0.06298409 0.0355833
0001a0 4f 5f 3e 3d d4 d0 99 3d 3c 88 0e bd 08 e2 1b be
       0.046477612 0.07510534 -0.034797892 -0.15222943
0001b0 93 06 5e 3c 57 8d 00 3e 8f f1 42 3e 16 ed 13 bc
       0.013551372 0.12553917 0.1903746 -0.009028694
0001c0 81 00 84 3b 21 9b 09 bd 12 f7 83 bd 9c 3a f8 bd
       0.0040283804 -0.033595208 -0.06443609 -0.12120554
0001d0 de f7 3a bd f9 5b 6d bd 16 54 11 be e7 fe f1 bd
       -0.04564654 -0.05794904 -0.14192232 -0.11816197
0001e0 a4 fa 98 3c 54 ac e9 3d 9b f5 ba 3d 7b 19 bd 3d
       0.018674202 0.11409822 0.09128877 0.09233376
0001f0 16 d3 ec bc 61 d3 7d be b7 78 40 bc 37 6c 78 bd
       -0.028909247 -0.24787666 -0.011747531 -0.060650077
000200 d0 d2 0d 3d 33 98 43 bd 9a 9f 8d bd f7 24 73 be
       0.034624875 -0.04775257 -0.06915207 -0.2374457
000210 65 41 38 3e 30 0a 99 bd 64 c5 ea 3d 58 dc 76 bc
       0.17993696 -0.07472646 0.114634305 -0.0150671825
000220 31 3e 9b 3d bc d9 af bd 3a d8 a5 bd 05 b7 17 3d
       0.075802214 -0.085864514 -0.080978826 0.037039775
000230 55 0f 09 3d 7e 8c 06 3d 9a 8c 85 3c 73 73 1d be
       0.033461887 0.032848828 0.016302396 -0.15376072
000240 67 be eb bd 97 5d dc bc 00 fc 9d 3c eb 26 04 3d
       -0.11510926 -0.026900096 0.019285202 0.032263678
000250 75 a3 7c 3d d6 75 39 3e 80 71 94 bd b0 65 65 bc
       0.061679322 0.18111357 -0.07248211 -0.014001295
000260 16 03 d1 39 33 ac 41 be 41 9f 8c bd 4b 82 47 bd
       0.00039865886 -0.18913345 -0.06866313 -0.04870824
000270 79 25 90 bc 8c 85 53 3c 5a f9 8a bd 98 94 c2 bd
       -0.017595993 0.012910258 -0.06785841 -0.09500998
000280 cd 48 2a bd 8f 89 51 be 50 54 b2 3d d5 fd cd 3c
       -0.041573334 -0.2046263 0.087074876 0.02514545
000290 a7 05 d6 bd 43 57 bf bd 2c 69 fb b9 39 d1 26 3d
       -0.10450297 -0.09342816 -0.0004795281 0.040726874
0002a0 cf c9 d3 3d f1 94 8c bd ea 6d a3 3c b1 88 29 be
       0.10341226 -0.06864346 0.019949872 -0.1655605
0002b0 da f5 68 bd 79 63 34 3d ef fa 4d 3d e3 4c 13 bc
       -0.056875087 0.044040177 0.050288137 -0.008990499
0002c0 9d 1c 1c bd 52 ed 1f bd f6 3f d0 bb 62 3a 7a 3d
       -0.038113225 -0.039044686 -0.006355281 0.061090834
0002d0 b8 8e 41 3e 95 52 f7 bb e2 cc d3 bd cb ea 98 3d
       0.18902099 -0.0075476863 -0.10341813 0.07466658
0002e0 5d ef 39 be 6f 2d c8 bd 3b 57 10 bd 06 b8 93 3d
       -0.18157716 -0.09774291 -0.03523944 0.07212834
0002f0 70 64 09 be 96 cb 1d 3d 34 a7 d2 ba a7 99 95 bb
       -0.1341722 0.038524233 -0.0016071559 -0.004565436
000300 3e a3 8d 3d 75 03 c4 3c 38 b5 24 3e d9 33 d3 3c
       0.069159016 0.02392743 0.16084754 0.025781559
000310 18 01 a6 bd a7 08 65 bd f1 1e 2c be dc 30 2c ba
       -0.08105677 -0.055916455 -0.16808678 -0.000656856
000320 32 ad be bc 57 16 ac bd 20 7a 15 bc 49 6a 97 3c
       -0.023275945 -0.084026985 -0.009123355 0.018483298
000330 e3 3b e5 bd 6b 39 83 bc 1b a6 05 be 64 d3 98 3d
       -0.11193063 -0.01601859 -0.13051645 0.074621946
000340 30 88 f1 3c 5d 9a a1 3d 0d 8e 0f 3e 2d 5f 9d bd
       0.029483885 0.078907706 0.14019032 -0.07684169
000350 04 84 e4 3c 70 c3 0d 3d 20 15 11 3e 91 fd 58 3b
       0.027894981 0.03461021 0.14168215 0.0033110122
000360 5e 8b 31 bd 25 51 f7 bd c7 e5 a6 3d 49 03 75 bd
       -0.0433458 -0.12076024 0.08149295 -0.059817586
000370 37 1a b5 3d ab 3e be 3d 9f c5 79 3d 5b ed dd 3d
       0.08842891 0.09289297 0.06097948 0.108362876
000380 7f f6 48 3d 38 cd 58 bd c1 17 84 bd c8 ab 04 be
       0.049063202 -0.052930087 -0.06449843 -0.12956154
000390 12 7a e0 bd e2 d0 e8 3d 7b 03 d9 bc ce 0b df bd
       -0.10960783 0.11367966 -0.026490917 -0.108909234
0003a0 20 55 9c 3b a0 65 10 be 02 2b ab 3c e8 49 37 3e
       0.00477089 -0.14101267 0.020894531 0.17899287
0003b0 1d 39 a2 bd 9e eb 77 bd 62 c9 29 3d b9 44 17 be
       -0.0792105 -0.060527436 0.04145182 -0.1477231
0003c0 55 53 cf bc ec 00 4a bc 26 52 bf bd 9a 5d 28 3e
       -0.02530829 -0.012329321 -0.093418404 0.16441956
0003d0 83 52 e2 bd 5d 4f ae bd 93 6f 2e bd f2 56 68 bd
       -0.11050894 -0.08511231 -0.042586874 -0.056723543
0003e0 c3 c9 79 3e f5 2a 40 3e 7b 9e 9e bd 27 e9 58 3d
       0.24393372 0.18766387 -0.077450715 0.052956726
0003f0 ac 6b 9f bc a3 c9 29 bd bb 80 eb 3d 0b 79 11 bd
       -0.019460522 -0.04145206 0.11499163 -0.035515826

network_body._body_endoder.seq_layers.2.bias f4 [128]
000000 80 75 02 bb a7 5d 01 36 1f 89 27 ba 14 ca b9 39
       -0.0019906461 1.927701e-06 -0.0006390977 0.0003543651
000010 c1 5f 7a 39 94 56 ff ba 2b 55 19 bb 54 a5 02 3a
       0.00023877529 -0.0019480758 -0.0023396711 0.0004983742
000020 63 2d 72 b9 29 4e c0 ba 0c 00 ca ba fe 5f ac b8
       -0.00023095826 -0.0014671731 -0.0015411391 -8.219479e-05
000030 32 8e f4 b9 63 72 d8 ba be a9 06 bb a8 39 d8 39
       -0.0004664525 -0.0016513582 -0.0020547952 0.00041241688
000040 31 c6 08 bb 36 f8 c7 b9 94 e0 47 39 d6 f2 f4 ba
       -0.0020870084 -0.0003814117 0.00019061781 -0.0018688093
000050 91 3b 6e ba f7 93 07 bb 51 ff 36 3a 1d c0 08 ba
       -0.00090878556 -0.002068756 0.0006980794 -0.00052166154
000060 8b 92 32 3a 6b 10 2b ba 29 62 79 ba 1f a4 3c ba
       0.0006811998 -0.0006525579 -0.0009513223 -0.0007196087
000070 a3 56 2f b8 d3 aa 90 ba d0 80 ab b9 c9 d5 b2 ba
       -4.1803938e-05 -0.0011037238 -0.00032711634 -0.0013644035
000080 fe 0e 09 3b 33 70 a2 b9 a1 75 94 b9 21 14 a9 ba
       0.0020913477 -0.00030982643 -0.000283164 -0.0012899676
000090 f3 bc ec 38 bd 77 d4 b9 bd f9 ba ba d2 4d 7c 3a
       0.000112885515 -0.00040525003 -0.0014265102 0.0009624633
0000a0 cf 71 af b8 34 78 8a b9 74 97 90 ba f6 e2 5f ba
       -8.365849e-05 -0.0002641097 -0.0011031465 -0.0008540595
0000b0 0d 13 09 ba 1d 37 a7 ba b1 48 7d ba 03 c7 1b 38
       -0.0005228974 -0.0012757514 -0.0009662016 3.7140224e-05
0000c0 6f 49 23 39 35 41 a8 39 53 f6 89 3a be 70 a6 b9
       0.00015572248 0.0003209204 0.0010525681 -0.00031745987
0000d0 69 fb ec b9 98 e6 a0 b9 75 9b d3 bb 7d 00 d1 ba
       -0.00045200743 -0.00030689384 -0.006457741 -0.001594558
0000e0 78 0e e8 ba c3 0a 0e bb 4f c2 36 b9 23 4c d2 ba
       -0.0017704507 -0.0021673895 -0.00017429258 -0.0016044419
0000f0 8d bd b7 ba cb a5 ef ba 64 46 82 39 77 1b 20 ba
       -0.0014018283 -0.0018283663 0.00024847977 -0.0006107608
000100 e7 21 93 3a d0 88 f7 ba 39 83 71 b7 7e 17 08 bb
       0.0011225314 -0.0018885378 -1.4395272e-05 -0.0020765956
000110 14 57 c2 ba 30 ac c3 ba 10 a7 55 39 af 80 fd 3a
       -0.0014826977 -0.0014928635 0.00020375499 0.0019340719
000120 e2 f4 85 ba 98 56 d3 39 cd 15 ff ba d2 69 e3 ba
       -0.0010220075 0.00040309574 -0.0019461453 -0.0017350262
000130 7e da 4f ba 10 f0 a5 ba 5b 0b 38 b9 b0 cf 7e ba
       -0.0007928981 -0.0012660045 -0.00017551838 -0.0009720279
000140 43 2a ad 37 06 8b e1 ba 4e 8f c8 3a 7e ec c7 ba
       2.0642887e-05 -0.001720757 0.0015301497 -0.0015252975
000150 b3 b1 ec 38 ad 4d 15 39 e1 16 fe ba e6 34 55 ba
       0.00011286456 0.00014238684 -0.001938548 -0.00081331877
000160 72 40 08 ba c7 bb 0e 3a ae f2 6d ba 33 1e 92 ba
       -0.00051975914 0.0005444851 -0.00090769946 -0.0011147916
000170 5a 60 98 ba 57 47 47 b9 37 98 a0 3a 7e 0c d2 ba
       -0.0011625395 -0.00019004695 0.0012252395 -0.0016025451
000180 e3 b8 c5 ba d0 c6 20 ba e9 6c b8 b8 4d 86 8d ba
       -0.0015085008 -0.0006133141 -8.79409e-05 -0.0010797471
000190 e9 af 85 ba 50 f4 f4 ba 71 35 c6 38 95 ea 0f 3a
       -0.001019952 -0.0018688533 9.45133e-05 0.00054899725
0001a0 0a 6f 13 bb c5 9d db ba 75 37 a5 ba 05 7d 8f ba
       -0.0022496604 -0.0016755393 -0.0012605028 -0.0010947293
0001b0 b5 89 94 39 5f b0 62 ba 0f de c0 ba e2 b0 0a ba
       0.0002833136 -0.0008647497 -0.0014714616 -0.000529064
0001c0 44 5a 43 3a 48 fc 88 3a 60 a2 c2 ba 73 94 86 39
       0.00074521103 0.0010451162 -0.0014849417 0.00025669075
0001d0 57 c5 88 ba 4d d9 55 ba a9 0d 16 3a 9c c7 1b 3a
       -0.0010434788 -0.00081576855 0.00057240814 0.0005942525
0001e0 cd 73 ad ba 83 d8 2b 39 66 cc 67 bb 16 f2 a3 3a
       -0.0013233364 0.00016388488 -0.0035369634 0.001250806
0001f0 8f 5f e1 ba d8 2b b9 3a c7 5c 2f 3a 29 6d 3d ba
       -0.0017194616 0.0014127446 0.0006689545 -0.0007226044

action_model._continuous_distribution.log_sigma f4 [1, 2]
000000 07 76 fe bc 8a ef fa bc
       -0.03106214 -0.0306318

action_model._continuous_distribution.mu.weight f4 [2, 128]
000000 28 fd 9c bc 0d cb 23 3c 4b 0a f2 b6 fd c6 8e 3c
       -0.019163683 0.009997142 -7.2133603e-06 0.01742887
000010 35 bc 3c 3c 8d 7f fd 3c f6 31 ce 3b a7 54 6b 3b
       0.011519481 0.03094461 0.006292577 0.003590861
000020 02 28 83 bc b7 3e 9d ba 20 1f 8c bc e8 b1 8f 3c
       -0.016010288 -0.001199684 -0.017104685 0.017540887
000030 1a f9 b3 3a e9 fc 1a bc 0e ee 88 3b 6e 7d c7 bc
       0.0013730854 -0.009459713 0.004178769 -0.024351802
000040 d3 c3 ca ba 9d 45 1c 38 d4 18 e4 bc 61 b8 aa b8
       -0.0015469737 3.725813e-05 -0.02784387 -8.140575e-05
000050 b0 39 a8 ba 26 b9 78 3c 94 3d b7 3c 37 38 b5 3b
       -0.0012834575 0.015180862 0.02236823 0.005530383
000060 c4 4d f2 3c ed 1e 0e 3d 88 2d 91 ba 7f 72 f3 3a
       0.029578097 0.034697462 -0.0011076191 0.0018573551
000070 88 7e ce 3c ff 17 71 3c a2 9a 30 3c 08 7c 07 bd
       0.02520682 0.014715194 0.010779055 -0.03307727
000080 17 e6 06 bd 00 91 55 3c b4 13 4b bc 61 95 5f bc
       -0.032934275 0.013035059 -0.012394834 -0.013646455
000090 a9 1f eb 3c 17 f6 a1 bb 72 2f f5 bc 72 40 1e 3d
       0.02870162 -0.0049426663 -0.02992985 0.03863568
0000a0 ab a1 02 3c 64 6d 9a 3c 8d 49 34 bc b7 f4 94 3b
       0.007973115 0.01885099 -0.011003864 0.004545774
0000b0 89 da 17 bb b9 0d 4c bb 91 76 97 bc 53 b8 e9 3c
       -0.0023171029 -0.003113611 -0.018489154 0.028530275
0000c0 0c db f9 3c 0c 58 56 3c ad 82 62 bb b8 82 ac bc
       0.030499958 0.013082515 -0.0034562752 -0.021058425
0000d0 a9 6b 4f 3c b9 db 50 bc 91 3a 76 39 d7 df 53 3c
       0.0126599455 -0.012747698 0.00023482206 0.012931786
0000e0 f7 14 ab 3c fd 3a 20 bd 1b f2 ad bc 15 d5 58 3c
       0.02088402 -0.039118756 -0.021233609 0.013234396
0000f0 4c e0 09 bc 82 d8 8c 3c cf 66 83 bc ac ae 0c 3b
       -0.008415293 0.017193083 -0.016040234 0.0021466417
000100 d6 71 8c 3b 26 1d 30 bc 6d 88 83 bc d9 6a cf bb
       0.0042860312 -0.010749137 -0.016056264 -0.006329876
000110 79 a9 45 bc ce 29 16 bc 5b f1 71 38 e9 9a 10 3c
       -0.012064331 -0.00916524 5.7683657e-05 0.008825996
000120 13 60 93 39 f8 7e 8a 3c 36 b4 6f bc 5c 71 44 bc
       0.00028109606 0.016906247 -0.014630368 -0.011989918
000130 f8 4c 1d bc a3 8c 05 3c f7 5c f7 ba 21 68 ad bc
       -0.00960087 0.008151206 -0.001887231 -0.021167817
000140 de 9b bb bb da a4 c5 bb b0 b0 08 ba 16 2d 12 ba
       -0.005725368 -0.0060316147 -0.0005214317 -0.00055761763
000150 33 23 93 3c 4a e5 0e 3c 3b 05 07 bd da 9f df 3c
       0.01796112 0.008721659 -0.032963973 0.027297903
000160 d2 20 b7 3b 29 f3 ac 3c 78 77 22 3d 2b 9a 7e 3c
       0.0055886293 0.021112042 0.039664716 0.015539686
000170 7f 9f d7 3b e3 ae b2 3c 24 71 ae 3a d3 d8 94 3c
       0.0065802927 0.021811908 0.0013308865 0.018169796
000180 8a d8 23 bc a4 10 10 3b e4 7b 40 3c 90 ad fc 39
       -0.010000357 0.0021982575 0.011748288 0.000481945
000190 59 ef 0e bb fd eb 85 bc 19 bc 56 3c bf a8 4b b7
       -0.0021810143 -0.01634788 0.013106369 -1.2139032e-05
0001a0 89 d1 cb bc 25 54 c0 bb 2c 36 e3 bc c6 1d a0 3c
       -0.024880188 -0.005869406 -0.027735792 0.019545447
0001b0 8a be 09 3c dd b3 bd bc 31 ef f9 3a 11 c9 67 3b
       0.008407244 -0.023157055 0.0019068477 0.0035367648
0001c0 54 54 09 3d 4f 05 af bc ce 8b b3 bb 30 4a 68 3c
       0.033527687 -0.021364836 -0.0054793125 0.014177844
0001d0 b6 b6 92 bc 3f ae 46 3b 3f d1 bd 3b c8 3f 4f 3c
       -0.017909389 0.003031626 0.0057927663 0.012649484
0001e0 ce c4 ed bc d4 cb 1b 38 7a 1e c2 3a e9 e3 4e 3b
       -0.029024508 3.714471e-05 0.0014810108 0.003156895
0001f0 76 62 90 bc c1 f3 92 bc 5c c3 1a 3d cb b0 39 3c
       -0.017625075 -0.017938497 0.037783965 0.011333655
000200 04 e4 b4 3c 23 84 3a 3c cc 23 dc b7 53 71 95 bb
       0.022081383 0.011384043 -2.6242713e-05 -0.0045606284
000210 41 eb 8a bc 6f 2f 0d 3c 6b ae 0d 3c 05 6f 88 3a
       -0.01695788 0.008617266 0.0086475415 0.0010409063
000220 ef 45 01 bd a7 19 1c 3c 06 66 b4 ba 22 04 08 3c
       -0.031560834 0.0095276 -0.0013763316 0.008301767
000230 86 f2 84 3c b3 82 1b bc 40 a5 b3 3c 9d 48 0a 3c
       0.016228925 -0.00949161 0.021929383 0.008440164
000240 d5 a1 34 3b ac 95 a2 bc b5 c5 f4 bb 55 f6 72 bb
       0.002756228 -0.01984676 -0.0074698576 -0.0037073095
000250 68 1f 2a bc 31 ee 84 bb 28 1d a9 3c 43 32 e9 bb
       -0.010383464 -0.004056715 0.020643786 -0.0071165874
000260 d9 ba db 3b 29 ad 92 3b 14 80 96 3c 21 f1 57 bc
       0.0067056236 0.0044762087 0.01837162 -0.013180048
000270 97 c7 d8 3c 98 6c 5b 3b f4 fd 0f 3c 01 12 c2 bc
       0.02646236 0.0033481475 0.0087885745 -0.023690226
000280 a2 ee f8 3c 09 59 ff 3a 87 1c e1 bc 0f dc 0a bb
       0.030387226 0.0019481491 -0.027479423 -0.0021188294
000290 2d 7f 33 bc 5f 99 83 bc 31 ee de bc c3 f3 04 bc
       -0.010955614 -0.016064344 -0.027213188 -0.008114758
0002a0 ea a2 03 3c 8d 36 43 3c df ca b5 b8 ff 90 75 3c
       0.008034447 0.011914861 -8.66854e-05 0.014988183
0002b0 b3 68 be 3c e2 e5 ef bc 34 ff 05 3d c8 2c ac b8
       0.023243284 -0.029284421 0.032714084 -8.20994e-05
0002c0 8b 68 97 3c 93 8b e1 bb b8 ec 2e bd 0b 59 6e 3b
       0.018482467 -0.0068830936 -0.04270622 0.0036368992
0002d0 43 60 ff 3c 67 41 4d 3c 2b 60 2e ba 9b 64 07 bc
       0.03117383 0.0125278 -0.00066519034 -0.008263732
0002e0 51 99 e3 3c f5 7b 27 bb 2d 10 8f bb 6c 7f a6 3c
       0.027783068 -0.0025556062 -0.004365942 0.020324431
0002f0 b3 c8 73 bc 3f 45 43 bc bb e8 96 bc 31 89 2d 3d
       -0.014879393 -0.011918365 -0.018421521 0.042367164
000300 ef 94 78 3a f8 92 d5 ba 14 8d 2f bd e4 1b 32 3b
       0.0009482642 -0.001629441 -0.042859152 0.0027177269
000310 46 e3 28 bd cf 94 0b 3c 90 37 05 38 7d 5c b7 3c
       -0.04123237 0.008519365 3.1761418e-05 0.022382969
000320 ae 62 39 3c d0 81 d4 bb 1f 0a e6 b9 c9 29 32 3c
       0.011315031 -0.0064852014 -0.0004387656 0.01087422
000330 15 e0 ab bb ef 4d 20 bc 11 5f a0 bc 37 66 02 3d
       -0.0052452185 -0.009784206 -0.019576581 0.03183576
000340 9c 3b 79 3c 46 41 03 3c a0 d1 ea b8 59 e1 39 bc
       0.015211966 0.008011168 -0.00011197035 -0.011345231
000350 34 ae 14 bd 32 c0 3a bc 59 b7 09 bd 47 aa 11 38
       -0.036298946 -0.011398362 -0.03362212 3.4729277e-05
000360 12 66 22 bc d1 20 b8 3b c4 64 7c bc 84 34 b1 bc
       -0.009912031 0.0056191464 -0.015404884 -0.021631487
000370 43 49 27 3c f4 cc 94 3c 01 2b 2b b9 fa 0d d6 3c
       0.010210338 0.018164136 -0.00016323851 0.026129711
000380 a3 61 6e bc ab 8d 01 3c c8 9f d7 bb b8 6b 27 3c
       -0.014549646 0.007907311 -0.0065803267 0.010218553
000390 9d 8c c9 3b 79 11 01 bc d8 8d 17 bb d0 a5 0c b8
       0.0061507956 -0.007877701 -0.0023125317 -3.3533026e-05
0003a0 f0 dc e7 ba c8 01 e8 3b 90 7a 1f 3c 8c 44 dd 3b
       -0.0017689746 0.0070802905 0.009733811 0.006752556
0003b0 a2 17 fd bc f8 d1 39 3d 4d 3c 99 3c fd be e3 bb
       -0.030895058 0.045366257 0.018705511 -0.006950258
0003c0 08 50 93 3b 4c 7e 87 bb 17 8f 17 3c 3d df ad bb
       0.0044956245 -0.004134929 0.009250424 -0.005306153
0003d0 a0 af ba 3c 60 cc 85 bb 39 9b 3f bb a0 3f 26 3c
       0.022788823 -0.0040832013 -0.0029236807 0.010147005
0003e0 21 e9 03 39 0b 0e 03 bd 8d b8 49 3b ce a4 5a 3c
       0.00012579981 -0.031995814 0.0030780167 0.013344957
0003f0 cc 8b bc 3c c2 92 18 3d 61 91 2f bc 7d a2 ce bc
       0.02301588 0.037249334 -0.010715813 -0.025223965

action_model._continuous_distribution.mu.bias f4 [2]
000000 0f 0a 84 3a 53 fc e5 b9
       0.0010073798 -0.0004386628

action_model._discrete_distribution.branches.0.weight f4 [1, 128]
000000 2d 78 f4 bb 83 30 88 bc ba d3 9a bb 5a 46 65 3b
       -0.007460615 -0.016624695 -0.004724947 0.003498456
000010 ab ce e5 3a 0c 13 40 3b 0b d0 4f 3c ce f3 c3 ba
       0.0017532905 0.0029308228 0.012683879 -0.0014949979
000020 1a 3d 87 ba 2c 3f 8a 3b 6a 79 23 3c 5c da 9f bc
       -0.0010317892 0.0042189565 0.009977678 -0.019513302
000030 41 3e 94 3a 87 e8 e0 ba 12 0f 84 3a f2 09 52 3c
       0.0011310057 -0.0017159142 0.0010075292 0.012819754
000040 0a 5c 15 3a 88 f0 fd 3b 1b df 28 3c 14 7d af 3b
       0.0005697614 0.007749621 0.010307099 0.0053554866
000050 52 f0 44 bb 00 28 dd bc 35 72 90 bb cf 40 d6 3a
       -0.0030050469 -0.026996613 -0.004408146 0.0016346219
000060 3d 24 08 3c 27 ce f9 3b 6c fb ae 3c f0 65 85 bc
       0.008309421 0.007623452 0.021360122 -0.01628396
000070 0d 70 56 bc 2b c1 2a 3c 49 18 aa 3c 44 fb 81 3a
       -0.013088238 0.010422031 0.020763533 0.0009916802
000080 ed fa 54 3c 80 03 d1 bb ba 99 13 bc 90 e2 7f 3c
       0.0129992785 -0.006378591 -0.009008819 0.015617982
000090 7a 27 6d 3c 14 1f 27 3c 83 a0 9e bb f8 2a 1a 3c
       0.014474744 0.010200281 -0.004840912 0.009409659
0000a0 3f c0 89 3b 96 f5 91 bc 1f 9d bd b9 90 f5 84 3c
       0.0042038257 -0.0178173 -0.00036165953 0.016230375
0000b0 e7 3f cb 39 b7 28 20 3b 30 98 56 3c 47 73 35 3b
       0.00038766788 0.002443833 0.013097808 0.002768712
0000c0 30 0e fb bb ab 42 ac 3b 1e 3a cb bb 70 56 e7 3b
       -0.0076616034 0.005256971 -0.0062019965 0.0070598647
0000d0 e6 c1 bb bb 67 2b 70 bb f1 08 8a ba e8 d8 8f bc
       -0.0057299016 -0.0036646964 -0.0010531229 -0.017559484
0000e0 1b 31 bf 3b da 4d 62 bc dd ed b3 ba d7 ef 49 3a
       0.0058347112 -0.013812507 -0.0013727505 0.00077032804
0000f0 bc 24 a5 3c 1c 63 43 bb b0 78 32 3b c1 40 23 3a
       0.020159118 -0.0029813712 0.002723258 0.00062276056
000100 76 93 1f ba 95 a8 cc 3b 9f 7a 8b 3b 18 0e e1 ba
       -0.0006087342 0.0062456825 0.004256561 -0.0017170338
000110 cc 84 0b ba e0 67 56 3b a0 5a 4e 3a 63 77 9d 3b
       -0.00053222175 0.0032715723 0.00078717805 0.004805492
000120 ca ec 89 bb 58 79 83 3b e5 e8 d6 b9 b1 ef 03 bb
       -0.0042091357 0.004012268 -0.0004099078 -0.002013188
000130 9d 9a e9 3b ba 1a 5e bb d3 54 41 bb f5 d6 69 bc
       0.007129027 -0.0033890442 -0.0029500022 -0.014272441
000140 7d bf 83 bb 10 a2 18 bb 90 d7 37 39 3a 7a ea 3a
       -0.00402063 -0.0023289956 0.00017532543 0.001788921
000150 c8 7a 28 bb 2c d0 89 ba a5 fb 79 bc 71 59 ae bb
       -0.002570795 -0.001051431 -0.015257751 -0.005320721
000160 56 5b b1 bb b6 0b c3 bb 26 f1 0e bc d7 69 27 b9
       -0.0054124994 -0.005952324 -0.008724486 -0.0001596579
000170 8d a6 d8 3b 9b 4f f2 3b 70 1b 62 bc ad b2 6f bb
       0.0066116513 0.0073947436 -0.013800487 -0.0036575005
000180 60 5a 76 3b 45 49 45 3c 2f 28 20 bc 06 51 88 bc
       0.0037590489 0.012041395 -0.0097752055 -0.016640197
000190 30 7f 34 3b bd 18 8a 3a ac 3d 82 3c b6 86 9c bb
       0.002754163 0.0010535937 0.015898548 -0.004776801
0001a0 95 1d df 3c 3c 34 8c 3c f7 22 20 bc 1d 97 a5 3a
       0.027235785 0.017114751 -0.009773961 0.0012633536
0001b0 12 b1 e2 ba cb c4 0a 3b 59 36 0c bc ca 2e f1 bb
       -0.0017295203 0.0021174427 -0.008557879 -0.007360314
0001c0 c2 10 fe bb 48 06 ac bc 6f 61 14 3c 32 68 b9 3b
       -0.0077534625 -0.020999089 0.009056433 0.005658173
0001d0 6e 89 c3 39 84 b4 b8 bc 8c 0f 46 3c 9f 13 91 3c
       0.0003729569 -0.022547014 0.012088668 0.017709551
0001e0 a3 cd 27 bc cc 39 9e bb cd ad f0 bb f6 80 b5 3b
       -0.010241899 -0.0048286673 -0.0073449374 0.005539055
0001f0 55 65 1c bc 0e 9f cb bb 90 7e f5 bb 0f 9d eb 39
       -0.009545644 -0.006214029 -0.007491894 0.0004493971

exp_avg f4 [128, 1]
000000 93 24 43 b7 6d f9 ff 37 c7 20 d5 b4 30 9b b1 33
       -1.1631421e-05 3.0514517e-05 -3.969819e-07 8.270433e-08
000010 85 dc 32 39 f2 e7 45 b8 4e 93 05 38 69 94 d1 38
       0.00017057553 -4.7184476e-05 3.184686e-05 9.99354e-05
000020 b0 89 82 35 33 a7 ad 38 5b 5b a2 35 04 80 6c b6
       9.725827e-07 8.280426e-05 1.2096529e-06 -3.5241255e-06
000030 61 3d 44 37 ff 3f 07 b6 6c e5 5a b9 a3 46 2f b7
       1.1696801e-05 -2.0153818e-06 -0.00020875566 -1.0447259e-05
000040 2a 47 61 38 60 a6 75 38 11 c9 bc 36 72 20 c5 b7
       5.3710457e-05 5.85675e-05 5.626244e-06 -2.3499339e-05
000050 bf de 12 b7 0f 5f 2b 38 ab 15 26 37 9a d5 99 37
       -8.75414e-06 4.0858107e-05 9.899416e-06 1.8338487e-05
000060 de 9f 88 37 90 8d 7f b8 91 39 29 b9 0d 14 8f 37
       1.6286907e-05 -6.0928578e-05 -0.00016138541 1.7056265e-05
000070 1f c7 a6 b7 f0 40 8b b8 ba 3d a3 b8 99 45 6a b6
       -1.9881465e-05 -6.640132e-05 -7.783943e-05 -3.4909228e-06
000080 ba db 09 b8 44 46 96 38 56 48 b0 38 2f ab b2 38
       -3.286798e-05 7.1656454e-05 8.4058076e-05 8.519587e-05
000090 c9 da e1 b6 f3 07 47 34 b0 77 98 33 fb 48 07 b9
       -6.7309925e-06 1.8536211e-07 7.0998226e-08 -0.0001290179
0000a0 a4 a4 58 b7 4c 50 98 38 20 7a 79 2f 8c b3 99 39
       -1.2912937e-05 7.262881e-05 2.2689806e-10 0.00029316207
0000b0 3d 68 09 36 1a 0d ca 38 b1 ff 99 35 58 b1 0d 38
       2.0475266e-06 9.634551e-05 1.1473804e-06 3.3782184e-05
0000c0 db 90 08 35 0e 27 54 38 69 6b c4 38 48 46 29 39
       5.087474e-07 5.058111e-05 9.366015e-05 0.00016143278
0000d0 b4 32 e6 36 9b f8 8a 39 87 95 7f b5 05 74 11 b9
       6.8604368e-06 0.00026506637 -9.5212494e-07 -0.00013871498
0000e0 07 26 9e b5 0f b4 03 38 cf 56 4d b8 c1 f2 98 37
       -1.1782985e-06 3.1400526e-05 -4.8956656e-05 1.8232853e-05
0000f0 9f 28 c5 b8 99 5b c9 34 86 a1 d4 b8 56 ac 3f 38
       -9.401258e-05 3.7505814e-07 -0.00010139034 4.569845e-05
000100 a0 01 e4 b8 7d 63 2e b9 53 4c cd 37 1f 70 01 b9
       -0.0001087219 -0.00016630995 2.4473446e-05 -0.00012344167
000110 9a a1 c3 37 a9 d0 a7 37 1e 55 09 b5 a0 df a8 35
       2.3321063e-05 2.0005116e-05 -5.116034e-07 1.2582059e-06
000120 ee 82 47 36 f3 66 df b8 a2 f2 54 b9 82 e4 d4 37
       2.9729522e-06 -0.000106526444 -0.00020308283 2.5378777e-05
000130 71 4e 37 38 ca 03 20 36 fa ce 1f 37 27 20 ea 35
       4.3703654e-05 2.3844063e-06 9.525329e-06 1.7443716e-06
000140 8b c3 92 b7 91 52 56 b7 04 9e 82 b4 96 3b 1a b7
       -1.7495613e-05 -1.2774618e-05 -2.4329358e-07 -9.192989e-06
000150 84 a8 47 b8 c1 df b8 b8 21 2a 4d b8 b5 d7 3d b6
       -4.760224e-05 -8.815481e-05 -4.8915044e-05 -2.8288753e-06
000160 dd eb 8f 37 e0 d4 02 b8 1f 98 0b b9 6a a1 84 b3
       1.715676e-05 -3.119267e-05 -0.00013312743 -6.17609e-08
000170 ff c5 65 b5 c3 a4 94 35 da f2 e0 b7 42 25 e0 b8
       -8.559727e-07 1.1074811e-06 -2.6815967e-05 -0.00010688092
000180 dd e5 9d 39 2e f6 a4 b7 e2 48 38 36 60 ef 52 39
       0.00030116635 -1.966496e-05 2.746056e-06 0.00020116335
000190 31 47 4a b9 fb d5 f4 38 b1 dc c0 b6 3d b1 04 36
       -0.00019290742 0.000116746836 -5.7477378e-06 1.97727e-06
0001a0 1e e6 0c 37 8f b7 11 b8 0d 40 04 b8 a9 4e e3 b8
       8.398229e-06 -3.4741646e-05 -3.1530904e-05 -0.00010838855
0001b0 0c ad 01 38 be c3 87 37 37 a4 0f b5 e1 cc bd 38
       3.091716e-05 1.6184404e-05 -5.3510615e-07 9.050384e-05
0001c0 b3 18 15 38 ad 10 d2 b5 f0 8a ab b7 52 79 7a 39
       3.554737e-05 -1.5651073e-06 -2.0449486e-05 0.00023887053
0001d0 c4 b8 8f 35 70 ff 42 b7 b1 dc 40 38 1b b2 be 38
       1.0708104e-06 -1.1622775e-05 4.5981902e-05 9.093081e-05
0001e0 c4 30 33 b9 6e 71 2c 38 24 21 a8 37 f2 b6 a6 36
       -0.00017088937 4.1113635e-05 2.0042593e-05 4.968483e-06
0001f0 6a bd 1e 39 82 22 c4 38 ba e7 a2 37 18 e4 50 37
       0.00015138616 9.352436e-05 1.9419811e-05 1.2450873e-05

exp_avg_sq f4 [128, 1]
000000 c6 b2 85 31 4d 84 0f 33 f4 f0 86 2d d9 7f 99 29
       3.8911336e-09 3.341511e-08 1.5341041e-11 6.816743e-14
000010 84 92 82 34 0b 59 11 34 90 d2 de 33 76 be 0b 34
       2.432099e-07 1.3536571e-07 1.0375982e-07 1.3014673e-07
000020 8e d8 da 2d e6 0b 24 34 44 a4 67 2f 44 84 0b 32
       2.48799e-11 1.5278019e-07 2.1067686e-10 8.120939e-09
000030 15 18 f6 30 59 84 c9 2f fc f3 4e 35 06 d4 b4 30
       1.79057e-09 3.6655726e-10 7.7096024e-07 1.3156984e-09
000040 4d a6 05 35 fe 85 24 35 5d f9 33 31 75 fc 39 33
       4.978836e-07 6.1289745e-07 2.6189675e-09 4.3303277e-08
000050 54 e6 46 30 94 35 18 34 09 f4 c7 30 8c af 33 31
       7.2359296e-10 1.4175595e-07 1.4548515e-09 2.6147715e-09
000060 c4 d0 ae 31 a5 46 9c 34 c7 1a 56 35 f6 a5 80 33
       5.0878004e-09 2.9108665e-07 7.976018e-07 5.9906526e-08
000070 7f 03 ad 31 0b e2 b5 34 97 91 9a 33 60 2c 6a 31
       5.03536e-09 3.3878345e-07 7.1976665e-08 3.4076706e-09
000080 c8 1c 11 33 5c 85 6d 33 89 7d 63 35 de bc c7 34
       3.378662e-08 5.5302152e-08 8.474677e-07 3.7204057e-07
000090 a2 d8 3f 31 f3 36 bc 2a d5 0d 63 29 44 d7 87 35
       2.79173e-09 3.3433637e-13 5.0416123e-14 1.0120934e-06
0000a0 16 8f ef 30 3a 89 f2 34 c9 9d 80 21 2c ab 7b 35
       1.7430206e-09 4.5175858e-07 8.715383e-19 9.3753874e-07
0000b0 0f 51 0d 34 f1 95 fc 34 bf 90 85 2d 66 34 8e 34
       1.3161137e-07 4.7047754e-07 1.518463e-11 2.6487686e-07
0000c0 ea 62 1a 30 53 d3 f2 32 a7 37 d2 33 fe 68 5f 34
       5.616544e-10 2.8268607e-08 9.78901e-08 2.080669e-07
0000d0 08 ec f2 2f 7b 3a 82 35 10 d9 34 2d 2f 1e e3 34
       4.4187254e-10 9.702775e-07 1.0280013e-11 4.2304006e-07
0000e0 b2 ff ac 2e c5 ad 62 34 35 e7 08 33 7a eb ce 31
       7.867075e-11 2.1111107e-07 3.187525e-08 6.0221597e-09
0000f0 cc 06 02 34 e6 51 11 2c 84 5e 6c 35 54 fd bb 32
       1.2109666e-07 2.0651202e-12 8.805439e-07 2.1884865e-08
000100 2e 2f 0a 34 6a b8 ab 34 85 e7 85 32 78 b3 da 34
       1.2869415e-07 3.198541e-07 1.558852e-08 4.0736245e-07
000110 25 a8 2e 34 7f b0 70 32 51 fa cc 2c 0b 3d 48 2e
       1.6266183e-07 1.4009969e-08 5.8258194e-12 4.5528952e-11
000120 34 04 4c 2f 3f 79 21 34 92 bb f5 34 6b 2f 5d 33
       1.8555185e-10 1.5038403e-07 4.5771282e-07 5.14987e-08
000130 2a cf 6c 32 a8 f9 47 2f e3 6c 91 30 19 07 1a 2f
       1.3784112e-08 1.818764e-10 1.0581086e-09 1.400874e-10
000140 af a4 85 31 08 2e e6 30 17 b6 55 30 29 01 d0 34
       3.889532e-09 1.6747785e-09 7.7747714e-10 3.8743863e-07
000150 af 7c df 32 b1 90 9b 34 bd 34 78 35 16 09 0e 2f
       2.6017316e-08 2.8976277e-07 9.2463944e-07 1.2918053e-10
000160 28 26 ee 31 d0 1b 9b 33 83 dc 40 35 a8 3a 05 2a
       6.9310495e-09 7.222809e-08 7.184646e-07 1.1833123e-13
000170 63 68 0d 2d 79 33 4e 30 11 38 f5 34 f2 92 c4 34
       8.038101e-12 7.501551e-10 4.56756e-07 3.6614762e-07
000180 e7 6b 85 35 01 83 bc 31 45 9e f8 2e 00 d4 e0 34
       9.940676e-07 5.4864135e-09 1.13058486e-10 4.1877502e-07
000190 58 2c da 34 ee 6f 2d 34 0d 9f 8f 35 15 7a c3 2e
       4.0637929e-07 1.61526e-07 1.070062e-06 8.8892595e-11
0001a0 5c 91 25 31 d4 d9 5e 34 2e 37 34 33 9f e1 cc 34
       2.4093287e-09 2.0754607e-07 4.19597e-08 3.8162122e-07
0001b0 06 bd f8 32 d4 b3 94 32 d2 60 12 2e e0 37 25 34
       2.8956958e-08 1.7311244e-08 3.328255e-11 1.538715e-07
0001c0 3b 2f 38 34 d5 12 47 2f 55 f9 2c 35 7f c5 69 35
       1.7153518e-07 1.8105635e-10 6.443782e-07 8.708666e-07
0001d0 95 07 82 30 43 c2 01 34 80 19 9f 33 d3 58 96 33
       9.4609e-10 1.2084733e-07 7.408653e-08 7.001076e-08
0001e0 f1 97 ba 34 fe 22 1a 34 6d 7c 8e 31 11 b2 85 2f
       3.4755752e-07 1.4355098e-07 4.1468895e-09 2.4319083e-10
0001f0 60 08 99 35 f9 1c bb 33 60 c6 cf 31 17 f6 31 33
       1.1401826e-06 8.713136e-08 6.0470455e-09 4.143484e-08

exp_avg f4 [128]
000000 40 1d 1c b6 8d c7 cc 36 a2 80 aa b3 bf 15 8e 32
       -2.3262837e-06 6.1029045e-06 -7.93964e-08 1.6540865e-08
000010 d1 16 0f 38 28 53 1e b7 7f b8 d5 36 ee a9 a7 37
       3.4115106e-05 -9.436895e-06 6.369373e-06 1.9987081e-05
000020 4b dc 50 34 29 ec 8a 37 ae e2 81 34 20 33 3d b5
       1.9451652e-07 1.6560853e-05 2.4193054e-07 -7.0482383e-07
000030 e9 fd 1c 36 68 66 d8 b4 f2 1d 2f b8 83 38 0c b6
       2.3393607e-06 -4.0307646e-07 -4.175114e-05 -2.089452e-06
000040 ef 38 34 37 15 85 44 37 42 07 97 35 8d b3 9d b6
       1.0742092e-05 1.1713496e-05 1.1252489e-06 -4.699867e-06
000050 ff fd ea b5 da 18 09 37 23 de 04 36 94 22 76 36
       -1.7508281e-06 8.1716225e-06 1.9798833e-06 3.6676984e-06
000060 60 99 5a 36 3c 71 4c b7 41 61 07 b8 e0 ec 64 36
       3.2573807e-06 -1.2185712e-05 -3.2277083e-05 3.4112527e-06
000070 19 6c 85 b6 49 ce 5e b7 c8 97 82 b7 da 6a 3b b5
       -3.976293e-06 -1.3280261e-05 -1.5567886e-05 -6.981842e-07
000080 bb 92 dc b6 6d 70 70 37 a6 06 8d 37 5d ef 8e 37
       -6.5735926e-06 1.4331291e-05 1.6811606e-05 1.7039181e-05
000090 05 af b4 b5 90 39 1f 33 af f2 73 32 cc 74 d8 b7
       -1.3461982e-06 3.7072425e-08 1.41996415e-08 -2.5803594e-05
0000a0 80 50 2d b6 a4 b3 73 37 e7 94 47 2e 13 ec 75 38
       -2.5825866e-06 1.45257545e-05 4.5379613e-11 5.8632413e-05
0000b0 b4 d9 db 34 13 a4 a1 37 ee 65 76 34 64 b5 e2 36
       4.095033e-07 1.9269099e-05 2.2947617e-07 6.7564415e-06
0000c0 5b 81 da 33 db b8 29 37 b9 22 9d 37 6b 6b 07 38
       1.0174946e-07 1.0116225e-05 1.8732027e-05 3.228655e-05
0000d0 8f 28 b8 35 93 5a 5e 38 9d 77 4c b4 a9 b9 e8 b7
       1.3720872e-06 5.301328e-05 -1.9042496e-07 -2.774301e-05
0000e0 a7 09 7d b4 ac b9 d2 36 72 45 24 b7 98 b7 74 36
       -2.3565973e-07 6.2801028e-06 -9.791331e-06 3.64657e-06
0000f0 1b ba 9d b7 13 16 a1 33 d3 1a aa b7 ac 56 19 37
       -1.880252e-05 7.501162e-08 -2.027807e-05 9.1396905e-06
000100 b3 67 b6 b7 c9 82 0b b8 0d 3d a4 36 c9 19 cf b7
       -2.174438e-05 -3.3261986e-05 4.894688e-06 -2.468833e-05
000110 49 81 9c 36 8a 40 86 36 64 bb db b3 4c 19 87 34
       4.664213e-06 4.0010245e-06 -1.0232068e-07 2.5164115e-07
000120 f0 9b 1f 35 c2 b8 b2 b7 b4 5b 2a b8 67 50 aa 36
       5.9459035e-07 -2.1305288e-05 -4.0616564e-05 5.075755e-06
000130 25 a5 12 37 05 03 00 35 92 b1 ff 35 f0 4c bb 34
       8.740729e-06 4.768811e-07 1.905066e-06 3.4887444e-07
000140 75 d2 6a b6 41 75 2b b6 9d fc 50 b3 0e c6 f6 b5
       -3.499122e-06 -2.5549236e-06 -4.8658524e-08 -1.838607e-06
000150 05 ba 1f b7 38 e6 93 b7 aa 21 24 b7 c5 df 17 b5
       -9.52045e-06 -1.763097e-05 -9.783e-06 -5.657751e-07
000160 28 46 66 36 97 54 d1 b6 c8 59 df b7 76 35 54 b2
       3.4313507e-06 -6.238533e-06 -2.662548e-05 -1.235218e-08
000170 96 d1 37 b4 71 d4 6d 34 78 f5 b3 b6 fe 50 b3 b7
       -1.711945e-07 2.2149631e-07 -5.363192e-06 -2.1376178e-05
000180 01 a3 7c 38 24 f8 83 b6 84 6d 13 35 7e bf 28 38
       6.023329e-05 -3.9329916e-06 5.4921134e-07 4.0232662e-05
000190 8e d2 21 b8 62 de c3 37 73 49 9a b5 c9 4e d4 34
       -3.8581486e-05 2.3349367e-05 -1.1495271e-06 3.95454e-07
0001a0 2e 70 e1 35 b8 25 e9 b6 ac 99 d3 b6 8d d8 b5 b7
       1.6796455e-06 -6.948332e-06 -6.30618e-06 -2.167772e-05
0001b0 4e 7b cf 36 30 39 59 36 7b d3 e5 b3 17 d7 97 37
       6.1834353e-06 3.2368807e-06 -1.07021116e-07 1.8100762e-05
0001c0 e8 8d ee 36 57 0d a8 b4 ef 3b 89 b6 12 61 48 38
       7.109473e-06 -3.1302145e-07 -4.0898954e-06 4.777412e-05
0001d0 79 f4 65 34 8d ff 1b b6 29 4a 1a 37 7b 8e 98 37
       2.1416226e-07 -2.324555e-06 9.196382e-06 1.818616e-05
0001e0 37 5a 0f b8 53 f4 09 37 eb 80 86 36 28 5f 85 35
       -3.4177876e-05 8.2227225e-06 4.008519e-06 9.936966e-07
0001f0 d8 fb fd 37 69 e8 9c 37 fb 52 82 36 e8 1c 27 36
       3.0277224e-05 1.8704874e-05 3.883962e-06 2.4901765e-06

exp_avg_sq f4 [128]
000000 3d 22 2b 2f 98 b3 b7 30 85 b9 2c 2b a1 7a 44 27
       1.5564523e-10 1.3366046e-09 6.1364135e-13 2.7266941e-15
000010 e9 21 27 32 8f 0b ba 31 43 9b 8e 31 55 df b2 31
       9.72839e-09 5.4146265e-09 4.150395e-09 5.2058717e-09
000020 b4 0f 8c 2b c4 fa d1 31 2b 40 14 2d d5 94 b2 2f
       9.951957e-13 6.1112093e-09 8.427074e-12 3.2483763e-10
000030 13 80 9d 2e 85 f8 80 2d 2b 73 04 33 d2 75 67 2e
       7.162284e-11 1.466228e-11 3.083839e-08 5.2627964e-11
000040 4e 12 ab 32 f6 96 d2 32 df 5d e6 2e f8 0f ee 30
       1.9915344e-08 2.4515867e-08 1.0475864e-10 1.7321318e-09
000050 63 97 fe 2d 00 d4 c2 31 a7 f0 7f 2e 6a ff e5 2e
       2.8943686e-11 5.6702447e-09 5.819403e-11 1.0459085e-10
000060 8c c3 5f 2f 8c 08 48 32 e3 06 09 33 70 ab 24 31
       2.0351204e-10 1.16434755e-08 3.190406e-08 2.3962592e-09
000070 1b 75 5d 2f 6f cf 68 32 0d d9 45 31 f7 de 15 2f
       2.0141437e-10 1.3551342e-08 2.8790652e-09 1.3630684e-10
000080 73 be b9 30 6b 03 18 31 00 98 11 33 14 aa 7f 32
       1.351465e-09 2.2120854e-09 3.3898687e-08 1.4881625e-08
000090 23 90 f5 2e 29 ea 70 28 8d 50 11 27 5a e0 2d 33
       1.1166914e-10 1.3373452e-14 2.016646e-15 4.0483748e-08
0000a0 55 51 99 2e 15 39 9b 32 fe a0 24 1f 6a 11 21 33
       6.972082e-11 1.8070333e-08 3.486152e-20 3.750157e-08
0000b0 a5 e2 b4 31 a7 a7 a1 32 a7 f6 2a 2b a6 05 36 32
       5.264456e-09 1.8819106e-08 6.073843e-13 1.0595079e-08
0000c0 56 9d c5 2d 85 68 9b 30 0a 8a 86 31 83 fb 0e 32
       2.2466178e-11 1.130744e-09 3.9156065e-09 8.322675e-09
0000d0 57 78 9b 2d 4e b1 26 33 46 7c e7 2a fd 5a 91 32
       1.7674901e-11 3.8811145e-08 4.1120075e-13 1.6921598e-08
0000e0 41 70 5d 2c 11 13 11 32 69 3c af 30 bb 6d 84 2f
       3.1468302e-12 8.444446e-09 1.2750095e-09 2.4088628e-10
0000f0 09 6f a6 31 63 02 ba 29 c3 46 17 33 70 a0 70 30
       4.843859e-09 8.260473e-14 3.5221785e-08 8.7539487e-10
000100 3c e0 b0 31 4f cd 5b 32 cb 65 2b 30 06 f8 8b 32
       5.1477667e-09 1.27941595e-08 6.2354094e-10 1.6294518e-08
000110 7c 8f df 31 8c 0a 1a 30 9b 2f 83 2a 0f 27 00 2c
       6.5064665e-09 5.603986e-10 2.3303308e-13 1.8211576e-12
000120 0d 92 02 2d b2 af ce 31 d6 44 9d 32 fa 8e 0d 31
       7.422074e-12 6.0153633e-09 1.8308508e-08 2.0599473e-09
000130 d6 8e 17 30 e8 f7 ff 2c f3 24 3a 2e cf 27 c5 2c
       5.513646e-10 7.275059e-12 4.232432e-11 5.6034964e-12
000140 39 10 2b 2f a3 50 93 2e 75 c6 08 2e 73 1f 85 32
       1.5558123e-10 6.69911e-11 3.1099085e-11 1.549754e-08
000150 23 08 8f 30 95 1f 47 32 0f da 1e 33 32 ce b5 2c
       1.0406932e-09 1.15905054e-08 3.6985565e-08 5.1672217e-12
000160 57 6a 98 2f 03 8a 46 31 cd dc f6 32 82 88 aa 27
       2.7724198e-10 2.8891243e-09 2.8738578e-08 4.733248e-15
000170 87 00 b5 2a 00 f8 03 2e ae f0 9c 32 67 9d 7b 32
       3.2152425e-13 3.000622e-11 1.8270239e-08 1.4645912e-08
000180 8e c7 2a 33 88 4b 71 2f 9d 1d 9f 2c d8 e3 8f 32
       3.9762703e-08 2.1945656e-10 4.5223395e-12 1.6751002e-08
000190 86 a1 8b 32 df ff dd 31 d1 d5 37 33 cc 35 7a 2c
       1.6255182e-08 6.4610357e-09 4.2802473e-08 3.5557e-12
0001a0 4a ed d3 2e de 9f 0e 32 12 ad e6 30 bd 1f 83 32
       9.63732e-11 8.301837e-09 1.6783892e-09 1.526484e-08
0001b0 4a 31 9f 30 df 56 3e 30 3b 5d bb 2b b9 7a d3 31
       1.1582781e-09 6.924505e-10 1.3313026e-12 6.15486e-09
0001c0 94 c1 eb 31 79 d0 fe 2c 18 68 dd 32 1f 9d 15 33
       6.8614074e-09 7.2422593e-12 2.5775122e-08 3.4834667e-08
0001d0 16 70 26 2e 5e 17 a6 31 c3 a5 4b 31 b4 71 40 31
       3.7843582e-11 4.8338924e-09 2.9634613e-09 2.800431e-09
0001e0 f6 d6 6e 32 77 4b c5 31 ca 61 36 2f 5f 21 2b 2d
       1.39023e-08 5.742034e-09 1.6587545e-10 9.7276345e-12
0001f0 c9 e1 43 33 46 81 6f 31 d9 f9 84 2f 5c ca e3 30
       4.5607326e-08 3.485256e-09 2.4188188e-10 1.6573938e-09
