results/RollerAgents/RollerAgent/RollerAgent-45760.pt (torch, 431507 bytes, 39 tensors)

network_body._body_endoder.seq_layers.0.weight f4 [128, 1]
1.3886288 0.36215127 -0.061910983 1.8704224 0.24508817 0.39248422 -0.17119826 1.608045
-0.37637976 -0.10442849 -0.30302688 -0.7913787 0.93661606 -0.24175823 0.8003385 0.36619845
0.33703753 -1.0583692 -0.33712977 -0.5536679 0.3167553 1.5322337 1.1160438 -1.9137303
-2.185538 0.7912597 -1.8775437 -1.3695964 -0.44627765 0.59182835 0.4941752 0.5340749
2.749714 -0.7446215 -1.0517056 -0.60851973 -0.40058908 0.20638235 0.28870943 0.6039335
1.3439821 -0.54083115 0.16510345 1.7854052 0.6795058 -1.0356714 -0.3334484 0.15298134
0.5231947 0.77144563 -2.1292717 0.1875659 0.6202149 -0.92484903 1.5008687 -0.08912
1.3798186 -0.45723146 0.3112184 -1.0702013 0.2811392 0.09894002 0.2505397 1.6680868
0.73968065 0.41658378 0.87451714 -2.163185 0.7822671 -1.586063 1.2258172 0.12496714
1.0854113 0.06281333 0.59089124 -0.48744416 1.1012753 -0.6802231 0.2890321 0.45582184
-0.69169354 0.18848267 2.0299995 0.7303011 -0.2853866 -1.4895712 0.52635056 1.1740255
-0.16725066 -0.14211419 2.1194913 1.0224291 0.22279438 0.15845594 0.5350077 -1.9712446
-1.0220187 -1.2719631 0.46080008 0.20036508 -0.64693135 -0.15925738 0.8659449 0.516259
-0.29969466 1.3386577 -1.4402324 2.403898 -0.5910618 0.010728393 -0.18255161 0.80888176
0.88822126 -0.17516035 1.7212378 1.9970523 0.12519619 1.9310524 -0.8047408 -1.6823711
-0.3527378 -0.6696594 -2.9344792 1.3812435 -0.5743494 0.55329096 1.0295146 -0.33896333
00000000: 97be b13f e46b b93e 5f96 7dbd 006a ef3f
00000010: 65f8 7a3e b1f3 c83e 994e 2fbe 6bd4 cd3f
00000020: d9b4 c0be 9bde d5bd 5726 9bbe cb97 4abf
00000030: 12c6 6f3f 788f 77be fce2 4c3f 5d7e bb3e
00000040: 2f90 ac3e a478 87bf 469c acbe 2ebd 0dbf
00000050: c02d a23e 3c20 c43f 86da 8e3f 1df5 f4bf
00000060: dbdf 0bc0 ff8f 4a3f 5a53 f0bf ef4e afbf
00000070: 817e e4be 1082 173f 8804 fd3e 22b9 083f
00000080: 50fb 2f40 849f 3ebf 4a9e 86bf f3c7 1bbf
00000090: 031a cdbe e555 533e b9d1 933e 639b 1a3f
000000a0: 9b07 ac3f e973 0abf e110 293e 2888 e43f
000000b0: 18f4 2d3f e190 84bf c0b9 aabe 24a7 1c3e
000000c0: 16f0 053f 767d 453f fd45 08c0 4611 403e
000000d0: 67c6 1e3f e8c2 6cbf 771c c03f 8c84 b6bd
000000e0: e59d b03f 3e1a eabe 0558 9f3e 5bfc 88bf
000000f0: 7af1 8f3e 11a1 ca3d bd46 803e de83 d53f
00000100: b65b 3d3f 784a d53e 5be0 5f3f 9f71 0ac0
00000110: a842 483f 1d04 cbbf 94e7 9c3f c6ee ff3d
00000120: c2ee 8a3f 46a4 803d a644 173f 4892 f9be
00000130: 97f6 8c3f 1a23 2ebf 04fc 933e 7b61 e93e
00000140: d412 31bf 9a01 413e 83eb 0140 03f5 3a3f
00000150: 311e 92be 45aa bebf e9be 063f 7846 963f
00000160: c243 2bbe 6286 11be bfa5 0740 f5de 823f
00000170: 3624 643e 4642 223e 44f6 083f be51 fcbf
00000180: 82d1 82bf b0cf a2bf fded eb3e 812c 4d3e
00000190: 4b9d 25bf 5e14 23be 91ae 5d3f 8d29 043f
000001a0: 9471 99be 2359 ab3f 8959 b8bf 77d9 1940
000001b0: d34f 17bf 24c6 2f3c cfee 3abe e012 4f3f
000001c0: 7862 633f 3c5d 33be 8551 dc3f 699f ff3f
000001d0: 6e33 003e ba2c f73f 7e03 4ebf f057 d7bf
000001e0: 0d9a b4be cc6e 2bbf 82ce 3bc0 96cc b03f
000001f0: 9008 13bf 7aa4 0d3f 22c7 833f 9a8c adbe

network_body._body_endoder.seq_layers.0.bias f4 [128]
-0.0014554199 -0.00039168552 -0.001132449 -0.0023715345 0.0009651092 -0.0010888668 -0.0011093958 -0.00067213963
-0.0010588011 -0.00041080642 0.0014188738 0.00048770086 0.0026960524 -0.0021001934 -0.006647645 0.00042290596
-0.0013111866 -0.00085168256 -0.0023629272 0.0017808109 -0.00118657 -0.0021291182 -0.0004574475 -0.0015823543
-0.0012270312 -0.0011337404 0.0013751031 -0.0029994417 -0.0014552065 0.00040116513 -0.0014698596 -0.0009612511
-0.0012162513 -0.0012120013 -0.0017008106 0.0017615615 -0.00090472604 -0.0018504405 -0.0014496284 -0.0024626048
-0.0006784606 0.00043384515 -0.00023234486 -0.0011295552 -0.0016852369 0.0015665836 -0.0023063212 -0.00067212805
-0.001503767 0.0003554714 -7.051575e-05 0.00086269836 0.0008845123 -0.0018094813 0.00012989518 0.0019114681
0.0006229302 0.00075593387 0.00045681477 0.00051881274 -0.002474499 0.0009815601 -0.0028553563 -0.0013130711
-0.0015207771 0.000111074834 0.0008150786 0.0004367823 0.00014190575 0.0008502042 0.0012140573 0.00022792822
0.0007444542 0.001063228 -0.0017595034 0.00013294832 0.0013708 -0.0013526265 -0.0011646443 -0.001537938
-0.001708231 -0.0011497461 -0.003405968 -0.0041333013 -0.00043593935 0.00061479997 -0.00017987294 -0.0018578685
0.00022349702 -0.0007126493 -0.0009011281 0.0008897028 0.00041233574 0.0016342899 -0.0001760681 6.566688e-05
-0.0071828156 -0.0003932764 0.0011165634 1.0491067e-05 0.0011768072 0.0024790508 -0.0011566521 -0.0007858002
-0.00074801233 -0.00072461215 0.00034191483 0.00075443 0.0003178384 0.0013683762 0.0013375832 -0.0011188227
0.00060861796 0.0012204113 -0.0036782296 -0.001549073 -0.0013514529 -0.0045996485 -0.0018103296 0.0003096699
-0.0002143762 -0.0009439212 -0.00026755605 0.0015366611 0.0013607492 -0.0047604796 -0.00065581716 0.00022790697
00000000: cac3 beba 245b cdb9 af6e 94ba bf6b 1bbb
00000010: 62ff 7c3a 4fb8 8eba 2569 91ba 8732 30ba
00000020: 78c7 8aba 8161 d7b9 81f9 b93a 1ab2 ff39
00000030: 41b0 303b 66a3 09bb 7dd4 d9bb 7ab9 dd39
00000040: 1fdc abba 7343 5fba 57db 1abb 196a e93a
00000050: af86 9bba ad88 0bbb 90d5 efb9 0067 cfba
00000060: 56d4 a0ba 049a 94ba ce3c b43a 4892 44bb
00000070: a1bc beba 7953 d239 4ea8 c0ba 78fc 7bba
00000080: 9f6a 9fba 04dc 9eba bced deba 32e4 e63a
00000090: 232b 6dba 7b8a f2ba 7501 beba a763 21bb
000000a0: b8da 31ba b675 e339 99a1 73b9 950d 94ba
000000b0: 2be3 dcba d355 cd3a a625 17bb c031 30ba
000000c0: 0c1a c5ba 905e ba39 dbe1 93b8 b526 623a
000000d0: 9ede 673a 1e2c edba 7934 0839 3a8a fa3a
000000e0: 234c 233a dd29 463a a480 ef39 ef00 083a
000000f0: 342b 22bb b1a7 803a ee20 3bbb 5b1b acba
00000100: d054 c7ba d9f0 e838 00ab 553a eeff e439
00000110: 89cc 1439 3de0 5e3a 0121 9f3a 0400 6f39
00000120: 7a27 433a 035c 8b3a 239f e6ba 0b68 0b39
00000130: 6aac b33a 9d4a b1ba faa6 98ba a394 c9ba
00000140: b9e6 dfba 14b3 96ba a936 5fbb a570 87bb
00000150: ca8e e4b9 872a 213a 469c 3cb9 b983 f3ba
00000160: 865a 6a39 16d1 3aba af39 6cba f23a 693a
00000170: c42e d839 ab35 d63a ec9e 38b9 a3b6 8938
00000180: d35d ebbb aa30 ceb9 a759 923a ca02 3037
00000190: 193f 9a3a 9277 223b ce9a 97ba 29fe 4dba
000001a0: 4216 44ba e6f3 3dba 0843 b339 f1c4 453a
000001b0: 8ca3 a639 165b b33a d851 af3a 76a5 92ba
000001c0: a98b 1f3a 35f6 9f3a 740e 71bb 440a cbba
000001d0: 3c23 b1ba a6b8 96bb 9548 edba 315b a239
000001e0: 2cca 60b9 7b71 77ba c446 8cb9 ca69 c93a
000001f0: 2b5b b23a ccfd 9bbb 25eb 2bba 50fa 6e39

network_body._body_endoder.seq_layers.2.weight f4 [128, 128]
0.00038646784 0.0059862672 0.024206106 0.06977731 0.005769345 0.0064432137 -0.08417781 -0.05299632
0.07569466 0.055342942 0.15516281 0.07680183 -0.04725011 0.08594137 -0.0031185094 0.04108865
0.0039970754 0.022134734 0.079351254 0.21429019 0.05328835 -0.061711576 0.021452699 -0.02388505
0.15648672 0.06056426 -0.02288572 -0.035655275 -0.025841953 -0.17234594 0.120299906 0.044730246
-0.069987975 0.066886075 -0.07969191 -0.04115444 0.041550472 -0.019622358 0.11271339 -0.07869893
0.0059998054 -0.16071247 -0.0036579731 0.027100995 0.11791485 0.10580468 -0.018209532 0.202867
-0.18558387 -0.010311753 0.04414143 0.046679083 0.036630347 -0.04653935 -0.08480573 0.12601203
-0.0042234412 0.04265109 -0.008269796 0.09702674 0.039099395 0.05932138 0.136828 0.018992601
0.059368793 0.08114918 0.021312911 -0.021447876 -0.01834083 0.037936922 -0.026408367 -0.06467453
0.0028567177 -0.01945908 -0.007982117 -0.02502131 0.06884637 -0.03629457 -0.021096684 0.09723042
0.0134988995 -0.09470298 -0.0003805047 -0.011469439 0.008135704 0.064386055 -0.038927495 0.11543223
-0.011046472 -0.045756765 -0.016752165 -0.019726053 -0.00524357 -0.014566834 -0.19527279 -0.18115625
-0.114220716 0.1596669 -0.012056195 0.00046997034 0.024018658 0.11257972 0.070455454 -0.068485126
-0.043646585 -0.03541605 0.073757164 -0.027726008 0.07368788 0.07738358 -0.10488591 -0.012281013
0.09190703 0.064265266 0.10115914 0.06135802 0.021475747 0.058726527 0.08659588 0.03490889
0.026564738 0.1239701 -0.10248105 -0.09930735 -0.0017806485 0.100000665 0.004185723 -0.06879596
0.023441443 0.19811729 -0.0050951783 0.04460531 -0.08433618 0.0050790063 0.20232718 0.08748027
0.049952228 -0.048362996 -0.03966272 -0.06038602 -0.070212 0.07827811 0.0022222456 0.13429968
-0.08201477 0.045999978 -0.1032284 0.007996959 -0.035913907 -0.026565045 -0.036483064 -0.07028326
-0.039870147 -0.0026806586 0.07093734 -0.114779316 -0.09706823 0.06330643 0.024506178 -0.069343604
-0.048215 0.06506109 -0.06996174 -0.105247 0.048598308 -0.03198996 0.049976937 -0.1192417
0.0012523304 0.028070688 -0.039765347 0.14667475 0.004150576 0.007409895 -0.10421747 0.11952664
0.10958687 0.06373332 -0.084453434 0.040974103 0.059288725 -0.032173213 -0.0091000665 0.045438
0.004559116 0.09314716 -0.1300279 0.06456278 -0.050228395 0.040169977 0.1570694 -0.085869834
0.11806004 0.11027051 0.14681871 0.0051988508 -0.109808825 -0.23229761 0.05973168 -0.048099235
-0.10963085 0.01840313 -0.085638724 0.019361924 0.08918798 -0.07323933 -0.080965444 0.043510433
0.09050227 -0.06406041 0.05202197 -0.067522235 0.018708993 -0.15802476 -0.02426938 -0.0400678
0.12342626 -0.00013185327 0.008259206 0.086269796 -0.17511952 -0.11444765 -0.062767826 -0.11298254
0.0380144 -0.030522246 0.16985069 0.03764548 -0.12078524 -0.10749186 -0.0064160693 -0.044674914
-0.10549677 -0.10956968 0.09340251 0.020005701 -0.07942657 0.07238848 -0.01465096 -0.16250673
0.06407861 -0.30588722 -0.10355826 0.055102304 0.021373985 -0.20697002 -0.11828424 -0.011399484
-0.027391981 -0.06212011 0.20759805 -0.15775757 0.12123631 0.08022911 0.21825665 -0.04061389
00000000: d69e ca39 7328 c43b e24b c63c 68e7 8e3d
00000010: c60c bd3b 9821 d33b 6a65 acbd ab12 59bd
00000020: cd05 9b3d 48af 623d 00e3 1e3e 474a 9d3d
00000030: 5589 41bd 0702 b03d e85f 4cbb 924c 283d
00000040: e6f9 823b e753 b53c e982 a23d e36e 5b3e
00000050: e344 5a3d 47c5 7cbd 92bd af3c 95aa c3bc
00000060: 0e3e 203e 3b12 783d d57a bbbc 440b 12bd
00000070: 81b2 d3bc 747b 30be cc5f f63d 1037 373d
00000080: db55 8fbd 91fb 883d 8335 a3bd 8f91 28bd
00000090: d430 2a3d 11bf a0bc 47d6 e63d e82c a1bd
000000a0: 049a c43b cf91 24be 9bba 6fbb e802 de3c
000000b0: 577d f13d 20b0 d83d 282c 95bc 5ebc 4f3e
000000c0: b309 3ebe a0f2 28bc a5cd 343d 9132 3f3d
000000d0: b409 163d 0ca0 3ebd a0ae adbd 4c09 013e
000000e0: cb64 8abb e9b2 2e3d 0a7e 07bc f5b5 c63d
000000f0: b026 203d fafa 723d a41c 0c3e 5f96 9b3c
00000100: b12c 733d 8b31 a63d 6a98 ae3c 75b3 afbc
00000110: 823f 96bc bf63 1b3d 5c56 d8bc 1474 84bd
00000120: c537 3b3b a668 9fbc 6dc7 02bc 7ef9 ccbc
00000130: 53ff 8c3d 9da9 14bd f4d2 acbc be20 c73d
00000140: 7d2a 5d3c a3f3 c1bd 7a7e c7b9 50ea 3bbc
00000150: 9e4b 053c d6dc 833d 7072 1fbd bc67 ec3d
00000160: 43fc 34bc 726b 3bbd d63b 89bc 8898 a1bc
00000170: 41d2 abbb bba9 6ebc 97f5 47be 0681 39be
00000180: 8dec e9bd b87f 233e 5987 45bc 5a66 f639
00000190: c7c2 c43c 3290 e63d f34a 903d ee41 8cbd
000001a0: c3c6 32bd 6c10 11bd ff0d 973d a721 e3bc
000001b0: ace9 963d 487b 9e3d 6dce d6bd 4d36 49bc
000001c0: c139 bc3d 829d 833d 862c cf3d 8c52 7b3d
000001d0: e8ed af3c 3a8b 703d 2e59 b13d a0fc 0e3d
000001e0: 4b9e d93c 09e4 fd3d 96e1 d1bd a761 cbbd
000001f0: a664 e9ba 26cd cc3d 6428 893b e5e4 8cbd
00000200: 4508 c03c 42df 4a3e 74f5 a6bb 0fb4 363d
00000210: 72b8 acbd cb6d a63b db2e 4f3e db28 b33d
00000220: b59a 4c3d 4718 46bd 6075 22bd 5557 77bd
00000230: 4fcb 8fbd 4650 a03d 18a3 113b db85 093e
00000240: 5cf7 a7bd 796a 3c3d 6969 d3bd ad05 033c
00000250: 761a 13bd f09e d9bc 446f 15bd abf0 8fbd
00000260: e14e 23bd fdad 2fbb 9947 913d 6b11 ebbd
00000270: b5cb c6bd cda6 813d 2ec1 c83c 0504 8ebd
00000280: 187d 45bd c03e 853d 1a48 8fbd bd8b d7bd
00000290: 050f 473d e807 03bd 9eb4 4c3d fe34 f4bd
000002a0: 3c25 a43a 80f4 e53c fde0 22bd e831 163e
000002b0: 8e01 883b b4ce f23b f86f d5bd 62ca f43d
000002c0: 156f e03d 9d86 823d ecf5 acbd 76d4 273d
000002d0: bcd8 723d 0fc8 03bd 7218 15bc 321d 3a3d
000002e0: a364 953b f0c3 be3d 0926 05be 7e39 843d
000002f0: 4abc 4dbd 4689 243d cdd6 203e 86dc afbd
00000300: 76c9 f13d 81d5 e13d a557 163e 1f5b aa3b
00000310: 73e3 e0bd 6ddf 6dbe 35a9 743d b403 45bd
00000320: 2486 e0bd 29c2 963c 5b63 afbd e69c 9e3c
00000330: 30a8 b63d 80fe 95bd 36d1 a5bd ff37 323d
00000340: 4159 b93d 1b32 83bd fd14 553d 1949 8abd
00000350: 9a43 993c 3ed1 21be 94d0 c6bc 221e 24bd
00000360: e8c6 fc3d 1842 0ab9 9f51 073c 38ae b03d
00000370: 8852 33be 8863 eabd 6b8c 80bd 6463 e7bd
00000380: fdb4 1b3d ca09 fabc 57ed 2d3e 2632 1a3d
00000390: 405e f7bd b124 dcbd e43d d2bb 0bfd 36bd
000003a0: b10e d8bd 1266 e0bd d149 bf3d ffe2 a33c
000003b0: 66aa a2bd 6940 943d 950a 70bc 2a68 26be
000003c0: a53b 833d 409d 9cbe 5a16 d4bd f4b2 613d
000003d0: 7f18 af3c f3ef 53be 023f f2bd e7c4 3abc
000003e0: 2665 e0bc a871 7ebd 9594 543e 338b 21be
000003f0: be4a f83d 294f a43d ac7e 5f3e c05a 26bd

network_body._body_endoder.seq_layers.2.bias f4 [128]
-0.001136294 -0.0013450973 -0.0013961702 -0.00094471895 -0.0018504964 0.0010177175 0.0005341632 0.0005202759
-0.0017956191 -0.00030339241 -0.00093725516 -0.0014541992 0.00059464964 0.0001201086 -0.0016521766 -0.0010284999
0.0010163664 7.468229e-05 -4.3835233e-05 -0.0010881884 0.00020546599 -0.0019740374 0.000883828 -0.00035075063
-0.0018194458 -0.0014963057 -0.0007033753 0.0008979899 -0.00120102 -0.0019707393 -0.0019807098 -0.00064671435
-0.0014767172 -0.0020008136 -6.356031e-05 -0.00031310052 -0.0020400623 -0.0003280109 0.0005486686 0.001506365
0.0002955888 -0.000646555 0.00021314592 0.00020411669 -0.0012571523 -0.0018726218 0.001995211 -0.0015739492
-0.00029634737 -0.000838888 -0.000476652 -0.00015378045 -0.00023897327 -0.0020569847 -0.0008348326 -0.00011078225
-0.0023880408 -0.0013776395 -0.00344572 -6.581224e-05 0.00045548062 -0.0005731779 0.0001941296 -0.0020138829
-0.00022057726 -0.0017918565 -4.990995e-05 -0.0015867385 0.00062700576 -0.0015489374 -0.0006410267 0.00034094884
0.0015956439 -0.0014411096 0.0007847402 0.00063269655 -0.0012205138 0.00033861987 -4.485455e-05 0.00073907006
0.0001860369 -0.0008589488 -0.0013501227 0.00071677595 -0.00080871885 -0.0018539694 -0.0012901127 -0.0019570366
-0.0001006021 -0.00023045734 -4.173321e-06 -0.0011896027 -0.0007806675 -3.169181e-05 -0.000802374 -0.0006657214
-0.0001569111 -0.0019331158 -0.00027430302 -0.0013254489 -0.0017068563 5.5626355e-05 -7.109611e-05 -0.0020749294
0.00040795887 -0.0015646054 -0.0013970381 0.0005761665 -0.0043104305 -0.0018833175 -0.00039598247 0.00015560973
-0.0016982064 0.0002152607 -0.0026638093 6.817549e-05 0.00046321703 -0.0012504404 0.00015770238 -0.001428486
7.3255906e-05 -0.0020855344 -0.0030641824 0.0006399491 -0.00085104984 -0.002066481 -0.0007554757 0.00046491143
00000000: b3ef 94ba fa4d b0ba b3ff b6ba 04a7 77ba
00000010: 5b8c f2ba ef64 853a 1607 0c3a 2063 083a
00000020: fb5a ebba a410 9fb9 21b2 75ba d49a beba
00000030: 43e2 1b3a d0e2 fb38 d98d d8ba bbce 86ba
00000040: 9937 853a c09e 9c38 b9db 37b8 8ba1 8eba
00000050: 5b72 5739 da5e 01bb b1b0 673a f4e4 b7b9
00000060: 787a eeba b01f c4ba b862 38ba 1567 6b3a
00000070: 8b6b 9dba 8527 01bb ccce 01bb 4488 29ba
00000080: 688e c1ba 1520 03bb ae4b 85b8 a427 a4b9
00000090: 91b2 05bb e1f8 abb9 87d4 0f3a 3971 c53a
000000a0: 42f9 9a39 927d 29ba ec7f 5f39 2808 5639
000000b0: 08c7 a4ba c372 f5ba 16c2 023b f94c ceba
000000c0: 125f 9bb9 d2e8 5bba 26e7 f9b9 2040 21b9
000000d0: e694 7ab9 7ace 06bb abd8 5aba c553 e8b8
000000e0: ad80 1cbb e991 b4ba 97d1 61bb ad04 8ab8
000000f0: 93cd ee39 5141 16ba 458f 4b39 59fb 03bb
00000100: c24a 67b9 badc eaba 6756 51b8 1cfa cfba
00000110: a55d 243a b705 cbba 930a 28ba 61c1 b239
00000120: ed24 d13a 9de3 bcba 06b7 4d3a 8cdb 253a
00000130: a6f9 9fba ca88 b139 3522 3cb8 27be 413a
00000140: e612 4339 142b 61ba 9af6 b0ba 05e6 3b3a
00000150: 3400 54ba e400 f3ba 0019 a9ba a041 00bb
00000160: 57fa d2b8 eca6 71b9 8e08 8cb6 71ec 9bba
00000170: b6a5 4cba d2ec 04b8 6856 52ba cf83 2eba
00000180: 8188 24b9 9a60 fdba 54d0 8fb9 afba adba
00000190: 98b8 dfba 5850 6938 6f19 95b8 8afb 07bb
000001a0: 50e3 d539 7213 cdba d21c b7ba e109 173a
000001b0: 833e 8dbb a6d9 f6ba de9b cfb9 2b2b 2339
000001c0: 5a96 deba 9bb7 6139 4e93 2ebb 70f9 8e38
000001d0: f0db f239 d1e5 a3ba e95c 2539 093c bbba
000001e0: f7a0 9938 76ad 08bb 73d0 48bb 42c2 273a
000001f0: fd18 5fba cc6d 07bb 1e0b 46ba 5bbf f339

action_model._continuous_distribution.log_sigma f4 [1, 2]
-0.012508548 -0.025353901
00000000: a7f0 4cbc fcb2 cfbc

action_model._continuous_distribution.mu.weight f4 [2, 128]
-0.010837748 -0.008881177 0.0017205932 -0.02290658 -0.0032204206 0.039654672 0.034015078 0.008091404
-0.0056478377 -0.023469044 -0.011940018 -0.006650812 0.014514519 -0.028157707 -0.014509882 0.005129012
0.022418179 0.0046472833 -0.0003731531 -0.024297936 -0.017521523 0.019773487 0.017192405 0.025536614
-0.010194567 -0.012744424 0.0019689975 0.02966498 0.0100197075 0.01829704 -0.0033497592 0.03916704
0.026261698 0.012889194 -0.018795935 0.009055337 -0.0010525986 0.01321589 0.017891936 -0.006321362
0.013309392 0.00428086 -0.0061572297 0.02240503 0.019585274 -0.0014285169 -0.012781872 0.008984776
0.014406316 -0.0057498617 0.004846457 0.00055495027 -0.006260842 0.008231927 -0.0049707578 0.0066921315
0.00022350458 0.008936758 0.00087514916 -0.043100834 0.037436523 -0.012908882 -0.027426995 -0.0043723686
-0.0046655755 0.0042441245 0.029385831 0.031622417 0.036843203 -0.010868153 0.004114585 -0.025532648
-0.0031310262 0.0030299127 0.0130925 0.010561555 -0.027727459 0.004633596 0.01105664 -0.014701681
0.015412204 -0.004450247 -0.0061085504 0.00257262 -0.008129642 0.013537968 -0.02599648 0.021562697
-0.005622983 0.011803404 -0.016969332 -0.026548682 0.030082881 0.0016379129 0.0017715328 -0.0112351
-0.014523245 0.003333374 0.008937686 -0.028919032 -0.015089672 -0.0019038684 0.0039304136 0.011549016
-0.028415117 -0.012655839 -0.024526153 0.019705828 -0.00088718534 -0.027682351 -0.01338994 -0.00026043045
0.0091432305 0.01314013 -0.0015643374 0.00028727893 0.0075805313 -0.018425697 -0.00090442994 -0.0294314
0.002545791 -0.023860734 -0.00041252156 -0.0012468427 0.01838772 -0.013606332 0.007195828 0.018010965
0.021570653 -0.002899459 -0.017313682 0.027618917 0.010459742 0.014860125 -0.008631408 0.0061347946
-0.0119579295 0.01915211 0.018808508 -0.01749967 -0.0019998702 -0.002684007 0.011687413 -0.0064007887
0.040403496 -0.006689307 -0.03437344 0.01832743 -0.030908009 -0.0015381286 0.011291737 0.0067911875
-0.017562049 -0.0043786867 0.03136542 0.0056891968 -0.0019444006 0.0044903127 0.0045884917 -0.010437527
-0.03734266 0.0010395513 0.009946636 -0.0026478174 0.011904264 -0.015649643 -0.013060297 -0.0010173165
-0.0039045408 0.014712895 -0.030490085 -0.016011931 0.005111946 -0.007942795 -0.031555016 -0.0023070923
-0.0012245213 0.00016140987 -0.0124311345 -0.031025318 0.029643266 0.010605503 0.00035791507 -0.0075446754
-0.00528943 -0.022675093 -0.0019989589 -0.008777753 -0.009183719 0.030392554 -0.044301167 -0.0052352874
-0.0154897645 -0.01034912 0.00035330164 0.007863216 -0.017252134 -0.003356596 -0.005208687 -0.01716537
-0.019708946 -0.010553851 0.008335218 0.01002782 0.0016613734 0.011913852 -0.027492002 0.024859872
-0.026528891 0.011690062 0.009190084 0.023104321 0.02460155 0.0146055855 -0.030849488 -0.00068709167
0.03391939 -0.0013133561 -0.01526574 0.00909884 -0.018371949 0.013863999 0.003935619 0.02572231
0.00057800073 0.01995907 -0.01884654 -0.015453438 0.0029200986 -0.038183138 0.008006767 0.0048124776
-0.00926818 -0.0053558233 -0.008637309 -0.014552321 -0.00018555393 0.006175292 0.012861937 0.01098845
0.016168237 -0.019416181 0.003541705 0.009528779 0.007344349 0.009757588 0.03914326 -0.009452914
0.0071311477 -0.0073824474 -0.0019875302 0.02817531 -0.004413937 -0.002796748 -0.039786816 -0.008732683
00000000: cf90 31bc 5b82 11bc 8785 e13a 94a6 bbbc
00000010: b10d 53bb f06c 223d 6553 0b3d cf91 043c
00000020: 7f11 b9bb 2742 c0bc 11a0 43bc 0eef d9bb
00000030: 4ece 6d3c feaa e6bc dbba 6dbc 4511 a83b
00000040: 54a6 b73c 3d48 983b c3a3 c3b9 770c c7bc
00000050: 4c89 8fbc 02fc a13c 16d7 8c3c 2932 d13c
00000060: 1d07 27bc fdcd 50bc 4c0a 013b f903 f33c
00000070: b329 243c ade3 953c a287 5bbb 9e6d 203d
00000080: c622 d73c 332d 533c eff9 99bc d65c 143c
00000090: 59f7 89ba 7687 583c 1c92 923c 6e23 cfbb
000000a0: a30f 5a3c 7546 8c3b 96c2 c9bb c18a b73c
000000b0: 4c71 a03c 133d bbba 0f6b 51bc e234 133c
000000c0: 7808 6c3c 5669 bcbb 07cf 9e3b 157a 113a
000000d0: c027 cdbb 34df 063c bde1 a2bb ab49 db3b
000000e0: 8e5c 6a39 7b6b 123c 446a 653a 808a 30bd
000000f0: 0a57 193d c77f 53bc 94ae e0bc 1646 8fbb
00000100: afe1 98bb 4c12 8b3b 8eba f03c 8286 013d
00000110: e6e8 163d 5610 32bc a4d3 863b d829 d1bc
00000120: e731 4dbb 8091 463b ed81 563c 5f0a 2d3c
00000130: b224 e3bc 6cd5 973b e926 353c 52df 70bc
00000140: 7883 7c3c 61d3 91bb 3c2a c8bb 6799 283b
00000150: 3132 05bc 5ace 5d3c 92f6 d4bc 41a4 b03c
00000160: 0041 b8bb 1163 413c 4503 8bbc 9f7c d9bc
00000170: 6070 f63c 3daf d63a c732 e83a 6d13 38bc
00000180: e8f2 6dbc bc74 5a3b 5f6f 123c 9be7 ecbc
00000190: ac3a 77bc 398b f9ba b3ca 803b 1638 3d3c
000001a0: d2c6 e8bc 705a 4fbc 12eb c8bc 1e6e a13c
000001b0: 0092 68ba 19c6 e2bc 7b61 5bbc 628a 88b9
000001c0: 7dcd 153c b349 573c 740a cdba ed9d 9639
000001d0: 1b66 f83b 7df1 96bc 4417 6dba 1f1a f1bc
000001e0: 49d7 263b 9677 c3bc b547 d8b9 196d a3ba
000001f0: d8a1 963c 18ed 5ebc fbca eb3b bb8b 933c
00000200: f0b4 b03c da04 3ebb 6cd5 8dbc 1141 e23c
00000210: 565f 2b3c e277 733c c06a 0dbc 6306 c93b
00000220: 31eb 43bc e3e4 9c3c 4d14 9a3c 785b 8fbc
00000230: 4110 03bb 2ae6 2fbb 907c 3f3c b5bd d1bb
00000240: 237e 253d f931 dbbb 2acb 0cbd 6823 963c
00000250: cb32 fdbc 089b c9ba fa00 393c 9c88 de3b
00000260: 49de 8fbc 167b 8fbb 0779 003d 716c ba3b
00000270: 42db feba 7923 933b 0f5b 963b 2902 2bbc
00000280: 9ef4 18bd 8e41 883a 37f7 223c 0187 2dbb
00000290: 1a0a 433c ae33 80bc dbfa 55bc 7a57 85ba
000002a0: 53e3 7fbb 5b0e 713c 58c6 f9bc 742b 83bc
000002b0: 1c82 a73b 7f22 02bc d53f 01bd 9632 17bb
000002c0: 1e80 a0ba 2240 2939 f5ab 4bbc cf28 febc
000002d0: 6fd6 f23c b4c2 2d3c 8ca6 bb39 5339 f7bb
000002e0: f452 adbb 1ec1 b9bc f700 03bb 91d0 0fbc
000002f0: 4f77 16bc cef9 f83c 2475 35bd c68c abbb
00000300: c8c8 7dbc 5b8f 29bc 583b b939 b8d4 003c
00000310: 5954 8dbc 56fa 5bbb a2ad aabb 649e 8cbc
00000320: a874 a1bc 0fea 2cbc 7090 083c ba4b 243c
00000330: 71c2 d93a 5132 433c e836 e1bc eea6 cb3c
00000340: 1e53 d9bc ac87 3f3c 0292 163c 4645 bd3c
00000350: 3189 c93c 444c 6f3c 11b8 fcbc f11d 34ba
00000360: 0fef 0a3d eb24 acba 281d 7abc 4d13 153c
00000370: c580 96bc d425 633c 5df6 803b 98b7 d23c
00000380: f984 173a 3481 a33c 0f64 9abc 6b30 7dbc
00000390: 205f 3f3b ec65 1cbd d12e 033c fdb1 9d3b
000003a0: 90d9 17bc e77f afbb 8083 0dbc dc6c 6ebc
000003b0: 4191 42b9 1b5a ca3b e0ba 523c e608 343c
000003c0: 4073 843c af0e 9fbc f31b 683b 991e 1c3c
000003d0: dda8 f03b 4ade 1f3c af54 203d 65e0 1abc
000003e0: 67ac e93b 75e8 f1bb 3941 02bb e8cf e63c
000003f0: caa2 90bb a549 37bb 80f7 22bd 8713 0fbc

action_model._continuous_distribution.mu.bias f4 [2]
0.0010580091 0.0010089836
00000000: e5ac 8a3a df3f 843a

action_model._discrete_distribution.branches.0.weight f4 [1, 128]
0.0046712426 -0.0048091537 0.003053719 -0.005168799 0.006278345 0.004644522 0.0049692965 0.0042656595
-0.003097182 -0.00015512419 0.0039561554 0.008992652 0.00640773 0.0149271535 -0.013895092 0.01396516
0.010861593 0.012039914 0.001763449 -0.012691853 -0.004615561 0.009496743 0.003496318 0.01036873
-0.0030421931 -0.0044744816 -6.605012e-05 -0.00191085 -0.0018422118 0.015068962 0.0026046133 0.0026963898
0.008783876 -0.0042894953 -0.00617971 -0.0054260273 0.005445735 -0.009609099 -0.01702127 0.013904432
-0.0079663405 0.014383576 0.008492739 -0.004780029 0.0043386463 0.022268517 -0.019551646 0.0032437951
0.004544595 0.019962989 -2.1894519e-05 -0.002803231 -0.0018511247 -0.026717514 -0.004582913 0.004377584
0.011198811 -0.0034238284 -0.012734872 -0.008437551 -0.017427504 -0.003977522 0.0012690391 -0.00036281522
0.008770512 -0.0077284263 0.0014396434 0.0013134108 -0.0015164932 0.0034417696 -0.0017783673 0.0070279413
-0.0059478194 0.0023741256 -0.008048653 -0.0033065684 0.013438103 0.014638419 0.0161455 0.004051322
0.014418098 -0.0029894968 -0.0043091592 0.00047458484 0.0043108496 -0.000595638 0.0009815758 -0.00037238022
-0.0026230265 0.008818988 -0.011928445 0.00033834932 0.0041146623 0.004302735 -0.0034784756 0.0059004026
0.0009226164 -0.007525995 0.010506439 0.0035444759 -0.0095747905 -0.014467835 -0.019228758 -0.002641172
6.245873e-05 -0.002261607 0.0086110495 0.0075494694 0.01304659 -0.0066096163 0.0038670902 0.006977731
-0.0048016417 0.0013681236 0.010924238 0.0025563454 -0.0021043757 0.020939736 0.0028018763 -0.0014865337
0.016336992 0.0063161375 0.008489245 0.014129164 0.011015823 -0.010559269 0.0057696165 -0.008778181
00000000: 3911 993b 1b96 9dbb e720 483b 075f a9bb
00000010: 93ba cd3b 1331 983b 7bd5 a23b f2c6 8b3b
00000020: 17fa 4abb d5a8 22b9 a3a2 813b eb55 133c
00000030: eff7 d13b 0591 743c 3da8 63bc 20ce 643c
00000040: d3f4 313c 0f43 453c 8823 e73a 7df1 4fbc
00000050: 223e 97bb 3a98 1b3c 7b22 653b 9be1 293c
00000060: 885f 47bb ac9e 92bb 6384 8ab8 7d75 faba
00000070: 5f76 f1ba cfe3 763c 29b2 2a3b eab5 303b
00000080: 3fea 0f3c e58e 8cbb 2a7f cabb d1cc b1bb
00000090: 2372 b23b 7b6f 1dbc 3170 8bbc 6acf 633c
000000a0: 4185 02bc 17a9 6b3c 2125 0b3c caa1 9cbb
000000b0: 342b 8e3b 776c b63c c62a a0bc da95 543b
000000c0: d3ea 943b 6c89 a33c 1faa b7b7 69b6 37bb
000000d0: 70a1 f2ba b0de dabc 432c 96bb d671 8f3b
000000e0: 387b 373c 4f62 60bb eda5 50bc a73d 0abc
000000f0: 20c4 8ebc df55 82bb e355 a63a 3c38 beb9
00000100: 32b2 0f3c bd3e fdbb 6bb2 bc3a c126 ac3a
00000110: 11c5 c6ba 508f 613b 1b18 e9ba a54a e63b
00000120: ede5 c2bb 3897 1b3b 7fde 03bc 03b3 58bb
00000130: 7d2b 5c3c fbd5 6f3c 9143 843c f4c0 843b
00000140: e339 6c3c 6feb 43bb d933 8dbb b3d1 f839
00000150: 0742 8d3b 9724 1cba 38a8 803a 073c c3b9
00000160: 15e7 2bbb 847d 103c 866f 43bc 7a64 b139
00000170: 4ad4 863b f5fd 8c3b 23f7 63bb 2a58 c13b
00000180: bddb 713a 9f9c f6bb 3323 2c3c 704a 683b
00000190: 95df 1cbc 800a 6dbc a185 9dbc 8317 2dbb
000001a0: 46fc 8238 7837 14bb 5c15 0d3c 8a61 f73b
000001b0: 5dc1 553c 7b95 d8bb 026f 7d3b 73a5 e43b
000001c0: 1757 9dbb 9c52 b33a 93fb 323c 5c88 273b
000001d0: 91e9 09bb cf89 ab3c af9f 373b cbd7 c2ba
000001e0: 28d5 853c 9af7 ce3b 7916 0b3c 027e 673c
000001f0: b67b 343c c900 2dbc 0d0f bd3b 5cd2 0fbc

exp_avg f4 [128, 1]
0.00016653504 -5.2034975e-05 0.00017304438 0.000377576 -0.00022523427 0.0003272146 1.5124447e-05 -0.000107857086
1.1715052e-05 3.093966e-05 -1.0609601e-05 -1.6089041e-05 -0.00013894397 4.533615e-07 5.7062523e-05 -0.00037440087
0.00018953203 -5.710046e-07 8.030637e-06 -8.139916e-06 0.0005118312 4.948385e-05 -0.00010524585 -4.432885e-08
4.8458013e-08 0.0002101208 -2.9821857e-07 3.7158728e-07 1.0720082e-05 -0.00038853346 0.0002810475 0.000165814
0.00059501413 9.5830765e-06 5.7018224e-06 -7.4340815e-06 2.7058062e-05 9.850958e-05 0.0004326244 0.00011589592
-0.00019781674 -3.1646185e-05 -0.00013174223 0.000120122175 0.00043520465 -7.1089316e-06 6.7573524e-06 0.00020814728
-0.000145223 1.2781352e-05 -4.152368e-08 -0.00021329676 -8.984769e-05 2.276747e-06 -0.0004784965 -1.7952694e-05
-0.00036344325 -4.8180318e-05 -0.00019387185 -5.3514077e-06 9.1653055e-05 -0.00043747932 0.00014885138 -6.121974e-05
5.04869e-05 3.2198244e-05 -0.00021673557 -1.805137e-08 -0.00014864469 -3.318196e-07 -0.00028269985 -0.00013820222
-0.000224283 -0.00013267694 0.00017703799 1.6438895e-05 -9.406599e-05 2.2629067e-05 0.0004261624 0.0005069832
-1.0698492e-06 0.00014143593 1.1249845e-05 0.000116657015 5.3959175e-06 1.3366093e-07 7.199806e-05 0.0003776968
-1.6035672e-05 7.731043e-06 8.707416e-05 -0.00043863335 -0.00011718196 -0.00019314938 0.00012381069 7.3089915e-08
1.3491047e-07 6.4443775e-08 -0.0003197495 -3.6415924e-05 -3.497367e-05 -1.1610209e-05 0.00010726982 0.00014339639
1.1879732e-05 0.0004230916 -1.3117254e-06 -0.00042065213 -1.5475574e-05 2.2933535e-05 -1.7887362e-05 0.00031120027
-0.00018132107 -1.4929998e-05 -5.9004833e-06 0.00033188882 0.00038914743 3.18208e-05 1.3840826e-05 -1.00290485e-07
1.5012521e-05 2.1744128e-05 1.8917536e-09 -0.0002688905 -1.0615457e-05 6.4009284e-05 0.00026952944 -7.4610853e-06
00000000: e99f 2e39 2140 5ab8 3f73 3539 65f5 c539
00000010: dd2c 6cb9 008e ab39 01bf 7d37 5531 e2b8
00000020: c48b 4437 35c5 0138 e4ff 31b7 f4f6 86b7
00000030: 7db1 11b9 8865 f334 6b56 6f38 3c4b c4b9
00000040: 1ebd 4639 2347 19b5 53bb 0637 ac90 08b7
00000050: 692c 063a e18c 4f38 6fb7 dcb8 1664 3eb3
00000060: 2620 5033 df53 5c39 d91a a0b4 917e c734
00000070: 67da 3337 14b4 cbb9 8f59 9339 5bde 2d39
00000080: b9fa 1b3a 00c7 2037 4852 bf36 4672 f9b6
00000090: bffa e237 ee96 ce38 ddd1 e239 260d f338
000000a0: 076d 4fb9 d5bb 04b8 4924 0ab9 1aea fb38
000000b0: 2e2c e439 4289 eeb6 37bd e236 1c42 5a39
000000c0: 0147 18b9 7d6f 5637 c557 32b3 6aa8 5fb9
000000d0: 9c6c bcb8 37ca 1836 b7de fab9 1e99 96b7
000000e0: 878c beb9 3915 4ab8 144a 4bb9 3e90 b3b6
000000f0: dc35 c038 7b5d e5b9 fd14 1c39 1963 80b8
00000100: e5c1 5338 9a0c 0738 8343 63b9 620f 9bb2
00000110: 81dd 1bb9 f024 b2b4 5537 94b9 60ea 10b9
00000120: 822d 6bb9 321f 0bb9 46a3 3939 42e6 8937
00000130: 4b45 c5b8 8dd3 bd37 8d6e df39 11e7 043a
00000140: bd97 8fb5 6b4e 1439 b7bd 3c37 c2a5 f438
00000150: 940e b536 7084 0f34 aafd 9638 9b05 c639
00000160: 5884 86b7 94b4 0137 959b b638 5ff8 e5b9
00000170: 96bf f5b8 2488 4ab9 2ed3 0139 9bf5 9c33
00000180: e8db 1034 5764 8a33 0da4 a7b9 4dbd 18b8
00000190: b1b0 12b8 78c9 42b7 0cf6 e038 ad5c 1639
000001a0: 0f4f 4737 65d2 dd39 8b0e b0b5 f98a dcb9
000001b0: 8bd1 81b7 6461 c037 d10c 96b7 9828 a339
000001c0: 0121 3eb9 da7b 7ab7 c4fc c5b6 5d01 ae39
000001d0: 7c06 cc39 5377 0538 e535 6837 475f d7b3
000001e0: 49de 7b37 2967 b637 1500 0231 dff9 8cb9
000001f0: 0a19 32b7 b93c 8638 a14f 8d39 3c5a fab6

exp_avg_sq f4 [128, 1]
2.6184156e-07 8.952376e-08 2.481175e-07 9.841366e-07 6.337604e-07 1.1296772e-06 9.906091e-09 3.4829822e-07
1.9524156e-09 7.879773e-09 7.8521556e-10 2.6380094e-09 1.1774854e-07 1.4674503e-11 9.832719e-09 1.6611925e-06
4.713849e-07 7.4445346e-11 4.974469e-10 1.7466062e-09 2.1495466e-06 5.8572176e-08 1.5736263e-07 6.4259565e-14
1.6974467e-14 4.1126142e-07 7.066857e-13 1.174008e-12 1.962841e-09 1.8224541e-06 9.3912234e-07 3.0746975e-07
2.9267135e-06 9.636424e-10 2.747524e-10 1.4543634e-09 7.600063e-09 2.6943337e-07 1.3788796e-06 1.0865089e-07
4.8491404e-07 9.231719e-09 1.9465256e-07 2.4768187e-07 1.379277e-06 3.5354716e-10 4.0054338e-10 7.1498056e-07
3.3462376e-07 4.5632262e-08 2.4629323e-14 6.31957e-07 3.569992e-07 5.581968e-11 2.7301237e-06 1.658006e-08
1.3491319e-06 1.9899563e-08 5.610316e-07 2.5115385e-10 1.3891994e-07 1.5084393e-06 1.8016176e-07 2.9589947e-07
1.0708147e-06 1.0404464e-06 6.434513e-07 8.342101e-15 2.2932332e-07 2.7711587e-12 7.836078e-07 2.2418176e-07
4.3646406e-07 1.2151482e-07 2.2973559e-07 1.3240343e-08 2.9216227e-07 3.6975902e-09 1.6307562e-06 1.7871454e-06
6.4909794e-10 1.4238285e-07 8.5286565e-08 4.468165e-08 3.0697747e-10 3.6908253e-13 8.2390855e-08 9.1741646e-07
3.2994143e-09 2.7326459e-09 3.6493125e-07 1.4902947e-06 1.5671438e-07 3.056159e-07 4.3546305e-07 1.4562662e-13
3.3604766e-12 1.008422e-12 1.4911938e-06 4.4102742e-07 9.087491e-09 2.2530569e-09 1.5381904e-07 2.8068058e-07
1.4200905e-09 1.944218e-06 1.8281116e-11 1.9585111e-06 5.310211e-09 2.823178e-07 2.4883127e-09 9.639433e-07
3.0983927e-07 2.2975457e-09 2.4144855e-08 1.0528246e-06 1.4332213e-06 5.0099807e-08 1.2187721e-09 3.9559965e-13
3.6343588e-09 5.1739635e-09 2.6058014e-17 4.9393293e-07 9.838733e-10 3.265487e-08 6.371964e-07 3.8217338e-10
00000000: 3b93 8c34 3540 c033 0235 8534 ad16 8435
00000010: af1f 2a35 6a9f 9735 732f 2a32 befd ba34
00000020: 422b 0631 9c5f 0732 a2d6 5730 5a48 3531
00000030: f2dc fc33 0b14 812d c1ec 2832 24f6 de35
00000040: a612 fd34 01b5 a32e b7bc 0830 3e0d f030
00000050: ee40 1036 ca90 7b33 83f7 2834 1eb3 9029
00000060: 75e4 9828 57cb dc34 12ea 462b 193a a52b
00000070: aae2 0631 0c9b f435 ff17 7c35 5212 a534
00000080: 8e68 4436 2771 8430 f60b 972f dde2 c730
00000090: 6e91 0232 a4a6 9034 f111 b935 7553 e933
000000a0: 0a2b 0235 8899 1e32 b001 5134 23f9 8434
000000b0: 991f b935 575d c22f 7833 dc2f 17ed 3f35
000000c0: 57a6 b334 34fd 4333 5ad7 dd28 c1a3 2935
000000d0: 99a9 bf34 5f7f 752e 2b37 3736 f06b 8e32
000000e0: d213 b535 9aef aa32 cc99 1635 c312 8a2f
000000f0: 062a 1534 9475 ca35 7d72 4134 1ddc 9e34
00000100: eab8 8f35 77a5 8b35 a3b9 2c35 2747 1628
00000110: ea3b 7634 c200 432c 1e59 5235 9db6 7034
00000120: 2a53 ea34 bd79 0234 3dad 7634 a577 6332
00000130: 7ada 9c34 b218 7e31 5be0 da35 d9dd ef35
00000140: 356c 3230 e6e1 1834 c926 b733 fee7 3f33
00000150: 3dc3 a82f 66c6 cf2a daee b033 6144 7635
00000160: e9bb 6231 37c9 3b31 c5eb c334 2306 c835
00000170: 5245 2834 8813 a434 96c9 e934 04f6 232a
00000180: f778 6c2c 3bec 8d2b 0725 c835 59c6 ec34
00000190: 351f 1c32 32d4 1a31 7529 2534 72b0 9634
000001a0: fe2c c330 6979 0236 6acd a02d f76e 0336
000001b0: 1c75 b631 7791 9734 dcfe 2a31 d760 8135
000001c0: fc57 a634 dae2 1d31 1967 cf32 c74e 8d35
000001d0: 1c5d c035 522d 5733 bb81 a730 ebb3 de2a
000001e0: 51c0 7931 aac6 b131 bf57 f023 d096 0435
000001f0: f738 8730 6940 0c33 ce0b 2b35 1f1a d22f

exp_avg f4 [128]
3.330701e-05 -1.0406992e-05 3.4608882e-05 7.55152e-05 -4.504685e-05 6.5442924e-05 3.024889e-06 -2.1571417e-05
2.3430107e-06 6.1879323e-06 -2.1219203e-06 -3.2178084e-06 -2.7788796e-05 9.067233e-08 1.1412505e-05 -7.4880176e-05
3.790642e-05 -1.1420087e-07 1.6061273e-06 -1.627982e-06 0.000102366255 9.896769e-06 -2.1049173e-05 -8.865772e-09
9.691605e-09 4.202416e-05 -5.96437e-08 7.431745e-08 2.1440162e-06 -7.770669e-05 5.6209523e-05 3.3162793e-05
0.00011900283 1.9166148e-06 1.1403645e-06 -1.4868162e-06 5.411612e-06 1.970192e-05 8.65249e-05 2.3179182e-05
-3.9563347e-05 -6.329235e-06 -2.634845e-05 2.4024437e-05 8.7040964e-05 -1.4217865e-06 1.3514702e-06 4.162944e-05
-2.9044602e-05 2.5562733e-06 -8.30474e-09 -4.2659358e-05 -1.796954e-05 4.5534946e-07 -9.569931e-05 -3.590538e-06
-7.268865e-05 -9.6360645e-06 -3.877436e-05 -1.0702815e-06 1.8330607e-05 -8.7495864e-05 2.977027e-05 -1.2243945e-05
1.0097396e-05 6.4396454e-06 -4.334712e-05 -3.6102747e-09 -2.9728933e-05 -6.63639e-08 -5.653997e-05 -2.7640446e-05
-4.485658e-05 -2.6535392e-05 3.54076e-05 3.2877806e-06 -1.8813194e-05 4.5258143e-06 8.523248e-05 0.000101396654
-2.1397005e-07 2.8287184e-05 2.2499728e-06 2.3331404e-05 1.079184e-06 2.6732193e-08 1.43996085e-05 7.553937e-05
-3.2071357e-06 1.5462081e-06 1.7414828e-05 -8.772666e-05 -2.3436385e-05 -3.8629878e-05 2.4762136e-05 1.461799e-08
2.698211e-08 1.2888742e-08 -6.394988e-05 -7.2831817e-06 -6.994735e-06 -2.3220423e-06 2.1453963e-05 2.867928e-05
2.3759474e-06 8.461833e-05 -2.6234503e-07 -8.4130384e-05 -3.0951157e-06 4.5867105e-06 -3.577472e-06 6.224005e-05
-3.6264213e-05 -2.9859991e-06 -1.1800981e-06 6.637775e-05 7.782947e-05 6.364159e-06 2.7681658e-06 -2.0058094e-08
3.0025035e-06 4.348827e-06 3.7835066e-10 -5.3778105e-05 -2.1230912e-06 1.2801856e-05 5.3905886e-05 -1.492217e-06
00000000: 21b3 0b38 b199 2eb7 0129 1138 ea5d 9e38
00000010: b0f0 3cb8 673e 8938 33ff 4a36 44f4 b4b7
00000020: 9e3c 1d36 efa1 cf36 5066 0eb6 87f1 57b6
00000030: fc1b e9b7 a4b7 c233 5678 3f37 fd08 9db8
00000040: b5fd 1e38 983e f5b3 1d92 d735 0981 dab5
00000050: 77ad d638 4d0a 2637 c192 b0b7 1450 18b2
00000060: 2180 2632 1943 3038 7915 80b3 7398 9f33
00000070: ebe1 0f36 76f6 a2b8 84c2 6b38 4718 0b38
00000080: 2891 f938 319f 0036 a00e 9935 9e8e c7b5
00000090: 6595 b536 8d45 a537 b474 b538 ea70 c237
000000a0: d2f0 25b8 b75f d4b6 de06 ddb7 1688 c937
000000b0: c389 b638 36d4 beb5 2a64 b535 459b 2e38
000000c0: cfa4 f3b7 718c 2b36 a2ac 0eb2 23ed 32b8
000000d0: 4bbd 96b7 c176 f434 2db2 c8b8 f9f4 70b6
000000e0: 6c70 98b8 95aa 21b7 a7a1 22b8 98a6 8fb5
000000f0: aec4 9937 fc7d b7b8 2bbb f937 586b 4db7
00000100: fc67 2937 2214 d836 9ecf 35b8 a018 78b1
00000110: 6662 f9b7 f183 8eb3 5525 6db8 68dd e7b7
00000120: 6324 3cb8 5298 deb7 9f82 1438 a4a3 5c36
00000130: 07d1 9db7 73dc 9736 d7be b238 eaa4 d438
00000140: a4bf 65b4 444a ed37 3dfe 1636 cfb7 c337
00000150: 7bd8 9035 b7a0 e532 d995 7137 e46a 9e38
00000160: 2c3a 57b6 4e87 cf35 0f16 9237 e4f9 b7b8
00000170: 4199 c4b7 8406 22b8 48b8 cf37 9a22 7b32
00000180: 4ac6 e732 496d 5d32 d51c 86b8 0e62 f4b6
00000190: 51b4 eab6 62d4 1bb6 09f8 b337 4994 f037
000001a0: 7772 1f36 1f75 b138 6dd8 8cb4 286f b0b8
000001b0: afb5 4fb6 8be7 9936 8014 70b6 df86 8238
000001c0: 671a 18b8 1363 48b6 dd63 9eb5 4834 8b38
000001d0: 6138 a338 b68b d536 bac4 3936 374c acb2
000001e0: 9e7e 4936 24ec 9136 1f00 d02f cd8f 61b8
000001f0: 6e7a 0eb6 8ec7 5637 0119 6238 3048 c8b5

exp_avg_sq f4 [128]
1.0473665e-08 3.5809513e-09 9.924704e-09 3.9365457e-08 2.5350415e-08 4.518707e-08 3.9624376e-10 1.3931931e-08
7.8096626e-11 3.1519098e-10 3.140864e-11 1.0552036e-10 4.709942e-09 5.8698e-13 3.9330875e-10 6.6447726e-08
1.8855404e-08 2.9778142e-12 1.9897877e-11 6.986423e-11 8.598184e-08 2.3428874e-09 6.294502e-09 2.570384e-15
6.789786e-16 1.645046e-08 2.8267443e-14 4.6960354e-14 7.851361e-11 7.2898196e-08 3.7564888e-08 1.2298789e-08
1.1706856e-07 3.8545698e-11 1.0990094e-11 5.8174528e-11 3.0400252e-10 1.0777336e-08 5.5155184e-08 4.3460346e-09
1.9396563e-08 3.6926878e-10 7.7861e-09 9.907273e-09 5.517108e-08 1.4141884e-11 1.602174e-11 2.859923e-08
1.3384947e-08 1.8252906e-09 9.851727e-16 2.5278272e-08 1.4279972e-08 2.2327869e-12 1.0920491e-07 6.632025e-10
5.3965287e-08 7.959824e-10 2.2441249e-08 1.0046159e-11 5.556798e-09 6.03376e-08 7.206472e-09 1.1835982e-08
4.283257e-08 4.161786e-08 2.573805e-08 3.336841e-16 9.172932e-09 1.108463e-13 3.13443e-08 8.96727e-09
1.7458554e-08 4.8605906e-09 9.189422e-09 5.296134e-10 1.1686492e-08 1.4790359e-10 6.523025e-08 7.148581e-08
2.5963908e-11 5.695315e-09 3.4114622e-09 1.7872662e-09 1.2279099e-11 1.4763301e-14 3.2956347e-09 3.6696655e-08
1.3197657e-10 1.0930585e-10 1.45972505e-08 5.9611814e-08 6.2685728e-09 1.22246355e-08 1.741852e-08 5.8250642e-15
1.3441914e-13 4.033688e-14 5.964776e-08 1.7641097e-08 3.634996e-10 9.012221e-11 6.1527645e-09 1.1227227e-08
5.6803597e-11 7.776873e-08 7.312448e-13 7.834045e-08 2.1240841e-10 1.129271e-08 9.9532466e-11 3.8557737e-08
1.2393572e-08 9.190183e-11 9.657938e-10 4.2112973e-08 5.7328876e-08 2.0039916e-09 4.875088e-11 1.582399e-14
1.4537431e-10 2.0695852e-10 1.0423212e-18 1.9757321e-08 3.935494e-11 1.306195e-09 2.5487854e-08 1.5286928e-11
00000000: aaef 3332 c314 7631 4f81 2a32 c712 2933
00000010: 27c2 d932 b513 4233 5ad6 d92f 4859 6f32
00000020: 7ebc ab2e 3047 ad2f fc22 0a2e af0a e82e
00000030: 17d5 a131 5e38 252b 4939 d82f 06b2 8e33
00000040: 79f7 a132 888b 512c 0906 af2d 11a2 992e
00000050: 04a5 b833 8300 2131 0647 d831 3737 3927
00000060: c7b3 4326 f24e 8d32 499c fe28 9a7d 5329
00000070: 3ca7 ac2e 358c 9c33 0857 2133 a54a 5332
00000080: 1f67 fb33 9986 292e fc56 412d b2da 7f2e
00000090: 8d20 a72f 3a27 3932 c4e3 6c33 2054 9531
000000a0: 7e9d a632 f601 cb2f a1c3 0532 a634 2a32
000000b0: 3ef5 6c33 62c9 782d c0ed 8c2d 5faa f532
000000c0: 9ff3 6532 b4dd fa30 75fa 8d26 8223 d932
000000d0: fb53 7532 501e 1d2c 0984 ea33 ba4c 3630
000000e0: 76c7 6733 48cc 5a30 d4c4 c032 e1bb 302d
000000f0: 1dee be31 f292 8133 cc9c f731 3357 4b32
00000100: e9f6 3733 52bf 3233 9216 dd32 155b c025
00000110: fb96 1d32 8b9a f929 6c9f 0633 780e 1a32
00000120: c4f7 9532 3502 a731 81df 1d32 3b94 1130
00000130: bcc5 4832 299f 222f b614 8c33 bd83 9933
00000140: 8661 e42d 85b0 c331 146f 6a31 d7a3 f530
00000150: 2504 582d dbf9 8428 6b79 6231 669c 1d33
00000160: 1a1c 112f b95d f02e 63c7 7a32 f103 8033
00000170: f362 d731 8404 5232 bb9f 9532 bcde d127
00000180: ae57 172a 42a9 3529 b417 8033 2f89 9732
00000190: 05d6 c72f 4b2e c62e 4a68 d331 dee1 4032
000001a0: 2ad3 792e d001 a733 bed3 4d2b 1e3c a833
000001b0: a78b 692f dd01 4232 ccdf da2e ae9a 2533
000001c0: 82eb 5432 2218 ca2e d9bc 8430 b4df 3433
000001d0: c439 7633 98b6 0931 9c68 562e a387 8e28
000001e0: 3bd7 1f2f a58d 632f c8d1 9921 cfb6 a932
000001f0: b915 2d2e a785 b330 62f0 da32 1a77 862d

exp_avg f4 [128, 128]
0.00029877035 6.6866705e-05 -5.5957403e-06 0.0004027248 4.0685907e-05 7.422043e-05 -1.0989281e-05 0.00034591227
-1.07161495e-05 -8.325571e-06 -1.174917e-05 -3.188199e-06 0.00019972792 -1.1966876e-05 0.00016914796 6.777657e-05
6.130709e-05 -1.138943e-06 -1.135251e-05 -7.0414894e-06 5.672695e-05 0.00032972178 0.00023917269 -2.8658878e-08
-8.471357e-09 0.00016729321 -3.3770636e-08 -3.1268527e-07 -9.322643e-06 0.0001209595 9.820053e-05 0.00010768159
0.00059210655 -3.7880732e-06 -1.1739127e-06 -5.967301e-06 -1.0266228e-05 3.273548e-05 5.0409875e-05 0.00012400131
0.0002887761 -7.2869093e-06 2.4541458e-05 0.00038440412 0.00014167566 -1.2469392e-06 -1.14019285e-05 2.2576698e-05
0.00010469414 0.00016271796 -1.0865391e-08 2.8935183e-05 0.00012775334 -1.936143e-06 0.00032276456 -7.4742334e-06
0.00029660738 -9.067492e-06 5.5181088e-05 -1.084425e-06 4.8596456e-05 1.3122078e-05 4.1990304e-05 0.00035885567
0.00015531284 7.9777434e-05 0.00018581863 -9.3342925e-09 0.00016491498 -1.2264259e-07 0.00026319953 1.7386508e-05
0.00023249412 7.712139e-06 0.000121020494 -8.44355e-06 0.00023612319 -4.7344993e-06 5.049354e-05 8.9159636e-05
-4.5339916e-06 2.932949e-05 0.00043684008 0.00015332506 -1.18983e-05 -1.8743748e-07 0.0001058502 0.00025214473
-1.0905079e-05 -1.0075509e-05 0.00045632373 0.0002186334 3.596228e-05 2.3392391e-05 0.00010787451 -2.2305555e-08
-1.3098104e-06 -4.7332063e-07 9.011527e-05 3.152322e-05 -5.264497e-06 -1.0651048e-05 0.00018409055 0.00010344161
-1.1790918e-05 0.00028798636 -2.302952e-07 0.00051739573 -6.286725e-06 1.2478341e-06 -1.12694615e-05 0.00017125861
0.00018883304 -1.1100291e-05 0.00037027 0.00043002283 1.7654871e-05 0.00041547243 -3.0502533e-06 -8.03118e-08
-1.1122989e-05 -4.9028827e-06 -2.6868205e-10 0.00029694062 -6.613845e-06 0.000111970185 0.00022052285 -1.1307393e-05
7.408025e-05 1.6562992e-05 -1.3839764e-06 9.9858495e-05 1.00758025e-05 1.8402276e-05 -2.7230567e-06 8.577502e-05
-2.6582866e-06 -2.0628565e-06 -2.9128005e-06 -7.900621e-07 4.951964e-05 -2.9674004e-06 4.1941683e-05 1.680338e-05
1.5195493e-05 -2.826712e-07 -2.8152208e-06 -1.7447027e-06 1.4070999e-05 8.174515e-05 5.9297454e-05 -7.104799e-09
-2.101737e-09 4.148249e-05 -8.366143e-09 -7.746752e-08 -2.3107355e-06 2.999276e-05 2.4344365e-05 2.6701146e-05
0.0001468206 -9.3996084e-07 -2.9130007e-07 -1.4784375e-06 -2.545602e-06 8.129654e-06 1.2506585e-05 3.0758623e-05
7.159419e-05 -1.8063057e-06 6.0795574e-06 9.530627e-05 3.5132653e-05 -3.090187e-07 -2.8278778e-06 5.593497e-06
2.5948086e-05 4.0362575e-05 -2.6941933e-09 7.162144e-06 3.1660144e-05 -4.805931e-07 8.002881e-05 -1.8566957e-06
7.353621e-05 -2.2478641e-06 1.36842855e-05 -2.6865945e-07 1.2036933e-05 3.248871e-06 1.040996e-05 8.898502e-05
3.8523165e-05 1.976551e-05 4.6059577e-05 -2.3119826e-09 4.0883348e-05 -3.037269e-08 6.526209e-05 4.3071163e-06
5.763987e-05 1.908737e-06 3.0020445e-05 -2.0925152e-06 5.8533245e-05 -1.1741591e-06 1.2521955e-05 2.2113809e-05
-1.1249022e-06 7.2762427e-06 0.000108297674 3.8019873e-05 -2.9503935e-06 -4.6489486e-08 2.6265307e-05 6.252988e-05
-2.7052163e-06 -2.49542e-06 0.00011313513 5.4205215e-05 8.907651e-06 5.7920347e-06 2.673921e-05 -5.5278946e-09
-3.2480733e-07 -1.172759e-07 2.232871e-05 7.801768e-06 -1.3048409e-06 -2.6427329e-06 4.566014e-05 2.5661428e-05
-2.923629e-06 7.140747e-05 -5.7054475e-08 0.00012827733 -1.5594294e-06 3.0383524e-07 -2.7954104e-06 4.2476415e-05
4.68145e-05 -2.7531614e-06 9.1789596e-05 0.000106624524 4.3769805e-06 0.000103025304 -7.567292e-07 -1.992602e-08
-2.7576916e-06 -1.2166328e-06 -6.665183e-11 7.361886e-05 -1.6387874e-06 2.7752447e-05 5.4686352e-05 -2.8033771e-06
00000000: 47a4 9c39 ca3a 8c38 0bc3 bbb6 cf24 d339
00000010: 29a6 2a38 caa6 9b38 9a5e 38b7 8f5b b539
00000020: 83c9 33b7 0eae 0bb7 4d1e 45b7 d7f4 55b6
00000030: 0e6e 5139 57c5 48b7 4f5d 3139 4523 8e38
00000040: fe91 8038 c9dd 98b5 a976 3eb7 ef45 ecb6
00000050: 19ee 6d38 82de ac39 6eca 7a39 8a2d f6b2
00000060: 6c89 11b2 6e6b 2f39 350b 11b3 23df a7b4
00000070: 7268 1cb7 a3ab fd38 02f1 cd38 1dd3 e138
00000080: 9937 1b3a 9a36 7eb6 558f 9db5 ba3a c8b6
00000090: 1d3d 2cb7 744d 0938 316f 5338 5906 0239
000000a0: df66 9739 1382 f4b6 61de cd37 d989 c939
000000b0: c58e 1439 815c a7b5 e94a 3fb7 1763 bd37
000000c0: 3d8f db38 459f 2a39 7faa 3ab2 d5b9 f237
000000d0: 87f5 0539 afee 01b6 ba38 a939 2dcb fab6
000000e0: f881 9b39 9520 18b7 3e72 6738 8f8c 91b5
000000f0: 0cd4 4b38 e526 5c37 bf1e 3038 cb24 bc39
00000100: 79db 2239 2f4e a738 4fd8 4239 a75c 20b2
00000110: 07ed 2c39 bdaf 03b4 0bfe 8939 3ed9 9137
00000120: aac9 7339 6363 0137 62cc fd38 c5a8 0db7
00000130: d697 7739 0add 9eb6 07c9 5338 37fb ba38
00000140: b122 98b6 9a08 f637 af07 e539 e2c5 2039
00000150: cf9e 47b7 6c42 49b4 e5fb dd38 4b32 8439
00000160: f5f4 36b7 fb09 29b7 bc3e ef39 f540 6539
00000170: 34d6 1638 c73a c437 b03a e238 6f9a bfb2
00000180: becc afb5 b11c feb4 44fc bc38 cd37 0438
00000190: afa5 b0b6 e7b1 32b7 6e08 4139 cbee d838
000001a0: 9bd1 45b7 e0fc 9639 1047 77b4 d7a1 073a
000001b0: 8ef2 d2b6 417b a735 f811 3db7 e293 3339
000001c0: 7c01 4639 633b 3ab7 cc20 c239 b074 e139
000001d0: 8c19 9437 c4d3 d939 f4b2 4cb6 e177 acb3
000001e0: e09c 3ab7 7183 a4b6 a3b5 93af b2ae 9b39
000001f0: 7fec ddb6 89d1 ea38 273c 6739 e2b4 3db7
00000200: 885b 9b38 c1f0 8a37 11c1 b9b5 1f6b d138
00000210: 3e0b 2937 965e 9a37 c2bd 36b6 1de2 b338
00000220: 0465 32b6 9b6f 0ab6 8879 43b6 a714 54b5
00000230: 4fb3 4f38 8d23 47b6 8aea 2f38 fcf4 8c37
00000240: 25f0 7e37 09c2 97b4 20ed 3cb6 872b eab5
00000250: 7b12 6c37 986e ab38 28b6 7838 791e f4b1
00000260: 266e 10b1 7cfd 2d38 b0ba 0fb2 385c a6b3
00000270: 2212 1bb6 f698 fb37 2037 cc37 46fc df37
00000280: dbf3 1939 9e51 7cb5 fa63 9cb4 ba6e c6b5
00000290: 1cd5 2ab6 9964 0837 60d3 5137 d202 0138
000002a0: d724 9638 3170 f2b5 00ff cb36 2adf c738
000002b0: 665b 1338 35e7 a5b4 92c6 3db6 c6af bb36
000002c0: 17ab d937 fc4a 2938 c024 39b1 5952 f036
000002d0: d2ca 0438 1b02 01b5 24d5 a738 9433 f9b5
000002e0: 7437 9a38 03da 16b6 8f95 6537 463c 90b4
000002f0: 3cf2 4937 2e07 5a36 70a6 2e37 789d ba38
00000300: ef93 2138 1cce a537 1830 4138 d4e0 1eb1
00000310: 297a 2b38 2073 02b3 51dd 8838 d985 9036
00000320: 57c2 7138 da17 0036 6ad4 fb37 236d 0cb6
00000330: 9881 7538 cd97 9db5 6315 5237 0b81 b937
00000340: 58fb 96b5 7326 f436 df1d e338 8777 1f38
00000350: 60ff 45b6 bbab 47b3 5154 dc37 7922 8338
00000360: 438b 35b6 fd76 27b6 f642 ed38 685a 6338
00000370: 1272 1537 3359 c236 044e e037 e0ef bdb1
00000380: 2e61 aeb4 1cd9 fbb3 8a4e bb37 57e4 0237
00000390: fe21 afb5 ce59 31b6 3483 3f38 7f43 d737
000003a0: 9033 44b6 98c0 9538 0f0c 75b3 2f82 0639
000003b0: 964d d1b5 cc1e a334 c998 3bb6 b428 3238
000003c0: b05a 4438 f4c2 38b6 2a7f c038 9b9b df38
000003d0: fadd 9236 4a0f d838 0922 4bb5 c829 abb2
000003e0: c810 39b6 2f4b a3b5 a591 92ae d363 9a38
000003f0: 4ef4 dbb5 edcd e837 065f 6538 a721 3cb6
