results/RollerAgents/RollerAgent/RollerAgent-89600.onnx (onnx, 75694 bytes, 8 tensors)

network_body._body_endoder.seq_layers.0.weight f4 [128, 1]
-0.5542237 1.2725344 3.1861584 -0.41871473 -1.356043 0.44178107 -0.46697527 -0.024392625
-0.39265177 0.43899864 -1.0814388 -0.37258115 0.9095192 -1.0718571 1.4400662 -0.89188665
-0.03477376 0.6059281 -1.0853548 -0.88574964 -0.81829435 1.5970101 0.21724656 -0.5835704
1.0734447 0.7976466 -0.24788041 0.30488786 -0.14128248 0.8576493 1.4906409 -0.5883225
-0.60621756 -0.06122256 2.4503698 0.8518878 0.94947505 0.09109742 0.24511626 -0.74711716
1.2951206 -0.31307283 0.8642026 -1.6209178 -0.38499966 -0.6472607 0.022822091 0.50781965
0.59307754 1.2045671 0.3465056 -1.26437 0.7849312 0.7371782 1.6120596 0.575488
0.40537167 -0.26997852 -0.08111946 -0.111991145 0.96897477 -0.6812848 -1.2743974 -0.3544523
-0.5303124 1.1111323 -0.26093352 0.86179817 0.29741654 -0.8957248 -1.195734 1.3219433
0.28141445 1.2803922 -0.21064694 -1.5562599 1.112043 0.7159775 -0.42977273 2.079335
0.713697 0.37975192 0.4392497 0.8983052 0.73942304 -0.93466574 1.468179 0.62832797
1.5290246 -0.11554604 -0.6762559 -0.7406278 1.5208614 -0.8558279 1.484309 0.62212354
-1.0822849 -1.375959 0.9758717 1.5081309 0.5545319 -2.031881 -0.83508813 -0.2962877
0.73619264 -1.5950537 -0.15110473 -1.0173466 1.2395606 1.0379555 0.9522573 -1.3769414
0.28869104 2.2145197 0.34110516 -0.96331406 -1.0122626 -0.90505135 1.0989574 0.1258859
-0.078157246 -1.4409444 -0.46461552 1.3526773 0.019145409 -0.3612075 1.2158759 0.09125848
00000000: 9be1 0dbf 68e2 a23f 05ea 4b40 c761 d6be
00000010: d192 adbf 2131 e23e 6217 efbe 0bd3 c7bc
00000020: a709 c9be 6ec4 e03e 966c 8abf f5c2 bebe
00000030: 40d6 683f 9d32 89bf 1754 b83f af52 64bf
00000040: ee6e 0ebd 1b1e 1b3f e8ec 8abf 7dc0 62bf
00000050: bd7b 51bf d46a cc3f e275 5e3e df64 15bf
00000060: a366 893f 9132 4c3f 5dd4 7dbe 431a 9c3e
00000070: 5bac 10be e88e 5b3f 52cd be3f 4e9c 16bf
00000080: 1331 1bbf 82c4 7abd dcd2 1c40 5215 5a3f
00000090: cc10 733f 4991 ba3d c2ff 7a3e 1243 3fbf
000000a0: 83c6 a53f 154b a0be 623c 5d3f 3c7a cfbf
000000b0: ad1e c5be e1b2 25bf 65f5 ba3c 7800 023f
000000c0: eed3 173f 412f 9a3f 2f69 b13e e0d6 a1bf
000000d0: 40f1 483f b6b7 3c3f f857 ce3f 2e53 133f
000000e0: e08c cf3e a03a 8abe f621 a6bd 9d5b e5bd
000000f0: bb0e 783f ae68 2ebf 741f a3bf c67a b5be
00000100: 8ec2 07bf 9539 8e3f 1499 85be ce9e 5c3f
00000110: fb46 983e 384e 65bf d00d 99bf 7035 a93f
00000120: 8e15 903e e4e3 a33f d5b3 57be 8633 c7bf
00000130: 6d57 8e3f 4d4a 373f 2c0b dcbe d313 0540
00000140: d9b4 363f d86e c23e 56e5 e03e 54f7 653f
00000150: d44a 3d3f 4146 6fbf 4aed bb3f 1ada 203f
00000160: 14b7 c33f 67a3 ecbd 1b1f 2dbf c999 3dbf
00000170: 96ab c23f 8a17 5bbf d6fd bd3f 7d43 1f3f
00000180: 5088 8abf 6d1f b0bf bad2 793f 6f0a c13f
00000190: cdf5 0d3f 570a 02c0 56c8 55bf 05b3 97be
000001a0: 1f77 3c3f b82a ccbf 33bb 1abe 6a38 82bf
000001b0: eca9 9e3f badb 843f 22c7 733f 9e3f b0bf
000001c0: 50cf 933e b1ba 0d40 56a5 ae3e c09b 76bf
000001d0: d291 81bf 72b1 67bf a3aa 8c3f 3ce8 003e
000001e0: e810 a0bd de70 b8bf 16e2 edbe 8824 ad3f
000001f0: d5d6 9c3c 30f0 b8be d2a1 9b3f bae5 ba3d

network_body._body_endoder.seq_layers.0.bias f4 [128]
0.0005603961 0.0010221648 0.00053916767 0.00043993184 -0.0012771551 -0.000119514574 0.001434933 0.0011564662
-0.0015035135 -0.00024190864 -0.0012776974 -0.00085316994 0.000742174 -0.00035365345 0.00048941554 -0.00019525533
0.0019542235 -0.0020954972 0.00078039727 -0.0012439154 -0.0004136055 0.00016355034 -0.00076686934 -0.000975449
-0.0028404407 -0.0023004124 -0.0015672629 -0.0012148768 0.001107224 -0.00087315455 0.0007883868 -0.001198985
-0.0015361154 0.0013286914 0.00022101513 -0.0011517131 0.00016877493 -0.0009106683 -0.00089111185 -0.0016267312
0.00020569826 -0.001082718 -0.0027880769 0.00010341899 -0.0005989747 -0.0011161071 -0.0013804032 -2.7607199e-05
-0.0007551845 -0.0015191025 -0.0013709293 0.0007014243 -0.0015376253 0.0016531453 -0.003421475 0.00018566239
0.0007264134 -0.0017295739 -4.796975e-05 0.0020246725 0.00041646464 -0.001266533 -0.0010760375 5.8752845e-05
0.00036590153 0.0010888508 0.001873266 -0.0014700665 -0.00080883224 -0.0014500299 -0.0011965046 -0.0019199561
0.0005856724 -0.013068777 -0.0009165299 -0.0005719061 -0.00232524 -0.00024708407 -0.00017971237 -0.00023566914
0.000725332 -0.0014365424 -0.0021173628 0.0008453308 -0.0015631231 -0.0015894687 -0.00057699945 0.0005167006
-0.0015092919 0.0016447416 -0.0027648702 0.00029083528 -0.00074828253 -0.0009475676 0.0004983697 -0.0012429039
-0.0012796848 0.0012719076 -0.0022514784 -0.0023798621 0.0016027961 -0.00095954153 -0.00084899616 0.0012817773
-0.0001683733 -0.0026664992 0.002102605 0.0004761888 0.0006920443 -0.0009492216 -0.0015821026 -0.00043865183
-0.00027677784 -0.002303131 -0.00082221074 0.001106794 -0.0018788556 0.0005972661 -0.00065121823 -0.0005910288
0.00077202125 0.0011472325 -0.009892108 -0.0064060707 -0.0008445775 0.0006657458 -0.0021590723 -0.0005377189
00000000: 8ce7 123a 29fa 853a ee56 0d3a a7a6 e639
00000010: 3766 a7ba e6a3 fab8 5d14 bc3a 9194 973a
00000020: 8b11 c5ba dba8 7db9 6978 a7ba 44a7 5fba
00000030: 748e 423a 906a b9b9 1f4c 003a 74bd 4cb9
00000040: 6e12 003b 9c54 09bb 9393 4c3a e00a a3ba
00000050: 31d9 d8b9 b67e 2b39 bb07 49ba 46b5 7fba
00000060: b026 3abb 84c2 16bb 9e6c cdba 803c 9fba
00000070: 4620 913a 69e4 64ba beab 4e3a 4327 9dba
00000080: 7b57 c9ba 7c27 ae3a 4cc0 6739 14f5 96ba
00000090: 2df9 3039 eab9 6eba 8199 69ba 0b38 d5ba
000000a0: b5b0 5739 fde9 8dba 2bb8 36bb a6e2 d838
000000b0: 8304 1dba 574a 92ba a5ee b4ba 0296 e7b7
000000c0: 93f7 45ba 9f1c c7ba c1b0 b3ba cadf 373a
000000d0: 258a c9ba 5aae d83a d33a 60bb 5eae 4239
000000e0: c76c 3e3a dfb2 e2ba 2033 49b8 5eb0 043b
000000f0: f058 da39 cc01 a6ba d409 8dba 636d 7638
00000100: 79d6 bf39 c5b7 8e3a 6088 f53a 3faf c0ba
00000110: d007 54ba ee0e beba 08d4 9cba 09a7 fbba
00000120: cf87 193a 6c1e 56bc 4843 70ba f8eb 15ba
00000130: 0e63 18bb 108b 81b9 2c71 3cb9 f41d 77b9
00000140: 3524 3e3a 5d4a bcba 74c3 0abb 3199 5d3a
00000150: b5e1 ccba b855 d0ba c741 17ba 3173 073a
00000160: 6fd3 c5ba 5f94 d73a d332 35bb 407b 9839
00000170: 6428 44ba 2f66 78ba 06a5 023a efe8 a2ba
00000180: 19bb a7ba 23b6 a63a 8a8d 13bb 76f7 1bbb
00000190: ea14 d23a be89 7bba 2b8f 5eba 4f01 a83a
000001a0: 5d8d 30b9 6fc0 2ebb dccb 093b fba8 f939
000001b0: 4f6a 353a 2fd5 78ba 8e5e cfba dafa e5b9
000001c0: 7e1c 91b9 20f0 16bb a189 57ba d811 913a
000001d0: ef43 f6ba d991 1c3a 84b6 2aba 45ef 1aba
000001e0: 7861 4a3a bc5e 963a 8212 22bc 04ea d1bb
000001f0: a366 5dba 7285 2e3a 397f 0dbb b4f5 0cba

network_body._body_endoder.seq_layers.2.weight f4 [128, 128]
0.03136423 -0.08178328 0.007850266 -0.008627725 0.06270289 -0.06138708 0.059482444 -0.019678686
0.051967524 0.069769196 0.07094134 -0.041371807 0.05656702 0.0054449 0.007279101 -0.010412048
0.14045995 0.063972436 -0.061651766 -0.18081343 -0.04197946 -0.1946158 -0.039613463 -0.044616047
0.17134541 -0.024290523 -0.020660546 0.03664094 -0.049093414 -0.043081775 0.07423576 0.02922134
0.08513093 0.03384343 -0.01502639 -0.13028948 0.00037361836 0.02336968 -0.12438327 0.3552722
0.006882592 -0.012803789 0.064363465 -0.07807299 -0.005865728 -0.04260389 0.107671514 0.09653636
0.027361484 0.0388577 -0.1906174 -0.02628824 -0.103385285 0.031130414 0.04988477 0.028499858
-0.06344414 0.048075173 -0.08615868 -0.012594978 0.0846596 0.11291622 0.040868737 0.1072035
0.08130151 -0.15931307 0.14086618 0.021491295 -0.07862159 -0.09848723 -0.12897377 -0.13497575
0.049504217 0.044967733 0.1746092 -0.13311782 0.10750304 0.036541972 -0.015825719 -0.19830841
-0.029216232 -0.024895051 -0.13067885 0.0034280359 0.058725648 0.13242216 0.053854384 -0.019839868
0.05419024 0.010217116 -0.08670393 -0.003294032 0.050043568 0.073352836 -0.047601625 -0.04142072
-0.015457693 0.0625675 0.04305807 -0.043738957 -0.028870422 -0.07550569 -0.08998276 -0.042147934
0.03855018 0.045858625 0.006387651 -0.14340195 -0.09417249 0.10401409 0.014499464 0.05939217
0.023848938 -0.002657526 -0.0108505655 -0.15422204 -0.020344209 0.013608987 -0.046777956 -0.03865676
-0.14782418 0.034112174 -0.1317005 0.0715141 0.05215873 -0.12832157 -0.020544235 -0.11553233
-0.1378375 0.04562276 0.03480157 0.006523319 0.04769411 -0.09104533 -0.09683848 -0.06273222
-0.054096904 -0.060789194 0.0011327665 0.040284257 0.11512103 0.07129727 0.069686174 -0.079304315
0.11487565 0.02123881 -0.013548976 0.024509529 -0.0821836 0.09856576 -0.010616714 -0.0555408
0.028434068 -0.09983701 -0.0764505 -0.06643473 -0.0519799 -0.098714374 0.07767855 -0.048298173
0.24506111 -0.04353734 -0.1357698 0.021951482 0.08215535 -0.03290155 0.191106 0.007994225
0.060710326 0.016966682 0.057718825 -0.046922073 0.004188477 -0.015219129 0.09825787 -0.16589199
0.079816915 0.14269178 0.16099222 -0.02480175 0.028887484 0.15340762 0.0020672327 0.0056766556
0.02563393 0.0021796373 -0.18944505 -0.078831635 -0.0937714 0.08170131 0.11676933 0.009851023
-0.22937495 0.10934743 -0.16955863 0.15097858 0.010349407 -0.094263114 -0.10912127 0.016229564
0.09858944 -0.0037152045 0.07000489 -0.04062259 0.1936996 0.2546603 0.1448426 0.006542494
-0.024072897 -0.01811153 -0.11576608 0.029595863 0.10859006 -0.044341058 -0.12466247 0.12903638
0.020037852 -0.016908871 -0.09649901 0.0881312 0.09949702 -0.076153845 0.09784659 -0.059877384
0.039566364 0.11061249 -0.004872396 0.0021715986 0.10718385 -0.15900096 0.06608313 0.07412877
-0.0066109328 0.020769099 -0.0471198 -0.19025218 -0.00095623 -0.06683605 0.02542511 0.010427181
-0.011772012 0.009720716 -0.24480139 -0.048956405 0.068853684 0.082806066 -0.06787679 0.10798007
-0.060357023 -0.07077928 0.022073837 0.2021039 -0.014555949 -0.1259661 -0.015972896 0.051336825
00000000: c777 003d fe7d a7bd 679e 003c 4d5b 0dbc
00000010: 5f6a 803d 0571 7bbd dda3 733d 3235 a1bc
00000020: e6db 543d 27e3 8e3d b149 913d 7c75 29bd
00000030: d2b2 673d 226b b23b 8685 ee3b 4b97 2abc
00000040: bcd4 0f3e fb03 833d 9086 7cbd 2827 39be
00000050: a7f2 2bbd 5d49 47be ba41 22bd 51bf 36bd
00000060: 2c75 2f3e ebfc c6bc 4e40 a9bc cf14 163d
00000070: 2d16 49bd 8476 30bd eb08 983d 9761 ef3c
00000080: 2059 ae3d 699f 0a3d 3f31 76bc 9b6a 05be
00000090: 35e2 c339 c571 bf3c a8bc febd 3de6 b53e
000000a0: 5e87 e13b fcc6 51bc fed0 833d bbe4 9fbd
000000b0: 4b35 c0bb 6b81 2ebd e282 dc3d dbb4 c53d
000000c0: 3125 e03c 4029 1f3d 3531 43be 6f5a d7bc
000000d0: aabb d3bd 3605 ff3c f953 4c3d 8978 e93c
000000e0: 00ef 81bd 79ea 443d f673 b0bd 2b5b 4ebc
000000f0: 0362 ad3d 9f40 e73d fa65 273d 828d db3d
00000100: 6881 a63d f722 23be 393f 103e 830e b03c
00000110: 5b04 a1bd acb3 c9bd b311 04be 1537 0abe
00000120: efc4 4a3d 1630 383d c1cc 323e 0a50 08be
00000130: 8e2a dc3d 09ad 153d f0a4 81bc 5c11 4bbe
00000140: e156 efbc b5f0 cbbc add0 05be e6a8 603b
00000150: 4e8a 703d ad99 073e 6a96 5c3d 3887 a2bc
00000160: 96f6 5d3d b165 273c d491 b1bd b0e0 57bb
00000170: 7cfa 4c3d 033a 963d ecf9 42bd c6a8 29bd
00000180: 4342 7dbc 6423 803d a95d 303d 9f27 33bd
00000190: aa81 ecbc baa2 9abd e248 b8bd 50a3 2cbd
000001a0: cbe6 1d3d 41d6 3b3d 804f d13b f6d7 12be
000001b0: 82dd c0bd 5705 d53d 298f 6d3c 3445 733d
000001c0: d95e c33c e329 2ebb 92c6 31bc 62ec 1dbe
000001d0: e6a8 a6bc 3bf8 5e3c 3e9a 3fbd 8d56 1ebd
000001e0: 395f 17be 35b9 0b3d 7fdc 06be fc75 923d
000001f0: 64a4 553d bb66 03be 624c a8bc 379c ecbd
00000200: 4625 0dbe eede 3a3d 178c 0e3d 91c1 d53b
00000210: e65a 433d f975 babd 4153 c6bd c079 80bd
00000220: b794 5dbd 17fe 78bd 5679 943a 1b01 253d
00000230: 93c4 eb3d 4e04 923d a0b7 8e3d 4d6a a2bd
00000240: ed43 eb3d 03fd ad3c 86fc 5dbc 35c8 c83c
00000250: e04f a8bd d8dc c93d baf1 2dbc c07e 63bd
00000260: 90ee e83c 5977 ccbd 1492 9cbd ef0e 88bd
00000270: e0e8 54bd c32a cabd ee15 9f3d 4ed4 45bd
00000280: 4df1 7a3e 3654 32bd 3d07 0bbe 98d3 b33c
00000290: 1041 a83d c7c3 06bd 4bb1 433e 36fa 023c
000002a0: 64ab 783d b6fd 8a3c 936a 6c3d 5c31 40bd
000002b0: 7e3f 893b a759 79bc 6c3b c93d 97df 29be
000002c0: 0d77 a33d cb1d 123e 25db 243e 0a2d cbbc
000002d0: 72a5 ec3c e316 1d3e 697a 073b 3d03 ba3b
000002e0: 3ffe d13c 3fd8 0e3b e2fd 41be 7b72 a1bd
000002f0: 380b c0bd 0453 a73d c224 ef3d 2f66 213c
00000300: 44e1 6abe 8cf1 df3d c7a0 2dbe 219a 1a3e
00000310: 8f90 293c 050d c1bd f97a dfbd ddf3 843c
00000320: 43e9 c93d ca7a 73bb b95e 8f3d df63 26bd
00000330: 3059 463e d662 823e 9e51 143e 6b62 d63b
00000340: 8634 c5bc a25e 94bc c416 edbd 0673 f23c
00000350: 7764 de3d f89e 35bd 094f ffbd 1d22 043e
00000360: 6c26 a43c 7984 8abc 46a1 c5bd 217e b43d
00000370: 18c5 cb3d 8cf6 9bbd cb63 c83d fd41 75bd
00000380: 5710 223d cd88 e23d 9fa8 9fbb 6151 0e3b
00000390: 3583 db3d 26d1 22be 9856 873d d3d0 973d
000003a0: 86a0 d8bb f523 aa3c b100 41bd 78d1 42be
000003b0: 82ab 7aba 57e1 88bd 5248 d03c c4d6 2a3c
000003c0: 66df 40bc a343 1f3c 37ad 7abe 8386 48bd
000003d0: 2903 8d3d 3a96 a93d fd02 8bbd a824 dd3d
000003e0: ed38 77bd baf4 90bd 31d4 b43c 53f4 4e3e
000003f0: 137c 6ebc 42fd 00be 97d9 82bc 9046 523d

network_body._body_endoder.seq_layers.2.bias f4 [128]
-0.0021472573 0.0008396199 -0.0009592962 -0.0012647043 0.00022979641 0.0011376878 0.0005041009 -0.0013698465
-0.0008363861 0.0014481688 0.0013072406 0.00073969987 -0.0021384645 -0.0013696584 0.00020981871 -0.0018822034
-0.0011796189 -0.000567899 -0.0003664176 -0.0002858227 0.0011295131 0.0010222188 0.00032166622 -0.0018841723
-0.0017567998 0.00047350675 0.0020866292 0.00207893 0.00074493885 0.0009924512 -0.005948695 -0.0006252225
-0.0017019783 -0.001258316 -0.0018887097 -0.0015154515 0.00011626014 -0.00011435274 -0.0008847013 -0.0003741569
0.0009502219 -0.0007238753 -0.0011365302 0.00027821262 0.0002346017 0.00011797892 -0.0010275604 -0.0005932453
-1.4239561e-05 -0.0018631144 -0.00043972034 0.0010372438 -0.0033050762 -0.00032365034 0.00031791427 -0.001289116
-0.0024015731 -0.0015133992 -0.0023116046 0.00082467817 -0.0012682203 -0.0011544636 0.0007253822 -0.0010191874
0.0001653945 -0.0022585469 -0.0020040404 -0.0023216603 -0.0010285014 0.00011039891 0.0009387432 -0.0019522739
0.00023730187 0.0010100254 0.00018983847 -0.00034302604 -0.0001335152 -0.00038583984 0.001896817 -0.001542199
-0.00030005502 -0.0011713057 -0.0010269494 -0.0005735025 -0.002210275 -0.0007684722 -0.0015374296 -0.0005608138
-0.002447233 0.0009574111 0.00055730727 0.00025036492 -4.837185e-05 0.0004302881 5.0552324e-05 0.0004856722
0.0017218826 -0.0009526255 0.0006286928 -0.0017616269 -0.00054198306 -0.0011774487 -0.0012575657 -0.0020501248
-0.00069877505 -0.0010388914 0.0012706548 -0.0014583183 1.4958184e-06 -0.0021989455 -0.00012012419 -0.0015626615
-0.00012864516 -0.0011069577 -0.0014343755 0.00084262865 -0.0018946547 -0.00049276254 0.000261155 0.00073381444
-0.00038817857 0.000226252 -0.0006927768 0.0011725904 0.0010529775 -0.0010462856 -0.00016291463 0.0003281675
00000000: 00b9 0cbb f019 5c3a 4779 7bba 6fc4 a5ba
00000010: 81f5 7039 781e 953a a425 043a 6c8c b3ba
00000020: ec40 5bba 7bd0 bd3a b757 ab3a 6be8 413a
00000030: 7b25 0cbb 1c86 b3ba c802 5c39 44b4 f6ba
00000040: 719d 9aba 0fdf 14ba bd1b c0b9 79da 95b9
00000050: 2c0c 943a f9fb 853a 4fa5 a839 55f6 f6ba
00000060: 6b44 e6ba 0041 f839 d4bf 083b a83e 083b
00000070: 0048 433a 2315 823a 45ed c2bb f9e5 23ba
00000080: ea14 dfba 14ee a4ba 958e f7ba 1da2 c6ba
00000090: b0d0 f338 a9d0 efb8 4deb 67ba 7d2a c4b9
000000a0: 5018 793a 73c2 3dba a0f7 94ba 11dd 9139
000000b0: 6aff 7539 736b f738 35af 86ba 0584 1bba
000000c0: 73e6 6eb7 bf33 f4ba 448a e6b9 20f4 873a
000000d0: fa99 58bb 9daf a9b9 bbad a639 8ef7 a8ba
000000e0: b663 1dbb 405d c6ba 4a7e 17bb 372f 583a
000000f0: 693a a6ba 5f51 97ba 9327 3e3a 4196 85ba
00000100: bf6d 2d39 2104 14bb 3856 03bb ff26 18bb
00000110: c8ce 86ba f785 e738 fd15 763a 71e3 ffba
00000120: 3cd4 7839 d462 843a 600f 4739 2dd8 b3b9
00000130: 3700 0cb9 8c4a cab9 9e9e f83a 9d23 caba
00000140: b450 9db9 7f86 99ba b49a 86ba 1a57 16ba
00000150: 43da 10bb 4c73 49ba 9483 c9ba 9403 13ba
00000160: c261 20bb c5fa 7a3a 4218 123a 6943 8339
00000170: e1e2 4ab8 4b98 e139 2508 5438 d2a1 fe39
00000180: cbb0 e13a 9db9 79ba dcce 243a 64e6 e6ba
00000190: de13 0eba 9f54 9aba e7d4 a4ba 635b 06bb
000001a0: 002e 37ba 692b 88ba 1a8c a63a 0b25 bfba
000001b0: eec3 c835 2f1c 10bb 2feb fbb8 38d2 ccba
000001c0: ece4 06b9 5617 91ba a801 bcba dae3 5c3a
000001d0: 1056 f8ba bc2c 01ba a1eb 8839 745d 403a
000001e0: 7284 cbb9 0f3e 6d39 779b 35ba 9bb1 993a
000001f0: 1004 8a3a 8523 89ba 10d4 2ab9 e50d ac39

action_model._continuous_distribution.log_sigma f4 [1, 2]
-0.022943055 -0.05267733
00000000: 13f3 bbbc 2fc4 57bd

action_model._continuous_distribution.mu.weight f4 [2, 128]
0.0031124642 0.00011823539 -0.019842625 0.018583644 0.0019152176 0.023373231 0.01127514 -0.03404738
0.0012578598 -0.01568901 0.016076883 0.009160483 0.021149803 -0.018054781 -0.007888442 0.014849794
-0.03768793 -0.032880615 0.023193654 -0.011262221 -0.0043952446 -0.008046002 0.00080119754 0.0072389264
0.008807856 0.017016204 0.0012135366 -0.0032224976 0.0059560137 -0.0070829946 0.0009113425 -0.0023298708
0.0013622983 -0.021916803 0.012016414 -0.031101098 1.5947015e-05 0.01874338 -0.023514904 0.01586342
-0.01793457 0.014792615 -0.0086922245 -0.019433707 -0.0053629554 0.009632593 0.0037065458 -0.03241395
-0.0026634824 0.013388782 0.007788793 0.020177482 0.00042783734 0.000973847 -0.0052482425 0.027866418
0.0016155672 -0.012246167 0.0049968786 -0.0144575965 0.00753982 -0.022663288 -0.028146368 -0.009456079
0.021801557 -0.009253328 0.00023230669 0.008313363 -0.019574445 0.00031671196 0.0028193372 0.005400555
0.020996634 -0.0025157384 0.019000864 0.0040839934 0.043216053 0.0008615814 0.00020636927 -0.012617156
-0.024966445 0.0076453327 0.016628867 0.011586817 0.00011420132 -0.014495979 -0.00092271954 0.039985206
-0.001535934 0.0003710352 -0.013329501 0.02394374 -0.03146893 -0.004231769 0.0022926172 0.0321646
0.004442717 0.009681235 0.013379883 0.019111983 -0.007343288 -0.0062922756 0.052353267 -0.005495661
0.016170397 -0.023910258 0.018554935 -0.01112564 0.027809361 0.0023348555 -0.0071160933 -0.01390532
0.008074899 -0.021303691 0.0053953854 0.015779827 0.0069073495 -0.024810234 -0.009363882 0.002378656
-0.010394559 0.021669785 0.0063142376 0.0021919652 0.010260939 0.041961305 -0.023701556 0.011009288
0.0024714365 0.016179593 -0.0071960175 0.007158371 -0.020678887 0.011476176 0.012484941 -0.021293428
0.0050460063 -0.045478605 -0.0064680283 0.015544001 -0.032254282 0.009301338 -0.008625884 0.019672338
0.0024630642 0.008757594 0.0011684166 0.009298852 0.030779103 0.004609604 0.004304987 -0.0012309052
-0.005802897 0.0138578145 -0.0149716595 -0.0147407865 0.010848395 0.021292068 -0.00037457512 -0.0091150245
-0.003179414 -0.011288906 0.0075313887 -0.002879584 -6.739915e-05 0.009089134 0.015379856 -0.019008556
0.025401017 -0.006824546 0.0046092393 0.021408444 0.03515373 0.014175643 0.003637097 -0.0059182816
-0.023177708 -0.018013773 0.0049587223 0.03728249 -0.0026889716 0.0068415273 0.010757169 0.0074108364
-0.005400585 -0.009871231 0.021560933 0.018773418 0.0017645326 -0.012393839 0.025818719 0.012357112
-0.014778118 0.010787078 -0.009983204 0.0129882535 0.028911768 0.0074127107 0.02027255 -0.008708889
-0.0057794503 0.022978943 0.010054079 0.00068094576 0.0048296987 0.005231741 0.0003871673 -0.011515966
0.005768334 0.00027914994 -0.0023203248 0.0023673824 -0.00978101 8.3923725e-05 -0.03675706 -0.009312849
0.01255233 0.022503497 -0.008215889 0.040247202 0.0073136305 0.00883162 0.009786799 -0.02127907
-0.014055534 0.000101280995 0.01506989 -0.016498446 0.025201261 0.0019153552 0.006987608 0.00015745721
-0.0071045836 -0.012756071 -0.008988673 -0.053290088 0.021008713 0.0002522187 -0.024025986 0.008035742
0.008196113 -0.005378142 0.0016654269 0.022663338 0.0109165665 0.0106007345 -0.025742782 0.013728505
-0.036741283 0.011024384 -0.008774579 0.037668925 0.028593784 -0.008593689 -0.027281994 0.010533318
00000000: 7cfa 4b3b 24f5 f738 008d a2bc ba3c 983c
00000010: 0a08 fb3a 3879 bf3c 5dbb 383c 4475 0bbd
00000020: c5de a43a 3d86 80bc abb3 833c da15 163c
00000030: 5a42 ad3c 9fe7 93bc 863e 01bc 8d4c 733c
00000040: a95e 1abd d3ad 06bd 9e00 be3c 2e85 38bc
00000050: fc05 90bb 61d3 03bc 7507 523a 8434 ed3b
00000060: d34e 103c 9165 8b3c 880f 9f3a 8a30 53bb
00000070: aa2a c33b 7718 e8bb 29e7 6e3a bfb0 18bb
00000080: 258f b23a de8a b3bc 7ee0 443c bbc7 febc
00000090: f4c5 8537 b88b 993c 54a2 c0bc 01f4 813c
000000a0: 85eb 92bc b95c 723c d569 0ebc 7033 9fbc
000000b0: bbbb afbb 06d2 1d3c 85e9 723b 7dc4 04bd
000000c0: d28d 2ebb 9f5c 5b3c 2239 ff3b 3f4b a53c
000000d0: 5b4f e039 c449 7f3a 73f9 abbb 1d48 e43c
000000e0: 71c1 d33a 26a4 48bc dbbc a33b 8edf 6cbc
000000f0: 9810 f73b 5ca8 b9bc 3693 e6bc aced 1abc
00000100: 2e99 b23c 459b 17bc 5a97 7339 c634 083c
00000110: 965a a0bc 5c0c a639 a1c4 383b 24f7 b03b
00000120: 2201 ac3c 16df 24bb b3a7 9b3c 05d3 853b
00000130: 5103 313d c0db 613a d464 5839 30b8 4ebc
00000140: 6e86 ccbc b385 fa3b 4339 883c a2d6 3d3c
00000150: 5e7f ef38 8b80 6dbc a9e2 71ba 87c7 233d
00000160: 6551 c9ba 8087 c239 fb63 5abc aa25 c43c
00000170: 91e5 00bd a7aa 8abb bc3f 163b 07bf 033d
00000180: 3694 913b 0b9e 1e3c 4c37 5b3c bc90 9c3c
00000190: f79f f0bb 6f2f cebb 6170 563d f214 b4bb
000001a0: c877 843c 72df c3bc 8500 983c 5148 36bc
000001b0: 75d0 e33c 6004 193b 1e2e e9bb 24d3 63bc
000001c0: 954c 043c 1485 aebc c6cb b03b b244 813c
000001d0: 0c57 e23b d53e cbbc f86a 19bc 3ae3 1b3b
000001e0: f14d 2abc d584 b13c aae7 ce3b 13a7 0f3b
000001f0: 7f1d 283c 9edf 2b3d c429 c2bc 4d60 343c
00000200: d3f7 213b 118b 843c 92cc ebbb c590 ea3b
00000210: c566 a9bc 9206 3c3c a38d 4c3c 8e6f aebc
00000220: f858 a53b c647 3abd c1f1 d3bb 44ac 7e3c
00000230: 111d 04bd a464 183c 9453 0dbc e227 a13c
00000240: 5c6b 213b 037c 0f3c 8e25 993a 365a 183c
00000250: 7524 fc3c 290c 973b d910 8d3b 5356 a1ba
00000260: 3a26 bebb e30b 633c b14b 75bc 5783 71bc
00000270: 77bd 313c b46c ae3c 9f62 c4b9 2f57 15bc
00000280: b75d 50bb 1bf5 38bc dec9 f63b 67b7 3cbb
00000290: a558 8db8 97ea 143c cbfb 7b3c d5b7 9bbc
000002a0: cb15 d03c 71a0 dfbb 1a09 973b c360 af3c
000002b0: 5cfd 0f3d f540 683c 5d5c 6e3b 25ee c1bb
000002c0: 2ddf bdbc 9f91 93bc c77c a23b 86b5 183d
000002d0: 7539 30bb e42e e03b d63e 303c 9ad6 f23b
000002e0: 64f7 b0bb f2ba 21bc 8ea0 b03c b6ca 993c
000002f0: e447 e73a 870f 4bbc c781 d33c 7c75 4a3c
00000300: eb1f 72bc 49bc 303c 9890 23bc afcc 543c
00000310: 5fd8 ec3c 53e6 f23b 9e12 a63c baaf 0ebc
00000320: 8b61 bdbb 563e bc3c ddb9 243c 7f81 323a
00000330: 7342 9e3b 066f ab3b b7fc ca39 76ad 3cbc
00000340: 4b04 bd3b df5a 9239 9710 18bb 1626 1b3b
00000350: 8840 20bc 3500 b038 928e 16bd eb94 18bc
00000360: 4aa8 4d3c 4159 b83c f09b 06bc 40da 243d
00000370: 2ea7 ef3b 80b2 103c cf58 203c 7251 aebc
00000380: 2f49 66bc d266 d438 b3e7 763c c027 87bc
00000390: e072 ce3c a80c fb3a 4ef8 e43b 191b 2539
000003a0: 91cd e8bb d7fe 50bc 3a45 13bc b546 5abd
000003b0: 771a ac3c 393c 8439 25d2 c4bc 58a8 033c
000003c0: fd48 063c 203b b0bb 744a da3a 77a8 b93c
000003d0: 66db 323c b4ae 2d3c 87e2 d2bc 86ed 603c
000003e0: 077e 16bd 9e9f 343c 40c3 0fbc bb4a 1a3d
000003f0: 833d ea3c 8bcc 0cbc 7d7e dfbc f093 2c3c

action_model._continuous_distribution.mu.bias f4 [2]
2.025413e-05 0.0013670975
00000000: 6ae7 a937 2e30 b33a

action_model._discrete_distribution.branches.0.weight f4 [1, 128]
0.0130901635 -0.019048251 0.0120473085 -0.006879279 0.00028189115 -0.0066971206 0.009713603 0.0071332264
-0.006052806 -0.01047867 0.003226269 0.005227155 0.0137017565 0.0048430786 0.014170976 0.0020425066
0.0082683405 0.0076704407 -0.009491282 -0.008878663 0.014292331 0.010270006 0.009287068 0.0029769836
-0.0054794084 -0.021305902 -0.005348382 -0.018498154 -0.0061840555 0.021755299 -0.00062932697 0.009398407
-0.016586492 -0.0062411255 -0.0054243677 0.0049286266 -0.00074411725 0.0048383195 -0.0075838203 0.010891783
-0.01485025 -0.005596135 0.010759349 -0.012329738 0.0030102087 0.0018920439 -0.0104057975 0.0071159364
0.006939692 -0.002498068 -0.0042835134 -0.0013501892 -0.0027242263 -0.0024014357 0.0038872517 -0.0060941894
0.009435149 -0.0082799485 0.009034353 -0.0070448234 0.0065849833 0.007800627 0.010742695 0.0078099333
-0.020489424 -0.0032955718 0.0059476127 0.0014569978 0.0025553675 -0.008483552 -0.01118655 -0.011017464
0.011997326 0.012435633 0.010695596 0.016332699 -0.0042265346 -0.012184358 0.014480903 -0.0057904846
0.00912108 -0.008951575 0.003993261 -0.0005555916 -0.009178495 0.017200617 -0.004570485 0.011433147
0.00014721138 0.0056718476 0.016168809 0.007549944 0.008035901 0.010727998 -0.01069869 -0.0070741884
-0.0032528178 0.004043726 0.0012253934 -0.010197933 0.013778907 -0.013414378 0.003917657 0.008574723
0.012136466 -0.008288718 -0.0028800997 -0.0050063315 -0.0107228 -0.006319456 -0.0058406517 -0.007714499
-0.005072907 0.0071687545 -0.003356763 0.004198989 0.009006991 -0.0015439511 0.0003376038 0.00079616
0.010087242 0.016769035 0.009970349 0.0067979717 0.0047284174 -0.00097106164 0.003906434 -0.002677815
00000000: 2078 563c 140b 9cbc 1362 453c 936b e1bb
00000010: caca 9339 8573 dbbb ce25 1f3c d7bd e93b
00000020: 9e56 c6bb baae 2bbc d06f 533b 8e48 ab3b
00000030: 557d 603c b0b2 9e3b 622d 683c 93db 053b
00000040: ef77 073c 5258 fb3b 5281 1bbc d077 11bc
00000050: 622a 6a3c 8743 283c c928 183c 7f19 433b
00000060: 9c8c b3bb b789 aebc 7b41 afbb 7189 97bc
00000070: 9ea3 cabb 2b38 b23c 6bf9 24ba c7fb 193c
00000080: 65e0 87bc 5b82 ccbb e5be b1bb 5180 a13b
00000090: dd10 43ba c48a 9e3b b281 f8bb 7373 323c
000000a0: 774e 73bc c85f b7bb fb47 303c ab02 4abc
000000b0: ec46 453b 75fe f73a 147d 2abc cd2c e93b
000000c0: 5b66 e33b a0b6 23bb b75c 8cbb d5f8 b0ba
000000d0: ef88 32bb 6861 1dbb 43c1 7e3b c4b1 c7bb
000000e0: e295 1a3c 9fa8 07bc d304 143c 43d8 e6bb
000000f0: d8c6 d73b 679c ff3b 2102 303c 78ea ff3b
00000100: 70d9 a7bc 85fa 57bb 31e4 c23b bcf8 be3a
00000110: f477 273b 99fe 0abc cb47 37bc 9882 34bc
00000120: 6f90 443c d3be 4b3c 953c 2f3c 27cc 853c
00000130: be7e 8abb e7a0 47bc 4f41 6d3c 1bbe bdbb
00000140: 9570 153c a0a9 12bc e7d9 823b 1fa5 11ba
00000150: 6661 16bc 4fe8 8c3c 02c4 95bb 1852 3b3c
00000160: c15c 1a39 e8da b93b 7374 843c 8565 f73b
00000170: 03a9 033c 7cc4 2f3c 8f49 2fbc 98ce e7bb
00000180: 3a2d 55bb 3b81 843b 619d a03a 3b15 27bc
00000190: edc0 613c fbc7 5bbc b05f 803b ff7c 0c3c
000001a0: 07d8 463c 67cd 07bc 0ec0 3cbb 270c a4bb
000001b0: afae 2fbc 7013 cfbb f062 bfbb e8c9 fcbb
000001c0: a13a a6bb dfe7 ea3b 23fd 5bbb ac97 893b
000001d0: 0f92 133c 675e caba 6a00 b139 65b5 503a
000001e0: f644 253c 375f 893c ad5a 233c 85c1 de3b
000001f0: d7f0 9a3b d88e 7eba 8b01 803b 487e 2fbb
