results/RollerAgents/RollerAgent/RollerAgent-52736.onnx (onnx, 75694 bytes, 8 tensors)

network_body._body_endoder.seq_layers.0.weight f4 [128, 1]
00000000: 08e0 c4be df04 783f 41b5 75be db89 63bf
00000010: 0851 6bbe ef16 bcbd a65f 25be 5c7c ecbf
00000020: 6851 d83e 41e9 61bc 0de9 1c3f d346 26bf
00000030: 57e9 80bf 268e c03e e1f2 f2bf 85d4 9c3f
00000040: 8bab fbbf 76c7 97bf e111 8fbf a6d6 303f
00000050: 71e0 f5be b21f afbf 8b8f 78bb 5257 a6bd
00000060: 8404 e5be cca2 8dbe 07cf aabf 24fd b03d
00000070: c8cf 00c0 3335 0c40 282f 64be 63e3 06bf
00000080: d67a 65bf 0eea ed3f 2955 81be 2147 c5be
00000090: 51d1 97bf 09a4 fc3f 4318 81bd 5fd5 99bf
000000a0: da34 3c3d b428 613f 2d5f 84be db66 f1bf
000000b0: dcbc f1bd 585a 8c3b cc5f 753f 1981 ecbe
000000c0: 7dbc cebd dd3b 893f 734b 4f3f 6e48 023f
000000d0: ad57 edbf b8b7 9ebf 867f aebd 02d6 8bbf
000000e0: f413 683f 5ca0 5bbf 9638 c1bd 90c8 0a40
000000f0: eed1 50bf e4cf ab3f aa74 683f d3e9 e9bf
00000100: 33ba b33f da95 393d 82e7 f43f 51d2 41bf
00000110: 2279 0fbc 478f eabe 80de 26bf 92dd ea3f
00000120: 10f6 e6ba 626e b2bf 50ce 373f 2529 6abf
00000130: 3b35 c13e fc32 b53e c743 c13e 28bb 263f
00000140: 55fd 843f db29 f0bf 3cc7 203f a3eb d93c
00000150: 8a34 cebf 3865 02c0 d869 cd3e 415f f1bd
00000160: d7b0 9fbe 6ecb c4bf 2b93 4e3f d219 1cbf
00000170: 2e73 1ec0 b10a 38bd e971 c0bf 7656 0ac0
00000180: ac03 c53b 7ccd 80bf bb10 a9bf 7c2b 12be
00000190: 53b2 37be a939 2b3f 3df6 42bf e935 81bc
000001a0: c2fc 223f bed2 6cbf c24d 0a3e b528 f43e
000001b0: 9542 363f 27d8 bebf c68e 3fbf 838c 833b
000001c0: 2557 bcbf 6a9a 30bf 8e4d 1940 07ff 48bf
000001d0: f487 853f 1725 0640 2b45 91bf a50a babf
000001e0: 60f5 923f f9c8 ad3f 66ec b5bf 3b33 8f3e
000001f0: 37cc 9ebd 8ca9 083d d9aa 623e 3999 ccbe
-0.38452172 0.9688243 -0.23994924 -0.88882226 -0.2298013 -0.09184062 -0.16149768 -1.8475451
0.42249608 -0.013788522 0.6129311 -0.6495182 -1.007121 0.3760845 -1.8980371 1.2252356
-1.9661726 -1.1857746 -1.1177331 0.6907753 -0.48022798 -1.3681548 -0.0037927355 -0.08122124
-0.44730008 -0.27663267 -1.334443 0.08642033 -2.012682 2.190747 -0.22283614 -0.52690715
-0.8964056 1.8587053 -0.25260285 -0.3853083 -1.1860753 1.973756 -0.06303456 -1.2018241
0.04594884 0.87952733 -0.25853863 -1.8859514 -0.118036 0.0042832308 0.958493 -0.46192244
-0.10094545 1.0721394 0.809745 0.5089177 -1.8542382 -1.2399817 -0.08520417 -1.0924685
0.90655446 -0.85791564 -0.09434621 2.1684914 -0.8157033 1.3422818 0.90803015 -1.8274482
1.4041198 0.045308925 1.913315 -0.7571154 -0.008756908 -0.45812437 -0.6518326 1.8348868
-0.001762094 -1.3939936 0.7179918 -0.9146903 0.37735924 0.3539046 0.37747023 0.6512933
1.0389811 -1.8762773 0.6280401 0.026601618 -1.6109784 -2.037428 0.40119815 -0.11785746
-0.31189606 -1.5374582 0.8069331 -0.609769 -2.47578 -0.04493207 -1.5034763 -2.1615272
0.0060124006 -1.0062709 -1.3208231 -0.142744 -0.17939119 0.6688486 -0.7615698 -0.015772777
0.6366693 -0.9250907 0.13506225 0.47687307 0.71195346 -1.4909714 -0.7482723 0.004014553
-1.4714094 -0.6898562 2.3953586 -0.7851414 1.0432115 2.0960138 -1.1349233 -1.4534498
1.1481133 1.3576957 -1.4212768 0.27968773 -0.07753795 0.033364818 0.22135486 -0.3996065

network_body._body_endoder.seq_layers.0.bias f4 [128]
00000000: 7035 8aba bea2 e339 bd12 84ba c111 33ba
00000010: 00b2 93ba 0708 133b 8a88 583a 80b4 17bb
00000020: 853e c5ba 72ff 98ba 7ab4 ba3a b61b 61b9
00000030: f58c 3439 d207 8d3a 9dcc 06ba b734 59bb
00000040: 2460 b2ba 51cd f739 ac36 73b8 1a29 fc39
00000050: 98ea d4b9 0c91 8b3a b92f f23a 83bc a5ba
00000060: 3566 34ba d144 18bb 8fd1 01bb 3042 22bb
00000070: e734 9dba 2b97 903a f6ca 0dba 2972 46bb
00000080: 801c 973a fed5 b03a 335d 1bbb cac0 f4ba
00000090: 2d3f c9ba 1978 9039 cfa3 ad39 298f 19bb
000000a0: 3c82 cbba 57de eeb9 ad8a 36ba 9889 eb3a
000000b0: 8aff c73a 2d78 01bb 1ebc 91ba 60e0 ad3a
000000c0: f38e a6ba b685 ba3a fb59 8dba c8d5 823a
000000d0: 34fc 963a 985c 8d38 1529 09bb b812 65b8
000000e0: a1e2 09b9 8d6f 98ba 5ee8 beba ccc9 c9ba
000000f0: d2f4 d4ba 31f6 e8ba bb52 01bb 9ec4 8438
00000100: d202 3cba b72b 68bb 068e 4f3a aaa2 ffb9
00000110: e00b 0cbb 1bfa 3939 9b01 04bb 0d80 53bb
00000120: 4276 713a 25b8 3db8 1b26 47ba 212d b7b9
00000130: a6af c23a bbb4 89ba c212 b2ba 3bf2 ac39
00000140: 520a f7ba 4164 b8ba 7789 f6ba 4b1e c9bb
00000150: 2eb0 15bb 090d d2ba 70fd e039 45ed b7ba
00000160: 3374 a6ba b153 b6ba 6893 d0b9 7042 1aba
00000170: aa8e b138 5644 71ba 8ab2 e13a ddef d1ba
00000180: 39b5 15bb ec52 ac39 0ad2 3c3a 307e b63a
00000190: d313 aaba 2801 a53a 6d9e cc3a 5c2a f73a
000001a0: dffa 443a 7621 2eba bc55 0bbb 86ae cbb9
000001b0: 0574 223a 79e5 793a 0220 b839 187f af3a
000001c0: c44c b33a b11d 893a ed1b 1bba 1c75 03bb
000001d0: 403d 24bb fa3b 1ebb 7dd2 47ba ab5f 973a
000001e0: 396b f7ba ce4d d6ba 0ce4 0bbb 9a7b fd3a
000001f0: 9a36 183b d367 32b7 2b82 bbb9 452e c93a
-0.001054449 0.00043418066 -0.0010076385 -0.00068309536 -0.0011268258 0.0022435205 0.0008260092 -0.0023148358
-0.001504854 -0.0011672808 0.001424446 -0.00021467995 0.00017218648 0.0010759777 -0.0005142184 -0.0033142993
-0.0013608974 0.00047264484 -5.7986632e-05 0.0004809581 -0.00040610577 0.0010648086 0.0018477357 -0.0012644682
-0.0006881685 -0.0023234377 -0.0019808745 -0.002475869 -0.0011993916 0.001103138 -0.00054089667 -0.0030280447
0.0011528879 0.0013491509 -0.0023706674 -0.0018673178 -0.0015353911 0.000275553 0.00033119178 -0.0023431277
-0.0015526484 -0.00045560554 -0.00069634133 0.0017970083 0.0015258652 -0.0019755468 -0.0011118685 0.0013265721
-0.0012707397 0.0014230523 -0.0010784263 0.0009981925 0.0011519254 6.740651e-05 -0.0020929028 -5.4615288e-05
-0.00013149764 -0.0011629924 -0.00145651 -0.0015395223 -0.0016247279 -0.0017773566 -0.001973315 6.330873e-05
-0.0007172051 -0.0035426447 0.00079175865 -0.00048758584 -0.0021369383 0.00017736146 -0.0020142558 -0.003227237
0.0009211042 -4.523261e-05 -0.0007596926 -0.00034938104 0.0014853373 -0.0010506132 -0.0013585913 0.00032986872
-0.001884768 -0.0014067964 -0.0018809278 -0.0061376444 -0.0022840607 -0.0016025613 0.00042913435 -0.0014032504
-0.0012699425 -0.001391044 -0.00039782678 -0.0005884534 8.466591e-05 -0.0009203603 0.0017219346 -0.0016016919
-0.0022843613 0.00032868178 0.0007202929 0.0013923105 -0.0012975879 0.0012588846 0.0015611179 0.0018857229
0.00075141893 -0.00066425593 -0.0021260818 -0.00038849207 0.0006197098 0.000953279 0.00035119063 0.0013389317
0.0013679494 0.0010461119 -0.0005916942 -0.0020058816 -0.0025060922 -0.0024144636 -0.0007622613 0.0011548897
-0.0018876559 -0.0016350092 -0.0021345643 0.0019339204 0.0023225904 -1.06338e-05 -0.00035764402 0.0015348872

network_body._body_endoder.seq_layers.2.weight f4 [128, 128]
00000000: 917c 4abd f457 2ebd 4ac6 a43c b897 f6bd
00000010: 6841 b8bd afe3 1f3d 0867 dabd 4d1f ffbc
00000020: 6f26 173c a2eb f5bd f569 b53d 54f3 763e
00000030: 19ea b83b b6d6 133d 6066 4abe cab6 64bd
00000040: e229 c7bd 909f f5bd e69f f13d 56d5 a83d
00000050: 1735 5a3d 8062 24bb a8c7 0c3c 0edf 47bd
00000060: b920 9d3d e95a 6fbd 6949 0c3e 6cd3 b4bc
00000070: e7f2 bf3d 9d49 32bb 6ecc 8f3c d1a5 c7bc
00000080: 0a6e 67bd 2694 173d cbbf ca3d 45df 82be
00000090: 4ace 6a3d fda1 80bd febe 0a3e 9271 923d
000000a0: 4300 15bc 13f8 3b3d 34c1 b23d 7578 9dbb
000000b0: 7639 503d 283e ae3d 152a 3a3c 0b4e 1e3e
000000c0: 1b1d 323e c562 fb3d 3229 813d 3f2e c43c
000000d0: 0507 00be 3fce 443e 034d 8bbd 0f8b 573d
000000e0: 3bed cb3c d626 31bd 699e 133e bcfa ff3d
000000f0: 1ee8 ce3d b260 1b3e 6366 1bbd 885a 203d
00000100: dbfe 03be 30d0 5f3e db68 59be ce5b 4a3e
00000110: 426c ecbd 2f43 15bd b072 a7bb 6e84 c2bd
00000120: ac99 16bd f676 9ebd 30c1 a33d 99f1 25be
00000130: aab4 e8bd f4df 213c 43c1 e73d 3203 343e
00000140: 3889 8dbd 468a 3fbd 3672 043e 1641 233d
00000150: 39e0 df3d 00ab 09be cd59 a53d 11d4 5bbd
00000160: c1a2 76bc 5d74 e0bd c623 4d3e c9ef 9cbb
00000170: 78e2 8bbd 7a1f 9d3d 2231 4fbd ddfb a4bd
00000180: 887c 493c 2c46 3e3c f980 973b d583 18be
00000190: a910 b9bc 75b2 813e f96c f1bb 27a5 23bd
000001a0: d931 c4bd 3db7 f43d d16d 31bd a641 d1bc
000001b0: 07ce 953c 9603 63bc 64cc 42bd 2cec a53c
000001c0: fa13 1dbc a768 f4bc cb11 54be 5978 eabd
000001d0: ed0d c5bd 98b2 5d3d 7c9a 58bd 3679 133e
000001e0: e244 2a3d f2fa 01ba 03b8 d33c e41b 3cbc
000001f0: 2a19 17be a389 cc3c e24c 37be 5006 963d
00000200: f6e1 fd3c 108e 653c c612 8dbd f3e7 44be
00000210: 1b0f afbb 3fcc f73d 1526 793d cea7 13bd
00000220: cc02 593d 1f47 b5bb d5bd 7ebc c223 05bd
00000230: 7f42 b93d 85d3 653c bd6e 0ebe 172e cc3d
00000240: 4be9 72bc 7f8e 46bd 5943 ae3d e773 ed3d
00000250: 8c85 283d 515b 763d 68fc 99bd 9dd2 ee3d
00000260: 2473 b43d cc3f f83c 7366 19bd 74da 30bd
00000270: d152 fcbc 6d98 573d f96c c6bc 7e9f af3d
00000280: 1394 353d bf37 3fbd 25c4 0e3e 4bac 123e
00000290: d140 f73d 5895 fabb c76f 973d 9d61 793c
000002a0: 7a46 993b cd34 9a3d 7db3 e2bd 42ae de3d
000002b0: f3f3 ce3c 9d14 e5bd c164 09be 21a9 81bd
000002c0: 1db4 a9bd 74b3 da3c 8951 113e 685e 23be
000002d0: 5a0c eebd 2dba 83bd b0bd ffbd 3dc5 fdbd
000002e0: f444 96bd 006f 123e 912e 993b ed2b ecbc
000002f0: 0792 8fbd 7998 59bd 19f6 18bc fbd7 4dbe
00000300: e3ff 603d ecf5 633d 6c8c a1bc 36f2 ea3d
00000310: 0799 5b3b 7905 26be acec 993d 3642 51bc
00000320: 20bf 86bb 9fe0 7c3c fea7 c0bd 82ad bebd
00000330: 12c3 1f3d ba11 a73d e311 16be 9464 5abc
00000340: 1a2c 993d 570c 2b3d f8f2 64bd 1c9a 443d
00000350: 81f0 093e 5812 47bb 2bd3 3bbe fed6 bf3d
00000360: 7efc 5c3d 35d4 8dbd c0d5 e4bc 06a3 a03d
00000370: 5278 713d 5122 e7bc 3458 eb3d 4a10 323b
00000380: 77d2 c3bc 240d 983d 18f0 07bd 12fc c5bd
00000390: 2f68 173d d0c8 533d b34a 423e d9f5 a23c
000003a0: 2904 82bc 0992 123d 22c7 9b3d 5085 83bd
000003b0: ca27 293e 8d2c f7bb 732b f4bc 7b8b e6bc
000003c0: 3426 71bd 007b cc3c b57c 533d cd9a 20bd
000003d0: bec6 14bd 5511 ddbc a593 3a3e 16c3 bebb
000003e0: e082 46be 03bf b1bd f1e9 a93c 3b9a f13d
000003f0: 1f4b 47be 1422 f2bd b1b3 b5bc 076c 6abd
-0.049435202 -0.042564347 0.020114083 -0.12040657 -0.0899685 0.039035495 -0.10664183 -0.031142855
0.009225472 -0.12007834 0.088581 0.2411626 0.005643141 0.036093436 -0.19765615 -0.055838384
-0.097247854 -0.11993325 0.11798076 0.082438156 0.053273287 -0.0025083125 0.008592524 -0.048796706
0.07672257 -0.058436308 0.13699879 -0.02207347 0.09372502 -0.0027204521 0.017553534 -0.02437106
-0.056501426 0.03700652 0.09899863 -0.25560966 0.05732564 -0.06280897 0.1354942 0.07150568
-0.009094301 0.04589088 0.08728257 -0.0048056194 0.05083605 0.08507949 0.011362572 0.15459459
0.17393915 0.12274698 0.063066855 0.023947833 -0.12502678 0.19219302 -0.06801798 0.05262285
0.024893394 -0.043249927 0.14415897 0.12498996 0.101028666 0.15173605 -0.03793944 0.039148837
-0.12890188 0.21856761 -0.21231405 0.19761583 -0.11544086 -0.036441024 -0.0051101074 -0.09497915
-0.036767647 -0.07737534 0.07995832 -0.16205443 -0.11362584 0.009880055 0.113161586 0.17579344
-0.06910938 -0.046762727 0.12934193 0.039856993 0.10931439 -0.13444138 0.08073769 -0.05366904
-0.015053452 -0.109596945 0.20033178 -0.004789327 -0.06830305 0.07672019 -0.050583966 -0.080558516
0.012297757 0.01161341 0.004623529 -0.1489404 -0.022590952 0.25331464 -0.007367727 -0.039952423
-0.0957982 0.119490124 -0.04331762 -0.025543999 0.018286718 -0.013855835 -0.047558203 0.020254217
-0.009587282 -0.029835058 -0.20709912 -0.11448736 -0.09621797 0.0541254 -0.052881703 0.14401707
0.041569598 -0.0004958353 0.02584458 -0.011481259 -0.14755693 0.024967974 -0.17900422 0.07325423
0.030991536 0.014010921 -0.068883464 -0.19229107 -0.005342377 0.12099504 0.060827333 -0.036048703
0.052981183 -0.00553216 -0.015548189 -0.032504804 0.09045886 0.014027481 -0.13909431 0.099697284
-0.014826129 -0.04847574 0.08508939 0.11594372 0.041142985 0.06014568 -0.07518846 0.11661265
0.08811024 0.030303858 -0.03745122 -0.043177083 -0.030801209 0.0526356 -0.024221884 0.085753426
0.044330668 -0.046684023 0.1394201 0.14323537 0.120729096 -0.0076471977 0.07394367 0.015221027
0.004677591 0.07529602 -0.11069391 0.10873081 0.025262808 -0.11185572 -0.13417341 -0.06331087
-0.08286307 0.026696898 0.1419126 -0.15953982 -0.116234496 -0.064319946 -0.12487352 -0.12391136
-0.073373705 0.14300156 0.0046747406 -0.02882954 -0.070102744 -0.053123925 -0.009336018 -0.20101921
0.054931533 0.05565445 -0.019720279 0.11471979 0.003350796 -0.16213025 0.07515845 -0.012772134
-0.0041121393 0.015434413 -0.09407042 -0.09310438 0.039004393 0.08157678 -0.1465526 -0.013329644
0.07479115 0.041759815 -0.055895776 0.047998533 0.13470651 -0.0030375924 -0.18342273 0.093671784
0.053951733 -0.06925241 -0.027933955 0.07843594 0.058952637 -0.028214606 0.11491433 0.0027170354
-0.023904068 0.074243814 -0.033187956 -0.09667219 0.03696459 0.05170518 0.18973808 0.01989262
-0.015871124 0.0357838 0.07606341 -0.06421912 0.16519085 -0.0075431527 -0.029805874 -0.028142681
-0.058874324 0.024960995 0.0516326 -0.03921013 -0.036322348 -0.026985804 0.18220384 -0.005821596
-0.19385862 -0.08679011 0.020741435 0.11796995 -0.1946225 -0.11822906 -0.02218041 -0.05723193

network_body._body_endoder.seq_layers.2.bias f4 [128]
00000000: 1f97 0dbb efe5 893a eb07 a53a ca4c 10bb
00000010: 6c00 9c3a 37f1 203a 915f 173a e94f 64ba
00000020: 05dc 3d3a db93 ceb9 e06a 823a 420e a4ba
00000030: b510 dbb7 6124 62ba c751 bdba 352d 623a
00000040: 0348 c2ba 1a59 beba 9389 45ba 9bed 60ba
00000050: 3184 c53a 7ede 313a f7a8 02bb 7ee7 ecba
00000060: 6335 e239 1ba9 57ba 968f 0bbb 5642 0bbb
00000070: 63e9 07bb 3684 d6b8 3f04 baba a9a8 b1ba
00000080: de46 0cbb 5264 573a 76a1 a9ba 54a1 3eba
00000090: d3c6 20bb bc98 ecba 8ff5 2b36 2e62 42bb
000000a0: ba61 b23a b5e0 07ba 5671 183a 6905 ebba
000000b0: c5c1 ccb9 2de9 b83a d7c0 6d3a f215 8b3a
000000c0: 1357 ffba 41cd 00bb 9862 5db8 907c 14bb
000000d0: cced ad3a 2247 c23a 297f 673a 469f 0c3b
000000e0: 24b5 b63a 909a a9ba 01a4 d4ba 12b8 a4b9
000000f0: 7e47 03ba 9a92 6fba 22d3 80ba a663 bd39
00000100: 1be4 b638 172e 4fba dae4 06bb c000 3639
00000110: 9cb6 0fbb 50c4 b63a 06e8 743a 4f2f 653a
00000120: 3cae f5ba eb35 d8ba abb0 a63a 259f 18bb
00000130: 68a3 1cbb dfd1 86ba be0a cfba 6970 4d39
00000140: e95c 19bb e526 8bba 22b2 72ba acd0 cd39
00000150: ee4a 8fba 0019 f237 2b06 493a 32d1 fbba
00000160: 6f89 b23a 46fd 863a 32c3 5a38 c29a 8eba
00000170: 4317 4b3a dda3 ffba b463 41b8 0273 443a
00000180: 5f9d ffba d409 a0b9 cd29 afb9 9c56 e4ba
00000190: 8a64 613a 8fa4 dfb9 30fa d43a f7af 033a
000001a0: dceb 30bb 4f1e 02bb 4689 07bb dc5f 603a
000001b0: 1933 07ba ddf0 0639 8ddf 81ba 91a1 823a
000001c0: 1504 eaba 0ad5 99b9 730e 9bba 18a5 c9b9
000001d0: d57d a438 4765 bbba aa9d 3bba c009 423a
000001e0: 91f3 39ba 5d6a 913a 94e4 d0ba 6b8c e839
000001f0: ba31 fd38 30db c6ba a924 8d39 5b77 2aba
-0.0021604968 0.0010520796 0.0012590861 -0.0022018426 0.0011901981 0.00061394594 0.00057744334 -0.00087094173
0.00072425633 -0.00039401543 0.0009950064 -0.0012516456 -2.6114614e-05 -0.00086266367 -0.0014443927 0.0008627952
-0.0014822487 -0.0014522404 -0.0007535454 -0.0008580328 0.0015069303 0.0006785168 -0.0019937137 -0.0018074361
0.00043145855 -0.0008226798 -0.00212953 -0.0021249256 -0.0020738475 -0.000102289414 -0.0014191939 -0.0013554293
-0.0021404545 0.0008216548 -0.0012941796 -0.00072719646 -0.002453257 -0.001805089 2.562392e-06 -0.002966057
0.0013609447 -0.0005183325 0.0005815228 -0.001793069 -0.00039054282 0.0014107578 0.0009069568 0.0010611399
-0.0019480906 -0.001965359 -5.278233e-05 -0.0022657253 0.0013269722 0.0014822225 0.0008830899 0.002145724
0.0013939482 -0.001293974 -0.0016223193 -0.0003141766 -0.00050079066 -0.0009138972 -0.0009828547 0.00036123133
8.720924e-05 -0.0007903291 -0.0020583184 0.00017357152 -0.0021928912 0.0013944004 0.00093424355 0.0008742706
-0.0018743942 -0.0016495561 0.0012717446 -0.0023288217 -0.0023901109 -0.0010285935 -0.0015796048 0.000195922
-0.0023401326 -0.001061645 -0.0009258111 0.0003925612 -0.0010932365 2.886029e-05 0.00076684606 -0.0019212125
0.0013621281 0.001029887 5.215704e-05 -0.0010879862 0.0007747302 -0.0019503791 -4.610764e-05 0.0007493944
-0.0019501856 -0.000305249 -0.00033409745 -0.0017420831 0.00085980503 -0.0004265648 0.0016248878 0.0005023474
-0.0026996052 -0.001985449 -0.0020681187 0.0008559206 -0.00051574555 0.00012868964 -0.0009908542 0.0009966363
-0.0017854 -0.0002934116 -0.0011829868 -0.00038460712 7.8435674e-05 -0.0014297151 -0.00071569777 0.00074019656
-0.0007093484 0.0011094321 -0.0015937262 0.00044355108 0.000120732424 -0.0015171524 0.0002692093 -0.00065027707

action_model._continuous_distribution.log_sigma f4 [1, 2]
00000000: 232b 05bd 6ef2 96bc
-0.03251184 -0.018426146

action_model._continuous_distribution.mu.weight f4 [2, 128]
00000000: b287 2e3c 61f5 a53b 6fe0 25bd 617d ea3c
00000010: 4652 f33c ab67 bb39 8215 1bbd d8e6 223c
00000020: c40e 41bc aa0c 013b bc1c e9bc c07c 0fbc
00000030: 8c2b 43bc 4ba7 aabc 20dc a93c aa5b 043d
00000040: 305e e33c 69fa 1d3d e41a 45bc e906 78bc
00000050: 9e86 9ebc cefd b5bc b0e5 69bc fdda 8abc
00000060: 76a6 cd3c cd91 993c a468 a13a 1d8d 873b
00000070: b358 d93b 5ad7 d0ba 0b3d 69bb 0588 59bb
00000080: 2c6f 6a3c 3a0c 00bb 5b61 63bc f676 32bc
00000090: 0ce4 c2bc 8ab8 cd3a 8838 93bc 3c2e 733b
000000a0: 6803 39bc 1736 e33b 4f97 97bc 895c 8d3b
000000b0: 01fe 6e3c 0e5e 17bd 7311 ca3c 486c 2fbc
000000c0: aac0 093d 28e4 86bb 0240 adba 9065 adbc
000000d0: 9088 68bc 7033 a03c 84cf 8e3b dfea 2a3d
000000e0: 072b 303d dcdf c73b d6c3 2bb8 a4df 9ebc
000000f0: 3610 0abb cf4f 35bc b4d6 743c 5cc4 acbb
00000100: 02bf 893c 8ab1 0fbb b324 0b3c 58f1 1ebd
00000110: 8815 893c 1bf5 6bbc 38a2 dfbb 641e 573c
00000120: 17ae 5d3c 16d0 bd3b 68c8 ce3c 1368 2fbd
00000130: e0f7 adbc cfa8 313c eb55 f1bc 180e 613c
00000140: 1c7a bebb af54 4bbc 5965 d03c 7676 ef3c
00000150: e1b5 8c3c 94a6 a93c 8434 22ba ced7 fb3b
00000160: e41f 2fbc b80b 22bd 08dd ab3b 6393 f83b
00000170: 1111 69bb fd4e 033d a3ec 423b a46a 8dbc
00000180: 29a6 a93c 447c 283b fc5b 4e3a 6555 673b
00000190: 39c5 23bc ea22 b4bc de4c fabc d5ed eabc
000001a0: ba9a 353d af4c 473c 2d28 c73b e6c4 a8bc
000001b0: 39ec a73c f9b2 a63c 3ce3 afbc 39ab 7b3c
000001c0: fa60 adbc d137 02bc 222a 853c f516 0fbc
000001d0: 81f0 c3bb 0b2f 9c3b e908 20bc 035c 6bbc
000001e0: baa5 96bb 33a0 c1bc 8cdb f939 f906 7f3c
000001f0: e3e9 d4bc cc29 a23c af1b 95bb f770 ffba
00000200: 8659 5d3c ce0d 22bc 984c 683b 3e91 f63b
00000210: 480c 393d c3f0 6ebc c655 3b3c c0ee 8cbc
00000220: a240 d63a fd86 e4ba d096 e83b 2e29 063c
00000230: 23ba bd3b acf5 a23c aa05 07bc d050 ccbb
00000240: 0e41 30bc 3f78 88bc 6f3e 0b3d 7e7f e03c
00000250: 3894 19bc 47b1 53bb ea62 843a 9313 f43b
00000260: f3af 3bbd 6bc8 83bc fe54 44bc 7645 423c
00000270: 2b74 0b3d 4cfc 963c 2fb8 403c 5e3c ad3c
00000280: 132c e23b b31d c0bc 9cb0 fcbb 11cc 663c
00000290: c3f6 37bc 1b2a 26bd 2b6a 6e3c e0f9 493a
000002a0: 82c0 c5bc ed21 2abc 43b8 db3b 06c0 013c
000002b0: 7b24 2ebc 9869 cd38 a991 fdb9 a977 f03c
000002c0: 73ae af3c 9532 a1bc f699 cd3c efdb 6ebc
000002d0: 279a f1bc ae8c caba 294d 62bb dbe7 eabb
000002e0: 9a69 fe3c 8e16 6fbb c1c6 693c 983d 0b3d
000002f0: cd7d 5abb 27eb 2d3d 685e 98bc af78 ccba
00000300: 6383 c3bb e149 1cbb e70c 693c c5ad eb3c
00000310: 04a2 78ba 348a 0bbd c387 dbbb 6441 213b
00000320: d1df cd3c a782 193d 8421 163c af23 f2bb
00000330: d24b 58bc 09d4 03bd c103 6a3c 0370 30bc
00000340: 069f e7bb 70b4 723c 1d9d 85bc 028f 43bc
00000350: 8dc3 bdbc 8d63 45bc d01d d6bc d218 113d
00000360: 2714 31bc e018 b23b f25f 7a3b 2411 9dbb
00000370: f227 07bc 0742 fc3c e43e 1ebc 0be6 8f3b
00000380: 890a 193c e698 d8bb a6bb 06bc fa70 8dbb
00000390: 0760 8cbc becb c33c 7796 56bc a362 643c
000003a0: d7a0 cd3c 34ee 4f3d 2aa1 233d 88dd 6abb
000003b0: d1ab a6bc 3f1c 2ebc aee8 813c de61 c83c
000003c0: b3c1 ff3b 58b3 733c 03f7 e0bb bda2 b23c
000003d0: 0afa 023d 7a3e b1bb 5064 0c3c ca4a 9fbb
000003e0: 5034 123c 2e9b 04bd 8cd3 ecbc 7ba1 d0bb
000003f0: 0a97 a13c 4122 05bc e77a 21bc dba7 403c
0.0106524695 0.005064652 -0.04049724 0.028624238 0.029702317 0.00035744658 -0.03786231 0.009942733
-0.011783306 0.0019691386 -0.028456084 -0.00875777 -0.011912238 -0.020831725 0.020734847 0.03231398
0.027754873 0.038568888 -0.012030337 -0.015138366 -0.0193513 -0.02221575 -0.014275953 -0.016950125
0.025103789 0.018746281 0.001231451 0.004136695 0.006632888 -0.001593332 -0.0035589363 -0.0033192646
0.014308732 -0.0019538538 -0.013878192 -0.01089262 -0.023790382 0.0015695256 -0.017971292 0.0037106415
-0.011292316 0.0069339382 -0.018504767 0.0043140096 0.014586926 -0.036954932 0.024666524 -0.010706969
0.033631004 -0.004116554 -0.0013217928 -0.021166593 -0.014192715 0.019555777 0.004358234 0.041727897
0.043009784 0.006099684 -4.0951963e-05 -0.01939375 -0.0021066791 -0.011066391 0.014943767 -0.0052724313
0.016814712 -0.002192589 0.0084926365 -0.038804382 0.0167339 -0.014401699 -0.006824758 0.013129804
0.013530276 0.005792628 0.025242046 -0.042823862 -0.02123636 0.01084347 -0.029459914 0.01373627
-0.0058128964 -0.012410327 0.025438951 0.029231291 0.01717657 0.020709313 -0.0006187635 0.007685638
-0.010688756 -0.039561957 0.005244855 0.0075859292 -0.003556315 0.03205775 0.0029743097 -0.017262764
0.020709114 0.0025708834 0.0007871983 0.0035298702 -0.009995752 -0.021989305 -0.030554231 -0.02867786
0.044337012 0.012164279 0.0060777874 -0.020601701 0.020498382 0.020349013 -0.021470658 0.015360647
-0.021164406 -0.007947878 0.016255442 -0.008733501 -0.005979598 0.00476635 -0.009767749 -0.014365199
-0.004597393 -0.02363596 0.00047656556 0.015565627 -0.025990432 0.01979532 -0.0045504193 -0.0019488622
0.013510114 -0.009890987 0.0035446044 0.0075246384 0.045177728 -0.014583769 0.011434024 -0.017203689
0.0016346166 -0.0017435249 0.0070980564 0.008188529 0.0057900115 0.019892536 -0.0082410965 -0.0062352195
-0.010757698 -0.0166589 0.03399509 0.027404543 -0.009373717 -0.003230171 0.001010028 0.0074486225
-0.045822095 -0.016086778 -0.011983154 0.011857381 0.034046333 0.018430851 0.011762663 0.02114695
0.0069022267 -0.023451662 -0.007711483 0.014086739 -0.011228266 -0.0405675 0.01455168 0.0007704776
-0.024139646 -0.010384065 0.0067053153 0.007919317 -0.010628815 9.79483e-05 -0.00048364446 0.029353933
0.021445489 -0.01967744 0.025097828 -0.014578803 -0.02949245 -0.0015453303 -0.0034530854 -0.0071687526
0.031056214 -0.003648195 0.014268578 0.033994287 -0.0033339143 0.042460587 -0.018599704 -0.0015599931
-0.0059665903 -0.0023847746 0.014224268 0.028769383 -0.00094845914 -0.034067348 -0.0066995337 0.0024605626
0.025131138 0.037478115 0.009163264 -0.0073895077 -0.013201671 -0.032184634 0.014283122 -0.010768893
-0.0070685176 0.014813527 -0.016310269 -0.011935951 -0.023164535 -0.012047661 -0.026137263 0.03542406
-0.010808027 0.0054350942 0.003820416 -0.004793303 -0.00824927 0.030793203 -0.009658549 0.004391437
0.009340891 -0.006610024 -0.00822345 -0.0043164464 -0.017135633 0.023900863 -0.013097397 0.013939532
0.025101108 0.050764278 0.03994862 -0.003583761 -0.0203456 -0.010626852 0.01585802 0.02446073
0.007805073 0.014874302 -0.0068653836 0.021806115 0.031976737 -0.005409059 0.008568838 -0.0048612105
0.008923605 -0.032374553 -0.028909467 -0.006366906 0.019725341 -0.008125843 -0.009855962 0.01175877

action_model._continuous_distribution.mu.bias f4 [2]
00000000: 3e26 d2ba 04ba 90ba
-0.0016033126 -0.0011041765

action_model._discrete_distribution.branches.0.weight f4 [1, 128]
00000000: 2748 80bb b792 7bba 980d fd3a b3d0 703c
00000010: ae31 393b 9dff 76ba d8f3 b0bb 4f17 cd39
00000020: 130a eebb 914f acbb bd00 f53b 2f33 09b8
00000030: 77d2 be3b d03a aabb f32c 4a3c 825e 503c
00000040: f276 963b 02af ffbb d2c0 f8bb a8a7 88b9
00000050: 73a9 92bc 3376 2c3c 0b3f 1ebc fd40 81bb
00000060: 73f9 e73a 2006 edb9 afc8 733c 5bdb 29bc
00000070: 376b d539 950a 193c 4dff d7bb 57ed 893a
00000080: 21f1 94bc a74b b339 6eb9 09bb 2892 a9bb
00000090: 939b c63b 307e d63b e329 813c d2aa b53b
000000a0: b7af 9bb9 1761 a6bb 421d 29bb 381c 23bc
000000b0: 8bb9 693c 49e0 3c3c deaf a13b d955 2e3a
000000c0: fa95 3c3c 78b1 bdba d71b 0d3c faa5 7fbb
000000d0: 0736 1a3c 8a6d a23c 6dc4 40bc c755 803a
000000e0: 2765 313c bd3f ecbb 4f0a d1b9 359e ce3a
000000f0: 1968 a7bb 1b5c c2b9 afab 59bc 53b4 86bb
00000100: 6ddd cbbb ee98 caba 515a b9bb c34a 19bc
00000110: cff4 38bc 2c02 93bb 9e77 2f3c 326b da3a
00000120: a189 00bc fa4b a03a e3ad 55bb 6e53 9abc
00000130: dcdd 243c a5aa 56bc aa04 343c fd74 61bc
00000140: 6596 3a3c dff0 babb ff29 b9ba d2e3 d93b
00000150: ad8e 02bb 775f 2e3c 0bb8 14bb 3f99 8f3b
00000160: dfb7 0abc 7e01 833b 2fa7 8f3c bfa7 15bc
00000170: 6d8e e13b 9050 f53b bcb6 133c c6bf 1bbb
00000180: 5eec 8e3b 83ac f53b 3f8a c7bb bfba 823b
00000190: eff0 973b 3ca7 07bc 8c3c 3239 2d55 cb3b
000001a0: 3f54 dbba 5512 6e3b 9b3b f5bb 2e03 2abc
000001b0: 1820 4e3c 3488 18bc 524b 4fbc e25b 523c
000001c0: 599f 933c 63f9 ff3a d57f 53bb 113a 403c
000001d0: efe2 833a af86 ce3b b9d8 35bc 3531 67bc
000001e0: 7452 4abb 4e28 a5bc 7dcf 7cbb bdff d8bc
000001f0: 6e28 8d3a cd3a d23b 5497 173c 5892 4e3a
-0.003914851 -0.00095967524 0.0019306419 0.014698195 0.0028258371 -0.00094222446 -0.005400162 0.00039118013
-0.0072643845 -0.0052585085 0.0074768947 -3.2711014e-05 0.005823429 -0.0051949993 0.012339818 0.012717845
0.004591816 -0.007802845 -0.0075913453 -0.00026064855 -0.017903065 0.010526228 -0.009658585 -0.003944515
0.0017698243 -0.00045208726 0.01487939 -0.01036724 0.00040706407 0.009340902 -0.0065917135 0.0010523003
-0.018181385 0.00034197906 -0.0021015066 -0.005174894 0.0060610264 0.0065458044 0.015767043 0.005544045
-0.00029694822 -0.005077492 -0.0025804793 -0.009955458 0.014265428 0.011528083 0.004934295 0.00066503655
0.011510367 -0.0014472445 0.008612595 -0.0039008842 0.009412295 0.019827623 -0.011765582 0.0009791189
0.010827339 -0.0072097466 -0.00039871267 0.0015763702 -0.005108845 -0.00037071187 -0.013285561 -0.004110852
-0.0062214644 -0.0015456954 -0.0056565185 -0.0093562035 -0.011288836 -0.004486343 0.010709671 0.0016664027
-0.007845313 0.0012229674 -0.0032604865 -0.01883861 0.010062661 -0.013102208 0.01098744 -0.013760802
0.011388396 -0.0057049836 -0.0014126896 0.0066494728 -0.0019921467 0.010642878 -0.0022692706 0.004382282
-0.00846669 0.0039979806 0.017535774 -0.009134232 0.0068834336 0.0074864104 0.009015735 -0.002376543
0.0043616733 0.0074973716 -0.0060894783 0.003989547 0.004636876 -0.008279618 0.00016997958 0.006205222
-0.0016733481 0.0036326845 -0.007483912 -0.010376735 0.012580894 -0.009309817 -0.012652235 0.012839289
0.018020319 0.0019529279 -0.0032272239 0.011732594 0.0010062138 0.0063026766 -0.011099034 -0.014110853
-0.00308719 -0.02016082 -0.003857582 -0.026489133 0.0010769495 0.006415701 0.009252388 0.0007880083
