results/RollerAgents/RollerAgent/RollerAgent-89600.pt (torch, 431507 bytes, 39 tensors)

network_body._body_endoder.seq_layers.0.weight f4 [128, 1]
-0.5542237 1.2725344 3.1861584 -0.41871473 -1.356043 0.44178107 -0.46697527 -0.024392625
-0.39265177 0.43899864 -1.0814388 -0.37258115 0.9095192 -1.0718571 1.4400662 -0.89188665
-0.03477376 0.6059281 -1.0853548 -0.88574964 -0.81829435 1.5970101 0.21724656 -0.5835704
1.0734447 0.7976466 -0.24788041 0.30488786 -0.14128248 0.8576493 1.4906409 -0.5883225
-0.60621756 -0.06122256 2.4503698 0.8518878 0.94947505 0.09109742 0.24511626 -0.74711716
1.2951206 -0.31307283 0.8642026 -1.6209178 -0.38499966 -0.6472607 0.022822091 0.50781965
0.59307754 1.2045671 0.3465056 -1.26437 0.7849312 0.7371782 1.6120596 0.575488
0.40537167 -0.26997852 -0.08111946 -0.111991145 0.96897477 -0.6812848 -1.2743974 -0.3544523
-0.5303124 1.1111323 -0.26093352 0.86179817 0.29741654 -0.8957248 -1.195734 1.3219433
0.28141445 1.2803922 -0.21064694 -1.5562599 1.112043 0.7159775 -0.42977273 2.079335
0.713697 0.37975192 0.4392497 0.8983052 0.73942304 -0.93466574 1.468179 0.62832797
1.5290246 -0.11554604 -0.6762559 -0.7406278 1.5208614 -0.8558279 1.484309 0.62212354
-1.0822849 -1.375959 0.9758717 1.5081309 0.5545319 -2.031881 -0.83508813 -0.2962877
0.73619264 -1.5950537 -0.15110473 -1.0173466 1.2395606 1.0379555 0.9522573 -1.3769414
0.28869104 2.2145197 0.34110516 -0.96331406 -1.0122626 -0.90505135 1.0989574 0.1258859
-0.078157246 -1.4409444 -0.46461552 1.3526773 0.019145409 -0.3612075 1.2158759 0.09125848
00000000: 9be1 0dbf 68e2 a23f 05ea 4b40 c761 d6be
00000010: d192 adbf 2131 e23e 6217 efbe 0bd3 c7bc
00000020: a709 c9be 6ec4 e03e 966c 8abf f5c2 bebe
00000030: 40d6 683f 9d32 89bf 1754 b83f af52 64bf
00000040: ee6e 0ebd 1b1e 1b3f e8ec 8abf 7dc0 62bf
00000050: bd7b 51bf d46a cc3f e275 5e3e df64 15bf
00000060: a366 893f 9132 4c3f 5dd4 7dbe 431a 9c3e
00000070: 5bac 10be e88e 5b3f 52cd be3f 4e9c 16bf
00000080: 1331 1bbf 82c4 7abd dcd2 1c40 5215 5a3f
00000090: cc10 733f 4991 ba3d c2ff 7a3e 1243 3fbf
000000a0: 83c6 a53f 154b a0be 623c 5d3f 3c7a cfbf
000000b0: ad1e c5be e1b2 25bf 65f5 ba3c 7800 023f
000000c0: eed3 173f 412f 9a3f 2f69 b13e e0d6 a1bf
000000d0: 40f1 483f b6b7 3c3f f857 ce3f 2e53 133f
000000e0: e08c cf3e a03a 8abe f621 a6bd 9d5b e5bd
000000f0: bb0e 783f ae68 2ebf 741f a3bf c67a b5be
00000100: 8ec2 07bf 9539 8e3f 1499 85be ce9e 5c3f
00000110: fb46 983e 384e 65bf d00d 99bf 7035 a93f
00000120: 8e15 903e e4e3 a33f d5b3 57be 8633 c7bf
00000130: 6d57 8e3f 4d4a 373f 2c0b dcbe d313 0540
00000140: d9b4 363f d86e c23e 56e5 e03e 54f7 653f
00000150: d44a 3d3f 4146 6fbf 4aed bb3f 1ada 203f
00000160: 14b7 c33f 67a3 ecbd 1b1f 2dbf c999 3dbf
00000170: 96ab c23f 8a17 5bbf d6fd bd3f 7d43 1f3f
00000180: 5088 8abf 6d1f b0bf bad2 793f 6f0a c13f
00000190: cdf5 0d3f 570a 02c0 56c8 55bf 05b3 97be
000001a0: 1f77 3c3f b82a ccbf 33bb 1abe 6a38 82bf
000001b0: eca9 9e3f badb 843f 22c7 733f 9e3f b0bf
000001c0: 50cf 933e b1ba 0d40 56a5 ae3e c09b 76bf
000001d0: d291 81bf 72b1 67bf a3aa 8c3f 3ce8 003e
000001e0: e810 a0bd de70 b8bf 16e2 edbe 8824 ad3f
000001f0: d5d6 9c3c 30f0 b8be d2a1 9b3f bae5 ba3d

network_body._body_endoder.seq_layers.0.bias f4 [128]
0.0005603961 0.0010221648 0.00053916767 0.00043993184 -0.0012771551 -0.000119514574 0.001434933 0.0011564662
-0.0015035135 -0.00024190864 -0.0012776974 -0.00085316994 0.000742174 -0.00035365345 0.00048941554 -0.00019525533
0.0019542235 -0.0020954972 0.00078039727 -0.0012439154 -0.0004136055 0.00016355034 -0.00076686934 -0.000975449
-0.0028404407 -0.0023004124 -0.0015672629 -0.0012148768 0.001107224 -0.00087315455 0.0007883868 -0.001198985
-0.0015361154 0.0013286914 0.00022101513 -0.0011517131 0.00016877493 -0.0009106683 -0.00089111185 -0.0016267312
0.00020569826 -0.001082718 -0.0027880769 0.00010341899 -0.0005989747 -0.0011161071 -0.0013804032 -2.7607199e-05
-0.0007551845 -0.0015191025 -0.0013709293 0.0007014243 -0.0015376253 0.0016531453 -0.003421475 0.00018566239
0.0007264134 -0.0017295739 -4.796975e-05 0.0020246725 0.00041646464 -0.001266533 -0.0010760375 5.8752845e-05
0.00036590153 0.0010888508 0.001873266 -0.0014700665 -0.00080883224 -0.0014500299 -0.0011965046 -0.0019199561
0.0005856724 -0.013068777 -0.0009165299 -0.0005719061 -0.00232524 -0.00024708407 -0.00017971237 -0.00023566914
0.000725332 -0.0014365424 -0.0021173628 0.0008453308 -0.0015631231 -0.0015894687 -0.00057699945 0.0005167006
-0.0015092919 0.0016447416 -0.0027648702 0.00029083528 -0.00074828253 -0.0009475676 0.0004983697 -0.0012429039
-0.0012796848 0.0012719076 -0.0022514784 -0.0023798621 0.0016027961 -0.00095954153 -0.00084899616 0.0012817773
-0.0001683733 -0.0026664992 0.002102605 0.0004761888 0.0006920443 -0.0009492216 -0.0015821026 -0.00043865183
-0.00027677784 -0.002303131 -0.00082221074 0.001106794 -0.0018788556 0.0005972661 -0.00065121823 -0.0005910288
0.00077202125 0.0011472325 -0.009892108 -0.0064060707 -0.0008445775 0.0006657458 -0.0021590723 -0.0005377189
00000000: 8ce7 123a 29fa 853a ee56 0d3a a7a6 e639
00000010: 3766 a7ba e6a3 fab8 5d14 bc3a 9194 973a
00000020: 8b11 c5ba dba8 7db9 6978 a7ba 44a7 5fba
00000030: 748e 423a 906a b9b9 1f4c 003a 74bd 4cb9
00000040: 6e12 003b 9c54 09bb 9393 4c3a e00a a3ba
00000050: 31d9 d8b9 b67e 2b39 bb07 49ba 46b5 7fba
00000060: b026 3abb 84c2 16bb 9e6c cdba 803c 9fba
00000070: 4620 913a 69e4 64ba beab 4e3a 4327 9dba
00000080: 7b57 c9ba 7c27 ae3a 4cc0 6739 14f5 96ba
00000090: 2df9 3039 eab9 6eba 8199 69ba 0b38 d5ba
000000a0: b5b0 5739 fde9 8dba 2bb8 36bb a6e2 d838
000000b0: 8304 1dba 574a 92ba a5ee b4ba 0296 e7b7
000000c0: 93f7 45ba 9f1c c7ba c1b0 b3ba cadf 373a
000000d0: 258a c9ba 5aae d83a d33a 60bb 5eae 4239
000000e0: c76c 3e3a dfb2 e2ba 2033 49b8 5eb0 043b
000000f0: f058 da39 cc01 a6ba d409 8dba 636d 7638
00000100: 79d6 bf39 c5b7 8e3a 6088 f53a 3faf c0ba
00000110: d007 54ba ee0e beba 08d4 9cba 09a7 fbba
00000120: cf87 193a 6c1e 56bc 4843 70ba f8eb 15ba
00000130: 0e63 18bb 108b 81b9 2c71 3cb9 f41d 77b9
00000140: 3524 3e3a 5d4a bcba 74c3 0abb 3199 5d3a
00000150: b5e1 ccba b855 d0ba c741 17ba 3173 073a
00000160: 6fd3 c5ba 5f94 d73a d332 35bb 407b 9839
00000170: 6428 44ba 2f66 78ba 06a5 023a efe8 a2ba
00000180: 19bb a7ba 23b6 a63a 8a8d 13bb 76f7 1bbb
00000190: ea14 d23a be89 7bba 2b8f 5eba 4f01 a83a
000001a0: 5d8d 30b9 6fc0 2ebb dccb 093b fba8 f939
000001b0: 4f6a 353a 2fd5 78ba 8e5e cfba dafa e5b9
000001c0: 7e1c 91b9 20f0 16bb a189 57ba d811 913a
000001d0: ef43 f6ba d991 1c3a 84b6 2aba 45ef 1aba
000001e0: 7861 4a3a bc5e 963a 8212 22bc 04ea d1bb
000001f0: a366 5dba 7285 2e3a 397f 0dbb b4f5 0cba

network_body._body_endoder.seq_layers.2.weight f4 [128, 128]
0.03136423 -0.08178328 0.007850266 -0.008627725 0.06270289 -0.06138708 0.059482444 -0.019678686
0.051967524 0.069769196 0.07094134 -0.041371807 0.05656702 0.0054449 0.007279101 -0.010412048
0.14045995 0.063972436 -0.061651766 -0.18081343 -0.04197946 -0.1946158 -0.039613463 -0.044616047
0.17134541 -0.024290523 -0.020660546 0.03664094 -0.049093414 -0.043081775 0.07423576 0.02922134
0.08513093 0.03384343 -0.01502639 -0.13028948 0.00037361836 0.02336968 -0.12438327 0.3552722
0.006882592 -0.012803789 0.064363465 -0.07807299 -0.005865728 -0.04260389 0.107671514 0.09653636
0.027361484 0.0388577 -0.1906174 -0.02628824 -0.103385285 0.031130414 0.04988477 0.028499858
-0.06344414 0.048075173 -0.08615868 -0.012594978 0.0846596 0.11291622 0.040868737 0.1072035
0.08130151 -0.15931307 0.14086618 0.021491295 -0.07862159 -0.09848723 -0.12897377 -0.13497575
0.049504217 0.044967733 0.1746092 -0.13311782 0.10750304 0.036541972 -0.015825719 -0.19830841
-0.029216232 -0.024895051 -0.13067885 0.0034280359 0.058725648 0.13242216 0.053854384 -0.019839868
0.05419024 0.010217116 -0.08670393 -0.003294032 0.050043568 0.073352836 -0.047601625 -0.04142072
-0.015457693 0.0625675 0.04305807 -0.043738957 -0.028870422 -0.07550569 -0.08998276 -0.042147934
0.03855018 0.045858625 0.006387651 -0.14340195 -0.09417249 0.10401409 0.014499464 0.05939217
0.023848938 -0.002657526 -0.0108505655 -0.15422204 -0.020344209 0.013608987 -0.046777956 -0.03865676
-0.14782418 0.034112174 -0.1317005 0.0715141 0.05215873 -0.12832157 -0.020544235 -0.11553233
-0.1378375 0.04562276 0.03480157 0.006523319 0.04769411 -0.09104533 -0.09683848 -0.06273222
-0.054096904 -0.060789194 0.0011327665 0.040284257 0.11512103 0.07129727 0.069686174 -0.079304315
0.11487565 0.02123881 -0.013548976 0.024509529 -0.0821836 0.09856576 -0.010616714 -0.0555408
0.028434068 -0.09983701 -0.0764505 -0.06643473 -0.0519799 -0.098714374 0.07767855 -0.048298173
0.24506111 -0.04353734 -0.1357698 0.021951482 0.08215535 -0.03290155 0.191106 0.007994225
0.060710326 0.016966682 0.057718825 -0.046922073 0.004188477 -0.015219129 0.09825787 -0.16589199
0.079816915 0.14269178 0.16099222 -0.02480175 0.028887484 0.15340762 0.0020672327 0.0056766556
0.02563393 0.0021796373 -0.18944505 -0.078831635 -0.0937714 0.08170131 0.11676933 0.009851023
-0.22937495 0.10934743 -0.16955863 0.15097858 0.010349407 -0.094263114 -0.10912127 0.016229564
0.09858944 -0.0037152045 0.07000489 -0.04062259 0.1936996 0.2546603 0.1448426 0.006542494
-0.024072897 -0.01811153 -0.11576608 0.029595863 0.10859006 -0.044341058 -0.12466247 0.12903638
0.020037852 -0.016908871 -0.09649901 0.0881312 0.09949702 -0.076153845 0.09784659 -0.059877384
0.039566364 0.11061249 -0.004872396 0.0021715986 0.10718385 -0.15900096 0.06608313 0.07412877
-0.0066109328 0.020769099 -0.0471198 -0.19025218 -0.00095623 -0.06683605 0.02542511 0.010427181
-0.011772012 0.009720716 -0.24480139 -0.048956405 0.068853684 0.082806066 -0.06787679 0.10798007
-0.060357023 -0.07077928 0.022073837 0.2021039 -0.014555949 -0.1259661 -0.015972896 0.051336825
00000000: c777 003d fe7d a7bd 679e 003c 4d5b 0dbc
00000010: 5f6a 803d 0571 7bbd dda3 733d 3235 a1bc
00000020: e6db 543d 27e3 8e3d b149 913d 7c75 29bd
00000030: d2b2 673d 226b b23b 8685 ee3b 4b97 2abc
00000040: bcd4 0f3e fb03 833d 9086 7cbd 2827 39be
00000050: a7f2 2bbd 5d49 47be ba41 22bd 51bf 36bd
00000060: 2c75 2f3e ebfc c6bc 4e40 a9bc cf14 163d
00000070: 2d16 49bd 8476 30bd eb08 983d 9761 ef3c
00000080: 2059 ae3d 699f 0a3d 3f31 76bc 9b6a 05be
00000090: 35e2 c339 c571 bf3c a8bc febd 3de6 b53e
000000a0: 5e87 e13b fcc6 51bc fed0 833d bbe4 9fbd
000000b0: 4b35 c0bb 6b81 2ebd e282 dc3d dbb4 c53d
000000c0: 3125 e03c 4029 1f3d 3531 43be 6f5a d7bc
000000d0: aabb d3bd 3605 ff3c f953 4c3d 8978 e93c
000000e0: 00ef 81bd 79ea 443d f673 b0bd 2b5b 4ebc
000000f0: 0362 ad3d 9f40 e73d fa65 273d 828d db3d
00000100: 6881 a63d f722 23be 393f 103e 830e b03c
00000110: 5b04 a1bd acb3 c9bd b311 04be 1537 0abe
00000120: efc4 4a3d 1630 383d c1cc 323e 0a50 08be
00000130: 8e2a dc3d 09ad 153d f0a4 81bc 5c11 4bbe
00000140: e156 efbc b5f0 cbbc add0 05be e6a8 603b
00000150: 4e8a 703d ad99 073e 6a96 5c3d 3887 a2bc
00000160: 96f6 5d3d b165 273c d491 b1bd b0e0 57bb
00000170: 7cfa 4c3d 033a 963d ecf9 42bd c6a8 29bd
00000180: 4342 7dbc 6423 803d a95d 303d 9f27 33bd
00000190: aa81 ecbc baa2 9abd e248 b8bd 50a3 2cbd
000001a0: cbe6 1d3d 41d6 3b3d 804f d13b f6d7 12be
000001b0: 82dd c0bd 5705 d53d 298f 6d3c 3445 733d
000001c0: d95e c33c e329 2ebb 92c6 31bc 62ec 1dbe
000001d0: e6a8 a6bc 3bf8 5e3c 3e9a 3fbd 8d56 1ebd
000001e0: 395f 17be 35b9 0b3d 7fdc 06be fc75 923d
000001f0: 64a4 553d bb66 03be 624c a8bc 379c ecbd
00000200: 4625 0dbe eede 3a3d 178c 0e3d 91c1 d53b
00000210: e65a 433d f975 babd 4153 c6bd c079 80bd
00000220: b794 5dbd 17fe 78bd 5679 943a 1b01 253d
00000230: 93c4 eb3d 4e04 923d a0b7 8e3d 4d6a a2bd
00000240: ed43 eb3d 03fd ad3c 86fc 5dbc 35c8 c83c
00000250: e04f a8bd d8dc c93d baf1 2dbc c07e 63bd
00000260: 90ee e83c 5977 ccbd 1492 9cbd ef0e 88bd
00000270: e0e8 54bd c32a cabd ee15 9f3d 4ed4 45bd
00000280: 4df1 7a3e 3654 32bd 3d07 0bbe 98d3 b33c
00000290: 1041 a83d c7c3 06bd 4bb1 433e 36fa 023c
000002a0: 64ab 783d b6fd 8a3c 936a 6c3d 5c31 40bd
000002b0: 7e3f 893b a759 79bc 6c3b c93d 97df 29be
000002c0: 0d77 a33d cb1d 123e 25db 243e 0a2d cbbc
000002d0: 72a5 ec3c e316 1d3e 697a 073b 3d03 ba3b
000002e0: 3ffe d13c 3fd8 0e3b e2fd 41be 7b72 a1bd
000002f0: 380b c0bd 0453 a73d c224 ef3d 2f66 213c
00000300: 44e1 6abe 8cf1 df3d c7a0 2dbe 219a 1a3e
00000310: 8f90 293c 050d c1bd f97a dfbd ddf3 843c
00000320: 43e9 c93d ca7a 73bb b95e 8f3d df63 26bd
00000330: 3059 463e d662 823e 9e51 143e 6b62 d63b
00000340: 8634 c5bc a25e 94bc c416 edbd 0673 f23c
00000350: 7764 de3d f89e 35bd 094f ffbd 1d22 043e
00000360: 6c26 a43c 7984 8abc 46a1 c5bd 217e b43d
00000370: 18c5 cb3d 8cf6 9bbd cb63 c83d fd41 75bd
00000380: 5710 223d cd88 e23d 9fa8 9fbb 6151 0e3b
00000390: 3583 db3d 26d1 22be 9856 873d d3d0 973d
000003a0: 86a0 d8bb f523 aa3c b100 41bd 78d1 42be
000003b0: 82ab 7aba 57e1 88bd 5248 d03c c4d6 2a3c
000003c0: 66df 40bc a343 1f3c 37ad 7abe 8386 48bd
000003d0: 2903 8d3d 3a96 a93d fd02 8bbd a824 dd3d
000003e0: ed38 77bd baf4 90bd 31d4 b43c 53f4 4e3e
000003f0: 137c 6ebc 42fd 00be 97d9 82bc 9046 523d

network_body._body_endoder.seq_layers.2.bias f4 [128]
-0.0021472573 0.0008396199 -0.0009592962 -0.0012647043 0.00022979641 0.0011376878 0.0005041009 -0.0013698465
-0.0008363861 0.0014481688 0.0013072406 0.00073969987 -0.0021384645 -0.0013696584 0.00020981871 -0.0018822034
-0.0011796189 -0.000567899 -0.0003664176 -0.0002858227 0.0011295131 0.0010222188 0.00032166622 -0.0018841723
-0.0017567998 0.00047350675 0.0020866292 0.00207893 0.00074493885 0.0009924512 -0.005948695 -0.0006252225
-0.0017019783 -0.001258316 -0.0018887097 -0.0015154515 0.00011626014 -0.00011435274 -0.0008847013 -0.0003741569
0.0009502219 -0.0007238753 -0.0011365302 0.00027821262 0.0002346017 0.00011797892 -0.0010275604 -0.0005932453
-1.4239561e-05 -0.0018631144 -0.00043972034 0.0010372438 -0.0033050762 -0.00032365034 0.00031791427 -0.001289116
-0.0024015731 -0.0015133992 -0.0023116046 0.00082467817 -0.0012682203 -0.0011544636 0.0007253822 -0.0010191874
0.0001653945 -0.0022585469 -0.0020040404 -0.0023216603 -0.0010285014 0.00011039891 0.0009387432 -0.0019522739
0.00023730187 0.0010100254 0.00018983847 -0.00034302604 -0.0001335152 -0.00038583984 0.001896817 -0.001542199
-0.00030005502 -0.0011713057 -0.0010269494 -0.0005735025 -0.002210275 -0.0007684722 -0.0015374296 -0.0005608138
-0.002447233 0.0009574111 0.00055730727 0.00025036492 -4.837185e-05 0.0004302881 5.0552324e-05 0.0004856722
0.0017218826 -0.0009526255 0.0006286928 -0.0017616269 -0.00054198306 -0.0011774487 -0.0012575657 -0.0020501248
-0.00069877505 -0.0010388914 0.0012706548 -0.0014583183 1.4958184e-06 -0.0021989455 -0.00012012419 -0.0015626615
-0.00012864516 -0.0011069577 -0.0014343755 0.00084262865 -0.0018946547 -0.00049276254 0.000261155 0.00073381444
-0.00038817857 0.000226252 -0.0006927768 0.0011725904 0.0010529775 -0.0010462856 -0.00016291463 0.0003281675
00000000: 00b9 0cbb f019 5c3a 4779 7bba 6fc4 a5ba
00000010: 81f5 7039 781e 953a a425 043a 6c8c b3ba
00000020: ec40 5bba 7bd0 bd3a b757 ab3a 6be8 413a
00000030: 7b25 0cbb 1c86 b3ba c802 5c39 44b4 f6ba
00000040: 719d 9aba 0fdf 14ba bd1b c0b9 79da 95b9
00000050: 2c0c 943a f9fb 853a 4fa5 a839 55f6 f6ba
00000060: 6b44 e6ba 0041 f839 d4bf 083b a83e 083b
00000070: 0048 433a 2315 823a 45ed c2bb f9e5 23ba
00000080: ea14 dfba 14ee a4ba 958e f7ba 1da2 c6ba
00000090: b0d0 f338 a9d0 efb8 4deb 67ba 7d2a c4b9
000000a0: 5018 793a 73c2 3dba a0f7 94ba 11dd 9139
000000b0: 6aff 7539 736b f738 35af 86ba 0584 1bba
000000c0: 73e6 6eb7 bf33 f4ba 448a e6b9 20f4 873a
000000d0: fa99 58bb 9daf a9b9 bbad a639 8ef7 a8ba
000000e0: b663 1dbb 405d c6ba 4a7e 17bb 372f 583a
000000f0: 693a a6ba 5f51 97ba 9327 3e3a 4196 85ba
00000100: bf6d 2d39 2104 14bb 3856 03bb ff26 18bb
00000110: c8ce 86ba f785 e738 fd15 763a 71e3 ffba
00000120: 3cd4 7839 d462 843a 600f 4739 2dd8 b3b9
00000130: 3700 0cb9 8c4a cab9 9e9e f83a 9d23 caba
00000140: b450 9db9 7f86 99ba b49a 86ba 1a57 16ba
00000150: 43da 10bb 4c73 49ba 9483 c9ba 9403 13ba
00000160: c261 20bb c5fa 7a3a 4218 123a 6943 8339
00000170: e1e2 4ab8 4b98 e139 2508 5438 d2a1 fe39
00000180: cbb0 e13a 9db9 79ba dcce 243a 64e6 e6ba
00000190: de13 0eba 9f54 9aba e7d4 a4ba 635b 06bb
000001a0: 002e 37ba 692b 88ba 1a8c a63a 0b25 bfba
000001b0: eec3 c835 2f1c 10bb 2feb fbb8 38d2 ccba
000001c0: ece4 06b9 5617 91ba a801 bcba dae3 5c3a
000001d0: 1056 f8ba bc2c 01ba a1eb 8839 745d 403a
000001e0: 7284 cbb9 0f3e 6d39 779b 35ba 9bb1 993a
000001f0: 1004 8a3a 8523 89ba 10d4 2ab9 e50d ac39

action_model._continuous_distribution.log_sigma f4 [1, 2]
-0.022943055 -0.05267733
00000000: 13f3 bbbc 2fc4 57bd

action_model._continuous_distribution.mu.weight f4 [2, 128]
0.0031124642 0.00011823539 -0.019842625 0.018583644 0.0019152176 0.023373231 0.01127514 -0.03404738
0.0012578598 -0.01568901 0.016076883 0.009160483 0.021149803 -0.018054781 -0.007888442 0.014849794
-0.03768793 -0.032880615 0.023193654 -0.011262221 -0.0043952446 -0.008046002 0.00080119754 0.0072389264
0.008807856 0.017016204 0.0012135366 -0.0032224976 0.0059560137 -0.0070829946 0.0009113425 -0.0023298708
0.0013622983 -0.021916803 0.012016414 -0.031101098 1.5947015e-05 0.01874338 -0.023514904 0.01586342
-0.01793457 0.014792615 -0.0086922245 -0.019433707 -0.0053629554 0.009632593 0.0037065458 -0.03241395
-0.0026634824 0.013388782 0.007788793 0.020177482 0.00042783734 0.000973847 -0.0052482425 0.027866418
0.0016155672 -0.012246167 0.0049968786 -0.0144575965 0.00753982 -0.022663288 -0.028146368 -0.009456079
0.021801557 -0.009253328 0.00023230669 0.008313363 -0.019574445 0.00031671196 0.0028193372 0.005400555
0.020996634 -0.0025157384 0.019000864 0.0040839934 0.043216053 0.0008615814 0.00020636927 -0.012617156
-0.024966445 0.0076453327 0.016628867 0.011586817 0.00011420132 -0.014495979 -0.00092271954 0.039985206
-0.001535934 0.0003710352 -0.013329501 0.02394374 -0.03146893 -0.004231769 0.0022926172 0.0321646
0.004442717 0.009681235 0.013379883 0.019111983 -0.007343288 -0.0062922756 0.052353267 -0.005495661
0.016170397 -0.023910258 0.018554935 -0.01112564 0.027809361 0.0023348555 -0.0071160933 -0.01390532
0.008074899 -0.021303691 0.0053953854 0.015779827 0.0069073495 -0.024810234 -0.009363882 0.002378656
-0.010394559 0.021669785 0.0063142376 0.0021919652 0.010260939 0.041961305 -0.023701556 0.011009288
0.0024714365 0.016179593 -0.0071960175 0.007158371 -0.020678887 0.011476176 0.012484941 -0.021293428
0.0050460063 -0.045478605 -0.0064680283 0.015544001 -0.032254282 0.009301338 -0.008625884 0.019672338
0.0024630642 0.008757594 0.0011684166 0.009298852 0.030779103 0.004609604 0.004304987 -0.0012309052
-0.005802897 0.0138578145 -0.0149716595 -0.0147407865 0.010848395 0.021292068 -0.00037457512 -0.0091150245
-0.003179414 -0.011288906 0.0075313887 -0.002879584 -6.739915e-05 0.009089134 0.015379856 -0.019008556
0.025401017 -0.006824546 0.0046092393 0.021408444 0.03515373 0.014175643 0.003637097 -0.0059182816
-0.023177708 -0.018013773 0.0049587223 0.03728249 -0.0026889716 0.0068415273 0.010757169 0.0074108364
-0.005400585 -0.009871231 0.021560933 0.018773418 0.0017645326 -0.012393839 0.025818719 0.012357112
-0.014778118 0.010787078 -0.009983204 0.0129882535 0.028911768 0.0074127107 0.02027255 -0.008708889
-0.0057794503 0.022978943 0.010054079 0.00068094576 0.0048296987 0.005231741 0.0003871673 -0.011515966
0.005768334 0.00027914994 -0.0023203248 0.0023673824 -0.00978101 8.3923725e-05 -0.03675706 -0.009312849
0.01255233 0.022503497 -0.008215889 0.040247202 0.0073136305 0.00883162 0.009786799 -0.02127907
-0.014055534 0.000101280995 0.01506989 -0.016498446 0.025201261 0.0019153552 0.006987608 0.00015745721
-0.0071045836 -0.012756071 -0.008988673 -0.053290088 0.021008713 0.0002522187 -0.024025986 0.008035742
0.008196113 -0.005378142 0.0016654269 0.022663338 0.0109165665 0.0106007345 -0.025742782 0.013728505
-0.036741283 0.011024384 -0.008774579 0.037668925 0.028593784 -0.008593689 -0.027281994 0.010533318
00000000: 7cfa 4b3b 24f5 f738 008d a2bc ba3c 983c
00000010: 0a08 fb3a 3879 bf3c 5dbb 383c 4475 0bbd
00000020: c5de a43a 3d86 80bc abb3 833c da15 163c
00000030: 5a42 ad3c 9fe7 93bc 863e 01bc 8d4c 733c
00000040: a95e 1abd d3ad 06bd 9e00 be3c 2e85 38bc
00000050: fc05 90bb 61d3 03bc 7507 523a 8434 ed3b
00000060: d34e 103c 9165 8b3c 880f 9f3a 8a30 53bb
00000070: aa2a c33b 7718 e8bb 29e7 6e3a bfb0 18bb
00000080: 258f b23a de8a b3bc 7ee0 443c bbc7 febc
00000090: f4c5 8537 b88b 993c 54a2 c0bc 01f4 813c
000000a0: 85eb 92bc b95c 723c d569 0ebc 7033 9fbc
000000b0: bbbb afbb 06d2 1d3c 85e9 723b 7dc4 04bd
000000c0: d28d 2ebb 9f5c 5b3c 2239 ff3b 3f4b a53c
000000d0: 5b4f e039 c449 7f3a 73f9 abbb 1d48 e43c
000000e0: 71c1 d33a 26a4 48bc dbbc a33b 8edf 6cbc
000000f0: 9810 f73b 5ca8 b9bc 3693 e6bc aced 1abc
00000100: 2e99 b23c 459b 17bc 5a97 7339 c634 083c
00000110: 965a a0bc 5c0c a639 a1c4 383b 24f7 b03b
00000120: 2201 ac3c 16df 24bb b3a7 9b3c 05d3 853b
00000130: 5103 313d c0db 613a d464 5839 30b8 4ebc
00000140: 6e86 ccbc b385 fa3b 4339 883c a2d6 3d3c
00000150: 5e7f ef38 8b80 6dbc a9e2 71ba 87c7 233d
00000160: 6551 c9ba 8087 c239 fb63 5abc aa25 c43c
00000170: 91e5 00bd a7aa 8abb bc3f 163b 07bf 033d
00000180: 3694 913b 0b9e 1e3c 4c37 5b3c bc90 9c3c
00000190: f79f f0bb 6f2f cebb 6170 563d f214 b4bb
000001a0: c877 843c 72df c3bc 8500 983c 5148 36bc
000001b0: 75d0 e33c 6004 193b 1e2e e9bb 24d3 63bc
000001c0: 954c 043c 1485 aebc c6cb b03b b244 813c
000001d0: 0c57 e23b d53e cbbc f86a 19bc 3ae3 1b3b
000001e0: f14d 2abc d584 b13c aae7 ce3b 13a7 0f3b
000001f0: 7f1d 283c 9edf 2b3d c429 c2bc 4d60 343c
00000200: d3f7 213b 118b 843c 92cc ebbb c590 ea3b
00000210: c566 a9bc 9206 3c3c a38d 4c3c 8e6f aebc
00000220: f858 a53b c647 3abd c1f1 d3bb 44ac 7e3c
00000230: 111d 04bd a464 183c 9453 0dbc e227 a13c
00000240: 5c6b 213b 037c 0f3c 8e25 993a 365a 183c
00000250: 7524 fc3c 290c 973b d910 8d3b 5356 a1ba
00000260: 3a26 bebb e30b 633c b14b 75bc 5783 71bc
00000270: 77bd 313c b46c ae3c 9f62 c4b9 2f57 15bc
00000280: b75d 50bb 1bf5 38bc dec9 f63b 67b7 3cbb
00000290: a558 8db8 97ea 143c cbfb 7b3c d5b7 9bbc
000002a0: cb15 d03c 71a0 dfbb 1a09 973b c360 af3c
000002b0: 5cfd 0f3d f540 683c 5d5c 6e3b 25ee c1bb
000002c0: 2ddf bdbc 9f91 93bc c77c a23b 86b5 183d
000002d0: 7539 30bb e42e e03b d63e 303c 9ad6 f23b
000002e0: 64f7 b0bb f2ba 21bc 8ea0 b03c b6ca 993c
000002f0: e447 e73a 870f 4bbc c781 d33c 7c75 4a3c
00000300: eb1f 72bc 49bc 303c 9890 23bc afcc 543c
00000310: 5fd8 ec3c 53e6 f23b 9e12 a63c baaf 0ebc
00000320: 8b61 bdbb 563e bc3c ddb9 243c 7f81 323a
00000330: 7342 9e3b 066f ab3b b7fc ca39 76ad 3cbc
00000340: 4b04 bd3b df5a 9239 9710 18bb 1626 1b3b
00000350: 8840 20bc 3500 b038 928e 16bd eb94 18bc
00000360: 4aa8 4d3c 4159 b83c f09b 06bc 40da 243d
00000370: 2ea7 ef3b 80b2 103c cf58 203c 7251 aebc
00000380: 2f49 66bc d266 d438 b3e7 763c c027 87bc
00000390: e072 ce3c a80c fb3a 4ef8 e43b 191b 2539
000003a0: 91cd e8bb d7fe 50bc 3a45 13bc b546 5abd
000003b0: 771a ac3c 393c 8439 25d2 c4bc 58a8 033c
000003c0: fd48 063c 203b b0bb 744a da3a 77a8 b93c
000003d0: 66db 323c b4ae 2d3c 87e2 d2bc 86ed 603c
000003e0: 077e 16bd 9e9f 343c 40c3 0fbc bb4a 1a3d
000003f0: 833d ea3c 8bcc 0cbc 7d7e dfbc f093 2c3c

action_model._continuous_distribution.mu.bias f4 [2]
2.025413e-05 0.0013670975
00000000: 6ae7 a937 2e30 b33a

action_model._discrete_distribution.branches.0.weight f4 [1, 128]
0.0130901635 -0.019048251 0.0120473085 -0.006879279 0.00028189115 -0.0066971206 0.009713603 0.0071332264
-0.006052806 -0.01047867 0.003226269 0.005227155 0.0137017565 0.0048430786 0.014170976 0.0020425066
0.0082683405 0.0076704407 -0.009491282 -0.008878663 0.014292331 0.010270006 0.009287068 0.0029769836
-0.0054794084 -0.021305902 -0.005348382 -0.018498154 -0.0061840555 0.021755299 -0.00062932697 0.009398407
-0.016586492 -0.0062411255 -0.0054243677 0.0049286266 -0.00074411725 0.0048383195 -0.0075838203 0.010891783
-0.01485025 -0.005596135 0.010759349 -0.012329738 0.0030102087 0.0018920439 -0.0104057975 0.0071159364
0.006939692 -0.002498068 -0.0042835134 -0.0013501892 -0.0027242263 -0.0024014357 0.0038872517 -0.0060941894
0.009435149 -0.0082799485 0.009034353 -0.0070448234 0.0065849833 0.007800627 0.010742695 0.0078099333
-0.020489424 -0.0032955718 0.0059476127 0.0014569978 0.0025553675 -0.008483552 -0.01118655 -0.011017464
0.011997326 0.012435633 0.010695596 0.016332699 -0.0042265346 -0.012184358 0.014480903 -0.0057904846
0.00912108 -0.008951575 0.003993261 -0.0005555916 -0.009178495 0.017200617 -0.004570485 0.011433147
0.00014721138 0.0056718476 0.016168809 0.007549944 0.008035901 0.010727998 -0.01069869 -0.0070741884
-0.0032528178 0.004043726 0.0012253934 -0.010197933 0.013778907 -0.013414378 0.003917657 0.008574723
0.012136466 -0.008288718 -0.0028800997 -0.0050063315 -0.0107228 -0.006319456 -0.0058406517 -0.007714499
-0.005072907 0.0071687545 -0.003356763 0.004198989 0.009006991 -0.0015439511 0.0003376038 0.00079616
0.010087242 0.016769035 0.009970349 0.0067979717 0.0047284174 -0.00097106164 0.003906434 -0.002677815
00000000: 2078 563c 140b 9cbc 1362 453c 936b e1bb
00000010: caca 9339 8573 dbbb ce25 1f3c d7bd e93b
00000020: 9e56 c6bb baae 2bbc d06f 533b 8e48 ab3b
00000030: 557d 603c b0b2 9e3b 622d 683c 93db 053b
00000040: ef77 073c 5258 fb3b 5281 1bbc d077 11bc
00000050: 622a 6a3c 8743 283c c928 183c 7f19 433b
00000060: 9c8c b3bb b789 aebc 7b41 afbb 7189 97bc
00000070: 9ea3 cabb 2b38 b23c 6bf9 24ba c7fb 193c
00000080: 65e0 87bc 5b82 ccbb e5be b1bb 5180 a13b
00000090: dd10 43ba c48a 9e3b b281 f8bb 7373 323c
000000a0: 774e 73bc c85f b7bb fb47 303c ab02 4abc
000000b0: ec46 453b 75fe f73a 147d 2abc cd2c e93b
000000c0: 5b66 e33b a0b6 23bb b75c 8cbb d5f8 b0ba
000000d0: ef88 32bb 6861 1dbb 43c1 7e3b c4b1 c7bb
000000e0: e295 1a3c 9fa8 07bc d304 143c 43d8 e6bb
000000f0: d8c6 d73b 679c ff3b 2102 303c 78ea ff3b
00000100: 70d9 a7bc 85fa 57bb 31e4 c23b bcf8 be3a
00000110: f477 273b 99fe 0abc cb47 37bc 9882 34bc
00000120: 6f90 443c d3be 4b3c 953c 2f3c 27cc 853c
00000130: be7e 8abb e7a0 47bc 4f41 6d3c 1bbe bdbb
00000140: 9570 153c a0a9 12bc e7d9 823b 1fa5 11ba
00000150: 6661 16bc 4fe8 8c3c 02c4 95bb 1852 3b3c
00000160: c15c 1a39 e8da b93b 7374 843c 8565 f73b
00000170: 03a9 033c 7cc4 2f3c 8f49 2fbc 98ce e7bb
00000180: 3a2d 55bb 3b81 843b 619d a03a 3b15 27bc
00000190: edc0 613c fbc7 5bbc b05f 803b ff7c 0c3c
000001a0: 07d8 463c 67cd 07bc 0ec0 3cbb 270c a4bb
000001b0: afae 2fbc 7013 cfbb f062 bfbb e8c9 fcbb
000001c0: a13a a6bb dfe7 ea3b 23fd 5bbb ac97 893b
000001d0: 0f92 133c 675e caba 6a00 b139 65b5 503a
000001e0: f644 253c 375f 893c ad5a 233c 85c1 de3b
000001f0: d7f0 9a3b d88e 7eba 8b01 803b 487e 2fbb

exp_avg f4 [128, 1]
-5.8851772e-05 -0.00037431496 -0.00020553908 7.5064872e-06 -5.2925327e-07 -0.0002932817 -3.7466823e-05 7.14221e-05
9.0227995e-06 -0.00043545474 6.2415315e-06 -1.435992e-05 -0.0003650774 1.1977995e-05 -0.00050821784 -5.4713055e-06
-3.6039004e-05 -0.00020265531 -7.3618976e-06 1.3020161e-06 -9.714298e-06 -0.00014522222 -9.550486e-05 2.9776443e-06
0.00015265528 0.00015165548 4.1706917e-06 0.0007298259 4.1071253e-05 0.0003431682 -0.0004074956 8.006129e-06
4.032815e-05 -0.0001322915 -0.00056981784 -0.00023169848 -0.0009711348 0.00025176982 0.0008431379 1.7632248e-05
0.0002461545 8.373659e-06 5.7500132e-05 -1.0204792e-06 8.302556e-05 3.3856984e-05 0.0002649255 -7.1415394e-05
0.00012660482 -0.00016382663 -4.2278185e-05 1.2376082e-06 0.00046993926 0.00017254468 -0.00018724214 -0.00025846026
-0.0003161141 1.5723707e-06 -0.0001011385 -4.810105e-05 -0.00032722755 7.80711e-06 -2.2799682e-06 -1.5997883e-05
-6.2262545e-05 -0.0003933765 -8.035526e-07 5.3447224e-05 0.000285384 1.2751729e-05 -2.8551458e-06 0.00033506128
-0.0008704354 -3.24555e-05 2.0833219e-05 -9.883178e-07 -0.00012867695 -0.00045160495 -2.5188358e-05 -0.00040224852
-0.00040844525 -4.6653742e-05 0.00013530477 -0.00019521698 0.00011351445 1.9993528e-05 0.00032727013 -0.0009656092
0.0009118211 -0.0001029806 1.4809344e-05 -4.1672403e-05 -3.0894185e-05 3.7291462e-05 -0.00033902097 0.000114414295
4.694434e-06 -1.2256066e-06 -0.00013704665 0.00032722022 -0.00026667182 4.491337e-08 1.299209e-05 -6.3067164e-06
0.0003221116 5.3737534e-07 -3.996509e-05 -1.0542736e-05 -0.00065244886 0.00040467308 0.0004084691 -1.0225482e-06
-1.6822029e-05 0.00010877182 5.5615285e-05 -1.5053556e-05 7.836084e-06 -3.349634e-05 0.000112844995 9.5622374e-05
-6.337251e-05 -2.401879e-06 4.1636076e-06 -7.800131e-05 0.00016850988 -3.8021066e-05 -0.00024247271 -0.0001746946
00000000: 9cd7 76b8 b43f c4b9 fa85 57b9 3ce0 fb36
00000010: 0212 0eb5 9ac3 99b9 b225 1db8 73c8 9538
00000020: a160 1737 bf4d e4b9 596e d136 63eb 70b7
00000030: dc67 bfb9 19f5 4837 ec39 05ba 2896 b7b6
00000040: 9628 17b8 df7f 54b9 3806 f7b6 efc0 ae35
00000050: 98fa 22b7 cb46 18b9 c849 c8b8 8ad3 4736
00000060: 1712 2039 b505 1f39 f8f1 8b36 c951 3f3a
00000070: ec43 2c38 42eb b339 22a5 d5b9 1052 0637
00000080: 0526 2938 bbb7 0ab9 d45f 15ba 16f4 72b9
00000090: c193 7eba f9ff 8339 0706 5d3a f7e8 9337
000000a0: 4c0e 8139 977c 0c37 4c2c 7138 66f7 88b5
000000b0: 021e ae38 a901 0e38 b3e5 8a39 d9c4 95b8
000000c0: 39c1 0439 e0c8 2bb9 db53 31b8 e51b a635
000000d0: 2e62 f639 1ced 3439 6e56 44b9 f381 87b9
000000e0: 1ebc a5b9 3f0a d335 521a d4b8 1cc0 49b8
000000f0: bd8f abb9 48fb 0237 8e01 19b6 3133 86b7
00000100: f392 82b8 1a3e ceb9 b7b3 57b5 852c 6038
00000110: 989f 9539 42f0 5537 089b 3fb6 2aab af39
00000120: ee2d 64ba d420 08b8 ffc2 ae37 57a6 84b5
00000130: 75ed 06b9 64c5 ecb9 964b d3b7 e2e4 d2b9
00000140: 9824 d6b9 13ae 43b8 99e0 0d39 29b3 4cb9
00000150: 9b0e ee38 c6b7 a737 7495 ab39 f020 7dba
00000160: 4707 6f3a 4af7 d7b8 a675 7837 67c9 2eb8
00000170: 6194 01b8 6769 1c38 a0be b1b9 b5f1 ef38
00000180: e284 9d36 867f a4b5 2eb4 0fb9 c18e ab39
00000190: 16d0 8bb9 c6e6 4033 9af8 5937 489e d3b6
000001a0: 16e1 a839 2740 1035 30a0 27b8 b5e0 30b7
000001b0: 1a09 2bba 4d2a d439 cb27 d639 7d3e 89b5
000001c0: 081d 8db7 6d1c e438 7544 6938 888e 7cb7
000001d0: b977 0337 6c7e 0cb8 32a7 ec38 df88 c838
000001e0: dbe6 84b8 f82f 21b6 1eb5 8b36 a294 a3b8
000001f0: 07b2 3039 cf78 1fb8 4640 7eb9 3a2e 37b9

exp_avg_sq f4 [128, 1]
1.2597973e-08 5.606046e-07 2.87906e-07 3.0178964e-09 1.9220138e-12 1.546584e-06 1.0332169e-08 1.03962066e-07
7.1967268e-09 6.3507264e-07 9.366423e-10 7.797368e-09 3.3612082e-06 7.0966294e-10 9.040068e-07 8.0865764e-10
4.8635137e-08 1.6760576e-07 5.9982497e-10 3.586783e-10 3.4909123e-10 1.1782698e-06 2.2986167e-07 1.9483695e-10
8.4674724e-08 7.259454e-08 1.5601415e-10 1.7893655e-06 6.4799037e-09 4.8804935e-07 1.4038521e-06 1.1542452e-08
8.199398e-09 2.051198e-07 1.3587087e-06 8.391027e-07 5.1779007e-06 3.794674e-07 2.5461716e-06 3.9218717e-09
2.3315263e-07 2.9480904e-09 1.1274258e-08 9.832811e-12 2.5119496e-08 3.8669157e-09 2.3467852e-07 2.3596084e-07
2.2914018e-07 5.34586e-07 1.3631146e-07 1.9386286e-11 6.918557e-07 1.3489618e-07 1.333269e-07 2.3209849e-07
2.168968e-06 6.519959e-11 1.1080042e-07 1.6423227e-08 1.0358951e-06 6.6800415e-10 2.5286412e-11 9.543157e-10
1.2835004e-08 6.154182e-07 1.127424e-11 2.6299784e-07 5.9557146e-07 1.2885429e-09 5.93605e-11 3.3457783e-07
2.5148609e-06 9.890349e-09 6.8386803e-09 4.0977235e-12 6.372978e-08 9.29335e-07 3.320107e-09 5.118279e-07
3.0149365e-06 2.9868283e-07 1.877289e-07 7.32481e-07 6.7563093e-07 2.041595e-09 3.8946595e-07 2.8917664e-06
2.5925865e-06 4.284401e-08 1.8130588e-09 5.510837e-09 6.594797e-07 5.15341e-09 1.0026749e-06 1.29645e-06
3.5216238e-10 1.3163197e-11 6.603035e-08 3.7164963e-07 1.1373372e-06 6.8083843e-15 1.5258282e-09 1.0563236e-10
1.442516e-06 1.7102155e-12 6.2058403e-09 1.9268802e-09 1.2498043e-06 6.1436e-07 4.8769033e-07 4.774707e-12
1.8827613e-07 2.7224593e-07 6.640925e-07 1.513008e-09 6.610514e-10 5.651452e-09 4.3678367e-07 3.1797614e-07
2.2404339e-07 2.4631927e-11 3.9822777e-11 4.081233e-08 9.5152025e-08 4.4453263e-09 2.3257701e-07 1.0277201e-07
00000000: 796e 5832 747c 1635 8091 9a34 6563 4f31
00000010: ec3f 072c 3994 cf35 5c81 3132 c041 df33
00000020: 1447 f731 dc79 2a35 2cbb 8030 30f5 0532
00000030: 1e91 6136 1712 4330 e0aa 7235 3948 5e30
00000040: e6e2 5033 1ff7 3334 eee0 2430 7c2f c52f
00000050: 39ea bf2f 0b25 9e35 e5cf 7634 ba39 562f
00000060: 6cd6 b533 45e5 9b33 148a 2b2f 212a f035
00000070: d6a5 de31 7f02 0335 fe6b bc35 3e4c 4632
00000080: 55dd 0c32 e73e 5c34 e05c b635 b33e 6135
00000090: d4bd ad36 9ab9 cb34 e5de 2a36 26c1 8631
000000a0: 8258 7a34 5b97 4a31 b6b0 4132 0bfb 2c2d
000000b0: 5bc6 d732 c0dd 8431 f1fb 7b34 6c5c 7d34
000000c0: 9309 7634 7880 0f35 025d 1234 0986 aa2d
000000d0: f6b7 3935 fbd7 1034 9f28 0f34 bf36 7934
000000e0: 968e 1136 1b60 8f2e 2df1 ed33 0f13 8d32
000000f0: 1609 8b35 9d9e 3730 f06b de2d 0029 8330
00000100: f280 5c32 3733 2535 aa56 462d 2632 8d34
00000110: 5cdf 1f35 9318 b130 fe88 822e 07a0 b334
00000120: fbc4 2836 37ea 2932 abf9 ea31 032d 902c
00000130: d1db 8833 6a77 7935 f127 6431 8c64 0935
00000140: 3754 4a36 a85a a034 8792 4934 b69f 4435
00000150: 015d 3535 1e4c 0c31 cb17 d134 2b10 4236
00000160: 4cfc 2d36 7d03 3833 562f f930 d659 bd31
00000170: 1a07 3135 e011 b131 a693 8635 af01 ae35
00000180: 739a c12f c591 672d 92cc 8d33 2387 c734
00000190: 9ca6 9835 434c f527 4fb5 d130 bb49 e82e
000001a0: 799c c135 02b1 f02b 263b d531 096a 0431
000001b0: f3be a735 7fea 2435 d3e9 0235 bdfe a72c
000001c0: f328 4a34 3229 9234 1744 3235 3df2 cf30
000001d0: 5bb5 3530 b32e c231 177f ea34 4fb6 aa34
000001e0: 9490 7034 2baa d82d 7624 2f2e a249 2f33
000001f0: 6156 cc33 81bd 9831 48ba 7934 83b3 dc33

exp_avg f4 [128]
-1.1770354e-05 -7.486299e-05 -4.110782e-05 1.5012972e-06 -1.0585064e-07 -5.865632e-05 -7.4933655e-06 1.4284424e-05
1.8045597e-06 -8.709094e-05 1.2483063e-06 -2.8719833e-06 -7.301548e-05 2.3955984e-06 -0.000101643585 -1.0942614e-06
-7.2077996e-06 -4.053106e-05 -1.4723798e-06 2.604032e-07 -1.94286e-06 -2.9044448e-05 -1.9100968e-05 5.955286e-07
3.0531057e-05 3.0331094e-05 8.341383e-07 0.0001459652 8.214251e-06 6.863365e-05 -8.149912e-05 1.6012249e-06
8.06563e-06 -2.6458296e-05 -0.000113963586 -4.6339697e-05 -0.00019422694 5.0353967e-05 0.00016862758 3.526449e-06
4.92309e-05 1.6747314e-06 1.1500027e-05 -2.0409587e-07 1.6605112e-05 6.771397e-06 5.2985106e-05 -1.4283081e-05
2.5320966e-05 -3.2765318e-05 -8.455646e-06 2.475216e-07 9.3987845e-05 3.4508943e-05 -3.7448423e-05 -5.169205e-05
-6.322283e-05 3.1447433e-07 -2.0227704e-05 -9.620209e-06 -6.544551e-05 1.5614222e-06 -4.559937e-07 -3.199577e-06
-1.2452509e-05 -7.86753e-05 -1.6071053e-07 1.0689441e-05 5.70768e-05 2.5503452e-06 -5.710292e-07 6.7012246e-05
-0.00017408705 -6.4910996e-06 4.1666444e-06 -1.9766357e-07 -2.5735395e-05 -9.0320966e-05 -5.03767e-06 -8.0449696e-05
-8.168903e-05 -9.330756e-06 2.706094e-05 -3.904339e-05 2.2702887e-05 3.9987067e-06 6.545403e-05 -0.00019312186
0.00018236425 -2.0596117e-05 2.9618689e-06 -8.33448e-06 -6.1788396e-06 7.4582927e-06 -6.7804205e-05 2.2882863e-05
9.3888684e-07 -2.451213e-07 -2.7409338e-05 6.5444045e-05 -5.333437e-05 8.982674e-09 2.5984182e-06 -1.2613434e-06
6.442234e-05 1.0747507e-07 -7.993019e-06 -2.1085468e-06 -0.00013048975 8.093462e-05 8.1693805e-05 -2.0450963e-07
-3.3644064e-06 2.175437e-05 1.112305e-05 -3.0107112e-06 1.5672167e-06 -6.699267e-06 2.2568998e-05 1.9124482e-05
-1.2674497e-05 -4.803758e-07 8.3272147e-07 -1.5600262e-05 3.370198e-05 -7.604214e-06 -4.8494534e-05 -3.4938927e-05
00000000: 4979 45b7 c3ff 9cb8 306b 2cb8 2e80 c935
00000010: 0150 e3b3 be05 76b8 856f fbb6 22a7 6f37
00000020: 3334 f235 98a4 b6b8 7a8b a735 4cbc 40b6
00000030: e31f 99b8 11c4 2036 7c29 d5b8 89de 92b5
00000040: 87da f1b6 e5ff 29b8 969e c5b5 8bcd 8b34
00000050: 1562 02b6 7aa4 f3b7 043b a0b7 6adc 1f35
00000060: 790e 0038 876f fe37 8ce9 5f35 3c0e 1939
00000070: f0cf 0937 69ef 8f38 82ea aab8 abe9 d635
00000080: 9e51 0737 c2f2 ddb7 bcff eeb8 df5c 42b8
00000090: 66a9 4bb9 2933 5338 9fd1 3039 efa7 6c36
000000a0: 477d 4e38 55c7 e035 3df0 4037 7225 5bb4
000000b0: 354b 8b37 db35 e336 533c 5e38 5ea1 6fb7
000000c0: 5c68 d437 7e6d 09b8 b9dc 0db7 1ce3 8434
000000d0: 571b c538 b2bd 1038 f011 1db8 ebcf 58b8
000000e0: 8096 84b8 06d5 a834 aaae a9b7 7c66 21b7
000000f0: ca3f 89b8 0f92 d135 4ccf f4b4 50b8 56b6
00000100: 1eeb 50b7 7bfe a4b8 c68f 2cb4 cd56 3337
00000110: bf65 6f38 9926 2b36 d448 19b5 ed88 8c38
00000120: 238b 36b9 1fce d9b6 34cf 8b36 593d 54b4
00000130: 57e2 d7b7 b36a bdb8 4109 a9b6 1ab7 a8b8
00000140: 7750 abb8 4b8b 1cb7 ed00 e337 85c2 23b8
00000150: 1472 be37 a12c 8636 5d44 8938 c180 4ab9
00000160: 0839 3f39 d3c5 acb7 85c4 4636 52d4 0bb7
00000170: d453 cfb6 3f42 fa36 1b32 8eb8 93f4 bf37
00000180: d007 7c35 3799 83b4 1bed e5b7 013f 8938
00000190: 58b3 5fb8 3852 1a32 7c60 2e36 6e4b a9b5
000001a0: 7b1a 8738 0bcd e633 c119 06b7 8f80 0db6
000001b0: 13d4 08b9 71bb a938 0753 ab38 2e97 5bb4
000001c0: 10c8 61b6 277d b637 239d 3a37 a00b 4ab6
000001d0: 2859 d235 44ca e0b6 8e52 bd37 836d a037
000001e0: 8da4 54b7 2cf3 00b5 2f88 5f35 4fdd 82b7
000001f0: 3a5b 0d38 b327 ffb6 9c66 4bb8 638b 12b8

exp_avg_sq f4 [128]
5.0391896e-10 2.2424205e-08 1.1516237e-08 1.2071592e-10 7.688047e-14 6.1863346e-08 4.1328654e-10 4.158483e-09
2.8786912e-10 2.54029e-08 3.7465718e-11 3.1189473e-10 1.3444827e-07 2.8386493e-11 3.6160277e-08 3.2346324e-11
1.9454045e-09 6.704226e-09 2.3993004e-11 1.4347131e-11 1.3963648e-11 4.713078e-08 9.194468e-09 7.793482e-12
3.3869871e-09 2.9037817e-09 6.2405628e-12 7.1574604e-08 2.5919616e-10 1.9521968e-08 5.615408e-08 4.6169824e-10
3.2797584e-10 8.204795e-09 5.4348344e-08 3.3564085e-08 2.071161e-07 1.5178689e-08 1.01846915e-07 1.5687487e-10
9.326102e-09 1.1792362e-10 4.509705e-10 3.9331266e-13 1.0047796e-09 1.546766e-10 9.387141e-09 9.438429e-09
9.165608e-09 2.1383437e-08 5.452457e-09 7.7545116e-13 2.767423e-08 5.395851e-09 5.333073e-09 9.283938e-09
8.6758725e-08 2.6079852e-12 4.4320165e-09 6.569293e-10 4.14358e-08 2.6720175e-11 1.0114559e-12 3.8172653e-11
5.133998e-10 2.4616725e-08 4.5096934e-13 1.05199165e-08 2.3822846e-08 5.1541715e-11 2.3744212e-12 1.338312e-08
1.0059447e-07 3.9561407e-10 2.7354718e-10 1.6390907e-13 2.54919e-09 3.7173404e-08 1.3280428e-10 2.0473115e-08
1.2059742e-07 1.19473125e-08 7.509159e-09 2.9299246e-08 2.702523e-08 8.1663794e-11 1.5578644e-08 1.1567063e-07
1.037035e-07 1.7137619e-09 7.252239e-11 2.2043345e-10 2.6379196e-08 2.0613629e-10 4.0107007e-08 5.1857977e-08
1.408649e-11 5.265281e-13 2.641216e-09 1.4865987e-08 4.5493522e-08 2.7233544e-16 6.103315e-11 4.2252933e-12
5.7700642e-08 6.840866e-14 2.4823357e-10 7.7075214e-11 4.999218e-08 2.4574401e-08 1.9507596e-08 1.9098832e-13
7.53105e-09 1.0889842e-08 2.6563706e-08 6.052035e-11 2.6442067e-11 2.2605806e-10 1.747134e-08 1.27190365e-08
8.961736e-09 9.852773e-13 1.592911e-12 1.6324933e-09 3.8060777e-09 1.7781304e-10 9.303083e-09 4.1108783e-09
00000000: 2584 0a30 599f c032 f2d8 4532 83ba 042f
00000010: 931e ad29 bcd9 8433 e934 e32f 67e2 8e31
00000020: fa41 9e2f 9135 da32 a6c6 242e 4877 ab2f
00000030: dc5c 1034 b3b0 f92d a54e 1b33 b942 0e2e
00000040: ebaf 0531 ff5a e631 710b d32d bc65 7c2d
00000050: aea6 752d d76c 4a33 b3f5 1d32 b91a 092d
00000060: 82c0 6831 de8b 4731 fe91 db2c 8eb4 9933
00000070: 9e7e 8e2f 43b1 a732 102e 7133 40d2 fd2f
00000080: 7f4e b42f 12f5 0c32 a36c 6933 1a28 1033
00000090: a463 5e34 4a62 8232 efb6 da33 5a7c 2c2f
000000a0: a138 2032 8ca8 012f 75ec f72f 546a dd2a
000000b0: 8a18 8a30 9811 2a2f 1545 2132 a626 2232
000000c0: c576 1d32 adae b732 5258 bb31 2545 5a2b
000000d0: 46b8 ed32 6866 b931 353e b731 317f 1f32
000000e0: 1d50 ba33 4985 372c 6e48 9831 4a93 3430
000000f0: 25f7 3133 7c08 eb2d 8a59 8e2b 96e2 272e
00000100: 4d1f 0d30 c074 d332 88df fd2a 15bb 3432
00000110: fea2 cc32 d0ae 622e c515 272c 96eb 6532
00000120: 6506 d833 bb7d d92f 5862 962f 938b 382a
00000130: d32d 2f31 97a8 1f33 1505 122f dbdc af32
00000140: 917d 0134 d640 4d32 a101 0132 b9ad fb32
00000150: 1c25 e832 a194 b32e cdd1 8532 9a66 f833
00000160: 9ab3 de33 a389 eb30 7a7a 9f2e 805e 722f
00000170: 7798 e232 35a6 622f 1f42 2c33 73ba 5e33
00000180: e9cf 772d 5934 142b c380 3531 4d65 7f32
00000190: a864 4333 9efd 9c25 9c36 862e 0faa 942c
000001a0: 87d2 7733 e80a 9a29 c577 882f 7d7d a92e
000001b0: fcb6 5633 ae17 d332 a891 a732 a308 572a
000001c0: e861 0132 0816 3b32 352e e432 ee15 852e
000001d0: 3e96 e82d b08d 782f e213 9632 ea82 5a32
000001e0: 22f6 1932 5baa 8a2b ab2e e02b 405e e030
000001f0: 9dc6 8231 ec81 432f 64d3 1f32 ab3f 8d31

exp_avg f4 [128, 128]
-4.0247718e-07 1.5668664e-05 3.929965e-05 -5.669172e-07 -1.8941321e-08 4.9076316e-06 -5.085885e-07 -1.3921043e-07
-5.959958e-07 4.867439e-06 -5.9511486e-08 -6.172125e-07 1.1101866e-05 -6.195523e-08 1.7747292e-05 -1.2573561e-07
-1.9425235e-07 7.119907e-06 -5.861145e-08 -1.2868809e-07 -1.6570372e-07 1.9691866e-05 2.0004748e-06 -3.6901923e-07
1.3175862e-05 9.657909e-06 -6.865629e-07 3.0890562e-06 -5.746434e-07 1.0437254e-05 1.8375897e-05 -3.635778e-07
-3.4420512e-07 -3.1973963e-07 3.022181e-05 1.0356412e-05 1.1608055e-05 6.882048e-07 2.338711e-06 -2.1461136e-07
1.5954845e-05 -6.6751375e-07 1.0516529e-05 -6.0344436e-09 -6.047651e-07 -3.020549e-07 1.489447e-07 5.8045503e-06
6.9571847e-06 1.4816976e-05 3.6271172e-06 -2.8007586e-08 9.494553e-06 8.8786755e-06 1.9866022e-05 6.716641e-06
4.418662e-06 -6.855907e-07 -4.0096816e-07 -5.017048e-07 1.1857766e-05 -2.6962226e-07 -2.6761258e-08 -6.3484106e-07
-4.307439e-07 1.3652209e-05 -6.868004e-07 1.04857845e-05 2.992745e-06 -1.2393437e-07 -3.7180573e-08 1.6283397e-05
2.7860278e-06 1.5731954e-05 -6.719723e-07 -7.996336e-09 1.3654846e-05 8.587871e-06 -5.532814e-07 2.5642994e-05
8.562273e-06 4.0692503e-06 4.8722395e-06 1.0958437e-05 8.896709e-06 -1.066627e-07 1.8100427e-05 7.426406e-06
1.8851611e-05 -5.121534e-07 -2.7397098e-07 -2.195334e-07 1.8748322e-05 -1.4431126e-07 1.8296836e-05 7.3435385e-06
-5.9314406e-08 -1.7441586e-08 1.1936823e-05 1.8590395e-05 6.440412e-06 -9.705061e-10 -1.5591282e-07 -6.7684346e-07
8.85947e-06 -6.7535595e-09 -5.95446e-07 -7.704454e-08 1.5256344e-05 1.2733325e-05 1.1646571e-05 -1.7335239e-08
2.8799604e-06 2.7310918e-05 3.5591956e-06 -9.541487e-08 -7.856021e-08 -1.195715e-07 1.3499832e-05 1.0129477e-06
-3.886634e-07 -1.31953986e-08 -5.093519e-07 1.6646844e-05 1.2466478e-07 -6.285573e-07 1.4954323e-05 6.853689e-07
1.0559896e-05 -0.00041117298 -0.0010314197 1.4868057e-05 4.9695757e-07 -0.00012896687 1.3336717e-05 3.7016732e-06
1.565654e-05 -0.00012777501 1.5647472e-06 1.6211698e-05 -0.00029124552 1.6244179e-06 -0.00046576373 3.305663e-06
5.149175e-06 -0.00018683974 1.5358765e-06 3.382803e-06 4.346508e-06 -0.0005167168 -5.2372816e-05 9.699253e-06
-0.000345808 -0.0002535543 1.8019678e-05 -8.114613e-05 1.5090918e-05 -0.0002738871 -0.0004822062 9.556143e-06
9.04311e-06 8.440252e-06 -0.000793321 -0.0002719579 -0.00030478163 -1.798633e-05 -6.1437844e-05 5.6419776e-06
-0.0004187217 1.7527998e-05 -0.00027613706 1.5864732e-07 1.5868492e-05 7.927079e-06 -3.9474635e-06 -0.00015220307
-0.00018247006 -0.00038874435 -9.536645e-05 7.3392914e-07 -0.00024928982 -0.00023301342 -0.0005214225 -0.00017633848
-0.000115824034 1.7997409e-05 1.0487026e-05 1.3139375e-05 -0.00031110315 7.0861947e-06 7.0188315e-07 1.665921e-05
1.1300624e-05 -0.00035824327 1.8026192e-05 -0.00027539494 -7.866748e-05 3.258002e-06 9.770343e-07 -0.00042736653
-7.306859e-05 -0.00041286278 1.7629987e-05 2.1005178e-07 -0.00035831984 -0.0002252969 1.4530363e-05 -0.0006730407
-0.00022458407 -0.000106937645 -0.00012803244 -0.00028747608 -0.00023366159 2.8033917e-06 -0.0004750639 -0.00019488345
-0.0004947723 1.3459792e-05 7.1999016e-06 5.762948e-06 -0.0004919399 3.7904795e-06 -0.00048011055 -0.000192906
1.5594466e-06 4.5689256e-07 -0.0003132671 -0.00048802188 -0.00016888756 2.5494883e-08 4.0979107e-06 1.7762986e-05
-0.00023240139 1.7751258e-07 1.5639722e-05 2.0186949e-06 -0.00040044152 -0.00033427752 -0.00030568163 4.5533878e-07
-7.54451e-05 -0.00071697053 -9.326355e-05 2.5009729e-06 2.065209e-06 3.134709e-06 -0.00035419484 -2.6480295e-05
1.0246951e-05 3.4591756e-07 1.3368761e-05 -0.00043692812 -3.2999176e-06 1.649737e-05 -0.00039248326 -1.7943374e-05
00000000: 0b14 d8b4 3370 8337 aed5 2438 412e 18b5
00000010: 68b4 a2b2 3cac a436 f085 08b5 df79 15b4
00000020: 85fc 1fb5 fc52 a336 9299 7fb3 85ae 25b5
00000030: 2742 3a37 3f0c 85b3 05e0 9437 f101 07b4
00000040: ae93 50b4 89e7 ee36 f9bb 7bb3 832d 0ab4
00000050: 4bec 31b4 f62f a537 e53f 0636 9e1d c6b4
00000060: e50d 5d37 6708 2237 3e4c 38b5 954d 4f36
00000070: 3241 1ab5 aa1b 2f37 f025 9a37 c131 c3b4
00000080: 31cb b8b4 aea8 abb4 d884 fd37 73c0 2d37
00000090: 37c0 4237 13bd 3835 c0f2 1c36 ec6f 66b4
000000a0: c5d6 8537 322f 33b5 2670 3037 8757 cfb1
000000b0: 2457 22b5 1c2a a2b4 9bed 1f34 b5c4 c236
000000c0: c371 e936 6d96 7837 6669 7336 5595 f0b2
000000d0: cb4a 1f37 9ff5 1437 f5a5 a637 825f e136
000000e0: 0444 9436 6f09 38b5 a544 d7b4 e4ac 06b5
000000f0: b8f0 4637 9ac0 90b4 a1e0 e5b2 f269 2ab5
00000100: fe40 e7b4 cb0b 6537 905c 38b5 1aec 2f37
00000110: f8d6 4836 d212 05b4 79b0 1fb3 5498 8837
00000120: 98f7 3a36 1df8 8337 9661 34b5 4260 09b2
00000130: 1e17 6537 a014 1037 3585 14b5 e91b d737
00000140: afa6 0f37 988a 8836 387c a336 21da 3737
00000150: 1343 1537 700e e5b3 5fd6 9737 5730 f936
00000160: 8723 9e37 ea7a 09b5 4916 93b4 e2b8 6bb4
00000170: b745 9d37 faf3 1ab4 287c 9937 8468 f636
00000180: e1c0 7eb3 74d2 95b2 4444 4837 92f2 9b37
00000190: b81a d836 a662 85b0 fd68 27b4 54b0 35b5
000001a0: 22a3 1437 f00c e8b1 bdd6 1fb5 af73 a5b3
000001b0: 80f5 7f37 37a1 5537 a465 4337 98e8 94b2
000001c0: 5845 4136 c019 e537 84da 6e36 e1e6 ccb3
000001d0: efb4 a8b3 9063 00b4 567d 6237 9ef4 8735
000001e0: 7ea9 d0b4 fab1 62b2 65ba 08b5 d3a4 8b37
000001f0: 98db 0534 21ba 28b5 54e4 7a37 31fa 3735
00000200: 682a 3137 b492 d7b9 b430 87ba d271 7937
00000210: aa66 0535 483b 07b9 c3c0 5f37 436a 7836
00000220: 2a56 8337 58fb 05b9 4e04 d235 5bfe 8737
00000230: 50b2 98b9 9306 da35 c031 f4b9 dcd6 5d36
00000240: 14c7 ac36 69ea 43b9 5124 ce35 1d04 6336
00000250: 38d8 9136 4774 07ba e2aa 5bb8 f9b9 2237
00000260: 904d b5b9 7bef 84b9 f728 9737 ff2c aab8
00000270: 002f 7d37 8198 8fb9 9fd0 fcb9 5253 2037
00000280: ddb7 1737 9b9a 0d37 dff6 4fba 9295 8eb9
00000290: 19cb 9fb9 59e1 96b7 31d8 80b8 3850 bd36
000002a0: e087 dbb9 1709 9337 7dc6 90b9 a558 2a34
000002b0: 541d 8537 8cfe 0437 7474 84b6 b398 1fb9
000002c0: 6f55 3fb9 62d0 cbb9 79ff c7b8 3a03 4535
000002d0: 1db3 82b9 1055 74b9 12b0 08ba 80e7 38b9
000002e0: 8ee6 f2b8 24f9 9637 6ff1 2f37 3071 5c37
000002f0: 8f1b a3b9 f3c5 ed36 0b69 3c35 62bf 8b37
00000300: cf97 3d37 99d2 bbb9 f436 9737 e262 90b9
00000310: 48fa a4b8 0ca4 5a36 a522 8335 2a10 e0b9
00000320: 673c 99b8 8175 d8b9 1ce4 9337 988a 6134
00000330: e0dc bbb9 ad3d 6cb9 6fc7 7337 ff6e 30ba
00000340: 547e 6bb9 b643 e0b8 7240 06b9 63b8 96b9
00000350: 0e03 75b9 e721 3c36 ff11 f9b9 a159 4cb9
00000360: 9bb3 01ba 5ed1 6137 af96 f136 595f c136
00000370: 87f5 00ba f15f 7e36 59b7 fbb9 cf46 4ab9
00000380: 2d4e d135 d64a f534 003e a4b9 30dd ffb9
00000390: 6917 31b9 d7ff da32 c980 8936 b901 9537
000003a0: c6b0 73b9 499a 3e34 0c32 8337 ea78 0736
000003b0: 5af2 d1b9 f841 afb9 e543 a0b9 4975 f434
000003c0: 4838 9eb8 14f3 3bba 7d96 c3b8 63d6 2736
000003d0: 0598 0a36 e45d 5236 3ab3 b9b9 0022 deb7
000003e0: 52ea 2b37 8cb6 b934 644a 6037 8013 e5b9
000003f0: 2774 5db6 d563 8a37 36c6 cdb9 1a85 96b7
