results/RollerAgents/RollerAgent/RollerAgent-109697.onnx (onnx, 75694 bytes, 8 tensors)

network_body._body_endoder.seq_layers.0.weight f4 [128, 1]
000000 35 c8 8b 3f bf ae 57 3f aa 71 f3 3e e6 6e 02 bf
       1.0920473 0.84251016 0.47547656 -0.5095047
000010 05 10 83 3f ac df 3a 3d 4a 70 16 3f a5 7f de 3a
       1.0239264 0.045623466 0.5876509 0.0016975297
000020 e7 f2 8a bf 76 1d 28 be 8d 71 52 3e 3f 7c 05 3f
       -1.0855378 -0.16417488 0.20551129 0.5214271
000030 73 4e 06 40 0f d1 4a 3f 94 47 0b c0 f6 4d ef be
       2.0985382 0.7922525 -2.1762438 -0.46739167
000040 a8 45 48 3f d8 70 b7 3f 99 f7 c8 bd 0b d2 1b 3e
       0.78231287 1.4331312 -0.098128505 0.15216844
000050 2a 98 bc bf c6 e2 24 3f fa 7e db 3f ec 02 e8 3e
       -1.4733937 0.6440853 1.7148125 0.4531473
000060 3a ac 25 40 2c 59 ef bf 07 5f b6 3f 65 1e 90 be
       2.5886369 -1.8699088 1.424775 -0.2814819
000070 67 86 03 3f ee b6 b9 3e dd 94 40 3f 1f fe 01 3f
       0.51376957 0.36272377 0.7522715 0.50778383
000080 68 17 57 3f 93 5d ad 3e 27 bd fa 3e bc 62 4c bf
       0.8402009 0.33860454 0.48972437 -0.79838157
000090 7a 02 96 be 32 da f9 be 43 47 30 be 3b cd da 3d
       -0.29298764 -0.48799282 -0.17214684 0.10683676
0000a0 bb 5f ff 3e 7d 92 84 bf a5 48 91 3f 0b ca a3 3f
       0.49877724 -1.0357205 1.1350294 1.2796034
0000b0 23 85 96 3e dd 66 91 3f a7 d3 87 bd ad 32 84 bf
       0.2939845 1.1359516 -0.06632166 -1.0327965
0000c0 05 87 b4 bd fb 16 ec bf 02 fd a3 3e 8f 82 19 c0
       -0.088148154 -1.8444513 0.32028967 -2.3985937
0000d0 15 7e 72 3e 4a fd aa 3f a6 39 af bf 6f 90 4a 3f
       0.23680909 1.3358548 -1.3689468 0.7912664
0000e0 02 b3 34 3f 1a 1d 3a 3e 52 bd 28 3e 34 c9 91 be
       0.70585644 0.18175164 0.1647847 -0.28473818
0000f0 49 13 67 be d9 1b 05 3f fa d9 ed 3d 80 fa e9 3f
       -0.2256595 0.5199562 0.11613841 1.8279572
000100 18 43 35 3f 85 e3 f2 3f 3f c6 48 be 7b 7d 26 3f
       0.708055 1.8975683 -0.19606875 0.6503522
000110 c4 0a 9f 3f 14 33 ad 3f 29 3c c9 3f d2 7c 97 3f
       1.242516 1.3531213 1.5721484 1.1834967
000120 e3 fd ee be d0 07 a9 3e 46 a6 2a 3f b0 ca d2 3e
       -0.46678075 0.33013773 0.66659963 0.41170263
000130 9e 2a 50 bf 34 3a dc be cb 06 49 3f 4e 9c 5f be
       -0.8131503 -0.43013155 0.7852599 -0.2183697
000140 d5 1b 2a 3f 16 63 20 3f a2 76 1b be 00 30 89 bf
       0.6644872 0.62651193 -0.15181974 -1.0717773
000150 5c 51 c8 be 28 cf f0 3c be c3 7b bf 6d a3 71 3f
       -0.39124572 0.029395655 -0.98345554 0.9438999
000160 60 84 14 40 08 d7 aa 3f 44 ed ab 3d f7 eb 1c 3f
       2.3205795 1.3346872 0.08394864 0.61297554
000170 b5 ea 4a be 7f a9 f4 be c6 f4 ba 3f 01 c7 b1 be
       -0.19816096 -0.47785565 1.4605949 -0.3472214
000180 f2 8c 09 bf a0 74 57 3f 73 2e 9e 3f 9e 87 41 3e
       -0.5373069 0.8416233 1.2357925 0.1889939
000190 a5 c8 5d 3f 68 a7 51 bf b3 ba 30 be e1 7c c2 be
       0.86634284 -0.81896067 -0.1725872 -0.379859
0001a0 20 f3 8c bf 4d 39 b2 3f 7b 8a 70 3f bb 12 8e be
       -1.1011696 1.3923737 0.93961304 -0.27748665
0001b0 a1 5a d3 bf 18 71 fe 3e ff b4 36 3d 03 31 82 3f
       -1.6512033 0.4969566 0.044606205 1.0171207
0001c0 44 a2 20 bf 0e c2 6d 3f 74 d5 9c be 8b 40 7a 3f
       -0.627476 0.9287423 -0.30631602 0.97754735
0001d0 76 2d 3a bf a2 f4 38 3e b8 15 41 bf b3 e4 7d 3f
       -0.7272562 0.1806207 -0.75423765 0.9917709
0001e0 2a 32 de 3f f0 75 9e bf ef e4 98 3f 7f 4c 2a 3f
       1.7359059 -1.2379742 1.1944865 0.66522974
0001f0 84 99 28 3f 46 9f 48 3f a6 92 79 3d 61 90 94 bf
       0.65859246 0.7836803 0.06093087 -1.1606561

network_body._body_endoder.seq_layers.0.bias f4 [128]
000000 1f 84 df b8 6e a5 dd ba a0 f9 16 39 48 de 98 b9
       -0.00010658078 -0.0016910264 0.00014398107 -0.00029157312
000010 32 97 a4 ba 12 5d 15 39 f1 a4 e9 ba 44 bc 26 bb
       -0.0012557267 0.00014244419 -0.0017825646 -0.0025441805
000020 b4 69 4c 3b 8b 71 73 b9 87 6f 0d bb d0 e9 7e 39
       0.0031190934 -0.00023216584 -0.0021581368 0.0002431043
000030 43 c2 85 ba dd 26 d8 b9 56 a1 d4 b9 48 7b 7a ba
       -0.0010204989 -0.00041227686 -0.00040555996 -0.00095551135
000040 53 9f 89 ba 89 c1 de ba 31 f4 4c 3a 1a dc 7e 3a
       -0.0010499753 -0.0016994934 0.000781837 0.0009722129
000050 d3 8a 5e bb 6a 35 49 b9 d1 dd e1 bb f4 b4 0d 3a
       -0.0033957257 -0.00019188752 -0.0068928977 0.0005405687
000060 28 24 f0 b8 fd a3 14 ba 8c 50 ad b9 af 77 b1 b8
       -0.000114508264 -0.0005670188 -0.00033057143 -8.4623105e-05
000070 43 db 39 3a c2 8f 79 bb 59 44 83 37 dd 78 b3 38
       0.00070898625 -0.003808007 1.5648244e-05 8.557898e-05
000080 43 5a 4f b8 cd 10 d6 38 d3 cc a1 38 f8 ba 3a ba
       -4.943671e-05 0.000102074446 7.71523e-05 -0.00071231974
000090 a8 fd 77 b9 44 c2 88 b9 29 28 18 3b e9 ed 0b 3b
       -0.0002365025 -0.0002608468 0.0023217297 0.0021351522
0000a0 e1 e3 ba ba ba 83 99 ba c3 1f 15 bb 4b b2 39 bb
       -0.0014258587 -0.0011712231 -0.0022754527 -0.002833503
0000b0 30 11 b2 ba 9f b1 56 ba a1 08 5e 3a f6 d8 de 3a
       -0.0013585445 -0.000818992 0.0008469914 0.0017001915
0000c0 4a 52 99 39 9c 31 31 38 eb 3a 36 3a 53 51 87 39
       0.00029243744 4.224629e-05 0.00069515285 0.00025809798
0000d0 3d bb 7c 39 0c a8 95 39 8c a1 6f 3a 8c 7e eb b9
       0.00024102344 0.000285447 0.0009141199 -0.00044916978
0000e0 95 05 d5 ba f8 dd 6f b7 94 b3 01 3a 73 fb ef ba
       -0.0016252274 -1.4297191e-05 0.00049477187 -0.0018309191
0000f0 df 64 4b b9 ab a0 00 b9 68 7c 00 ba 5e fd 24 ba
       -0.00019397166 -0.00012266885 -0.00049013505 -0.0006293858
000100 83 c4 ed 3a 2b 40 6c bb 28 af 94 ba 49 14 5d ba
       0.001814023 -0.003604899 -0.0011343705 -0.00084335037
000110 b3 18 8d 3b c3 88 1e bb 34 ad 72 3a 8f 10 d4 ba
       0.004305923 -0.0024190403 0.00092573767 -0.0016179251
000120 ae e6 7c b9 a8 90 ae ba 47 70 ca ba 10 3f 3b 39
       -0.00024118528 -0.0013318257 -0.0015444838 0.00017857202
000130 a9 f6 00 ba 1e f3 00 ba 87 61 c8 bb 92 70 21 3a
       -0.0004919568 -0.000491904 -0.006115142 0.0006158437
000140 98 52 14 bb 53 f8 4c b9 37 cf 09 3a 09 37 c9 b9
       -0.0022632238 -0.00019547464 0.00052570127 -0.00038378712
000150 5c 62 c9 ba e1 b4 66 ba e3 8a e2 3a 3b ca 19 bc
       -0.0015364396 -0.0008800757 0.0017283823 -0.009386594
000160 1c 56 54 bb 59 3e 72 ba 27 de 05 ba 1c ed 84 ba
       -0.0032399958 -0.0009240858 -0.00051066506 -0.0010141465
000170 80 09 d4 3a 37 78 83 ba 07 0d 8b 36 85 4a 57 bb
       0.0016177148 -0.0010030334 4.1440394e-06 -0.0032850814
000180 27 d9 8a 3a ad 03 0f bb cb 9d 02 ba db db 8f ba
       0.0010593281 -0.002182226 -0.00049826194 -0.0010975556
000190 62 9c aa ba 31 fd 9d 3a 7d c9 7d 3a af 38 3d ba
       -0.0013016576 0.0012053606 0.0009681208 -0.00072182243
0001a0 ac 5a 2a 38 82 d4 08 bb 32 c7 47 3a f2 8f 2c bb
       4.0615603e-05 -0.0020878618 0.000762093 -0.0026330915
0001b0 49 8f 57 b9 3d cf 02 ba d4 ab 1b bb b4 a4 43 ba
       -0.00020557376 -0.00049899874 -0.002375354 -0.00074632023
0001c0 65 56 ec 38 c1 95 8c bb 73 18 09 b9 a4 06 4a ba
       0.00011269449 -0.004290313 -0.00013074446 -0.0007706678
0001d0 ac dc f0 3a 16 87 6a 3a 57 65 71 bb 39 55 b6 ba
       0.0018376312 0.0008946521 -0.0036834085 -0.0013910896
0001e0 73 46 0b bb 73 03 c4 b9 22 d8 f4 b9 5b 6a 78 3a
       -0.0021251708 -0.00037386603 -0.00046700338 0.00094762974
0001f0 7a 60 02 bb c2 1e 16 bc 67 bf d5 3a 57 bb 6c ba
       -0.001989393 -0.009162607 0.0016307653 -0.00090306014

network_body._body_endoder.seq_layers.2.weight f4 [128, 128]
000000 46 55 b0 bd 6d bd 97 bd 4e 16 c4 3d 43 b3 04 3c
       -0.086100146 -0.07409177 0.09574567 0.00809938
000010 76 75 1b 3e 71 b0 9c 3c bc c8 0c be 15 aa 65 3d
       0.15181527 0.019127103 -0.13748449 0.056070406
000020 d6 91 92 3d 57 30 f1 3c 41 31 a2 3c 6b 3b 09 3d
       0.07156722 0.029441996 0.019798877 0.03350393
000030 e9 30 b7 ba 67 01 a5 3d 07 09 b2 3c 14 af 98 3d
       -0.0013976368 0.08056908 0.02173282 0.074552685
000040 08 b3 5f bd 53 4e c4 bc c4 92 11 3d 52 71 32 bd
       -0.054614097 -0.02396313 0.035540357 -0.043565102
000050 69 e6 1f 3d 32 56 ef 3d 1d 4e 63 bd ab 16 bb bb
       0.039038096 0.11686362 -0.055494417 -0.0057094893
000060 6f 29 c1 bb 83 40 bb 3b 12 f6 f8 3d 04 d9 4d 3c
       -0.005894832 0.0057144775 0.12156309 0.012563948
000070 3a d2 0f bd e3 c4 a2 bc 8d 37 9e 3d e4 2c 67 3d
       -0.035112597 -0.019869274 0.07725439 0.056439295
000080 ae d8 f3 bc a4 90 4b be c4 f8 76 3c fd e3 2a 3d
       -0.029766407 -0.19879395 0.015073959 0.041721333
000090 e5 59 c0 3c 2a 8e 4e bd 4c 2b 87 3e 74 a5 02 3e
       0.023480365 -0.050428547 0.2640022 0.12758428
0000a0 3e 5b c2 bd 89 e0 e2 3d 27 c5 56 bd 10 59 46 bd
       -0.09490059 0.11077983 -0.052434113 -0.04842478
0000b0 60 81 5c 3c 82 cc 29 3d 9a 62 af 3d 6d 76 6d 3d
       0.01345858 0.0414548 0.08563729 0.057974268
0000c0 8e 2b b8 bd be 93 6f bd 75 e4 f2 bc 47 77 f5 3d
       -0.089926824 -0.058490507 -0.029649952 0.11985641
0000d0 56 28 d0 3d 5d 01 11 3c 59 b9 bf bd a5 ef 28 be
       0.101639435 0.008850423 -0.09361524 -0.16497667
0000e0 03 02 70 bd 3d e2 8f 3d 65 32 8b bd a1 69 07 3d
       -0.05859567 0.070255734 -0.06796721 0.03305972
0000f0 82 18 80 3d 11 12 92 bc 4d 3e 8a bd 76 de 88 3d
       0.062546745 -0.01783088 -0.06750164 0.06683056
000100 e1 ce 5b 3d bb 08 1c bd 42 28 8c bb ee d5 47 bd
       0.053664092 -0.038094264 -0.00427726 -0.048788004
000110 6b 93 b3 bc 75 5a 52 3e dd 22 96 3d da b0 a9 3c
       -0.02192088 0.20542319 0.073308684 0.020714212
000120 b6 76 80 3d 37 5d ae bc 6b 37 ef 3d da b4 1e be
       0.06272642 -0.021284683 0.11680492 -0.15498677
000130 a8 82 ff 3d b6 01 18 3e 1a f2 bc bd 7c f9 f0 3c
       0.124760926 0.14844403 -0.09225865 0.029415838
000140 eb 60 73 3c de 9a 34 3d 34 16 88 bd 4d 54 0b 3b
       0.01485465 0.044093005 -0.0664486 0.0021259964
000150 26 e6 23 bd 8c cd 0d bd bf da 09 3e 61 b5 49 3e
       -0.04001441 -0.034619853 0.13462351 0.19698097
000160 72 10 f5 3c 7b 10 cb 3c 62 5f 08 bd 5b db 3d 3c
       0.029915068 0.024788132 -0.03329409 0.011587943
000170 62 91 27 3e 83 41 32 3e 4c cb e0 3b e7 ec 59 bd
       0.16364053 0.17407803 0.0068601724 -0.053204443
000180 10 f7 81 bd 7c 66 13 bd 1b 74 5c bd e1 74 1c be
       -0.063459516 -0.03598641 -0.053821664 -0.15278961
000190 8e 8b 87 3c 31 41 08 bc c4 b1 b0 3c f4 b7 05 be
       0.016546037 -0.008316324 0.02156914 -0.13058454
0001a0 92 c0 91 3d a6 9b 83 3d 64 6a 74 3d 96 09 f8 bd
       0.07116808 0.06426172 0.059671775 -0.12111203
0001b0 c9 11 74 3c 0e 8c a7 bc c5 be ca bc 1b 19 50 3d
       0.014896818 -0.020452525 -0.02474917 0.050805192
0001c0 c4 da 80 3c 13 20 75 bd c7 1c 5a bd ed 08 7a bd
       0.015729316 -0.05984504 -0.0532501 -0.06104367
0001d0 c1 91 00 bd 2d 4d 57 3d 8d 5a eb bd 01 cb 74 bd
       -0.031389 0.052563835 -0.114918806 -0.059763912
0001e0 ce aa 23 bb 2e 6e a7 3b 0a c0 4e 3d a6 41 75 be
       -0.0024973634 0.00510957 0.05047611 -0.23950824
0001f0 20 2f d8 3b c4 e5 e4 bc e1 38 e9 3c c1 f9 29 bc
       0.0065974146 -0.027941592 0.028469505 -0.010374487
000200 cc 2d b1 3d df 1d 1d be c5 e4 5c 3e 16 43 91 3d
       0.08651313 -0.15343426 0.21571644 0.07092874
000210 a5 80 96 3c d9 2b 1e bd e2 c6 03 be 03 a1 b9 bd
       0.01837189 -0.038616035 -0.12868837 -0.09063914
000220 85 9d 82 bd c0 d0 35 3e 75 66 6e bd 52 ab 6f 3d
       -0.06377701 0.17755413 -0.05820318 0.058512993
000230 a7 36 bc bb b7 b9 00 3e e2 7e 2b bc 8c f1 44 3e
       -0.0057438198 0.12570845 -0.010467263 0.19232768
000240 da 5b e6 ba 43 de 07 37 19 29 40 3e 9f 19 96 bd
       -0.0017574981 8.098376e-06 0.18765678 -0.073291056
000250 17 5b 35 3d 00 24 8a bd 58 ca 68 3d 35 7e 32 bc
       0.044276323 -0.06745148 0.056833595 -0.010894348
000260 07 ca e0 3d 56 2e bb 3b d2 76 48 3d f0 4e 0e 3c
       0.10976034 0.005712311 0.04894144 0.008685812
000270 a7 64 ae 3d 2c 0b b3 3d 63 eb dc 3d 06 cd e2 3d
       0.08515292 0.08742365 0.10787084 0.11074261
000280 90 80 73 3d 63 fd c3 3d f6 7a ec 3d c2 52 5a 3d
       0.05944878 0.09569814 0.115468904 0.05330158
000290 8a d3 02 be d7 49 3a 3d 9c b1 26 3d ab a4 17 3d
       -0.12776008 0.045480575 0.040696725 0.037022274
0002a0 f0 0c 1b be 8b 36 97 3c c7 43 e1 bd f8 0c 44 bd
       -0.15141654 0.018458625 -0.109992556 -0.04786393
0002b0 04 01 c8 bc 8b 7c f3 bc 36 f1 e6 3d df 68 6c be
       -0.024414547 -0.029722473 0.11276476 -0.2308688
0002c0 74 7f 7a 3b dc 53 1b bd 89 5d 01 be 5d 0b 19 bc
       0.003822294 -0.03792177 -0.12633337 -0.009341088
0002d0 37 ae 3a be f8 b8 09 bd 6e 54 45 bd c3 47 69 3c
       -0.1823052 -0.033623666 -0.04817622 0.014238301
0002e0 b8 fe 09 3d af 6a 54 3d 1d a5 99 3c 84 c4 82 bd
       0.033690184 0.051859554 0.01875549 -0.06385139
0002f0 0e 55 91 3d 8d a3 2a bc 90 81 3a 3d b7 31 c7 bd
       0.07096301 -0.01041497 0.045533717 -0.09726279
000300 d7 a8 6d bc be bc 0d bd 15 2d e6 3d ac fe b1 3c
       -0.014505587 -0.034603827 0.112390675 0.021727882
000310 c4 f0 20 3d cd bf a6 bc 43 a9 1b be 63 78 6e bd
       0.039292112 -0.02035513 -0.15201287 -0.05822028
000320 16 76 5e be 3d 71 9f 3c 55 d3 01 bd 18 45 ab 3c
       -0.21724734 0.019463176 -0.031695683 0.02090697
000330 14 4d fa 3d 7a 70 4b 3d cf fd f2 3c 17 a3 51 3c
       0.12221733 0.049667813 0.029662041 0.012795231
000340 6e a3 30 bc 0a 30 74 3d cd 11 c0 3d 45 2c bc 3d
       -0.010781152 0.059616126 0.09378395 0.09188131
000350 4e 13 bf bb 03 c6 ff bc 59 80 6f 3d 6a bd f7 bd
       -0.0058311587 -0.031222349 0.05847201 -0.12096675
000360 f6 33 f7 bd d8 85 51 bd b6 4a c8 3c f3 38 1c 3c
       -0.12070458 -0.051153034 0.024449687 0.009535062
000370 43 14 df ba f2 41 a7 bd d3 75 d0 bd d4 df 34 3d
       -0.0017019588 -0.08166875 -0.10178723 0.04415877
000380 8c ff db 3b 56 17 6e bd 51 21 01 be 3a de cb 3d
       0.006713813 -0.058127724 -0.12610365 0.09954496
000390 f3 58 a0 bd a1 60 cf bd ae 7e c5 bc 31 ba f9 3b
       -0.07829466 -0.101258524 -0.024108257 0.0076210727
0003a0 87 fd 39 3c bc 54 a4 3c bb b0 d5 3c 10 e9 03 3e
       0.01135195 0.020059936 0.026085248 0.12881875
0003b0 07 c7 4b 3d 8b f4 74 bd 00 b1 f1 bd de 7f 7c bd
       0.049750354 -0.059803527 -0.11801338 -0.06164538
0003c0 c9 e2 6f bd 3a 83 57 bd ff e4 83 bd f7 b6 dd bd
       -0.05856589 -0.05261538 -0.06440162 -0.108259134
0003d0 56 77 8a bb 04 53 0f bd fa 4c 26 bc 29 83 58 bd
       -0.0042256517 -0.03499128 -0.010150189 -0.05285946
0003e0 dd 00 15 be a9 1c 1c 3e 80 c9 32 3c 12 1b f4 bd
       -0.1455111 0.15245308 0.010912299 -0.11919226
0003f0 32 61 05 3a f5 0a 0f 3e 1d 67 aa 3c 58 b6 9d bd
       0.00050880306 0.13969024 0.020801121 -0.07700795

network_body._body_endoder.seq_layers.2.bias f4 [128]
000000 55 cc c2 ba 35 cd 92 ba 7a 8b 24 3a dd b9 38 ba
       -0.0014861921 -0.0011200072 0.0006276887 -0.0007046739
000010 05 d1 93 ba a3 c2 e4 ba 1a 3c ad ba 2c 37 c9 ba
       -0.0011277503 -0.0017453026 -0.0013216764 -0.0015351526
000020 d5 8b 63 ba 7d dd af b9 51 34 88 ba ed 4d c6 b9
       -0.00086801994 -0.00033543623 -0.0010391568 -0.00037823562
000030 0e 41 99 ba 4c e5 55 ba 16 66 0d b7 e9 bc f6 ba
       -0.0011692361 -0.0008159473 -8.428024e-06 -0.001882461
000040 1e a2 38 38 e7 b3 13 b9 d5 cb c5 b9 85 91 06 ba
       4.4020002e-05 -0.00014086031 -0.00037726635 -0.00051333784
000050 62 70 5a b9 26 e8 48 ba 65 3d 90 ba bb a2 d6 ba
       -0.00020831966 -0.00076639873 -0.0011004625 -0.0016375402
000060 db 82 43 3a 08 e5 65 ba e1 04 f1 ba 5b c9 b2 ba
       0.00074581587 -0.0008769785 -0.0018388295 -0.0013640331
000070 1f 67 96 b9 3a 02 8b b9 b2 59 07 bb 4c f4 84 ba
       -0.0002868706 -0.00026513805 -0.0020652828 -0.0010143607
000080 bb dd 61 ba 4e aa f3 b8 e0 eb 62 ba 90 f9 67 ba
       -0.0008616109 -0.00011618865 -0.0008656364 -0.00088491384
000090 e6 71 4f 38 b1 d7 ac ba 19 71 c1 ba 49 65 50 ba
       4.9458722e-05 -0.001318684 -0.0014758437 -0.0007949663
0000a0 c5 0b 69 ba 4f 95 61 bb 7f 8b 0b ba ab ae 4f bb
       -0.00088899984 -0.003442127 -0.0005323216 -0.0031689804
0000b0 16 b1 ea b9 70 9d ad ba b4 27 ae ba 3b 1c 2a ba
       -0.00044763897 -0.0013245773 -0.0013286979 -0.0006489192
0000c0 11 cc 8c 3a b9 44 9e ba a1 ac b2 ba 46 3d 99 ba
       0.0010741969 -0.0012074924 -0.001363177 -0.0011691235
0000d0 f9 e3 7e 38 7b a5 b7 b6 70 03 cf ba 45 52 e9 b9
       6.0770635e-05 -5.4730895e-06 -0.0015793871 -0.0004450252
0000e0 a2 f0 08 bb 39 18 ba b9 b3 49 dd 36 f0 af 90 ba
       -0.0020895381 -0.00035494732 6.594893e-06 -0.0011038762
0000f0 98 4f 8c ba 1e fd 36 ba 05 c7 7f ba ba 11 ec b9
       -0.0010704873 -0.00069804664 -0.0009757134 -0.00045026635
000100 50 3d a7 b9 d1 c7 1d ba 59 79 50 ba da 61 b6 ba
       -0.00031898404 -0.00060188497 -0.00079526525 -0.001391466
000110 78 20 ab ba d3 dd ca ba af 53 bc 38 0a e8 4c ba
       -0.0013055941 -0.0015477486 8.980126e-05 -0.0007816559
000120 8e e6 e3 ba e6 39 c6 b9 8f 03 0a bb f9 e4 47 ba
       -0.0017387436 -0.0003780864 -0.002105925 -0.0007625367
000130 91 f8 e4 ba 68 3a 03 bb f1 28 f3 ba fb 58 bb 39
       -0.0017469098 -0.0020023827 -0.001855163 0.00035733715
000140 86 7d dd ba 64 7d be ba af 49 6f b9 39 bd a1 ba
       -0.0016898371 -0.0014533219 -0.00022820265 -0.0012339718
000150 e4 cc 6a ba ee b1 fa ba e3 7f 9d ba 23 f0 cd b9
       -0.00089569227 -0.0019126514 -0.0012016263 -0.00039279563
000160 bb f4 b9 ba fd 04 43 b9 18 1b 30 bb e9 a6 e8 b9
       -0.0014187315 -0.00018598507 -0.0026871618 -0.00044374846
000170 8c 3e af ba 90 e0 9d b9 96 dd 7d ba ae a4 90 ba
       -0.0013370081 -0.00030112686 -0.0009684203 -0.0011035406
000180 63 da a6 b9 fc 08 a4 ba 53 00 72 ba eb db 21 ba
       -0.00031824698 -0.0012514885 -0.00092316157 -0.0006174433
000190 ae 04 7c b9 21 f5 98 ba a8 94 4a ba 89 f6 76 39
       -0.00024034336 -0.0011669734 -0.000772784 0.0002355223
0001a0 82 25 0e bb 88 64 b5 b9 3d 57 2e bb 9e b8 10 ba
       -0.0021689837 -0.00034597912 -0.002660229 -0.0005520674
0001b0 24 cc 17 ba 26 84 b4 b8 81 49 a5 ba 41 fb 52 ba
       -0.0005790612 -8.6076834e-05 -0.0012610407 -0.0008048304
0001c0 bb 3d b5 bb 62 62 63 ba 06 c2 99 37 ba 06 8d ba
       -0.0055310405 -0.0008674023 1.832937e-05 -0.0010759451
0001d0 26 fd 71 ba 0a 66 02 ba 6d b9 d6 ba e0 76 00 bb
       -0.00092311425 -0.00049743115 -0.0016382165 -0.0019602105
0001e0 ef dd fe ba ba 74 b5 ba 3e af 01 bb ab 72 a3 ba
       -0.0019444803 -0.0013843991 -0.001978829 -0.0012470087
0001f0 49 1c f2 ba 2a c4 23 39 cb 4b fe b9 5c f9 a0 b9
       -0.0018471564 0.00015617968 -0.00048503125 -0.00030703365

action_model._continuous_distribution.log_sigma f4 [1, 2]
000000 99 62 0d bd 4c 9f fd bc
       -0.03451786 -0.030959748

action_model._continuous_distribution.mu.weight f4 [2, 128]
000000 be 20 c4 bb 86 2d 73 bc fa 3e c1 bb 0a f8 3b bc
       -0.0059853485 -0.014842397 -0.0058974 -0.011472711
000010 7e db 4d 3c 07 61 65 bb 64 a8 13 bd a8 bd a0 bc
       0.012564538 -0.003500046 -0.03604926 -0.019621685
000020 3d 2b 3f 3c 18 c2 56 bc b3 d2 8b bb 55 87 8a 3b
       0.011668024 -0.013107799 -0.0042670607 0.0042275586
000030 1c 05 ff bb 01 ce 87 bc fc f3 53 3c 52 2b 0a bc
       -0.0077825915 -0.016577723 0.012936588 -0.00843318
000040 ee 27 c4 bb 0f 6b c9 bc 7c 48 43 bc 41 1b 49 bb
       -0.0059862053 -0.024587182 -0.011919137 -0.003068641
000050 3f e3 99 bb ed 73 ca bb d0 f5 09 bc ca f9 68 3c
       -0.0046962793 -0.00617837 -0.008420423 0.014219711
000060 96 58 87 bc 0c 31 85 3c 4d f9 87 3c 23 6e 22 3c
       -0.016521733 0.016258739 0.016598368 0.009913954
000070 af e1 bb 39 dd 26 31 3c 04 37 f0 bb 24 eb 83 bc
       0.00035835567 0.010812488 -0.007330777 -0.016103335
000080 75 90 cc bb 0c 87 39 3c e2 0f 8e bc 31 05 8b bc
       -0.0062428066 0.011323702 -0.017341558 -0.016970249
000090 38 74 97 bc 29 9f a3 bc 0f e3 9d 3b da 12 a3 bc
       -0.018488035 -0.019973354 0.0048183273 -0.01990645
0000a0 72 91 a1 bb 4d ad 16 3b ca 81 21 3c be 49 1b bb
       -0.0049306685 0.002299148 0.009857604 -0.0023695077
0000b0 ef aa dc 3c 7e 41 0e bc 29 d0 88 3c ba 23 08 3d
       0.026936976 -0.008682607 0.016700821 0.033237197
0000c0 7b 5e de 3c 76 28 81 bc d6 20 bc bc 55 51 1c bc
       0.027144661 -0.015766364 -0.022964876 -0.009540875
0000d0 27 0d a9 bc 42 36 89 b9 61 8f c3 bb 43 e8 9c 3c
       -0.020636154 -0.00026171101 -0.00596802 0.01915372
0000e0 a3 48 81 bc 24 5e 9e b8 46 47 94 3c c1 a6 65 bc
       -0.015781706 -7.551562e-05 0.018100392 -0.014016808
0000f0 27 02 67 bc 6d 76 8f 3c c2 03 eb 3b b7 0e 54 3d
       -0.014099634 0.017512525 0.007172079 0.051771846
000100 0a 84 7d bc e2 9d 9f 3b 6d b1 e0 bc 80 e3 8f bc
       -0.015473375 0.004871116 -0.027428353 -0.017564535
000110 89 ea b0 3c 00 79 c9 bc 82 89 93 3c f1 89 4e 3c
       0.02159621 -0.02459383 0.018009905 0.01260613
000120 18 4d a3 3c 92 ce d8 3c 1f a2 73 bc 68 72 de b8
       0.019934222 0.026465688 -0.014870196 -0.00010607095
000130 c5 c2 d6 3c 19 e8 ab 3c 55 6e d0 3b 74 d5 c5 bb
       0.02621592 0.020984696 0.006360809 -0.0060374085
000140 6b 15 0b 3c b5 fc 92 bc 6f 80 95 3c 65 78 9f b9
       0.008488993 -0.017942766 0.018249718 -0.00030416544
000150 a7 4d 3e bc 7b 4d 69 ba 2a e4 ed 3c 11 27 c9 3c
       -0.011615193 -0.000889979 0.029039461 0.024554761
000160 5d 67 8a 3c 73 cc 26 3c 91 13 ca 3a 04 05 2d bb
       0.01689499 0.01018058 0.0015417208 -0.0026400695
000170 94 23 92 bc 84 af 3d 3c 8a e7 e8 ba f3 79 9c 3c
       -0.01783923 0.011577491 -0.0017769199 0.019101119
000180 8d 71 04 3d ce c5 a5 bb df e4 60 3b b1 95 3c 3b
       0.032334853 -0.0050589805 0.0034316105 0.0028775746
000190 7e d6 f5 3c 7d 87 0b 3d f8 d0 aa 39 b0 9b 06 3d
       0.030009504 0.03406476 0.0003258062 0.03286332
0001a0 39 b7 4b 3b e4 aa ff bc ac d7 8c 3b 7f 3d 65 bc
       0.003108455 -0.031209417 0.004298171 -0.013991713
0001b0 ee 64 bb bc d3 a1 0e 3c 50 20 ea 3c 38 ef 64 bb
       -0.022875275 0.008705574 0.02857986 -0.0034932625
0001c0 3e 33 83 3a 25 4a cb bc a4 ca 51 3c 6d 75 02 3c
       0.0010009778 -0.024815628 0.012804661 0.007962567
0001d0 a4 e3 3b 3b f6 a1 3f bc 34 96 d9 bc b2 30 5f 3b
       0.002866962 -0.011696329 -0.02656088 0.0034056124
0001e0 40 4e f4 3b 48 ea d8 bc 1f b0 fc 3a 1d ce 37 3c
       0.007455617 -0.026478902 0.0019278562 0.011218575
0001f0 fa be ab bb 40 47 55 b8 c5 a1 ba 3c 7b 7c 1e bc
       -0.005241272 -5.0849514e-05 0.022782216 -0.009673233
000200 2e bf e8 bb 48 0b 07 3b 48 3a ed bc 00 c9 c7 3b
       -0.0071028685 0.002060609 -0.028958455 0.006096959
000210 49 be 5e bb 05 cb 1b bb 33 f7 b7 3c 08 af 4e 3c
       -0.003398793 -0.0023772132 0.022456741 0.012614973
000220 c1 3c 72 3c a8 9e 51 3c 5f 1f de bb 34 4b 10 3c
       0.014784993 0.012794174 -0.006778642 0.008806992
000230 ed 2d 7e bc 96 7f 93 bb 0b 90 e3 3c 65 a2 9a 3b
       -0.015513879 -0.0045012934 0.027778646 0.004719066
000240 6d ae 4e bb 5d db 47 3c ce d7 4c 3c 5f c6 61 3c
       -0.0031537071 0.012198296 0.012502624 0.0137802055
000250 05 26 d3 bc 4c 0b bb bc a1 79 25 bd c3 6e 50 3b
       -0.025774965 -0.022832535 -0.040399197 0.00318043
000260 36 f5 31 3b 06 15 98 3b 61 e8 3d 3c fd ce aa 3c
       0.0027154214 0.004641178 0.011591048 0.020850653
000270 de 6c 00 39 86 72 01 3b 7b e1 3b 3b 44 33 94 ba
       0.00012247587 0.00197521 0.0028668332 -0.0011306782
000280 20 49 97 bc cc b6 76 3c 93 af 5f bc 04 2b 6f bc
       -0.018467486 0.015058231 -0.0136527 -0.014597658
000290 fa e1 e9 3a eb 1a cc bc 38 d6 35 bc e2 99 9b bc
       0.0017843836 -0.02491518 -0.011098437 -0.018994275
0002a0 70 22 da 3c 4f b4 01 39 9c 4a fd 3a 8f 62 9b 39
       0.02662775 0.00012369569 0.0019324603 0.00029637336
0002b0 8b 41 3e bc 34 f7 82 3c dc f7 6c bc 67 80 88 3c
       -0.011612306 0.015987016 -0.014463391 0.01666279
0002c0 88 6b a5 bc 91 87 f6 ba 09 e8 30 bd 1f 69 03 bc
       -0.020192876 -0.0018808712 -0.043190036 -0.008020668
0002d0 29 bd 34 bd dc e5 b2 b9 9d ec a8 bb fd 18 16 bd
       -0.04412571 -0.00034122064 -0.0051551596 -0.036644924
0002e0 3a 65 97 bb 80 24 89 38 c6 5d d9 3a dd fd a4 b9
       -0.0046202214 6.539468e-05 0.0016583733 -0.0003146966
0002f0 a4 bc 80 ba 36 07 2e bd 6b 12 30 bc f2 33 c5 bc
       -0.0009821844 -0.042487346 -0.010746579 -0.024072621
000300 03 02 40 3c a3 92 27 3c 28 c0 23 bc fe 53 fb 3b
       0.01171923 0.010227832 -0.009994544 0.0076699248
000310 52 6a d0 bc 9d 52 d3 3b 5f 9d cf 3c 5d 85 17 bc
       -0.025441322 0.0064490573 0.025343595 -0.009248105
000320 23 23 18 bc 38 fe 40 3b 06 05 9c b9 9f da be b6
       -0.009285721 0.0029448401 -0.0002975838 -5.687892e-06
000330 77 4e 68 bb 14 88 62 bc 20 58 ff 3b 35 40 be bc
       -0.003544716 -0.013826389 0.0077924877 -0.023223976
000340 72 c9 ca 3c 85 ff eb 3b 11 b7 e6 bc d2 99 a2 b9
       0.02475426 0.007202091 -0.028163465 -0.00031013653
000350 08 ae ee 3c 9d 55 82 bc 15 6e d2 3c 38 32 b8 3c
       0.029135719 -0.015909964 0.025687257 0.022484884
000360 dd 27 ab bc b3 77 60 3c 56 56 74 3b f7 ac 08 3d
       -0.020893032 0.0137004135 0.0037282906 0.033368077
000370 99 ed 15 bb 12 ff 00 bb fc 6a e0 3c 9d 4f 16 bc
       -0.0022877215 -0.0019683284 0.027394764 -0.009174255
000380 f4 b3 c3 3c c6 db ac 3b c5 20 9b 3c 0b 71 47 3c
       0.02388952 0.0052752225 0.018936524 0.012172948
000390 29 16 96 3c fb ea 14 bc 98 3e 92 3a 7d e4 93 bb
       0.018321114 -0.009089227 0.001115757 -0.004513322
0003a0 7a 4f a0 bb de b4 00 3d 5d 8b 2b 3b 97 e7 d7 3b
       -0.004892287 0.03142249 0.0026175596 0.006588887
0003b0 a1 1c dc bc f7 cc b3 3c 20 c2 6b 3c 17 0b b7 bc
       -0.02686912 0.02194832 0.014389545 -0.022344155
0003c0 6d 9f e6 39 c9 a5 f5 bc 08 06 f8 3c 7a 8f e9 bb
       0.000439878 -0.02998628 0.030276313 -0.0071276994
0003d0 90 05 8c bc 5a 15 0d 3c 39 89 57 3c a5 ed 56 bc
       -0.017092496 0.008611048 0.013155275 -0.013118182
0003e0 51 4f 2b 3c 30 c9 d3 bb 7d d4 11 bd 19 bb d9 3b
       0.010455922 -0.0064631924 -0.035603035 0.006644618
0003f0 6a ea 7b bb fc 23 98 bc 71 4c 82 bc a3 96 a2 3c
       -0.0038439282 -0.018571846 -0.01590559 0.01984722

action_model._continuous_distribution.mu.bias f4 [2]
000000 be 02 02 3a fc 75 8e 39
       0.0004959515 0.00027172256

action_model._discrete_distribution.branches.0.weight f4 [1, 128]
000000 dd 4f 5e 3b 90 b9 da ba 40 f8 2b 3b 35 45 87 bc
       0.0033922114 -0.0016687382 0.0026240498 -0.016512493
000010 6a f4 e1 3a 29 eb 1b 3c 37 ed 40 bb e8 64 b1 3b
       0.0017238979 0.009516516 -0.0029438266 0.0054136403
000020 fb bb 13 bc 43 18 bc 3b 6a 44 57 bc 30 b4 56 3b
       -0.009016986 0.005740197 -0.01313887 0.0032761209
000030 ed a2 0e 3c 1b 51 a7 b8 cd c3 cf 3b fb 12 58 3c
       0.008705837 -7.9782876e-05 0.00634048 0.013188119
000040 ea 07 9c bb 37 d4 4d bb a3 18 95 bc 5f 5b 4a 3b
       -0.0047616856 -0.0031407007 -0.018200224 0.0030877215
000050 73 bb 59 bb a8 fa 63 ba 1a ba b0 bb df 74 29 bc
       -0.00332233 -0.00086967135 -0.005393279 -0.010342806
000060 df 2f 60 bb f6 bc 13 bb 68 9e 69 3c 7d d7 6f ba
       -0.003420822 -0.002254305 0.014258958 -0.0009149237
000070 60 36 83 bb 6f 01 ab 3b c0 f7 2b 3c 09 35 ae bb
       -0.0040042847 0.0052186768 0.01049608 -0.005316381
000080 d3 11 42 3c ea 6d af bb 83 db 01 3c 7a 3e ab bb
       0.01184507 -0.005353679 0.007925871 -0.0052259536
000090 ce 01 16 3c fa b1 34 bc f5 0f 54 3a e4 95 a6 3c
       0.009155704 -0.011028761 0.0008089536 0.020335145
0000a0 07 18 15 3c 20 9c 1e 3c bf bb 1f bc df 36 62 b6
       0.009099967 0.009680778 -0.009749352 -3.3708563e-06
0000b0 74 2e ae bb 44 47 21 3b eb a4 7a bc 8d 2a fb bb
       -0.0053155962 0.0024609128 -0.015298109 -0.0076649846
0000c0 a0 07 9d 3a 53 76 9a bc 63 aa 92 bb 47 ce 7e 3b
       0.0011980422 -0.01885525 -0.004475878 0.0038880275
0000d0 85 65 66 3c c0 63 4b 3b 57 70 2d bc 6a ab 77 3c
       0.01406229 0.0031034797 -0.010585866 0.015116552
0000e0 ee 85 0b bc 80 a3 14 3c 64 e6 9e bb cd 4c fc ba
       -0.008515818 0.009072185 -0.004849242 -0.0019248963
0000f0 60 b3 44 bc 93 24 96 3c 3f 29 99 bc b5 52 db 3a
       -0.012005657 0.018327987 -0.018696425 0.0016733023
000100 f9 03 cb bb 6b 50 af bb bb 4f 1e 3b 39 71 42 bc
       -0.006195542 -0.0053501627 0.002415641 -0.011867815
000110 6d 40 8f 3c e6 07 0f 3c fb e8 96 3b f6 c4 09 3c
       0.017486775 0.0087299105 0.00460541 0.008408776
000120 57 26 e3 3b a2 85 3f 3c 6f ab 12 bc c2 80 80 3c
       0.0069320607 0.011689575 -0.008952006 0.015686397
000130 3c 3c 8b 3b 82 9b fa 3b ec b7 0f 3a c7 46 4e bb
       0.004249124 0.0076479325 0.00054824236 -0.0031475292
000140 5f d0 17 bb 8a f1 97 bc d2 4a 78 bc 44 5f b7 bb
       -0.002316497 -0.018547792 -0.015154557 -0.0055960733
000150 3a e0 6b 3c 97 08 ab 3b 3b c0 29 3b 6a 3f 45 3b
       0.0143967215 0.00521953 0.0025901932 0.0030097612
000160 f7 38 8c bc f8 f9 a2 3b 28 b6 85 bb 69 47 32 3c
       -0.017117007 0.0049736463 -0.0040805526 0.010881283
000170 28 0d 15 bc 00 0f 51 bb 73 da f4 3b 8f 63 3a 3b
       -0.009097375 -0.003189981 0.0074723302 0.002844069
000180 ad 5f 41 bb 7f c0 ab bb bb 1a 97 bb 17 22 56 3c
       -0.002950649 -0.005241453 -0.004611341 0.013069651
000190 c4 d8 a2 bb a3 69 51 3a fc 5c 93 3c 3b f9 54 3c
       -0.004969688 0.00079884584 0.017988674 0.012998874
0001a0 5f e1 81 bb e5 31 82 3c 6f 4f 37 3a 50 f5 86 bb
       -0.003963634 0.015892932 0.00069927325 -0.004118599
0001b0 78 22 84 3b b3 fb 66 bb 2c 00 21 bb 5f 8a 2e 3c
       0.0040324293 -0.003524524 -0.0024566753 0.010653107
0001c0 3e d2 04 3b 3b 41 4e 3c 83 ff 7f 3b 1b 11 5e 3b
       0.0020266916 0.012588794 0.003906221 0.0033884707
0001d0 0c 94 c9 3a 83 bd 20 bc cb 2d a4 3c 3b 8d 48 bb
       0.0015379204 -0.009810808 0.020041367 -0.0030601758
0001e0 18 53 72 3b a3 c5 06 bb 88 f3 49 bc 22 04 1c bb
       0.0036975797 -0.0020564578 -0.012326129 -0.0023806174
0001f0 58 9c fc bb 17 06 27 bc 43 7e 10 3c 9f 03 47 bc
       -0.0077090673 -0.010194323 0.008819166 -0.012146859
