results/RollerAgents/RollerAgent/RollerAgent-109697.pt (torch, 431578 bytes, 39 tensors)

network_body._body_endoder.seq_layers.0.weight f4 [128, 1]
1.0920473 0.84251016 0.47547656 -0.5095047 1.0239264 0.045623466 0.5876509 0.0016975297
-1.0855378 -0.16417488 0.20551129 0.5214271 2.0985382 0.7922525 -2.1762438 -0.46739167
0.78231287 1.4331312 -0.098128505 0.15216844 -1.4733937 0.6440853 1.7148125 0.4531473
2.5886369 -1.8699088 1.424775 -0.2814819 0.51376957 0.36272377 0.7522715 0.50778383
0.8402009 0.33860454 0.48972437 -0.79838157 -0.29298764 -0.48799282 -0.17214684 0.10683676
0.49877724 -1.0357205 1.1350294 1.2796034 0.2939845 1.1359516 -0.06632166 -1.0327965
-0.088148154 -1.8444513 0.32028967 -2.3985937 0.23680909 1.3358548 -1.3689468 0.7912664
0.70585644 0.18175164 0.1647847 -0.28473818 -0.2256595 0.5199562 0.11613841 1.8279572
0.708055 1.8975683 -0.19606875 0.6503522 1.242516 1.3531213 1.5721484 1.1834967
-0.46678075 0.33013773 0.66659963 0.41170263 -0.8131503 -0.43013155 0.7852599 -0.2183697
0.6644872 0.62651193 -0.15181974 -1.0717773 -0.39124572 0.029395655 -0.98345554 0.9438999
2.3205795 1.3346872 0.08394864 0.61297554 -0.19816096 -0.47785565 1.4605949 -0.3472214
-0.5373069 0.8416233 1.2357925 0.1889939 0.86634284 -0.81896067 -0.1725872 -0.379859
-1.1011696 1.3923737 0.93961304 -0.27748665 -1.6512033 0.4969566 0.044606205 1.0171207
-0.627476 0.9287423 -0.30631602 0.97754735 -0.7272562 0.1806207 -0.75423765 0.9917709
1.7359059 -1.2379742 1.1944865 0.66522974 0.65859246 0.7836803 0.06093087 -1.1606561
00000000: 35c8 8b3f bfae 573f aa71 f33e e66e 02bf
00000010: 0510 833f acdf 3a3d 4a70 163f a57f de3a
00000020: e7f2 8abf 761d 28be 8d71 523e 3f7c 053f
00000030: 734e 0640 0fd1 4a3f 9447 0bc0 f64d efbe
00000040: a845 483f d870 b73f 99f7 c8bd 0bd2 1b3e
00000050: 2a98 bcbf c6e2 243f fa7e db3f ec02 e83e
00000060: 3aac 2540 2c59 efbf 075f b63f 651e 90be
00000070: 6786 033f eeb6 b93e dd94 403f 1ffe 013f
00000080: 6817 573f 935d ad3e 27bd fa3e bc62 4cbf
00000090: 7a02 96be 32da f9be 4347 30be 3bcd da3d
000000a0: bb5f ff3e 7d92 84bf a548 913f 0bca a33f
000000b0: 2385 963e dd66 913f a7d3 87bd ad32 84bf
000000c0: 0587 b4bd fb16 ecbf 02fd a33e 8f82 19c0
000000d0: 157e 723e 4afd aa3f a639 afbf 6f90 4a3f
000000e0: 02b3 343f 1a1d 3a3e 52bd 283e 34c9 91be
000000f0: 4913 67be d91b 053f fad9 ed3d 80fa e93f
00000100: 1843 353f 85e3 f23f 3fc6 48be 7b7d 263f
00000110: c40a 9f3f 1433 ad3f 293c c93f d27c 973f
00000120: e3fd eebe d007 a93e 46a6 2a3f b0ca d23e
00000130: 9e2a 50bf 343a dcbe cb06 493f 4e9c 5fbe
00000140: d51b 2a3f 1663 203f a276 1bbe 0030 89bf
00000150: 5c51 c8be 28cf f03c bec3 7bbf 6da3 713f
00000160: 6084 1440 08d7 aa3f 44ed ab3d f7eb 1c3f
00000170: b5ea 4abe 7fa9 f4be c6f4 ba3f 01c7 b1be
00000180: f28c 09bf a074 573f 732e 9e3f 9e87 413e
00000190: a5c8 5d3f 68a7 51bf b3ba 30be e17c c2be
000001a0: 20f3 8cbf 4d39 b23f 7b8a 703f bb12 8ebe
000001b0: a15a d3bf 1871 fe3e ffb4 363d 0331 823f
000001c0: 44a2 20bf 0ec2 6d3f 74d5 9cbe 8b40 7a3f
000001d0: 762d 3abf a2f4 383e b815 41bf b3e4 7d3f
000001e0: 2a32 de3f f075 9ebf efe4 983f 7f4c 2a3f
000001f0: 8499 283f 469f 483f a692 793d 6190 94bf

network_body._body_endoder.seq_layers.0.bias f4 [128]
-0.00010658078 -0.0016910264 0.00014398107 -0.00029157312 -0.0012557267 0.00014244419 -0.0017825646 -0.0025441805
0.0031190934 -0.00023216584 -0.0021581368 0.0002431043 -0.0010204989 -0.00041227686 -0.00040555996 -0.00095551135
-0.0010499753 -0.0016994934 0.000781837 0.0009722129 -0.0033957257 -0.00019188752 -0.0068928977 0.0005405687
-0.000114508264 -0.0005670188 -0.00033057143 -8.4623105e-05 0.00070898625 -0.003808007 1.5648244e-05 8.557898e-05
-4.943671e-05 0.000102074446 7.71523e-05 -0.00071231974 -0.0002365025 -0.0002608468 0.0023217297 0.0021351522
-0.0014258587 -0.0011712231 -0.0022754527 -0.002833503 -0.0013585445 -0.000818992 0.0008469914 0.0017001915
0.00029243744 4.224629e-05 0.00069515285 0.00025809798 0.00024102344 0.000285447 0.0009141199 -0.00044916978
-0.0016252274 -1.4297191e-05 0.00049477187 -0.0018309191 -0.00019397166 -0.00012266885 -0.00049013505 -0.0006293858
0.001814023 -0.003604899 -0.0011343705 -0.00084335037 0.004305923 -0.0024190403 0.00092573767 -0.0016179251
-0.00024118528 -0.0013318257 -0.0015444838 0.00017857202 -0.0004919568 -0.000491904 -0.006115142 0.0006158437
-0.0022632238 -0.00019547464 0.00052570127 -0.00038378712 -0.0015364396 -0.0008800757 0.0017283823 -0.009386594
-0.0032399958 -0.0009240858 -0.00051066506 -0.0010141465 0.0016177148 -0.0010030334 4.1440394e-06 -0.0032850814
0.0010593281 -0.002182226 -0.00049826194 -0.0010975556 -0.0013016576 0.0012053606 0.0009681208 -0.00072182243
4.0615603e-05 -0.0020878618 0.000762093 -0.0026330915 -0.00020557376 -0.00049899874 -0.002375354 -0.00074632023
0.00011269449 -0.004290313 -0.00013074446 -0.0007706678 0.0018376312 0.0008946521 -0.0036834085 -0.0013910896
-0.0021251708 -0.00037386603 -0.00046700338 0.00094762974 -0.001989393 -0.009162607 0.0016307653 -0.00090306014
00000000: 1f84 dfb8 6ea5 ddba a0f9 1639 48de 98b9
00000010: 3297 a4ba 125d 1539 f1a4 e9ba 44bc 26bb
00000020: b469 4c3b 8b71 73b9 876f 0dbb d0e9 7e39
00000030: 43c2 85ba dd26 d8b9 56a1 d4b9 487b 7aba
00000040: 539f 89ba 89c1 deba 31f4 4c3a 1adc 7e3a
00000050: d38a 5ebb 6a35 49b9 d1dd e1bb f4b4 0d3a
00000060: 2824 f0b8 fda3 14ba 8c50 adb9 af77 b1b8
00000070: 43db 393a c28f 79bb 5944 8337 dd78 b338
00000080: 435a 4fb8 cd10 d638 d3cc a138 f8ba 3aba
00000090: a8fd 77b9 44c2 88b9 2928 183b e9ed 0b3b
000000a0: e1e3 baba ba83 99ba c31f 15bb 4bb2 39bb
000000b0: 3011 b2ba 9fb1 56ba a108 5e3a f6d8 de3a
000000c0: 4a52 9939 9c31 3138 eb3a 363a 5351 8739
000000d0: 3dbb 7c39 0ca8 9539 8ca1 6f3a 8c7e ebb9
000000e0: 9505 d5ba f8dd 6fb7 94b3 013a 73fb efba
000000f0: df64 4bb9 aba0 00b9 687c 00ba 5efd 24ba
00000100: 83c4 ed3a 2b40 6cbb 28af 94ba 4914 5dba
00000110: b318 8d3b c388 1ebb 34ad 723a 8f10 d4ba
00000120: aee6 7cb9 a890 aeba 4770 caba 103f 3b39
00000130: a9f6 00ba 1ef3 00ba 8761 c8bb 9270 213a
00000140: 9852 14bb 53f8 4cb9 37cf 093a 0937 c9b9
00000150: 5c62 c9ba e1b4 66ba e38a e23a 3bca 19bc
00000160: 1c56 54bb 593e 72ba 27de 05ba 1ced 84ba
00000170: 8009 d43a 3778 83ba 070d 8b36 854a 57bb
00000180: 27d9 8a3a ad03 0fbb cb9d 02ba dbdb 8fba
00000190: 629c aaba 31fd 9d3a 7dc9 7d3a af38 3dba
000001a0: ac5a 2a38 82d4 08bb 32c7 473a f28f 2cbb
000001b0: 498f 57b9 3dcf 02ba d4ab 1bbb b4a4 43ba
000001c0: 6556 ec38 c195 8cbb 7318 09b9 a406 4aba
000001d0: acdc f03a 1687 6a3a 5765 71bb 3955 b6ba
000001e0: 7346 0bbb 7303 c4b9 22d8 f4b9 5b6a 783a
000001f0: 7a60 02bb c21e 16bc 67bf d53a 57bb 6cba

network_body._body_endoder.seq_layers.2.weight f4 [128, 128]
-0.086100146 -0.07409177 0.09574567 0.00809938 0.15181527 0.019127103 -0.13748449 0.056070406
0.07156722 0.029441996 0.019798877 0.03350393 -0.0013976368 0.08056908 0.02173282 0.074552685
-0.054614097 -0.02396313 0.035540357 -0.043565102 0.039038096 0.11686362 -0.055494417 -0.0057094893
-0.005894832 0.0057144775 0.12156309 0.012563948 -0.035112597 -0.019869274 0.07725439 0.056439295
-0.029766407 -0.19879395 0.015073959 0.041721333 0.023480365 -0.050428547 0.2640022 0.12758428
-0.09490059 0.11077983 -0.052434113 -0.04842478 0.01345858 0.0414548 0.08563729 0.057974268
-0.089926824 -0.058490507 -0.029649952 0.11985641 0.101639435 0.008850423 -0.09361524 -0.16497667
-0.05859567 0.070255734 -0.06796721 0.03305972 0.062546745 -0.01783088 -0.06750164 0.06683056
0.053664092 -0.038094264 -0.00427726 -0.048788004 -0.02192088 0.20542319 0.073308684 0.020714212
0.06272642 -0.021284683 0.11680492 -0.15498677 0.124760926 0.14844403 -0.09225865 0.029415838
0.01485465 0.044093005 -0.0664486 0.0021259964 -0.04001441 -0.034619853 0.13462351 0.19698097
0.029915068 0.024788132 -0.03329409 0.011587943 0.16364053 0.17407803 0.0068601724 -0.053204443
-0.063459516 -0.03598641 -0.053821664 -0.15278961 0.016546037 -0.008316324 0.02156914 -0.13058454
0.07116808 0.06426172 0.059671775 -0.12111203 0.014896818 -0.020452525 -0.02474917 0.050805192
0.015729316 -0.05984504 -0.0532501 -0.06104367 -0.031389 0.052563835 -0.114918806 -0.059763912
-0.0024973634 0.00510957 0.05047611 -0.23950824 0.0065974146 -0.027941592 0.028469505 -0.010374487
0.08651313 -0.15343426 0.21571644 0.07092874 0.01837189 -0.038616035 -0.12868837 -0.09063914
-0.06377701 0.17755413 -0.05820318 0.058512993 -0.0057438198 0.12570845 -0.010467263 0.19232768
-0.0017574981 8.098376e-06 0.18765678 -0.073291056 0.044276323 -0.06745148 0.056833595 -0.010894348
0.10976034 0.005712311 0.04894144 0.008685812 0.08515292 0.08742365 0.10787084 0.11074261
0.05944878 0.09569814 0.115468904 0.05330158 -0.12776008 0.045480575 0.040696725 0.037022274
-0.15141654 0.018458625 -0.109992556 -0.04786393 -0.024414547 -0.029722473 0.11276476 -0.2308688
0.003822294 -0.03792177 -0.12633337 -0.009341088 -0.1823052 -0.033623666 -0.04817622 0.014238301
0.033690184 0.051859554 0.01875549 -0.06385139 0.07096301 -0.01041497 0.045533717 -0.09726279
-0.014505587 -0.034603827 0.112390675 0.021727882 0.039292112 -0.02035513 -0.15201287 -0.05822028
-0.21724734 0.019463176 -0.031695683 0.02090697 0.12221733 0.049667813 0.029662041 0.012795231
-0.010781152 0.059616126 0.09378395 0.09188131 -0.0058311587 -0.031222349 0.05847201 -0.12096675
-0.12070458 -0.051153034 0.024449687 0.009535062 -0.0017019588 -0.08166875 -0.10178723 0.04415877
0.006713813 -0.058127724 -0.12610365 0.09954496 -0.07829466 -0.101258524 -0.024108257 0.0076210727
0.01135195 0.020059936 0.026085248 0.12881875 0.049750354 -0.059803527 -0.11801338 -0.06164538
-0.05856589 -0.05261538 -0.06440162 -0.108259134 -0.0042256517 -0.03499128 -0.010150189 -0.05285946
-0.1455111 0.15245308 0.010912299 -0.11919226 0.00050880306 0.13969024 0.020801121 -0.07700795
00000000: 4655 b0bd 6dbd 97bd 4e16 c43d 43b3 043c
00000010: 7675 1b3e 71b0 9c3c bcc8 0cbe 15aa 653d
00000020: d691 923d 5730 f13c 4131 a23c 6b3b 093d
00000030: e930 b7ba 6701 a53d 0709 b23c 14af 983d
00000040: 08b3 5fbd 534e c4bc c492 113d 5271 32bd
00000050: 69e6 1f3d 3256 ef3d 1d4e 63bd ab16 bbbb
00000060: 6f29 c1bb 8340 bb3b 12f6 f83d 04d9 4d3c
00000070: 3ad2 0fbd e3c4 a2bc 8d37 9e3d e42c 673d
00000080: aed8 f3bc a490 4bbe c4f8 763c fde3 2a3d
00000090: e559 c03c 2a8e 4ebd 4c2b 873e 74a5 023e
000000a0: 3e5b c2bd 89e0 e23d 27c5 56bd 1059 46bd
000000b0: 6081 5c3c 82cc 293d 9a62 af3d 6d76 6d3d
000000c0: 8e2b b8bd be93 6fbd 75e4 f2bc 4777 f53d
000000d0: 5628 d03d 5d01 113c 59b9 bfbd a5ef 28be
000000e0: 0302 70bd 3de2 8f3d 6532 8bbd a169 073d
000000f0: 8218 803d 1112 92bc 4d3e 8abd 76de 883d
00000100: e1ce 5b3d bb08 1cbd 4228 8cbb eed5 47bd
00000110: 6b93 b3bc 755a 523e dd22 963d dab0 a93c
00000120: b676 803d 375d aebc 6b37 ef3d dab4 1ebe
00000130: a882 ff3d b601 183e 1af2 bcbd 7cf9 f03c
00000140: eb60 733c de9a 343d 3416 88bd 4d54 0b3b
00000150: 26e6 23bd 8ccd 0dbd bfda 093e 61b5 493e
00000160: 7210 f53c 7b10 cb3c 625f 08bd 5bdb 3d3c
00000170: 6291 273e 8341 323e 4ccb e03b e7ec 59bd
00000180: 10f7 81bd 7c66 13bd 1b74 5cbd e174 1cbe
00000190: 8e8b 873c 3141 08bc c4b1 b03c f4b7 05be
000001a0: 92c0 913d a69b 833d 646a 743d 9609 f8bd
000001b0: c911 743c 0e8c a7bc c5be cabc 1b19 503d
000001c0: c4da 803c 1320 75bd c71c 5abd ed08 7abd
000001d0: c191 00bd 2d4d 573d 8d5a ebbd 01cb 74bd
000001e0: ceaa 23bb 2e6e a73b 0ac0 4e3d a641 75be
000001f0: 202f d83b c4e5 e4bc e138 e93c c1f9 29bc
00000200: cc2d b13d df1d 1dbe c5e4 5c3e 1643 913d
00000210: a580 963c d92b 1ebd e2c6 03be 03a1 b9bd
00000220: 859d 82bd c0d0 353e 7566 6ebd 52ab 6f3d
00000230: a736 bcbb b7b9 003e e27e 2bbc 8cf1 443e
00000240: da5b e6ba 43de 0737 1929 403e 9f19 96bd
00000250: 175b 353d 0024 8abd 58ca 683d 357e 32bc
00000260: 07ca e03d 562e bb3b d276 483d f04e 0e3c
00000270: a764 ae3d 2c0b b33d 63eb dc3d 06cd e23d
00000280: 9080 733d 63fd c33d f67a ec3d c252 5a3d
00000290: 8ad3 02be d749 3a3d 9cb1 263d aba4 173d
000002a0: f00c 1bbe 8b36 973c c743 e1bd f80c 44bd
000002b0: 0401 c8bc 8b7c f3bc 36f1 e63d df68 6cbe
000002c0: 747f 7a3b dc53 1bbd 895d 01be 5d0b 19bc
000002d0: 37ae 3abe f8b8 09bd 6e54 45bd c347 693c
000002e0: b8fe 093d af6a 543d 1da5 993c 84c4 82bd
000002f0: 0e55 913d 8da3 2abc 9081 3a3d b731 c7bd
00000300: d7a8 6dbc bebc 0dbd 152d e63d acfe b13c
00000310: c4f0 203d cdbf a6bc 43a9 1bbe 6378 6ebd
00000320: 1676 5ebe 3d71 9f3c 55d3 01bd 1845 ab3c
00000330: 144d fa3d 7a70 4b3d cffd f23c 17a3 513c
00000340: 6ea3 30bc 0a30 743d cd11 c03d 452c bc3d
00000350: 4e13 bfbb 03c6 ffbc 5980 6f3d 6abd f7bd
00000360: f633 f7bd d885 51bd b64a c83c f338 1c3c
00000370: 4314 dfba f241 a7bd d375 d0bd d4df 343d
00000380: 8cff db3b 5617 6ebd 5121 01be 3ade cb3d
00000390: f358 a0bd a160 cfbd ae7e c5bc 31ba f93b
000003a0: 87fd 393c bc54 a43c bbb0 d53c 10e9 033e
000003b0: 07c7 4b3d 8bf4 74bd 00b1 f1bd de7f 7cbd
000003c0: c9e2 6fbd 3a83 57bd ffe4 83bd f7b6 ddbd
000003d0: 5677 8abb 0453 0fbd fa4c 26bc 2983 58bd
000003e0: dd00 15be a91c 1c3e 80c9 323c 121b f4bd
000003f0: 3261 053a f50a 0f3e 1d67 aa3c 58b6 9dbd

network_body._body_endoder.seq_layers.2.bias f4 [128]
-0.0014861921 -0.0011200072 0.0006276887 -0.0007046739 -0.0011277503 -0.0017453026 -0.0013216764 -0.0015351526
-0.00086801994 -0.00033543623 -0.0010391568 -0.00037823562 -0.0011692361 -0.0008159473 -8.428024e-06 -0.001882461
4.4020002e-05 -0.00014086031 -0.00037726635 -0.00051333784 -0.00020831966 -0.00076639873 -0.0011004625 -0.0016375402
0.00074581587 -0.0008769785 -0.0018388295 -0.0013640331 -0.0002868706 -0.00026513805 -0.0020652828 -0.0010143607
-0.0008616109 -0.00011618865 -0.0008656364 -0.00088491384 4.9458722e-05 -0.001318684 -0.0014758437 -0.0007949663
-0.00088899984 -0.003442127 -0.0005323216 -0.0031689804 -0.00044763897 -0.0013245773 -0.0013286979 -0.0006489192
0.0010741969 -0.0012074924 -0.001363177 -0.0011691235 6.0770635e-05 -5.4730895e-06 -0.0015793871 -0.0004450252
-0.0020895381 -0.00035494732 6.594893e-06 -0.0011038762 -0.0010704873 -0.00069804664 -0.0009757134 -0.00045026635
-0.00031898404 -0.00060188497 -0.00079526525 -0.001391466 -0.0013055941 -0.0015477486 8.980126e-05 -0.0007816559
-0.0017387436 -0.0003780864 -0.002105925 -0.0007625367 -0.0017469098 -0.0020023827 -0.001855163 0.00035733715
-0.0016898371 -0.0014533219 -0.00022820265 -0.0012339718 -0.00089569227 -0.0019126514 -0.0012016263 -0.00039279563
-0.0014187315 -0.00018598507 -0.0026871618 -0.00044374846 -0.0013370081 -0.00030112686 -0.0009684203 -0.0011035406
-0.00031824698 -0.0012514885 -0.00092316157 -0.0006174433 -0.00024034336 -0.0011669734 -0.000772784 0.0002355223
-0.0021689837 -0.00034597912 -0.002660229 -0.0005520674 -0.0005790612 -8.6076834e-05 -0.0012610407 -0.0008048304
-0.0055310405 -0.0008674023 1.832937e-05 -0.0010759451 -0.00092311425 -0.00049743115 -0.0016382165 -0.0019602105
-0.0019444803 -0.0013843991 -0.001978829 -0.0012470087 -0.0018471564 0.00015617968 -0.00048503125 -0.00030703365
00000000: 55cc c2ba 35cd 92ba 7a8b 243a ddb9 38ba
00000010: 05d1 93ba a3c2 e4ba 1a3c adba 2c37 c9ba
00000020: d58b 63ba 7ddd afb9 5134 88ba ed4d c6b9
00000030: 0e41 99ba 4ce5 55ba 1666 0db7 e9bc f6ba
00000040: 1ea2 3838 e7b3 13b9 d5cb c5b9 8591 06ba
00000050: 6270 5ab9 26e8 48ba 653d 90ba bba2 d6ba
00000060: db82 433a 08e5 65ba e104 f1ba 5bc9 b2ba
00000070: 1f67 96b9 3a02 8bb9 b259 07bb 4cf4 84ba
00000080: bbdd 61ba 4eaa f3b8 e0eb 62ba 90f9 67ba
00000090: e671 4f38 b1d7 acba 1971 c1ba 4965 50ba
000000a0: c50b 69ba 4f95 61bb 7f8b 0bba abae 4fbb
000000b0: 16b1 eab9 709d adba b427 aeba 3b1c 2aba
000000c0: 11cc 8c3a b944 9eba a1ac b2ba 463d 99ba
000000d0: f9e3 7e38 7ba5 b7b6 7003 cfba 4552 e9b9
000000e0: a2f0 08bb 3918 bab9 b349 dd36 f0af 90ba
000000f0: 984f 8cba 1efd 36ba 05c7 7fba ba11 ecb9
00000100: 503d a7b9 d1c7 1dba 5979 50ba da61 b6ba
00000110: 7820 abba d3dd caba af53 bc38 0ae8 4cba
00000120: 8ee6 e3ba e639 c6b9 8f03 0abb f9e4 47ba
00000130: 91f8 e4ba 683a 03bb f128 f3ba fb58 bb39
00000140: 867d ddba 647d beba af49 6fb9 39bd a1ba
00000150: e4cc 6aba eeb1 faba e37f 9dba 23f0 cdb9
00000160: bbf4 b9ba fd04 43b9 181b 30bb e9a6 e8b9
00000170: 8c3e afba 90e0 9db9 96dd 7dba aea4 90ba
00000180: 63da a6b9 fc08 a4ba 5300 72ba ebdb 21ba
00000190: ae04 7cb9 21f5 98ba a894 4aba 89f6 7639
000001a0: 8225 0ebb 8864 b5b9 3d57 2ebb 9eb8 10ba
000001b0: 24cc 17ba 2684 b4b8 8149 a5ba 41fb 52ba
000001c0: bb3d b5bb 6262 63ba 06c2 9937 ba06 8dba
000001d0: 26fd 71ba 0a66 02ba 6db9 d6ba e076 00bb
000001e0: efdd feba ba74 b5ba 3eaf 01bb ab72 a3ba
000001f0: 491c f2ba 2ac4 2339 cb4b feb9 5cf9 a0b9

action_model._continuous_distribution.log_sigma f4 [1, 2]
-0.03451786 -0.030959748
00000000: 9962 0dbd 4c9f fdbc

action_model._continuous_distribution.mu.weight f4 [2, 128]
-0.0059853485 -0.014842397 -0.0058974 -0.011472711 0.012564538 -0.003500046 -0.03604926 -0.019621685
0.011668024 -0.013107799 -0.0042670607 0.0042275586 -0.0077825915 -0.016577723 0.012936588 -0.00843318
-0.0059862053 -0.024587182 -0.011919137 -0.003068641 -0.0046962793 -0.00617837 -0.008420423 0.014219711
-0.016521733 0.016258739 0.016598368 0.009913954 0.00035835567 0.010812488 -0.007330777 -0.016103335
-0.0062428066 0.011323702 -0.017341558 -0.016970249 -0.018488035 -0.019973354 0.0048183273 -0.01990645
-0.0049306685 0.002299148 0.009857604 -0.0023695077 0.026936976 -0.008682607 0.016700821 0.033237197
0.027144661 -0.015766364 -0.022964876 -0.009540875 -0.020636154 -0.00026171101 -0.00596802 0.01915372
-0.015781706 -7.551562e-05 0.018100392 -0.014016808 -0.014099634 0.017512525 0.007172079 0.051771846
-0.015473375 0.004871116 -0.027428353 -0.017564535 0.02159621 -0.02459383 0.018009905 0.01260613
0.019934222 0.026465688 -0.014870196 -0.00010607095 0.02621592 0.020984696 0.006360809 -0.0060374085
0.008488993 -0.017942766 0.018249718 -0.00030416544 -0.011615193 -0.000889979 0.029039461 0.024554761
0.01689499 0.01018058 0.0015417208 -0.0026400695 -0.01783923 0.011577491 -0.0017769199 0.019101119
0.032334853 -0.0050589805 0.0034316105 0.0028775746 0.030009504 0.03406476 0.0003258062 0.03286332
0.003108455 -0.031209417 0.004298171 -0.013991713 -0.022875275 0.008705574 0.02857986 -0.0034932625
0.0010009778 -0.024815628 0.012804661 0.007962567 0.002866962 -0.011696329 -0.02656088 0.0034056124
0.007455617 -0.026478902 0.0019278562 0.011218575 -0.005241272 -5.0849514e-05 0.022782216 -0.009673233
-0.0071028685 0.002060609 -0.028958455 0.006096959 -0.003398793 -0.0023772132 0.022456741 0.012614973
0.014784993 0.012794174 -0.006778642 0.008806992 -0.015513879 -0.0045012934 0.027778646 0.004719066
-0.0031537071 0.012198296 0.012502624 0.0137802055 -0.025774965 -0.022832535 -0.040399197 0.00318043
0.0027154214 0.004641178 0.011591048 0.020850653 0.00012247587 0.00197521 0.0028668332 -0.0011306782
-0.018467486 0.015058231 -0.0136527 -0.014597658 0.0017843836 -0.02491518 -0.011098437 -0.018994275
0.02662775 0.00012369569 0.0019324603 0.00029637336 -0.011612306 0.015987016 -0.014463391 0.01666279
-0.020192876 -0.0018808712 -0.043190036 -0.008020668 -0.04412571 -0.00034122064 -0.0051551596 -0.036644924
-0.0046202214 6.539468e-05 0.0016583733 -0.0003146966 -0.0009821844 -0.042487346 -0.010746579 -0.024072621
0.01171923 0.010227832 -0.009994544 0.0076699248 -0.025441322 0.0064490573 0.025343595 -0.009248105
-0.009285721 0.0029448401 -0.0002975838 -5.687892e-06 -0.003544716 -0.013826389 0.0077924877 -0.023223976
0.02475426 0.007202091 -0.028163465 -0.00031013653 0.029135719 -0.015909964 0.025687257 0.022484884
-0.020893032 0.0137004135 0.0037282906 0.033368077 -0.0022877215 -0.0019683284 0.027394764 -0.009174255
0.02388952 0.0052752225 0.018936524 0.012172948 0.018321114 -0.009089227 0.001115757 -0.004513322
-0.004892287 0.03142249 0.0026175596 0.006588887 -0.02686912 0.02194832 0.014389545 -0.022344155
0.000439878 -0.02998628 0.030276313 -0.0071276994 -0.017092496 0.008611048 0.013155275 -0.013118182
0.010455922 -0.0064631924 -0.035603035 0.006644618 -0.0038439282 -0.018571846 -0.01590559 0.01984722
00000000: be20 c4bb 862d 73bc fa3e c1bb 0af8 3bbc
00000010: 7edb 4d3c 0761 65bb 64a8 13bd a8bd a0bc
00000020: 3d2b 3f3c 18c2 56bc b3d2 8bbb 5587 8a3b
00000030: 1c05 ffbb 01ce 87bc fcf3 533c 522b 0abc
00000040: ee27 c4bb 0f6b c9bc 7c48 43bc 411b 49bb
00000050: 3fe3 99bb ed73 cabb d0f5 09bc caf9 683c
00000060: 9658 87bc 0c31 853c 4df9 873c 236e 223c
00000070: afe1 bb39 dd26 313c 0437 f0bb 24eb 83bc
00000080: 7590 ccbb 0c87 393c e20f 8ebc 3105 8bbc
00000090: 3874 97bc 299f a3bc 0fe3 9d3b da12 a3bc
000000a0: 7291 a1bb 4dad 163b ca81 213c be49 1bbb
000000b0: efaa dc3c 7e41 0ebc 29d0 883c ba23 083d
000000c0: 7b5e de3c 7628 81bc d620 bcbc 5551 1cbc
000000d0: 270d a9bc 4236 89b9 618f c3bb 43e8 9c3c
000000e0: a348 81bc 245e 9eb8 4647 943c c1a6 65bc
000000f0: 2702 67bc 6d76 8f3c c203 eb3b b70e 543d
00000100: 0a84 7dbc e29d 9f3b 6db1 e0bc 80e3 8fbc
00000110: 89ea b03c 0079 c9bc 8289 933c f189 4e3c
00000120: 184d a33c 92ce d83c 1fa2 73bc 6872 deb8
00000130: c5c2 d63c 19e8 ab3c 556e d03b 74d5 c5bb
00000140: 6b15 0b3c b5fc 92bc 6f80 953c 6578 9fb9
00000150: a74d 3ebc 7b4d 69ba 2ae4 ed3c 1127 c93c
00000160: 5d67 8a3c 73cc 263c 9113 ca3a 0405 2dbb
00000170: 9423 92bc 84af 3d3c 8ae7 e8ba f379 9c3c
00000180: 8d71 043d cec5 a5bb dfe4 603b b195 3c3b
00000190: 7ed6 f53c 7d87 0b3d f8d0 aa39 b09b 063d
000001a0: 39b7 4b3b e4aa ffbc acd7 8c3b 7f3d 65bc
000001b0: ee64 bbbc d3a1 0e3c 5020 ea3c 38ef 64bb
000001c0: 3e33 833a 254a cbbc a4ca 513c 6d75 023c
000001d0: a4e3 3b3b f6a1 3fbc 3496 d9bc b230 5f3b
000001e0: 404e f43b 48ea d8bc 1fb0 fc3a 1dce 373c
000001f0: fabe abbb 4047 55b8 c5a1 ba3c 7b7c 1ebc
00000200: 2ebf e8bb 480b 073b 483a edbc 00c9 c73b
00000210: 49be 5ebb 05cb 1bbb 33f7 b73c 08af 4e3c
00000220: c13c 723c a89e 513c 5f1f debb 344b 103c
00000230: ed2d 7ebc 967f 93bb 0b90 e33c 65a2 9a3b
00000240: 6dae 4ebb 5ddb 473c ced7 4c3c 5fc6 613c
00000250: 0526 d3bc 4c0b bbbc a179 25bd c36e 503b
00000260: 36f5 313b 0615 983b 61e8 3d3c fdce aa3c
00000270: de6c 0039 8672 013b 7be1 3b3b 4433 94ba
00000280: 2049 97bc ccb6 763c 93af 5fbc 042b 6fbc
00000290: fae1 e93a eb1a ccbc 38d6 35bc e299 9bbc
000002a0: 7022 da3c 4fb4 0139 9c4a fd3a 8f62 9b39
000002b0: 8b41 3ebc 34f7 823c dcf7 6cbc 6780 883c
000002c0: 886b a5bc 9187 f6ba 09e8 30bd 1f69 03bc
000002d0: 29bd 34bd dce5 b2b9 9dec a8bb fd18 16bd
000002e0: 3a65 97bb 8024 8938 c65d d93a ddfd a4b9
000002f0: a4bc 80ba 3607 2ebd 6b12 30bc f233 c5bc
00000300: 0302 403c a392 273c 28c0 23bc fe53 fb3b
00000310: 526a d0bc 9d52 d33b 5f9d cf3c 5d85 17bc
00000320: 2323 18bc 38fe 403b 0605 9cb9 9fda beb6
00000330: 774e 68bb 1488 62bc 2058 ff3b 3540 bebc
00000340: 72c9 ca3c 85ff eb3b 11b7 e6bc d299 a2b9
00000350: 08ae ee3c 9d55 82bc 156e d23c 3832 b83c
00000360: dd27 abbc b377 603c 5656 743b f7ac 083d
00000370: 99ed 15bb 12ff 00bb fc6a e03c 9d4f 16bc
00000380: f4b3 c33c c6db ac3b c520 9b3c 0b71 473c
00000390: 2916 963c fbea 14bc 983e 923a 7de4 93bb
000003a0: 7a4f a0bb deb4 003d 5d8b 2b3b 97e7 d73b
000003b0: a11c dcbc f7cc b33c 20c2 6b3c 170b b7bc
000003c0: 6d9f e639 c9a5 f5bc 0806 f83c 7a8f e9bb
000003d0: 9005 8cbc 5a15 0d3c 3989 573c a5ed 56bc
000003e0: 514f 2b3c 30c9 d3bb 7dd4 11bd 19bb d93b
000003f0: 6aea 7bbb fc23 98bc 714c 82bc a396 a23c

action_model._continuous_distribution.mu.bias f4 [2]
0.0004959515 0.00027172256
00000000: be02 023a fc75 8e39

action_model._discrete_distribution.branches.0.weight f4 [1, 128]
0.0033922114 -0.0016687382 0.0026240498 -0.016512493 0.0017238979 0.009516516 -0.0029438266 0.0054136403
-0.009016986 0.005740197 -0.01313887 0.0032761209 0.008705837 -7.9782876e-05 0.00634048 0.013188119
-0.0047616856 -0.0031407007 -0.018200224 0.0030877215 -0.00332233 -0.00086967135 -0.005393279 -0.010342806
-0.003420822 -0.002254305 0.014258958 -0.0009149237 -0.0040042847 0.0052186768 0.01049608 -0.005316381
0.01184507 -0.005353679 0.007925871 -0.0052259536 0.009155704 -0.011028761 0.0008089536 0.020335145
0.009099967 0.009680778 -0.009749352 -3.3708563e-06 -0.0053155962 0.0024609128 -0.015298109 -0.0076649846
0.0011980422 -0.01885525 -0.004475878 0.0038880275 0.01406229 0.0031034797 -0.010585866 0.015116552
-0.008515818 0.009072185 -0.004849242 -0.0019248963 -0.012005657 0.018327987 -0.018696425 0.0016733023
-0.006195542 -0.0053501627 0.002415641 -0.011867815 0.017486775 0.0087299105 0.00460541 0.008408776
0.0069320607 0.011689575 -0.008952006 0.015686397 0.004249124 0.0076479325 0.00054824236 -0.0031475292
-0.002316497 -0.018547792 -0.015154557 -0.0055960733 0.0143967215 0.00521953 0.0025901932 0.0030097612
-0.017117007 0.0049736463 -0.0040805526 0.010881283 -0.009097375 -0.003189981 0.0074723302 0.002844069
-0.002950649 -0.005241453 -0.004611341 0.013069651 -0.004969688 0.00079884584 0.017988674 0.012998874
-0.003963634 0.015892932 0.00069927325 -0.004118599 0.0040324293 -0.003524524 -0.0024566753 0.010653107
0.0020266916 0.012588794 0.003906221 0.0033884707 0.0015379204 -0.009810808 0.020041367 -0.0030601758
0.0036975797 -0.0020564578 -0.012326129 -0.0023806174 -0.0077090673 -0.010194323 0.008819166 -0.012146859
00000000: dd4f 5e3b 90b9 daba 40f8 2b3b 3545 87bc
00000010: 6af4 e13a 29eb 1b3c 37ed 40bb e864 b13b
00000020: fbbb 13bc 4318 bc3b 6a44 57bc 30b4 563b
00000030: eda2 0e3c 1b51 a7b8 cdc3 cf3b fb12 583c
00000040: ea07 9cbb 37d4 4dbb a318 95bc 5f5b 4a3b
00000050: 73bb 59bb a8fa 63ba 1aba b0bb df74 29bc
00000060: df2f 60bb f6bc 13bb 689e 693c 7dd7 6fba
00000070: 6036 83bb 6f01 ab3b c0f7 2b3c 0935 aebb
00000080: d311 423c ea6d afbb 83db 013c 7a3e abbb
00000090: ce01 163c fab1 34bc f50f 543a e495 a63c
000000a0: 0718 153c 209c 1e3c bfbb 1fbc df36 62b6
000000b0: 742e aebb 4447 213b eba4 7abc 8d2a fbbb
000000c0: a007 9d3a 5376 9abc 63aa 92bb 47ce 7e3b
000000d0: 8565 663c c063 4b3b 5770 2dbc 6aab 773c
000000e0: ee85 0bbc 80a3 143c 64e6 9ebb cd4c fcba
000000f0: 60b3 44bc 9324 963c 3f29 99bc b552 db3a
00000100: f903 cbbb 6b50 afbb bb4f 1e3b 3971 42bc
00000110: 6d40 8f3c e607 0f3c fbe8 963b f6c4 093c
00000120: 5726 e33b a285 3f3c 6fab 12bc c280 803c
00000130: 3c3c 8b3b 829b fa3b ecb7 0f3a c746 4ebb
00000140: 5fd0 17bb 8af1 97bc d24a 78bc 445f b7bb
00000150: 3ae0 6b3c 9708 ab3b 3bc0 293b 6a3f 453b
00000160: f738 8cbc f8f9 a23b 28b6 85bb 6947 323c
00000170: 280d 15bc 000f 51bb 73da f43b 8f63 3a3b
00000180: ad5f 41bb 7fc0 abbb bb1a 97bb 1722 563c
00000190: c4d8 a2bb a369 513a fc5c 933c 3bf9 543c
000001a0: 5fe1 81bb e531 823c 6f4f 373a 50f5 86bb
000001b0: 7822 843b b3fb 66bb 2c00 21bb 5f8a 2e3c
000001c0: 3ed2 043b 3b41 4e3c 83ff 7f3b 1b11 5e3b
000001d0: 0c94 c93a 83bd 20bc cb2d a43c 3b8d 48bb
000001e0: 1853 723b a3c5 06bb 88f3 49bc 2204 1cbb
000001f0: 589c fcbb 1706 27bc 437e 103c 9f03 47bc

exp_avg f4 [128, 1]
0.0003519969 0.0003785031 -6.7238616e-05 -1.4827857e-05 -5.846806e-05 1.3112285e-06 5.752981e-05 -1.7969656e-05
-7.4243935e-08 -8.679454e-05 0.0003069956 0.00016207501 2.1934919e-05 0.00047043493 4.29611e-08 -7.116093e-07
2.2796368e-05 -0.0001118411 4.3422577e-05 0.00018987169 5.21185e-07 2.0143603e-05 9.6315256e-05 5.4672917e-05
0.00016918847 -8.717443e-08 0.00011322982 -7.5722983e-06 -3.11679e-05 6.36523e-05 -0.00020507783 -0.00023693449
-0.00048889 -0.000149602 -0.00065056706 1.757033e-05 1.8370725e-05 -6.324576e-05 -2.3694026e-06 -2.679178e-05
-0.00027478285 -7.5223884e-06 0.00031019462 0.00017429718 -0.00025450444 0.00087390345 -0.00015046736 -2.9381852e-06
-0.000132482 1.4666311e-07 -1.1154671e-05 -2.0355633e-09 9.4175935e-05 0.00047647313 7.4492283e-07 -9.706885e-06
0.0002925985 -0.00011115037 -0.00020955432 -3.543324e-06 1.6423402e-05 -0.00034236893 -6.826283e-05 -0.00025574912
4.7158563e-05 -0.00012577078 4.0338437e-05 0.00016135476 -1.8489784e-05 0.00026613573 0.0002855309 -0.000371304
-7.208848e-05 2.2067527e-05 0.00011275632 2.9281024e-05 4.985432e-06 6.3558844e-05 -1.1617144e-05 -3.8980606e-06
3.1684292e-05 -0.00088018813 5.8937945e-05 1.0482545e-05 4.5962468e-05 0.00010045968 1.4587129e-06 -3.2570955e-05
-0.00017057484 0.00029752403 0.00034610953 9.886573e-06 -7.32765e-06 2.4370518e-05 -0.000110539084 -4.968995e-06
1.8440574e-05 0.0002847169 -0.00036877394 0.0001059478 0.00012712675 -1.8447548e-05 -3.431854e-05 7.420476e-06
8.502217e-06 0.0003297779 -0.000113650174 1.5049535e-06 5.858886e-07 0.00029915717 0.00017028867 9.940609e-06
-3.6340607e-05 -2.657815e-05 2.0100455e-05 0.00013195432 2.9557123e-06 8.260316e-05 -5.736354e-06 -0.00038884362
2.5037663e-05 5.3613344e-06 -0.0003715175 -0.00050844275 0.0002987109 2.1157657e-06 -7.494221e-05 -3.6536107e-06
00000000: 398c b839 d371 c639 7502 8db8 29c5 78b7
00000010: 9a3b 75b8 78fd af35 2a4c 7138 8bbd 96b7
00000020: 0970 9fb3 7705 b6b8 40f4 a039 aef2 2939
00000030: e100 b837 b5a4 f639 3b84 3833 6b05 3fb5
00000040: d43a bf37 3c8c eab8 a320 3638 4b18 4739
00000050: 8fe7 0b35 0ffa a837 dcfc c938 9950 6538
00000060: 2f68 3139 a634 bbb3 cc75 ed38 8c15 feb6
00000070: 47ba 02b8 117d 8538 290a 57b9 9e71 78b9
00000080: da28 00ba 7bde 1cb9 d18a 2aba ff63 9337
00000090: d51a 9a37 cfa2 84b8 0702 1fb6 e9be e0b7
000000a0: bb10 90b9 d368 fcb6 9ea1 a239 8bc3 3639
000000b0: 026f 85b9 ab16 653a c6c6 1db9 a32d 45b6
000000c0: deea 0ab9 737a 1d34 f224 3bb7 02e2 0bb1
000000d0: 5280 c538 24cf f939 b5f6 4735 c1da 22b7
000000e0: e867 9939 6719 e9b8 cfbb 5bb9 d8c9 6db6
000000f0: fdc4 8937 fb7f b3b9 5428 8fb8 1116 86b9
00000100: 1fcc 4538 56e1 03b9 1131 2938 5731 2939
00000110: 821a 9bb7 2288 8b39 4fb3 9539 94ab c2b9
00000120: 352e 97b8 a71d b937 9777 ec38 85a0 f537
00000130: 8948 a736 e54a 8538 41e7 42b7 16cc 82b6
00000140: c0e4 0438 6dbc 66ba 2334 7738 30de 2f37
00000150: d3c7 4038 e1ad d238 fec8 c335 cc9c 08b8
00000160: 56dc 32b9 00fd 9b39 0976 b539 82de 2537
00000170: 09e0 f5b6 4a6f cc37 38d1 e7b8 58bb a6b6
00000180: d5b0 9a37 0e46 9539 0058 c1b9 4b30 de38
00000190: 544d 0539 cfbf 9ab7 40f1 0fb8 67fd f836
000001a0: bea4 0e37 0ae6 ac39 7957 eeb8 cffd c935
000001b0: f545 1d35 32d8 9c39 848f 3239 97c6 2637
000001c0: 6e6c 18b8 24f4 deb7 669d a837 385d 0a39
000001d0: c05a 4636 3c3b ad38 e87a c0b6 b5dd cbb9
000001e0: f907 d237 83e5 b336 3cc8 c2b9 0449 05ba
000001f0: 4c9c 9c39 94fc 0d36 4b2a 9db8 8e30 75b6

exp_avg_sq f4 [128, 1]
2.2049637e-06 9.785497e-07 6.132701e-07 1.1181166e-09 4.173994e-08 3.2680293e-07 3.8958802e-07 1.5533389e-09
3.7633275e-11 2.5920151e-08 1.9805329e-07 1.7863644e-07 2.8181634e-07 7.4718344e-07 1.1143053e-14 2.1659763e-09
4.529773e-08 2.3795097e-07 2.6087543e-08 1.6729685e-07 6.3537695e-13 5.556091e-07 1.5821684e-08 2.3001276e-07
2.7439428e-06 8.9509216e-13 1.5304204e-07 3.329717e-10 8.8607926e-08 2.8099546e-08 2.3582152e-06 1.8048428e-06
7.6295134e-07 2.5013406e-07 1.5581754e-06 3.158775e-09 1.0302965e-09 1.47160195e-08 1.4909978e-09 5.9434537e-09
2.2630667e-07 1.3128064e-09 4.958447e-07 2.8872753e-07 2.7106046e-07 2.4820424e-06 9.768936e-08 3.5636858e-11
6.414835e-08 5.542274e-13 2.6495383e-07 3.640619e-17 6.01872e-07 1.2208704e-06 9.569142e-12 3.327692e-07
2.6533652e-07 6.1074167e-07 2.1129676e-07 9.369093e-11 2.0915096e-09 1.1398267e-06 1.4873531e-07 4.2832153e-07
3.2994972e-08 9.5205095e-08 6.5626526e-09 2.2979414e-07 1.3218389e-08 2.357529e-07 4.525619e-07 5.9695844e-07
2.219108e-08 5.7451928e-08 1.9603685e-07 6.1821396e-07 7.887286e-10 1.3370109e-08 6.573617e-09 6.7117595e-10
2.5208768e-08 2.7171172e-06 1.13257395e-08 6.430296e-10 4.913354e-09 7.278917e-08 1.2239738e-11 3.630315e-08
2.759026e-07 3.2125536e-07 3.2936913e-07 4.321879e-08 1.1871649e-09 3.0333906e-09 3.5310728e-07 5.415519e-10
1.2233102e-09 1.6620581e-07 1.3651669e-06 7.2689396e-08 1.0706028e-06 1.2199823e-09 3.8754564e-09 1.3085415e-09
2.8275268e-10 3.6830968e-07 1.5343302e-07 8.8419905e-12 1.3535118e-12 2.9085587e-07 7.556534e-08 5.5692124e-07
4.0055195e-09 5.8003105e-09 1.4318993e-09 4.85563e-07 5.131161e-11 3.3709935e-07 4.3375648e-10 6.0834844e-07
5.894637e-07 1.0489969e-10 1.0913816e-06 8.442789e-07 2.9878603e-07 2.4403617e-08 2.2394916e-08 5.266575e-11
00000000: fdf8 1336 b656 8335 9a9f 2435 3bac 9930
00000010: 8d45 3333 7473 af34 9228 d134 417d d530
00000020: 4d83 252e 04a7 de32 79a8 5434 36cf 3f34
00000030: 8b4c 9734 0e92 4835 43bc 4828 42d8 1431
00000040: 618d 4233 777f 7f34 1d17 e032 35a2 3334
00000050: bcd7 322b 2b25 1535 40e8 8732 6df9 7634
00000060: 9424 3836 30f2 7b2b e053 2434 9a0d b72f
00000070: b948 be33 8e5f f132 d441 1e36 ed3d f235
00000080: 9ecd 4c35 2a4a 8634 8022 d135 c211 5931
00000090: 569a 8d30 bdd1 7c32 d2eb cc30 2c37 cc31
000000a0: b4fe 7234 456e b430 301a 0535 6902 9b34
000000b0: 4486 9134 2a91 2636 4bc9 d133 89bb 1c2e
000000c0: eec1 8933 4b00 1c2b fa3e 8e34 d8e4 2724
000000d0: 5490 2135 cadc a335 9657 282d 73a7 b234
000000e0: 9373 8e34 d9f1 2335 d0e0 6234 4e07 ce2e
000000f0: 3aba 0f31 26fc 9835 0db4 1f34 10f4 e534
00000100: 5bb6 0d33 8e73 cc33 b47d e131 55bd 7634
00000110: 1717 6332 4423 7d34 a2f7 f234 ac3e 2035
00000120: b39e be32 10c1 7633 337e 5234 57f3 2535
00000130: d7cd 5830 5cb2 6532 26de e131 cf7d 3830
00000140: ab8a d832 b857 3636 2193 4232 2fc1 3030
00000150: 52d2 a831 4550 9c33 e152 572d bceb 1b33
00000160: c41f 9434 0079 ac34 26d4 b034 909f 3933
00000170: a729 a330 f973 5031 b292 bd34 54dc 1430
00000180: 6721 a830 4e76 3234 c73a b735 6b19 9c33
00000190: a2b1 8f35 50ac a730 e028 8531 36d8 b330
000001a0: e771 9b2f 19bc c534 59bf 2434 c98c 1b2d
000001b0: 677d be2b ed26 9c34 7c46 a233 567f 1535
000001c0: eca0 8931 124c c731 7acc c430 a357 0235
000001d0: bdab 612e 95fa b434 cc75 ee2f 634d 2335
000001e0: a33b 1e35 47ad e62e 967b 9235 67a2 6235
000001f0: d768 a034 1fa0 d132 f15e c032 5da0 672e

exp_avg f4 [128]
7.0399416e-05 7.570062e-05 -1.3447721e-05 -2.9655714e-06 -1.169361e-05 2.62244e-07 1.1505957e-05 -3.5939297e-06
-1.4848778e-08 -1.7358905e-05 6.139913e-05 3.2415002e-05 4.386973e-06 9.408698e-05 8.59222e-09 -1.4232192e-07
4.5592697e-06 -2.2368222e-05 8.684516e-06 3.797433e-05 1.04236996e-07 4.0287277e-06 1.926305e-05 1.0934581e-05
3.3837678e-05 -1.7434889e-08 2.264597e-05 -1.5144592e-06 -6.233579e-06 1.2730459e-05 -4.101554e-05 -4.7386915e-05
-9.7778e-05 -2.9920384e-05 -0.00013011343 3.514066e-06 3.6741449e-06 -1.2649152e-05 -4.7388082e-07 -5.3583567e-06
-5.4956585e-05 -1.5044774e-06 6.203894e-05 3.4859426e-05 -5.0900882e-05 0.00017478068 -3.009347e-05 -5.876371e-07
-2.64964e-05 2.9332622e-08 -2.23092e-06 -4.0711265e-10 1.8835177e-05 9.529462e-05 1.4898458e-07 -1.9413803e-06
5.851971e-05 -2.2230066e-05 -4.1910866e-05 -7.086649e-07 3.284681e-06 -6.847378e-05 -1.3652561e-05 -5.1149833e-05
9.431711e-06 -2.5154146e-05 8.067689e-06 3.2270953e-05 -3.6979563e-06 5.3227166e-05 5.7106183e-05 -7.42608e-05
-1.4417695e-05 4.4135095e-06 2.2551258e-05 5.8562114e-06 9.970862e-07 1.2711771e-05 -2.3234286e-06 -7.7961187e-07
6.3368593e-06 -0.00017603763 1.1787587e-05 2.0965092e-06 9.192494e-06 2.0091931e-05 2.9174265e-07 -6.514195e-06
-3.411497e-05 5.9504808e-05 6.9221904e-05 1.977313e-06 -1.4655301e-06 4.8741035e-06 -2.2107824e-05 -9.93799e-07
3.6881147e-06 5.6943383e-05 -7.37548e-05 2.1189566e-05 2.5425345e-05 -3.68951e-06 -6.863708e-06 1.4840942e-06
1.7004434e-06 6.595559e-05 -2.2730035e-05 3.009907e-07 1.1717777e-07 5.9831444e-05 3.4057728e-05 1.988125e-06
-7.2681237e-06 -5.3156296e-06 4.020091e-06 2.6390871e-05 5.9114234e-07 1.6520638e-05 -1.1472704e-06 -7.776871e-05
5.007534e-06 1.072267e-06 -7.43035e-05 -0.00010168856 5.974218e-05 4.2314937e-07 -1.4988443e-05 -7.3072226e-07
00000000: 66a3 9338 76c1 9e38 869d 61b7 2104 47b6
00000010: ac2f 44b7 8aca 8c34 b609 4137 3e2f 71b6
00000020: 9e19 7fb2 f79d 91b7 68c3 8038 58f5 0738
00000030: d033 9336 9050 c538 fc9c 1332 27d1 18b4
00000040: d4fb 9836 64a3 bbb7 b6b3 1137 a046 1f38
00000050: e5d8 df33 822e 8736 1697 a137 ab73 3737
00000060: eeec 0d38 bac3 95b2 daf7 bd37 6c44 cbb5
00000070: 092a d1b6 e894 5537 1a08 2cb8 50c1 46b8
00000080: 2a0e cdb8 89fd fab7 0f6f 08b9 32d3 6b36
00000090: 5491 7636 b237 54b7 af69 feb4 efcb b3b6
000000a0: 2f81 66b8 73ed c9b5 e71a 8238 0636 1238
000000b0: 687e 55b8 5545 3739 3c71 fcb7 1dbe 1db5
000000c0: 9644 deb7 1ef7 fb32 eab6 15b6 03d0 dfaf
000000d0: 3c00 9e37 e9d8 c738 92f8 1f34 a948 02b6
000000e0: 0f73 7538 b47a bab7 73c9 2fb8 153b 3eb5
000000f0: 646e 5c36 9599 8fb8 4e0d 65b7 b789 56b8
00000100: e43c 1e37 1e02 d3b7 765a 0737 ac5a 0738
00000110: 682a 78b6 3c40 5f38 4c85 6f38 77bc 9bb8
00000120: 87e3 71b7 c217 9436 752c bd37 7980 c436
00000130: 9fd3 8535 a444 5537 33ec 1bb6 8546 51b5
00000140: 35a1 d436 be96 38b9 4dc3 4537 c1b1 0c36
00000150: 7639 1a37 188b a837 cea0 9c34 8294 dab6
00000160: ac16 0fb8 cd94 7938 3a2b 9138 fbb1 0436
00000170: 3bb3 c4b5 3b8c a336 3174 b9b7 ac62 85b5
00000180: 5481 7736 7ed6 6e38 cfac 9ab8 3fc0 b137
00000190: 8348 d537 4d99 77b6 ce4e e6b6 1731 c735
000001a0: ca3a e435 a351 8a38 61ac beb7 d997 a134
000001b0: 29a3 fb33 86f3 7a38 35d9 0e38 ba6b 0536
000001c0: b5e0 f3b6 e95c b2b6 52e4 8636 f761 dd37
000001d0: feae 1e35 cd95 8a37 e9fb 99b5 c217 a3b8
000001e0: 6406 a836 d0ea 8f35 63d3 9bb8 a141 d5b8
000001f0: ad93 7a38 352d e334 df76 7bb7 da26 44b5

exp_avg_sq f4 [128]
8.8198476e-08 3.9141995e-08 2.4530804e-08 4.4724686e-11 1.6695971e-09 1.3072107e-08 1.5583517e-08 6.2133576e-11
1.5053313e-12 1.0368065e-09 7.922131e-09 7.1454584e-09 1.1272656e-08 2.9887353e-08 4.457223e-16 8.663897e-11
1.8119092e-09 9.51804e-09 1.0435028e-09 6.6918755e-09 2.5415071e-14 2.2224357e-08 6.3286715e-10 9.200512e-09
1.0975772e-07 3.580367e-14 6.1216796e-09 1.3318865e-11 3.5443153e-09 1.1239817e-09 9.432865e-08 7.219366e-08
3.0518038e-08 1.0005361e-08 6.232702e-08 1.2635099e-10 4.121186e-11 5.8864086e-10 5.963991e-11 2.3773836e-10
9.052271e-09 5.251229e-11 1.9833799e-08 1.1549119e-08 1.0842425e-08 9.9281735e-08 3.9075743e-09 1.4254746e-12
2.5659335e-09 2.2169099e-14 1.0598154e-08 1.4562473e-18 2.4074854e-08 4.8834846e-08 3.8276603e-13 1.33107525e-08
1.0613463e-08 2.4429694e-08 8.451868e-09 3.747636e-12 8.3660336e-11 4.5593055e-08 5.9494085e-09 1.7132859e-08
1.3197995e-09 3.8082004e-09 2.6250618e-10 9.191762e-09 5.2873594e-10 9.4301145e-09 1.8102476e-08 2.3878325e-08
8.8764307e-10 2.2980748e-09 7.841477e-09 2.4728593e-08 3.1549124e-11 5.3480503e-10 2.6294453e-10 2.6847035e-11
1.0083504e-09 1.0868468e-07 4.5302956e-10 2.5721167e-11 1.9653411e-10 2.911567e-09 4.895899e-13 1.4521262e-09
1.1036101e-08 1.2850215e-08 1.3174762e-08 1.7287529e-09 4.7486647e-11 1.2133569e-10 1.4124279e-08 2.1662087e-11
4.8932417e-11 6.6482317e-09 5.46067e-08 2.9075757e-09 4.282413e-08 4.8799322e-11 1.5501828e-10 5.2341676e-11
1.13101e-11 1.47323815e-08 6.1373164e-09 3.536797e-13 5.4140466e-14 1.1634231e-08 3.022614e-09 2.2276849e-08
1.6022082e-10 2.3201248e-10 5.727596e-11 1.9422524e-08 2.0524639e-12 1.34839855e-08 1.7350246e-11 2.4333946e-08
2.3578567e-08 4.195989e-12 4.3655263e-08 3.377115e-08 1.1951448e-08 9.761445e-10 8.957959e-10 2.1066302e-12
00000000: a067 bd33 141d 2833 cfb7 d232 85b3 442e
00000010: ba77 e530 bc93 6032 84dc 8532 18a2 882e
00000020: 47db d32b 637f 8e30 e719 0832 1e84 f531
00000030: aaa9 4132 7e5d 0033 8078 0026 6785 be2e
00000040: e306 f930 c884 2332 fe6a 8f30 5cee e531
00000050: 2aeb e428 e1e7 be32 11f6 2d30 4810 1e32
00000060: f2b3 eb33 d23e 2129 dd56 d231 d64e 6a2d
00000070: 4190 7331 977a 9a30 b991 ca33 e208 9b33
00000080: f012 0333 0be4 2b32 a4d8 8533 a4ec 0a2f
00000090: 6e40 352e ebcd 2130 4926 832e b3b2 822f
000000a0: 4f84 1b32 95f3 662e fc5e aa32 9069 4632
000000b0: 7d45 3a32 b634 d533 6343 8631 239e c82b
000000c0: 6154 3031 76ae c728 2d13 3632 78e7 d621
000000d0: 2acd ce32 7bbe 5133 667a d72a 4fad 6432
000000e0: 8156 3632 77d9 d132 b533 1132 b4db 832c
000000f0: 95f8 b72e 18d2 4333 8d6b cc31 8e2b 9332
00000100: 5164 b530 49d9 8231 7650 902f cce9 1d32
00000110: 7c56 1130 1502 2232 c47f 9b32 fe1c cd32
00000120: 54fe 7330 29ec 1d31 2eb7 0632 c06a d432
00000130: 28c1 0a2e 8f01 1330 278e 902f 2626 ec2d
00000140: 2d96 8a30 0966 e933 3e0e f92f eb3e e22d
00000150: 6f17 582f d414 4831 acce 092b 2694 c730
00000160: 4999 3d32 d8c3 5c32 3757 6232 1699 ed30
00000170: 36d9 502e f668 052f 3ca7 7232 af8a be2d
00000180: 0135 572e 776e e431 b488 6a33 9dce 4731
00000190: a1ed 3733 279f 562e c471 2a2f 7d33 662e
000001a0: 2af8 462d b319 7d32 68e0 d231 9e1a c72a
000001b0: b5d3 7329 e4df 4732 63b6 4f31 4f5b bf32
000001c0: 272a 302f b519 7f2f ffe6 7b2e 95d6 a632
000001d0: e76d 102c 32a7 6732 489d 982d ea06 d132
000001e0: d189 ca32 1ca2 932c 787f 3b33 c60b 1133
000001f0: 0653 4d32 0829 8630 083c 7630 ad3d 142c

exp_avg f4 [128, 128]
0.00012228472 9.336698e-05 4.882345e-05 -4.146263e-06 0.00011429148 2.8261443e-06 6.2739804e-05 -3.7511616e-10
-5.3615497e-07 -5.654838e-06 1.7089436e-05 5.4715132e-05 0.00023572038 8.7471155e-05 -4.6029878e-09 -4.629914e-06
8.6107e-05 0.00016085934 -4.1771414e-06 1.1786208e-05 -1.0474581e-07 6.953427e-05 0.00019258626 4.6115518e-05
0.00029083656 -1.8292287e-08 0.00016006234 -6.2162676e-06 5.367987e-05 3.4977817e-05 8.251961e-05 5.2784326e-05
9.288039e-05 3.2020496e-05 5.0536913e-05 -1.6262229e-06 -6.183855e-06 -4.3846226e-06 -5.747418e-06 7.6173915e-06
5.1592757e-05 -6.5154535e-07 0.00012707575 0.00014346992 2.6755228e-05 0.00012729032 -3.1281716e-06 -6.5959904e-07
-3.9018655e-06 -2.0550498e-08 3.0025929e-05 -1.6655457e-09 2.0456118e-05 0.00015004995 -1.638439e-07 8.716371e-05
7.710666e-05 1.4483647e-05 1.2833803e-05 -6.2070476e-06 -6.194876e-06 5.4258922e-05 8.289673e-06 0.00020530881
7.7379926e-05 0.00021299851 -6.0022635e-06 7.045162e-05 0.00013944543 0.00015189731 0.00017666488 0.00013250866
-4.625801e-06 3.1032443e-05 7.239193e-05 4.0979772e-05 -1.5386571e-06 -5.047763e-06 8.6289976e-05 -6.168528e-06
7.208425e-05 6.733599e-05 -5.4192465e-06 -5.649013e-07 -5.4540233e-06 1.8194323e-06 -8.0617093e-07 0.00010477501
0.0002606111 0.0001498981 5.7800003e-06 6.572011e-05 -6.032819e-06 -4.5113657e-06 0.00016402111 -5.8380624e-06
-3.865421e-06 9.327672e-05 0.00013853797 1.5381458e-05 9.612174e-05 -1.5048678e-06 -5.762016e-06 -5.5632045e-06
-5.0239044e-07 0.0001563871 0.00010465038 -6.229262e-06 -4.8333824e-08 5.1655123e-05 2.83012e-06 0.00011361802
-2.9231512e-06 0.000103122395 -6.122571e-06 0.000108974 -2.109651e-06 1.4543333e-05 -1.8988698e-06 0.00011051495
0.00019502228 -2.854611e-07 0.00013374309 7.203219e-05 7.1375616e-05 8.601398e-05 3.9202496e-06 -3.9011076e-07
1.8449288e-06 1.4081538e-06 7.379661e-07 -6.268482e-08 1.7258463e-06 4.3067388e-08 9.4622254e-07 7.2504375e-10
-8.079184e-09 -8.519048e-08 2.5662646e-07 8.24401e-07 3.5593034e-06 1.3192747e-06 -6.945246e-11 -6.9834364e-08
1.3005609e-06 2.4284197e-06 -6.308375e-08 1.76697e-07 -1.5754369e-09 1.0504664e-06 2.9064965e-06 6.96649e-07
4.3911677e-06 -2.7581606e-10 2.4152068e-06 -9.3881965e-08 8.0979885e-07 5.27797e-07 1.2468611e-06 7.9806796e-07
1.403616e-06 4.8475545e-07 7.6411334e-07 -2.455033e-08 -9.331287e-08 -6.63069e-08 -8.669588e-08 1.1474257e-07
7.803238e-07 -9.833412e-09 1.9182653e-06 2.1661567e-06 4.0453e-07 1.920645e-06 -4.7040015e-08 -9.967802e-09
-5.866092e-08 -3.0938946e-10 4.525491e-07 -2.5173561e-11 3.0788001e-07 2.2638337e-06 -2.4737072e-09 1.316737e-06
1.1631781e-06 2.1953548e-07 1.941328e-07 -9.371698e-08 -9.357145e-08 8.205416e-07 1.2596507e-07 3.0999413e-06
1.1681525e-06 3.2168712e-06 -9.073072e-08 1.0622183e-06 2.1049573e-06 2.2923493e-06 2.6665916e-06 2.0011937e-06
-6.990723e-08 4.692706e-07 1.0915919e-06 6.1933144e-07 -2.3250706e-08 -7.611331e-08 1.3037783e-06 -9.3078775e-08
1.0873194e-06 1.0177196e-06 -8.19986e-08 -8.520374e-09 -8.222083e-08 2.6801366e-08 -1.2148895e-08 1.5831473e-06
3.934946e-06 2.2614688e-06 8.6236106e-08 9.929382e-07 -9.0991485e-08 -6.808069e-08 2.4759222e-06 -8.813877e-08
-5.8219264e-08 1.406605e-06 2.0915877e-06 2.308911e-07 1.4502479e-06 -2.2761537e-08 -8.689039e-08 -8.38919e-08
-7.567923e-09 2.3595137e-06 1.5796951e-06 -9.404018e-08 -7.279767e-10 7.785666e-07 4.188122e-08 1.7146058e-06
-4.422669e-08 1.5583815e-06 -9.238954e-08 1.6455991e-06 -3.174816e-08 2.1856921e-07 -2.86961e-08 1.6696038e-06
2.943533e-06 -4.3001265e-09 2.0204957e-06 1.089054e-06 1.076882e-06 1.2996393e-06 5.9601316e-08 -5.9103673e-09
00000000: 8e39 0039 04ce c338 c8c7 4c38 2120 8bb6
00000010: c5af ef38 caa8 3d36 2d93 8338 e838 ceaf
00000020: 4aec 0fb5 b0be bdb6 495b 8f37 ed7d 6538
00000030: b52b 7739 b870 b738 4f28 9eb1 a95a 9bb6
00000040: 5894 b438 5aac 2839 5f29 8cb6 61bd 4537
00000050: 9ef0 e0b3 edd2 9138 fbf0 4939 296c 4138
00000060: 6c7b 9839 2a21 9db2 68d6 2739 5595 d0b6
00000070: 5226 6138 25b5 1238 610e ad38 bd64 5d38
00000080: c8c8 c238 bf4d 0638 99f7 5338 9844 dab5
00000090: e97e cfb6 9f1f 93b6 f2d9 c0b6 e598 ff36
000000a0: 4d65 5838 dbe5 2eb5 a33f 0539 6a70 1639
000000b0: 6a70 e037 3c79 0539 94ed 51b6 4d0f 31b5
000000c0: c5ec 82b6 0687 b0b2 31e0 fb37 2ee9 e4b0
000000d0: 2e99 ab37 ba56 1d39 11ed 2fb4 a9cb b638
000000e0: 53b4 a138 cafe 7237 c450 5737 2246 d0b6
000000f0: 94dd cfb6 1394 6338 e013 0b37 2a48 5739
00000100: 0847 a238 5a58 5f39 0d67 c9b6 6dbf 9338
00000110: 1938 1239 a046 1f39 1e3f 3939 06f2 0a39
00000120: 5437 9bb6 d528 0238 1fd1 9738 b2e1 2b38
00000130: db83 ceb5 f45f a9b6 94f6 b438 41fb ceb6
00000140: f02b 9738 bc36 8d38 f9d6 b5b6 b9a3 17b5
00000150: b401 b7b6 3833 f435 a567 58b5 a8ba db38
00000160: a1a2 8839 f72d 1d39 d3f1 c136 37d3 8938
00000170: 856d cab6 5660 97b6 15fd 2b39 93e4 c3b6
00000180: b7b3 81b6 8f9d c338 8144 1139 6e07 8137
00000190: f794 c938 ddfa c9b5 5757 c1b6 90ab bab6
000001a0: 02dc 06b5 d8fb 2339 bf77 db38 f404 d1b6
000001b0: 9a97 4fb3 44a8 5838 17ed 3d36 3646 ee38
000001c0: 5b2b 44b6 6a43 d838 7c70 cdb6 f988 e438
000001d0: 8793 0db6 24ff 7337 abdc feb5 43c4 e738
000001e0: e57e 4c39 7a41 99b4 633d 0c39 fd0f 9738
000001f0: 7eaf 9538 6762 b438 b08a 8336 6a70 d1b4
00000200: 459f f735 ccff bc35 a518 4635 589d 86b3
00000210: a1a3 e735 18f9 3833 ebff 7d35 6b4c 4730
00000220: a1cc 0ab2 f6f1 b6b3 79c6 8934 684c 5d35
00000230: 5edc 6e36 ef11 b135 42ba 98ae d9f7 95b3
00000240: ef8e ae35 eff7 2236 a978 87b3 1aba 3d34
00000250: c286 d8b0 c0fd 8c35 3b0d 4336 5b01 3b35
00000260: d857 9336 a9a1 97af f014 2236 289c c9b3
00000270: f460 5935 efad 0d35 d259 a735 d03a 5635
00000280: e163 bc35 2420 0235 781d 4d35 bfe2 d2b2
00000290: 4b63 c8b3 9b64 8eb3 902d bab3 6568 f633
000002a0: 7177 5135 ceef 28b2 8cbb 0036 4a5e 1136
000002b0: 2e2e d934 6ee4 0036 0b09 4ab3 db3e 2bb2
000002c0: 5df2 7bb3 b216 aaaf e0f5 f234 d26d ddad
000002d0: b54a a534 5eec 1736 ebfd 29b1 bdba b035
000002e0: 7f1e 9c35 74b9 6b34 d172 5034 7441 c9b3
000002f0: 73f1 c8b3 3043 5c35 0441 0734 9608 5036
00000300: 6ac9 9c35 6de1 5736 bed7 c2b3 8b91 8e35
00000310: e442 0d36 43d6 1936 b2f3 3236 3f4c 0636
00000320: e81f 96b3 0ff0 fb34 d082 9235 2240 2635
00000330: d8b8 c7b2 bc73 a3b3 7bfd ae35 99e2 c7b3
00000340: 03f0 9135 9498 8835 3517 b0b3 0061 12b2
00000350: 6191 b0b3 d438 e632 68b7 50b2 877c d435
00000360: ee08 8436 bdc3 1736 cd30 b933 1945 8535
00000370: 1967 c3b3 c133 92b3 0528 2636 cd46 bdb3
00000380: c20c 7ab3 94ca bc35 345d 0c36 ddea 7734
00000390: 23a6 c235 2685 c3b2 7f98 bab3 0f28 b4b3
000003a0: 1404 02b2 2358 1e36 e905 d435 23f3 c9b3
000003b0: ce1a 48b0 b0fe 5035 e3e0 3333 6821 e635
000003c0: c3f3 3db3 9529 d135 b067 c6b3 5bde dc35
000003d0: 795b 08b3 d9af 6a34 647f f6b2 2617 e035
000003e0: 8389 4536 50c0 93b1 da97 0736 9c2b 9235
000003f0: 6289 9035 446f ae35 57fc 7f33 2414 cbb1
