results/RollerAgents/RollerAgent/RollerAgent-500062.pt (torch, 431578 bytes, 39 tensors)

network_body._body_endoder.seq_layers.0.weight f4 [128, 1]
00000000: 0a10 483e ea48 12bf d4d6 6bbe 4379 233e
00000010: c27e 29bf f222 9e3d d1ab b8bd 9865 4e3f
00000020: b67c 7a3e 7d0e 9cbf 30c8 933d a7aa a0be
00000030: 9a68 313f a887 8f3f 62b2 02bf 81b1 213f
00000040: ef60 32bf 43e8 1a3f d15b c73e c46e b53d
00000050: 3cd9 cbbf d32d 603e de24 adbc a8fe f3bd
00000060: 334e 583f 5a63 0740 5ace 35bf 5118 2f3d
00000070: 6f27 89bf d6da b8bf d311 9f3e 66ba d13e
00000080: 98bd 9d3f dc84 3d3f af10 1040 673a 133f
00000090: 26fb fc3f 89cc a03f f577 0c3e 1f54 183f
000000a0: ea92 c13e 7d11 0f3e 2d7e 913f a871 7abf
000000b0: 70c1 aabe 34cd bbbd d552 0440 b3fa 61bf
000000c0: f3d2 673f e8fb 36be 7e44 753f 756c 16c0
000000d0: 9890 33bf 789d 633f 2b10 f53e e512 323f
000000e0: 360a 09bf 811b 0b40 c8bd a53f 2e78 58be
000000f0: 6bc5 febe 009f 1c3e d795 e83e 701a 613b
00000100: a385 1cbf 9ca6 0c40 b35a 83be b5f3 6d3f
00000110: 866f 363f 33b9 0640 2ddc 213f 92a2 11c0
00000120: 36a7 55bf 18d0 76bf d4e5 c53e 175c 71bf
00000130: c336 213f 341e 8a3f 8508 f1be 4be0 b4be
00000140: a550 e63d 57e7 393f af70 66bd debd 40bf
00000150: e3cc 963f 8fde cd3f 4a33 2c3f 5239 753e
00000160: 5544 713f fff7 be3f e5bb e63d 9aee 423f
00000170: 9cdb 903f 200d 20bf 1c7a 89bf 3edd 96bd
00000180: e63a 0240 c9b6 2b3e 6b88 c43e e685 ad3f
00000190: 13c1 83be b30e b73e 64b8 833f 8671 c2bf
000001a0: f776 973f 76e1 b73c 29bf 303f c007 8abf
000001b0: 3d47 5ebf 1988 0c3f dbe0 7d3e e8d2 d0bf
000001c0: 5f41 dc3d 466f 87bf 9082 0fbf 736c aebf
000001d0: 6a68 25bf 2e59 f33f 21ce 9c3f 3b82 22bf
000001e0: a978 6ebf cf07 eabe 3767 813f 48de 493f
000001f0: f57a 1cbe 42a5 ce3c f377 7b3f e9fa 973f
0.19537368 -0.5714251 -0.23031169 0.15964226 -0.6620904 0.07721509 -0.090171464 0.8062377
0.24461636 -1.2191921 0.07215917 -0.31380197 0.69300234 1.1213274 -0.5105344 0.63161474
-0.6967916 0.60510653 0.38937238 0.088590175 -1.592567 0.2189248 -0.021135744 -0.11913806
0.8449432 2.115439 -0.7101799 0.0427478 -1.0715159 -1.4441783 0.31068286 0.40962523
1.2323484 0.7403085 2.2510183 0.5751099 1.9764144 1.2562419 0.13717635 0.5950336
0.378074 0.13971515 1.1366631 -0.97829676 -0.33350706 -0.09169999 2.0675557 -0.8827316
0.9055626 -0.17869532 0.95807636 -2.3503697 -0.7014251 0.88912153 0.47863898 0.6956008
-0.53531206 2.1735537 1.2948542 -0.21139595 -0.49759993 0.15295029 0.4542682 0.0034348033
-0.61141413 2.197669 -0.25655136 0.9294999 0.7126392 2.1050537 0.63226587 -2.2755475
-0.8345827 -0.96411276 0.38651907 -0.9428114 0.62974185 1.0790467 -0.47076812 -0.35327372
0.112458505 0.7261862 -0.056259807 -0.75289714 1.1781276 1.6083544 0.6726576 0.23947647
0.9424489 1.4919432 0.11266307 0.7614533 1.131702 -0.6252003 -1.074039 -0.07366417
2.0348449 0.16768946 0.3838533 1.3556488 -0.2573324 0.35753402 1.0290647 -1.5190895
1.183318 0.022446375 0.6904169 -1.0783615 -0.8682745 0.5489517 0.24792807 -1.6314363
0.10754656 -1.0580833 -0.560586 -1.3626846 -0.6461245 1.901159 1.2250406 -0.63479966
-0.9315286 -0.45709082 1.0109624 0.788548 -0.1528128 0.025225285 0.98229903 1.1873447

network_body._body_endoder.seq_layers.0.bias f4 [128]
00000000: 19b7 b63a 04d2 b5b9 ceb5 143b 2a81 6dba
00000010: 949d e739 2b0d d9ba 7a6b 4d3b 07e6 1a3b
00000020: 1f16 24bb bf25 18ba ed6e abb9 5593 8bba
00000030: 110d b0ba 20b3 82bb d200 6d3b 755d 9bba
00000040: 71b3 5e3a 4ed0 54bb ff02 c5ba 4352 493b
00000050: 4b01 23ba e9e6 5bba 05a7 74b7 53ef 16bb
00000060: d75d aabb e006 763a 093d 34ba 2fad eeba
00000070: a780 b539 aca2 24bc 3d0f 16bb 18a1 aabb
00000080: 94e4 32ba 7474 42bb 3db7 b2bb 662b 603a
00000090: 3fb6 02bb 4437 9e39 065f 1fba 5f2e 343b
000000a0: 26e1 75ba bfe6 883a 5725 043a 98fe 78b9
000000b0: c288 c9bb 87f8 b8ba 740d 84bc f309 913b
000000c0: 0ea9 a8ba cda7 383a 26c1 0f3b fb8c 77ba
000000d0: 633f c2bb c424 a739 4da0 5dbb 0208 0ebb
000000e0: c069 45ba 2beb 2bbb a58f a7b8 e7e6 893a
000000f0: e1cc bfb9 af92 36bb 04f3 4bba 7f5e acba
00000100: 374b 73b9 57f3 2a3a d7b1 f73a 82a5 6dba
00000110: be67 96ba 3aed 9fba 4971 13bb 9a9b 02bb
00000120: 44f5 0eba e06b abba fa0b 62bb 5ae0 20ba
00000130: f534 f1b9 32d4 daba c012 96bb d532 c33a
00000140: dd44 02ba c50b 3abb 35ea 963a cfb7 4ebb
00000150: 2434 2cbb 453a 6bbb e45b 333a bc85 4dba
00000160: c53a 0ebb d4bb 82bb 38a1 9aba 16a4 b8ba
00000170: 8b07 26bd 007a d4ba ee5b fbba d86a e03a
00000180: 0c9f 00bc 5e43 00bb 3bf5 57bb 6150 91ba
00000190: a7eb c938 5dbe 05ba 09f2 f3b9 50ae 1239
000001a0: 0d55 efba 2ccc ab3a 2866 e2ba 2bde bd3a
000001b0: fd3f 77bb 0c08 a3ba 652c b93b a768 81bb
000001c0: d175 70ba de17 2bba bf09 89ba 33dc bc3b
000001d0: a90f 5bbb d1b2 efba d0a8 19bb fc2d 113a
000001e0: a622 813a 93c6 00ba 82b1 a838 822c 023b
000001f0: b174 8d3a 96ce abba 23d5 99ba 4794 82bc
0.0013940065 -0.00034679484 0.0022691372 -0.00090600795 0.00044177158 -0.001655971 0.0031344579 0.0023635642
-0.00250376 -0.00058039645 -0.00032698308 -0.0010648767 -0.0013431628 -0.0039886385 0.003616382 -0.0011853414
0.0008495367 -0.0032472792 -0.00150308 0.0030719198 -0.0006218149 -0.00083885953 -1.4582421e-05 -0.0023030832
-0.005199175 0.000938518 -0.000687555 -0.0018209572 0.00034618864 -0.01004855 -0.0022897266 -0.005207192
-0.0006824222 -0.0029671462 -0.0054539726 0.0008551389 -0.0019945053 0.00030177284 -0.0006079528 0.002749346
-0.0009379558 0.0010444744 0.00050409645 -0.00023745967 -0.006150336 -0.0014112153 -0.016119696 0.004426235
-0.0012867765 0.0007044047 0.0021935194 -0.000944331 -0.0059279664 0.00031880115 -0.003381747 -0.0021672253
-0.00075307116 -0.00262327 -7.9899364e-05 0.0010521085 -0.00036583006 -0.0027858426 -0.00077800476 -0.0013150721
-0.00023202306 0.0006521246 0.0018897605 -0.0009065495 -0.0011475009 -0.0012201436 -0.0022497943 -0.0019929172
-0.00054534175 -0.0013078414 -0.0034492002 -0.00061369466 -0.00046006558 -0.0016695319 -0.004579872 0.0014892468
-0.0004969368 -0.0028388363 0.0011513891 -0.0031542664 -0.0026276195 -0.0035892886 0.0006842001 -0.00078400574
-0.002170251 -0.003989676 -0.0011797315 -0.0014086987 -0.040534537 -0.0016210675 -0.0019177177 0.0017121686
-0.00785042 -0.0019571404 -0.0032952565 -0.0011086577 9.6283205e-05 -0.00051019137 -0.00046528902 0.00013988581
-0.00182596 0.0013107113 -0.0017272877 0.0014485767 -0.003772735 -0.0012438311 0.005651044 -0.003949243
-0.00091728295 -0.0006526689 -0.0010455175 0.0057635545 -0.0033426082 -0.0018287544 -0.0023446567 0.0005538163
0.0009852245 -0.00049124024 8.043928e-05 0.0019862955 0.0010792223 -0.0013107832 -0.0011736493 -0.015939845

network_body._body_endoder.seq_layers.2.weight f4 [128, 128]
00000000: 12d8 a9bd 839e 1dbd f5fe 233e 7c15 a53b
00000010: 62ed 18be 1771 2cbd 5f74 0fbd 7f70 7ebd
00000020: 46e8 f03d a163 21be b86a 7bbc c8c9 b23d
00000030: bbd0 b6bd 5a87 6c3d 4b1b 103d e9dc 56bb
00000040: f36a 4c3e 70f8 c4bc 5825 0e3e b54d 92bd
00000050: ea50 1a3e 9d29 c1bd 2f46 f7bc 98c1 81bd
00000060: aa65 0e3d 9644 6dbe 72a1 193e 4e2c 1dbc
00000070: 887b 433c 3ceb dcbc 3df2 76bd a372 343e
00000080: fc53 793d d6e6 9b3d c2a7 793e 35d6 ca3a
00000090: 3a39 9e3d b228 86bd 9ddd b8bd edfc f9bd
000000a0: ebe3 00bd ff1d ccbd b844 3dbd e64e 8e3d
000000b0: d4de 91bd 0475 55bc 7d98 5f3e f400 6f3c
000000c0: fb70 f2bd 048c 9fbc a8ca 38bd 0b2d 4a3d
000000d0: 0fe1 67bd 74de a5bd 4759 753d 1f86 a13c
000000e0: 5dde 82bc e56f 823c 6151 033d 9334 d2bc
000000f0: 293a f03d 944d 00bd 5b27 d43c 5f3e ea3d
00000100: 89ef 8ebd cc81 a23c dd5b c53d a6cc d03d
00000110: e6dc 5dbe baad 89bc 692e e23d 58a5 41bd
00000120: 9fa5 d1bb ce5d f4bd 2b6b a5bd c974 9c3c
00000130: 8473 c4bd f10a 44bd d45c ccbc f460 a2bb
00000140: 672b 9cbb 6aba bc3d 293d 863d 1853 8e3d
00000150: 6803 c93d b19f 163d 70c0 47be b8e2 18bd
00000160: b73a 433d cca2 a63d a8d6 51bd 2f62 2dbd
00000170: 48d4 50bc 5840 d3bd 2592 17bc ea77 83bd
00000180: e199 d9bd 1469 15bc f2c8 13bb fe11 61bd
00000190: 0a41 d5bd 66eb 7e3c 46b0 7bbd e83c 923c
000001a0: dcf4 ecbd a1c4 aabd f15a 613c 49cc ebbd
000001b0: 9572 283d 5321 2ebd d42f 6fbe 63f8 1ebd
000001c0: 9bb6 443e 7546 e73d e7a8 7bbc 9b5f 003e
000001d0: 36cc 393d 3921 90bd 0b59 bcbc 975f 183e
000001e0: 268e 9dbd 07e4 fe3c c984 ed3d 9744 7dbc
000001f0: 2866 733b 05c5 71bd a6e4 afbd 19c7 8f3d
00000200: 5be9 3f3d 19bc e9bd 172e b7bd 18da 4cbd
00000210: 10cf 1b3d 8413 6bbd 8144 e63d 3b76 1fbd
00000220: 08d0 5ebd 8643 d53c ded0 263d ba17 c8bd
00000230: 7278 3b3d c71b f6bb 79ee 0c3d 8c56 49bc
00000240: db88 28bd 3070 ee3d 119f da3b c4ac de3d
00000250: b350 ba3d 18cb a13c 62be a03d 6fc1 7dbd
00000260: 89fc 933d dda1 f2bd b9ed 7dbd 8bb7 82bd
00000270: 988c fb3d 702d 72bd 1946 cb3d bec5 a5bd
00000280: acb1 68bc 4eba b1bb d554 153e 4295 cd3d
00000290: 888d 5a3d 2816 a5bc a934 dabd b84a 29bc
000002a0: 9d31 003d 6b9f 47bd e880 9abd f4ff c9bd
000002b0: 4833 963d 0839 ccbb edec 413d b89f cebc
000002c0: 013e 8ebd 2052 253e dee6 a4bb 980e 093d
000002d0: fc43 04bd 2d59 1a3e a8e8 e53d 270c 27bd
000002e0: 63e0 3fbd d16c c6bc 523b b7bd 77ac 3f3e
000002f0: b57e 873d b35d 6c3d def5 a6bc 352a 43bd
00000300: 9744 2fbd a71f e1bc 8f13 19bc 3995 06bc
00000310: 15d8 39bd aab4 e9bd b152 80bc bf7a b63d
00000320: ee73 153d 7b8b b2bd a688 013e 26a8 daba
00000330: ea2f f1bc 7425 b0bd 9cfa 513a 817f 003e
00000340: f04a e23d 01a9 59bd 1e21 8fbd 55a3 023e
00000350: d8ea b8bc c747 b9bd a900 38bd 3d6e f5bd
00000360: dc3d 75bd 093d b73d 882a cdbb 3778 ff3d
00000370: c8c7 2fbd e078 36be 1f0d fe3d 963e a8bd
00000380: 109a 3d3d 2f46 c33d 58eb 7ebc d31f 20bc
00000390: 1878 653c 6a38 763c a5df e33d 71ce 7c3e
000003a0: e533 b6bd a0c0 06be cb63 09bd 6539 b5bd
000003b0: aa7f 9c3d c3cc d5bc 4766 803e b0dc ffbd
000003c0: 0aa4 aebc 0e83 b23b f090 9f3d 23b2 00bb
000003d0: 43f7 9bbb 4d11 1fbe 8985 c73d bef9 d8bd
000003e0: ad1a 9ebd a0c9 07bd 7bc2 973d 80bb 50bc
000003f0: 597e 293d c1ee 05bd 98a9 20bd a568 d93d
-0.08293165 -0.038481247 0.16015227 0.0050379615 -0.14934304 -0.04210004 -0.03502309 -0.062119003
0.11763053 -0.15760662 -0.015345268 0.08729893 -0.08926531 0.05774627 0.03518228 -0.0032785481
0.19962673 -0.024044245 0.13881433 -0.07143728 0.15069929 -0.09431765 -0.030184833 -0.06335753
0.034764923 -0.23170695 0.15002993 -0.009593083 0.011931308 -0.026967637 -0.06028961 0.17621855
0.06087111 0.07612388 0.24380401 0.0015475216 0.07725759 -0.06550731 -0.090266444 -0.12206445
-0.03146736 -0.09966659 -0.046208113 0.069486424 -0.07122579 -0.013028387 0.21835513 0.01458763
-0.118379556 -0.019475944 -0.045115143 0.049359363 -0.056611117 -0.0809907 0.059899595 0.019717274
-0.015975172 0.015922496 0.03206003 -0.025659835 0.11729843 -0.031323984 0.025897672 0.114376776
-0.069792815 0.019837283 0.09636662 0.101952836 -0.21666297 -0.016806472 0.11044008 -0.047276825
-0.0063979174 -0.11931954 -0.08077081 0.019098656 -0.09592345 -0.047861997 -0.024946608 -0.0049554054
-0.004765916 0.09215243 0.06554634 0.069494426 0.09815103 0.036773387 -0.19507003 -0.03732559
0.047663417 0.0813652 -0.051230103 -0.042329963 -0.012745924 -0.10315007 -0.009251152 -0.06419356
-0.10625053 -0.009119291 -0.0022550193 -0.0549488 -0.10412796 0.015559053 -0.061447404 0.017851308
-0.11570141 -0.08338285 0.013754592 -0.11513574 0.0411249 -0.04251225 -0.23358089 -0.0388111
0.19210283 0.112927355 -0.015360094 0.1253647 0.045360766 -0.07037587 -0.022991678 0.14880215
-0.07693128 0.031114591 0.115975924 -0.015458248 0.0037139747 -0.059025783 -0.08588533 0.07020397
0.046853404 -0.1141283 -0.08944338 -0.050012678 0.038039267 -0.05739166 0.11243535 -0.038931113
-0.054397613 0.026033174 0.040726535 -0.097701505 0.045769162 -0.0075106355 0.034407113 -0.012288701
-0.04114614 0.11642492 0.006671794 0.10872796 0.090974234 0.019750163 0.07848813 -0.06195205
0.07225902 -0.11847279 -0.061994288 -0.06382664 0.122826755 -0.059125364 0.099254794 -0.08094357
-0.0142025165 -0.0054238206 0.14583142 0.10038234 0.05335763 -0.020152166 -0.106545754 -0.010332756
0.031297315 -0.048736017 -0.07544118 -0.09863272 0.07334 -0.0062323846 0.04734509 -0.025222644
-0.0694542 0.1614461 -0.0050324043 0.033461183 -0.032291397 0.1507308 0.11226016 -0.040783074
-0.04684485 -0.02422181 -0.08946861 0.18718134 0.06615964 0.057706546 -0.02038091 -0.047647674
-0.04279002 -0.027480913 -0.009343042 -0.008214288 -0.045372088 -0.11411412 -0.01566443 0.08910131
0.036487512 -0.0871801 0.12649783 -0.0016682192 -0.029441793 -0.086008936 0.0008010061 0.12548639
0.110494494 -0.05313969 -0.069887385 0.12757619 -0.02257292 -0.090468936 -0.044922505 -0.11983917
-0.059873447 0.089471884 -0.0062611736 0.12474101 -0.042915136 -0.17819548 0.124048464 -0.08215062
0.046289504 0.09534871 -0.01555904 -0.0097732125 0.014005683 0.015028099 0.11126641 0.24688126
-0.08896617 -0.13159418 -0.033542436 -0.08848838 0.076415375 -0.026098615 0.2507803 -0.12493265
-0.021318454 0.005447752 0.077913165 -0.0019637428 -0.0047597005 -0.15533943 0.09742267 -0.105945095
-0.07719932 -0.03315127 0.07410141 -0.012740016 0.04138026 -0.032698397 -0.039224237 0.106156625

network_body._body_endoder.seq_layers.2.bias f4 [128]
00000000: 46f5 30bb fd43 803a f0e1 feba 5f03 1f3a
00000010: a442 f4ba 0117 44bb cdfa 0dbb 4566 9bba
00000020: de5f 4439 b08c 3fb8 a905 b3b9 63b2 ca3a
00000030: f150 c6ba 45b4 0ebb aa1e afba 62d7 04bb
00000040: fda6 03bb b65c 4ebb 1109 54bb dcc9 38b9
00000050: 169d a53a f9ca 88ba 8a6e 22bb 39ff c1ba
00000060: 1372 ceba 99f6 a039 b231 64bb 6aa0 8bba
00000070: 2972 1dba 877a f6ba 0628 5fbb 7f07 0d3b
00000080: e3e0 01bb af30 b03a e4be 8dba d272 54bb
00000090: 64f4 6bbb ab9c 1ebb 3acc 5d35 15c6 6cb9
000000a0: ca9b 55bb ef20 f439 19a2 303b dd1d 0aba
000000b0: 7f42 7dbb 14ab 6cb9 4e96 acba 5413 00bb
000000c0: 090e 703a fe3d e5ba 7837 7dbb f2c8 36bb
000000d0: 476e 72bb 976a ebba f7de 12ba 094b 64bb
000000e0: 520b bbba 100b 08bb 9985 9fbb 3216 a3ba
000000f0: 400d fcb9 0e79 03bb 695b e8ba 5cfa 96ba
00000100: 3099 893a e1bd 63bb 1fea e1ba 3f26 3fbb
00000110: bd54 38ba 190d e8ba 0de3 e9ba 00a7 19bb
00000120: d6c7 3fbb 1f21 5dbb 939e a13a d161 2eba
00000130: 5ffd 24ba 4f47 83ba 9c78 8cba 5042 f9ba
00000140: dce8 d4b9 185b 20bb e64e 4bba 1fd6 2ebb
00000150: cdc0 62bb ee01 37bb 7178 f8b9 e356 32bb
00000160: cf65 97bb d69e 26bb 1276 aabb 8589 36bb
00000170: e3bb 0339 c4d4 2f3b 593d 2abb 3640 0dbb
00000180: 8e87 09bb c31f 01ba d483 47ba 05f8 54bb
00000190: 543a 88bb 52cb 02bb 6468 60bb be7f 6fba
000001a0: 51d3 cbba 083e 15ba 07a2 abbb ef7b bcbb
000001b0: 9c5e fdba 1c42 3bbb d65b 6fbb f4cf 83ba
000001c0: 5c94 abba b3ba 4bbb 345d 65ba abb9 ccba
000001d0: aa83 f7b8 9435 f6ba 7722 01b8 3e4a 18bb
000001e0: 2f72 09bb c680 52bb 0628 5b3a 196f daba
000001f0: 44f6 12bb e533 e1ba b208 12bb 23e0 95b9
-0.0027001663 0.0009785887 -0.0019445997 0.0006065871 -0.0018635583 -0.0029920938 -0.0021664381 -0.001185604
0.0001872773 -4.5668974e-05 -0.00034145758 0.001546454 -0.0015130324 -0.002177493 -0.0013360579 -0.002026998
-0.0020088546 -0.0031488365 -0.0032354037 -0.00017622806 0.0012635316 -0.0010436467 -0.0024785125 -0.0014800794
-0.001575055 0.00030701308 -0.003481966 -0.0010652666 -0.0006006086 -0.0018804827 -0.0034050955 0.002151936
-0.001981788 0.0013442243 -0.0010814336 -0.003241707 -0.0036003822 -0.0024202268 8.2626104e-07 -0.00022580505
-0.0032594078 0.00046563844 0.0026952086 -0.0005268732 -0.003864437 -0.00022570445 -0.0013167353 -0.001954277
0.0009157365 -0.0017489789 -0.0038637798 -0.0027890769 -0.0036992 -0.0017960843 -0.00056026824 -0.0034834764
-0.0014270341 -0.0020758547 -0.004868221 -0.0012442528 -0.00048075058 -0.0020061168 -0.0017727438 -0.0011518705
0.0010497924 -0.0034750628 -0.0017235911 -0.0029167084 -0.000703167 -0.0017704099 -0.0017844156 -0.0023445487
-0.0029263399 -0.0033741666 0.0012330584 -0.0006652149 -0.0006293859 -0.0010015758 -0.0010717097 -0.0019016955
-0.00040609285 -0.0024468359 -0.0007755592 -0.002667792 -0.0034599782 -0.0027924734 -0.00047391982 -0.0027212433
-0.004620291 -0.0025424263 -0.0052020634 -0.0027852964 0.00012563127 0.00268297 -0.0025976507 -0.0021553165
-0.0020985338 -0.00049256923 -0.00076108915 -0.0032496464 -0.004157344 -0.0019957614 -0.003424191 -0.00091361615
-0.0015550648 -0.00056931423 -0.005237821 -0.0057520787 -0.0019330564 -0.002857334 -0.0036523244 -0.0010056482
-0.0013090479 -0.0031086623 -0.0008749545 -0.0015619298 -0.00011802402 -0.0018784278 -3.0788095e-05 -0.0023237611
-0.00209726 -0.0032120212 0.0008360151 -0.001666519 -0.0022424618 -0.0017181603 -0.0022283015 -0.0002858649

action_model._continuous_distribution.log_sigma f4 [1, 2]
00000000: 23d6 9ebd e4ed 88bd
-0.07755687 -0.06685999

action_model._continuous_distribution.mu.weight f4 [2, 128]
00000000: f1ce c0bb 6f80 2abc 8228 6cbc 9e50 dc3c
00000010: aaae 613b 2235 a33c dcaa 1f3c 2b33 eab9
00000020: a78d af3c 53e0 d539 2df7 afba 68c8 e0bb
00000030: f6e8 393c d5ce 0c3c 4070 df3b 1c57 01bc
00000040: 53f5 2abd eea9 333b 52ef 9abb 6277 383c
00000050: ec68 0237 a4ae 4f3c c25f c9bc d152 d63b
00000060: 39fe 9dbc cefb 07bb 0096 a83c 729b b93b
00000070: e3a9 d0bc d00f 34bc d405 a2b9 3987 9abb
00000080: a999 c13b 0ea7 a9bc 371b 753c a0de 3d3d
00000090: 0627 06bb a993 89bb bfd4 a2bc e218 91bc
000000a0: ebd1 3bbc d96f dfbc e3fe 66bc 8632 f6bb
000000b0: f30b 78bb b362 a53c c85a 3a3b 4362 9dbc
000000c0: ac9c de3c 7d76 16bb ba93 ba3b ce78 30bc
000000d0: c445 103c 29be 41bc e9bd 2a3c 86cb e73b
000000e0: c56b f6bc 7176 6fba edcb 0a3b da4a dcbb
000000f0: f5cd f13b c5f6 2bbc e26c 253c e009 0fb7
00000100: ad27 0fbc e0bb 533b e904 52bc 3952 7dbb
00000110: b4b2 ed3c 44ad 80bc eb86 91bc 0007 313c
00000120: 401d 633b c352 683c c2c3 8b3c 1ddb 023b
00000130: 9cd9 c23b 51f1 61bc 23d9 d03b f96b 39bc
00000140: e713 e13c 4f68 dcbb e4df 75bc a0a6 a33a
00000150: bb0e 1e3b accf a13a 5faa 9c3a fba8 4cba
00000160: 3ef8 453b 4c03 ddba 947d 8aba 0a51 103b
00000170: 17c8 093d bd71 c4bc d8d8 e93c 34d9 98bb
00000180: f4b4 70bc 2cb6 8dba 32db d7bc 0047 113c
00000190: 8706 8739 3106 6b3b 7ddf fb3a 15dc 7c3c
000001a0: d6d7 e8bc 4509 b0bb 3d39 733a 5d7f 053b
000001b0: 26fe 46bc e9e4 d23b 95fa 9cbb c182 3bba
000001c0: 8a75 bfbc e69d 883c 2873 8dbc ab69 08b9
000001d0: 75ac e13a cbaa 9bbb b86b ba3b 1752 babc
000001e0: 8105 da3b 3fe6 b2bb 02b9 acbb 07bb 58bc
000001f0: a406 17ba 8288 1a3c 91be b1bc 4b4e c73c
00000200: bdb3 103d db70 7bbc 2031 ff3b 65ef 4bbd
00000210: d44b 89bb 0798 50bc e71c e33b 36d5 96b8
00000220: 2731 29bc 9ecd 143d 505c 99bc bd91 863c
00000230: d37c 603b 4f9f a93b 73fe 0fbc 6651 803c
00000240: da54 4ebd 9c31 95bc 4dfa c5bc fa9b f0bb
00000250: 6680 e737 51ee c639 272d b8ba 7918 81bb
00000260: 9cbc b13c 91a6 13bd 928e 303b dee2 babc
00000270: 6a67 0ebd d272 843c c3bf 8c3b 108f 9b3c
00000280: 1a73 903c 84ee 60bb 8b6d adbc 06a7 403c
00000290: da75 863b 8ee9 1bbc 6b3e 90ba 496c 35bc
000002a0: e43a d2bc e08d 373b 70b0 7d3b a65e 563c
000002b0: 426f ccba 1806 d63a 8025 bc3c f871 e33b
000002c0: 120b f33c 8619 2bbc 0d6c 61bb e215 33bc
000002d0: 800e a93b 872a 77bc 3343 01bc 4f80 ebbb
000002e0: 2866 453c f08f d1bb 5df5 bab9 7bb0 9a3c
000002f0: dc19 19bd f921 273c 3e53 323c abb0 81b8
00000300: 060b 9bbc 3fed 063c 8004 5e3c 007c e7bc
00000310: 61c0 cf3c 2cba a4bb c852 613c efd6 03bc
00000320: c46b 84bc f3a8 12bc 8156 113c 11a0 b5bc
00000330: 3e3e 573c 8f38 1d3c fbd9 983b 9847 88bc
00000340: 16b4 ec3c 7037 663c aaff ffbb 4b5c 7f3c
00000350: 3461 38bb 6f82 8a3c 34e0 7bbb 5877 e03b
00000360: 49b9 abba 3e21 483c e543 773b 3749 4a3c
00000370: 52fe f33b 1808 bb3c 0bce 193c 5cdb 17bc
00000380: 9493 b83b 754a 553b 9c77 9ebb 47af 5b3c
00000390: 731a 17ba 50be a33c 497d 63bc 4dfc 5439
000003a0: baf4 07bc 9030 82bc b20b 543b 556b d2b9
000003b0: 810c 1b3c b363 f93c c66b 46bc 9369 983c
000003c0: 260c 063d ac4f e3bc 4e1d bdbc 1183 a039
000003d0: de50 a2bc 7d2b c33c 6b96 a3bc a836 9fbb
000003e0: 22a9 9e3c de80 06bc 5e55 e93c 10ab 8b3c
000003f0: 410b 0b3c fcc9 323d 6687 e5bc cc15 973c
-0.0058840443 -0.0104065975 -0.014413955 0.02689391 0.0034436383 0.019922797 0.009745326 -0.0004467008
0.02142985 0.0004079366 -0.0013425105 -0.006859828 0.011347046 0.0085942345 0.006818801 -0.007894304
-0.041737866 0.0027414518 -0.0047282362 0.011258932 7.773033e-06 0.012675915 -0.024581794 0.006540634
-0.019286262 -0.0020749453 0.020579338 0.0056642825 -0.025471633 -0.010990098 -0.0003090339 -0.004715827
0.0059082103 -0.02070954 0.014960102 0.04635489 -0.0020470037 -0.0041985107 -0.019876836 -0.01771206
-0.011463623 -0.027275013 -0.014098856 -0.007513347 -0.003784892 0.020188665 0.0028435457 -0.019211894
0.027174316 -0.0022958808 0.00569388 -0.01077099 0.008805696 -0.011825123 0.010421255 0.0070738224
-0.030080685 -0.00091347756 0.0021178678 -0.00672279 0.0073792883 -0.010495846 0.0100967605 -8.525763e-06
-0.008737487 0.0032308027 -0.0128185535 -0.0038653745 0.029015876 -0.01570762 -0.01776453 0.010804892
0.0034654886 0.014179888 0.017061118 0.0019967027 0.005946351 -0.0137904445 0.006373541 -0.011317247
0.02747531 -0.0067263017 -0.015006993 0.0012485571 0.0024117667 0.0012345216 0.001195263 -0.00078071625
0.0030207778 -0.0016861944 -0.001056599 0.002202096 0.033638086 -0.023980016 0.028545782 -0.0046645645
-0.01469158 -0.0010811738 -0.026349638 0.008867025 0.0002575407 0.0035861845 0.0019216385 0.015433331
-0.028423231 -0.0053721988 0.00092782435 0.0020370104 -0.012145555 0.0064359796 -0.004790614 -0.0007152968
-0.023371477 0.016676854 -0.017266825 -0.00013009335 0.0017217534 -0.0047505847 0.0056891106 -0.022744222
0.006653488 -0.0054595764 -0.005271078 -0.013228185 -0.00057611824 0.00943196 -0.021697314 0.024329325
0.03532766 -0.015346731 0.0077878386 -0.04978885 -0.0041899476 -0.012731559 0.0069309357 -7.192271e-05
-0.01032666 0.036328904 -0.018720776 0.016426915 0.0034254089 0.005176462 -0.008788693 0.015663814
-0.05037389 -0.018212132 -0.024167204 -0.0073428126 2.7597136e-05 0.00037943062 -0.0014051542 -0.003939685
0.021696381 -0.036047522 0.0026940447 -0.022813257 -0.034766592 0.016168032 0.0042953207 0.018989116
0.01763301 -0.0034321854 -0.021170398 0.0117585715 0.0041034045 -0.009516133 -0.001100493 -0.0110731805
-0.025662847 0.0028008148 0.0038709901 0.013084089 -0.0015597122 0.001632872 0.0229671 0.0069410764
0.029668365 -0.010443097 -0.0034396679 -0.01093051 0.0051591992 -0.015085823 -0.007889557 -0.0071869264
0.012048282 -0.0063953325 -0.00035659494 0.01888298 -0.037378177 0.010200971 0.010884104 -6.184106e-05
-0.018926155 0.008235275 0.013550878 -0.02825737 0.025360288 -0.005027076 0.013752647 -0.00804685
-0.016164668 -0.008951413 0.008870722 -0.022171052 0.013137398 0.009596004 0.004664657 -0.016635701
0.028894465 0.014051303 -0.00781246 0.015585969 -0.002813411 0.016907899 -0.0038433196 0.0068501644
-0.0013101484 0.012214957 0.0037729677 0.012346557 0.007446089 0.022831008 0.009387503 -0.009268608
0.005632827 0.00325456 -0.004836036 0.013408489 -0.0005764134 0.019988209 -0.013884851 0.00020311885
-0.008298093 -0.015892297 0.0032355604 -0.0004013429 0.00946343 0.030443048 -0.012110656 0.01860503
0.03272643 -0.027747951 -0.023085263 0.0003061523 -0.019813951 0.023824448 -0.019969186 -0.0048588105
0.019367758 -0.008209435 0.028483089 0.017049342 0.00848657 0.04364966 -0.028018665 0.01844301

action_model._continuous_distribution.mu.bias f4 [2]
00000000: 91c2 4d3a fb23 71ba
0.0007849122 -0.0009198782

action_model._discrete_distribution.branches.0.weight f4 [1, 128]
00000000: 1b0b f1ba ea0d 23bb ef62 8b3b 853b 683c
00000010: 967e acbb 43db 90bc 4ef1 8d3b b85a 12bb
00000020: 9b14 59bb 2e2f 2ebc 9017 cebb 4ba2 eabb
00000030: 5f43 9cbb 93fe 22ba a549 af3a a7b1 be3b
00000040: 35b8 9e3b 6b5f 203c ef92 1ebc 8ab0 f8bb
00000050: 3863 023c 8ff4 803b 5b4b b9bb 50e3 053c
00000060: 42eb 123c 0291 7abb 9ddd b7bb 78cc 393b
00000070: f04e 553c 9ba3 35ba bc5a 86bc 503c 303b
00000080: fecd ac3b ba4b f7bb 3f44 d83b 25bf 75bb
00000090: d71f cdbb 8a0b e1bb 78c9 b03b 3065 23ba
000000a0: caac 2fbb 8897 543c 0f7c e0bb d321 f23a
000000b0: 1003 213c 83f6 203a 834e f73b 7a6c b53b
000000c0: ab69 26bc 03db 4d3b db9b e53a bb7b 1d3c
000000d0: 4f4c d23a 3d8f 69bc 2353 95bb 2046 123c
000000e0: 646f 95bb 869b c3bb 622b b5bb b359 21bc
000000f0: 5ef0 103b 6ae3 953b a4e2 bb3b 5d93 7ebb
00000100: e0da ecbb 3751 29bc de4e 9abb bb33 25bb
00000110: baeb 2cbc 286c 963c bee1 ac3b b5a8 0cbc
00000120: a926 923c a80d 29ba 9371 87bc 9b05 63bb
00000130: f2c5 08bc 1606 353b 130c e03b 2a26 7b3b
00000140: 1376 21bc 559b e2bb ea0b 9dbb bf2a 3b3b
00000150: ecab 193c 34d2 aeb9 6d18 a43a a801 7e39
00000160: 0b50 ca3a 5322 30bc 831b 4d3c eaa3 443b
00000170: cf3b 1939 1d85 2c3b 2f9a c23b fd9e d23c
00000180: 0c40 0dbc 28c4 8dbb 24b4 37bc d853 693c
00000190: ca92 7a3b 8d1f c53b 3f47 273c b532 aebb
000001a0: bf00 5cbc f55c 543a 7f15 673b 9db0 f739
000001b0: 935f 493c 6050 fcbb 68e0 663c debd b53b
000001c0: 7356 66bc efa8 3cbc ff87 14bc 30c3 2ebc
000001d0: d775 6ebc 6b48 fa3a e63b 233c e677 a33b
000001e0: e3e1 4ebb a7f2 47ba 9621 b4bb 56a7 053c
000001f0: ea78 eebb 88bb be3b 9edf c1ba 01b0 03bc
-0.001839015 -0.002488012 0.004253737 0.014174347 -0.0052641137 -0.017682677 0.0043317443 -0.0022331905
-0.0033123854 -0.010631366 -0.00628943 -0.00716046 -0.0047687734 -0.0006217744 0.0013373388 0.0058195177
0.0048437365 0.009788374 -0.009678586 -0.0075894045 0.007958226 0.0039354037 -0.005654735 0.008171871
0.008967223 -0.0038233404 -0.005611135 0.0028350633 0.013019308 -0.0006928981 -0.016400687 0.0026891418
0.0052735796 -0.007546869 0.0065999324 -0.0037497964 -0.006259899 -0.0068678306 0.0053951107 -0.00062330347
-0.0026805871 0.012975581 -0.0068507264 0.0018473215 0.00982739 0.0006140249 0.007547201 0.005536613
-0.010157029 0.0031411059 0.0017517762 0.009612019 0.001604447 -0.014255342 -0.00455703 0.008927852
-0.004560398 -0.0059694676 -0.0055288533 -0.009848046 0.0022115926 0.004574229 0.005733805 -0.003884516
-0.0072282404 -0.0103343045 -0.0047091087 -0.0025207836 -0.0105542485 0.01836212 0.005275934 -0.008585145
0.0178407 -0.00064488733 -0.016533649 -0.0034640792 -0.008347975 0.0027622036 0.006837377 0.0038322308
-0.009854811 -0.0069154897 -0.00479268 0.0028559414 0.009379368 -0.0003334448 0.0012519486 0.00024223945
0.0015435232 -0.010750371 0.012518766 0.0030004927 0.00014613497 0.002632446 0.0059387903 0.025710577
-0.008621227 -0.004326362 -0.011212382 0.014241181 0.0038234466 0.006015724 0.0102098575 -0.0053161033
-0.013427912 0.000810101 0.0035260615 0.00047243098 0.012290853 -0.007700011 0.014091589 0.0055463156
-0.014058697 -0.011514886 -0.009065627 -0.0106666535 -0.014554462 0.0019095069 0.009963011 0.0049886582
-0.0031567744 -0.00076274056 -0.005497168 0.008157572 -0.0072775977 0.0058206953 -0.0014791375 -0.008037568

exp_avg f4 [128, 1]
00000000: a109 c838 e7c1 a0b7 cbc9 dd36 d2ca 7db9
00000010: 075c 8837 21d8 17ba dd90 4438 7cf0 8eb9
00000020: 74d6 d0b9 795d a3b5 7fbd 8d39 470f f9b6
00000030: ee34 8ab9 63f4 98b9 58bb 0737 8e13 f238
00000040: 1937 e235 f5cd 8a39 0bc8 c4b9 8fed f738
00000050: e369 f334 0e87 7db9 fe43 14b9 ec1b c6b4
00000060: 6d07 e738 1305 693a 8646 8bb6 d034 4eb9
00000070: 9de0 8d36 c7ba 9b34 dadf 4339 7744 d437
00000080: f2e5 fd39 2183 b137 1fc3 5db9 8a31 e339
00000090: f080 4739 70d9 113a 8253 a8b9 7916 b7b7
000000a0: ddcf f9b9 fda2 b938 1aae 7839 408b 85b7
000000b0: df03 a2b7 f98f 14b8 8805 0339 c837 c035
000000c0: 4055 ffb8 4cbe fa37 be7c 5637 51f4 0133
000000d0: 5cfd 96b6 3243 81b9 a69e edb9 5408 bab9
000000e0: 7b44 1ab8 198b bab9 fb09 223a a580 8bb5
000000f0: 4264 f4b7 2911 1cba 6ac5 79b9 d82c deb7
00000100: a5aa 8fb5 8197 1b39 0455 abb4 6b9f b9b9
00000110: c3d6 e639 24f2 a6ba d7b4 2eba 22e5 32b3
00000120: c033 6cb6 7b27 83b6 3d78 76b9 620b 33b6
00000130: a827 c839 e1ee a6b9 0c5a bfb7 0d2e 1837
00000140: a6c6 9339 eb93 37b9 b558 3a38 e69c e536
00000150: 230c 07b9 3604 0938 5291 8839 dfdf f9b8
00000160: 372c 6139 6579 8bb9 2c46 65b9 8863 adb8
00000170: 676b 1eb8 3339 68b6 e33f f1b6 3f7d fa37
00000180: 3dc4 92b8 5b7f 0a3a 8e62 62b9 709c 043a
00000190: 5263 eeb4 2e49 4b38 f7cb c539 9152 bd34
000001a0: 8704 4439 c01a e9b8 b55e cfb9 9621 8c36
000001b0: 0016 99b6 c605 4739 a783 32b8 17ac 3034
000001c0: 5b42 68b9 e33d c2b6 b073 6fb7 6590 9fb5
000001d0: 9299 a9b7 daa0 ec38 a493 86b9 fe82 9fb7
000001e0: eb8f 4937 cb3b 1738 91fa 1a39 34f9 e8b8
000001f0: 2958 aa38 e0a1 73b8 7a2e f038 e589 0b39
9.538537e-05 -1.916378e-05 6.609805e-06 -0.00024203517 1.6255317e-05 -0.00057923986 4.6864956e-05 -0.00027263525
-0.00039832632 -1.217165e-06 0.000270348 -7.422557e-06 -0.00026360847 -0.00029173782 8.090246e-06 0.000115431016
1.6854348e-06 0.0002647486 -0.00037533077 0.000118221265 4.533932e-07 -0.00024178272 -0.00014139709 -3.690069e-07
0.000110163215 0.0008889001 -4.150733e-06 -0.00019665365 4.228276e-06 2.9006898e-07 0.0001868004 2.530425e-05
0.00048427243 2.1161106e-05 -0.0002114889 0.00043333723 0.00019026152 0.0005563712 -0.00032105675 -2.1825765e-05
-0.0004764785 8.851846e-05 0.00023715981 -1.5919679e-05 -1.9313708e-05 -3.5420035e-05 0.00012495194 1.4321349e-06
-0.000121752266 2.9890936e-05 1.2784438e-05 3.0257358e-08 -4.4998433e-06 -0.00024654862 -0.00045322365 -0.0003548289
-3.678024e-05 -0.0003558032 0.0006181297 -1.0393748e-06 -2.9133753e-05 -0.0005953485 -0.00023820033 -2.6485344e-05
-1.0703994e-06 0.00014838392 -3.191309e-07 -0.00035404725 0.00044029029 -0.0012736958 -0.00066645205 -4.165225e-08
-3.5196863e-06 -3.9087004e-06 -0.0002350518 -2.6679704e-06 0.0003817652 -0.00031839966 -2.2810906e-05 9.070628e-06
0.0002818603 -0.00017507344 4.442847e-05 6.842997e-06 -0.00012879125 3.2667267e-05 0.00026048213 -0.000119149445
0.00021474143 -0.00026602592 -0.00021865283 -8.267822e-05 -3.777016e-05 -3.4603988e-06 -7.189797e-06 2.9860645e-05
-6.998375e-05 0.00052832597 -0.00021589754 0.00050587114 -4.440322e-07 4.8467125e-05 0.00037726734 3.5264068e-07
0.00018693703 -0.00011115288 -0.0003955268 4.176235e-06 -4.5623165e-06 0.0001898027 -4.2561118e-05 1.6453883e-07
-0.00022149963 -5.788855e-06 -1.4272446e-05 -1.1888447e-06 -2.0217882e-05 0.00011283318 -0.00025668473 -1.9015275e-05
1.2014042e-05 3.6056892e-05 0.00014779928 -0.0001110904 8.122653e-05 -5.8086473e-05 0.00011452749 0.00013307443

exp_avg_sq f4 [128, 1]
00000000: 14f4 d335 1abe b631 7881 b52f 388d da35
00000010: 27b6 8531 06cf d035 9c6d b431 b54c 3e34
00000020: 08c2 8635 d274 0d2f 5d56 1d35 93d9 3730
00000030: 4589 f434 f2ac 5134 b01e 302f 1dfc b433
00000040: 0a36 fe30 353d 2334 51c9 0736 4ca1 1235
00000050: aac0 812b e9d6 2134 fbd9 a933 4044 6431
00000060: 887b 1f33 c862 0936 1406 4931 49ff 2535
00000070: 8ad8 6b2e b52b b02a 1101 a534 b521 4f33
00000080: 9c86 8135 45a5 0236 381a 3134 96ec 2e35
00000090: ef3c 8d35 1d17 0336 3cda 1535 96e1 2734
000000a0: 77fd 1735 a544 7034 a16b 1135 dff8 6930
000000b0: e9db 7b30 3b6e c232 9c2c 9733 9d65 852d
000000c0: 9bc0 1d35 1223 b931 b56b a434 26ea 3027
000000d0: 5609 5d2f e4b0 0a35 a05c 0d35 3960 b334
000000e0: b578 8a31 2bbf e234 d485 8035 5bae 9831
000000f0: a150 1331 3c09 a135 a278 9035 bf49 7e31
00000100: 601d d930 d776 8933 99f1 762c 904c e434
00000110: fef4 1135 eead 7e36 856f 8f35 7c08 a827
00000120: a203 ed30 5655 2d30 c5f8 c934 905c 5230
00000130: 33b6 6235 d470 1035 2090 1b31 947f 4530
00000140: 521d 3d34 d99d 9734 ac71 8631 0097 6230
00000150: 2227 0035 38dc e134 da71 b134 4916 9c34
00000160: b80f a334 e54d 3d34 ae00 2d35 c254 2535
00000170: 1972 5631 9abb 5931 b2d8 702f 0b3a 4e34
00000180: e3bf dd33 82d1 6435 72f6 0334 ebaa 5e35
00000190: 53fd b52b 519d 1d34 6687 b635 1562 e02a
000001a0: 22dd 7034 4967 f733 5022 0f35 fa36 eb2e
000001b0: dfa5 822e 8081 5d34 7a01 0034 a123 b02a
000001c0: e901 5334 147f 8f2f 437e 3432 df4b 662c
000001d0: 5284 7130 fbdd c334 a44a 8834 d928 6331
000001e0: 0348 9230 4e7a 4531 d709 f334 4f67 9034
000001f0: 2760 2733 3908 4234 cef2 d533 f364 a833
1.5791761e-06 5.318509e-09 3.30157e-10 1.6283366e-06 3.8915178e-09 1.5557459e-06 5.2511506e-09 1.7723035e-07
1.0040249e-06 1.2865378e-10 5.861273e-07 6.6884204e-10 4.5548418e-07 1.9527559e-07 1.6018009e-10 8.427762e-08
1.8496291e-09 1.5202825e-07 2.023375e-06 5.4623956e-07 9.219476e-13 1.5072477e-07 7.909326e-08 3.3217162e-09
3.7132423e-08 2.047209e-06 2.9252805e-09 6.183878e-07 5.362514e-11 3.1294208e-13 3.073442e-07 4.82266e-08
9.650425e-07 1.946771e-06 1.6493948e-07 6.516433e-07 1.0523053e-06 1.9533975e-06 5.58244e-07 1.5635155e-07
5.6620723e-07 2.2376715e-07 5.417333e-07 8.5118573e-10 9.162578e-10 2.26347e-08 7.0396e-08 1.5165475e-11
5.8767336e-07 5.3881957e-09 3.0625748e-07 2.4551839e-15 2.010315e-10 5.1666416e-07 5.266138e-07 3.341136e-07
4.0300514e-09 4.2234873e-07 9.575692e-07 4.443604e-09 2.1437148e-09 1.1998122e-06 1.0763945e-06 3.7003784e-09
1.5797177e-09 6.4011765e-08 3.5092816e-12 4.2524016e-07 5.437322e-07 3.795019e-06 1.0686787e-06 4.6638566e-15
1.7245052e-09 6.3058303e-10 3.762017e-07 7.6529094e-10 8.4456696e-07 5.3808367e-07 2.2637394e-09 7.184948e-10
1.7612663e-07 2.824079e-07 3.9128363e-09 8.2432905e-10 4.774066e-07 4.2069746e-07 3.3051657e-07 2.907348e-07
3.0372553e-07 1.7630335e-07 6.444851e-07 6.159063e-07 3.1205956e-09 3.1684295e-09 2.1904858e-10 1.9206361e-07
1.03260184e-07 8.524149e-07 1.2289982e-07 8.2950163e-07 1.2931135e-12 1.4678996e-07 1.3599463e-06 3.985845e-13
2.243219e-07 1.1520621e-07 5.332158e-07 1.06963285e-10 5.94118e-11 2.0629341e-07 1.1921466e-07 3.1288603e-13
1.9651601e-07 2.6101843e-10 1.05060876e-08 3.2727083e-12 8.786333e-10 3.6483092e-07 2.5386282e-07 3.3056067e-09
1.0643365e-09 2.8736795e-09 4.5269437e-07 2.6897257e-07 3.8970168e-08 1.807065e-07 9.962751e-08 7.841472e-08

exp_avg f4 [128]
00000000: b107 a037 1f9b 80b6 3b6e b135 a708 4bb8
00000010: d92c 5a36 68f3 f2b8 b040 1d37 fab3 64b8
00000020: f711 a7b8 2fb1 82b4 cdc8 6238 6b3f c7b5
00000030: 7d21 5db8 38ba 74b8 bc2b d935 3fa9 c137
00000040: cff8 b434 5316 5e38 d66c 9db8 a557 c637
00000050: 1abb c233 72d2 4ab8 9739 edb7 877c 9eb3
00000060: bcd2 b837 776a 3a39 44d7 5eb5 0cf7 24b8
00000070: fc00 6335 d62a 7933 17b3 1c38 5ed0 a936
00000080: 5b1e cb38 a202 8e36 e668 31b8 3bc1 b538
00000090: 599a 1f38 e65b e938 35a9 86b8 6b78 92b6
000000a0: 7dd9 c7b8 6382 9437 b0f1 4638 9bab 55b6
000000b0: b19c 81b6 2cb3 edb6 72a2 d137 3ac6 9934
000000c0: 2e44 ccb7 3e98 c836 fe96 2b36 4ded cf31
000000d0: 6095 71b5 e9d1 4eb8 8318 beb8 76d3 94b8
000000e0: f9d3 f6b6 133c 95b8 95a1 0139 6334 5fb4
000000f0: 6883 c3b6 0eb5 f9b8 22d1 47b8 7abd b1b6
00000100: e0dd 65b4 6af2 f837 cf10 89b3 887f 94b8
00000110: d1ab b838 838e 85b9 dfc3 0bb9 b31d 0fb2
00000120: 34f6 3cb5 cbd8 51b5 002d 45b8 483c 0fb5
00000130: bb1f a038 e78b 85b8 d714 99b6 e17c f335
00000140: 0a71 6c38 badc 12b8 c513 1537 b6b0 b735
00000150: 6a13 d8b7 f639 db36 1e82 5a38 4be6 c7b7
00000160: 5d23 3438 a328 5fb8 566b 37b8 07b6 8ab7
00000170: a478 fdb6 50c7 39b5 e8ff c0b5 2964 c836
00000180: 92d3 6ab7 9198 dd38 a41b 35b8 7f2d d438
00000190: dcb5 beb3 f5a0 2237 c63c 9e38 4175 9733
000001a0: 6cd0 1c38 cb7b bab7 5ee5 a5b8 bd35 6035
000001b0: 00f0 74b5 d137 1f38 bacf 0eb7 7a56 0d33
000001c0: afce 39b8 b664 9bb5 bd8f 3fb6 6d4d 7fb4
000001d0: 0dae 87b6 7d4d bd37 a152 57b8 fb37 7fb6
000001e0: ee3f 2136 45f9 f136 4cf7 f737 f460 bab7
000001f0: 8746 8837 eae7 42b7 3125 c037 0b43 df37
1.9077068e-05 -3.8327557e-06 1.3219609e-06 -4.840703e-05 3.2510636e-06 -0.00011584797 9.3729905e-06 -5.4527052e-05
-7.966527e-05 -2.4343305e-07 5.406961e-05 -1.4845112e-06 -5.2721694e-05 -5.8347563e-05 1.6180488e-06 2.3086204e-05
3.3708645e-07 5.2949716e-05 -7.506616e-05 2.3644252e-05 9.0678625e-08 -4.8356545e-05 -2.8279419e-05 -7.3801e-08
2.203264e-05 0.00017778004 -8.30147e-07 -3.9330727e-05 8.456552e-07 5.801379e-08 3.736009e-05 5.0608496e-06
9.6854485e-05 4.2322363e-06 -4.2297783e-05 8.6667445e-05 3.80523e-05 0.00011127423 -6.421135e-05 -4.3651576e-06
-9.52957e-05 1.770369e-05 4.7431968e-05 -3.183936e-06 -3.862741e-06 -7.0840088e-06 2.4990386e-05 2.86427e-07
-2.4350444e-05 5.978188e-06 2.5568875e-06 6.051471e-09 -8.9996865e-07 -4.930972e-05 -9.064472e-05 -7.0965776e-05
-7.356048e-06 -7.116063e-05 0.00012362593 -2.0787552e-07 -5.8267506e-06 -0.00011906969 -4.7640067e-05 -5.297069e-06
-2.1408005e-07 2.9676787e-05 -6.382617e-08 -7.0809445e-05 8.805807e-05 -0.00025473916 -0.0001332904 -8.330448e-09
-7.039373e-07 -7.817404e-07 -4.701037e-05 -5.335937e-07 7.635305e-05 -6.367993e-05 -4.5621814e-06 1.8141255e-06
5.637206e-05 -3.501468e-05 8.885695e-06 1.3685992e-06 -2.5758247e-05 6.533456e-06 5.209643e-05 -2.3829887e-05
4.294828e-05 -5.320519e-05 -4.3730564e-05 -1.6535645e-05 -7.554032e-06 -6.920791e-07 -1.4379593e-06 5.9721247e-06
-1.3996747e-05 0.00010566519 -4.3179505e-05 0.00010117422 -8.8806445e-08 9.693428e-06 7.545347e-05 7.052814e-08
3.7387406e-05 -2.2230573e-05 -7.910536e-05 8.35247e-07 -9.124633e-07 3.7960537e-05 -8.512225e-06 3.290777e-08
-4.4299926e-05 -1.1577711e-06 -2.8544885e-06 -2.3776893e-07 -4.0435757e-06 2.2566639e-05 -5.133695e-05 -3.8030546e-06
2.4028081e-06 7.2113785e-06 2.9559851e-05 -2.2218075e-05 1.6245305e-05 -1.1617298e-05 2.2905502e-05 2.661489e-05

exp_avg_sq f4 [128]
00000000: 7da6 8733 08e9 692f cd53 682d 83df 8b33
00000010: 9226 2b2f 37a3 8533 cdf2 662f 7195 f331
00000020: 8c7d 2c33 6010 b52c 5264 c932 ee53 eb2d
00000030: d480 9c32 4931 0632 006f e12c 1ea9 6731
00000040: edb1 a22e 2af2 d031 87ce ad33 acaf bb32
00000050: 5315 2629 8527 cf31 df68 5931 2617 122f
00000060: 4a23 cc30 94da af33 d8a7 002f fb79 d432
00000070: f0f0 162c 9a7f 6128 8a34 5332 8290 0431
00000080: 0fcb 2533 fd39 a733 09b1 e231 33e7 df32
00000090: fac8 3433 adcb a733 aecf bf32 53e3 d631
000000a0: 2c8c c232 81c5 1932 8423 ba32 fbbd 152e
000000b0: 9b30 212e fade 7830 ba80 4131 89bf 2a2b
000000c0: 54ec c932 bdf9 6c2f 6375 5232 7073 e224
000000d0: 9a76 0d2d 4286 b132 65f1 b432 e399 6532
000000e0: 5e3e 312f 1e1e 9132 6882 2433 956e 432f
000000f0: 3390 bc2e 3920 4e33 50ec 3833 afbe 222f
00000100: 06f4 8a2e 3bf4 2f31 3d0b 1e2a 821c 9232
00000110: 34d3 ba32 bafe 2234 f498 3733 0a15 5725
00000120: 63b0 972e e9dd dd2d fa42 8132 aca1 062e
00000130: 6e18 1133 49e2 b832 eb1e c72e 26cc fc2d
00000140: 0611 f231 cf11 4232 b216 2c2f 7c04 112e
00000150: 1209 a432 db8c 9032 2721 6332 a4ca 4732
00000160: f9b7 5032 484f f231 9f71 dd32 b19f d332
00000170: c43e 092f 5459 0b2f 4724 1a2d 2efc 0332
00000180: 6eeb 8d31 8c71 1233 83e9 a831 db81 0e33
00000190: 39f2 6829 ffbe c931 06a3 6933 d69a 8f28
000001a0: 1b27 1a32 8856 9e31 2136 b732 9889 962c
000001b0: a83a 272c 9ac3 0d32 edd8 a331 3775 6128
000001c0: 7b0b 0732 e8ac 372d fc07 e72f c363 132a
000001d0: 1d92 1a2e b1b5 7a32 f873 2e32 cd61 112f
000001e0: 753d 3b2e a0c5 fc2e 718b 9b32 2bd6 3832
000001f0: b63d d630 625c f831 5bed 8831 6c8b 5731
6.3167114e-08 2.1274016e-10 1.3206281e-11 6.5133484e-08 1.5566062e-10 6.222984e-08 2.1004638e-10 7.0892203e-09
4.0161055e-08 5.1461474e-12 2.34451e-08 2.675368e-11 1.8219374e-08 7.811033e-09 6.407208e-12 3.3711056e-09
7.398513e-11 6.0811276e-09 8.0935074e-08 2.1849552e-08 3.68779e-14 6.0289858e-09 3.1637268e-09 1.3286847e-10
1.4852983e-09 8.188832e-08 1.1701162e-10 2.4735519e-08 2.145003e-12 1.2517678e-14 1.22937625e-08 1.9290671e-09
3.8601737e-08 7.7870915e-08 6.5975923e-09 2.6065754e-08 4.2092303e-08 7.813592e-08 2.2329768e-08 6.2540635e-09
2.2648315e-08 8.950679e-09 2.16694e-08 3.4047414e-11 3.6650332e-11 9.0538743e-10 2.815837e-09 6.066194e-13
2.350695e-08 2.15528e-10 1.2250299e-08 9.8207435e-17 8.041257e-12 2.0666565e-08 2.1064531e-08 1.3364544e-08
1.6120213e-10 1.6893917e-08 3.830283e-08 1.7774433e-10 8.574865e-11 4.799242e-08 4.3055763e-08 1.4801559e-10
6.318861e-11 2.560468e-09 1.4037118e-13 1.70096e-08 2.1749294e-08 1.5180095e-07 4.2747118e-08 1.8655406e-16
6.8980176e-11 2.5223339e-11 1.5048034e-08 3.0611666e-11 3.3782662e-08 2.1523322e-08 9.0549644e-11 2.8739743e-11
7.0450623e-09 1.1296335e-08 1.5651372e-10 3.2973166e-11 1.9096237e-08 1.682786e-08 1.3220677e-08 1.16294e-08
1.2149024e-08 7.05214e-09 2.5779455e-08 2.4636252e-08 1.2482376e-10 1.2673712e-10 8.761942e-12 7.682543e-09
4.1304054e-09 3.4096544e-08 4.9159907e-09 3.3180054e-08 5.1724443e-14 5.8715837e-09 5.439781e-08 1.5943339e-14
8.972871e-09 4.6082427e-09 2.1328619e-08 4.2785324e-12 2.3764688e-12 8.251755e-09 4.768586e-09 1.2515426e-14
7.860645e-09 1.04407386e-11 4.2024328e-10 1.3090835e-13 3.514532e-11 1.4593227e-08 1.0154501e-08 1.3222419e-10
4.2573462e-11 1.14947385e-10 1.8107785e-08 1.0758906e-08 1.5588089e-09 7.2282527e-09 3.985105e-09 3.136587e-09

exp_avg f4 [128, 128]
00000000: 6337 99b8 61bd 8537 ca60 ee37 e6e7 6cb8
00000010: ee08 4937 a923 c5b7 8078 9637 2e86 d5b9
00000020: b619 cbb8 70d1 bc35 5214 b7b7 6b10 e937
00000030: 05f0 b4b9 b05d 16ba 9648 9f37 b122 a3b9
00000040: 70ed 3237 9144 9bb9 4365 37b9 eb67 eab7
00000050: e1cf 9834 9690 b0b8 71a4 ac36 7de3 b637
00000060: 7808 e0b9 9178 8eba b5b4 2a37 12ef 49b7
00000070: cc55 2d36 4146 1035 ffe5 09b9 f2dc 42b9
00000080: 4d9d 25ba 2272 c2b9 2d84 97ba d5b3 92b9
00000090: d910 85ba 7ae4 28ba f15f 44b8 f3a9 98b9
000000a0: e6d9 30b9 9374 49b8 fa96 18ba 5065 7b36
000000b0: 2dda e337 ef6c 9937 f503 8bba 69b7 b636
000000c0: cf41 f1b9 bd96 df37 f209 00ba b33b 2332
000000d0: 0e4b 2f37 83bf ecb9 89e1 6bb9 cda3 b5b9
000000e0: 5273 9437 4456 92ba 8021 2eba 03ea ea37
000000f0: 1a78 a437 6ee5 5fb8 a7c1 5db9 9a52 5cb5
00000100: 6ead 6c37 8001 94ba 3309 f037 66f4 f7b9
00000110: 479c bab9 d9bd 8dba cb42 a3b9 8b82 6532
00000120: 953b da36 82cb 8436 927f 35b9 a867 9036
00000130: dca1 a2b9 ada1 10ba e8a4 af37 5a63 de37
00000140: 8a37 1ab8 5567 beb9 b8dc 4f37 fdb2 1237
00000150: 862b 1eba 5c75 58ba cf2c afb9 9d05 c6b8
00000160: 137e fbb9 dbb8 48ba ca4f 1ab8 9094 c8b9
00000170: 32c9 16ba c45d 6237 0b41 2b36 325e 8137
00000180: 40ec 88ba 2b8e 7bb8 e0f3 33b9 295a 36ba
00000190: c607 f037 5ef3 24b9 59c9 09ba 2895 d234
000001a0: 73e6 1eba 83cc ceb6 6f2b b4b9 2ec0 2836
000001b0: c5d1 bf36 81df 8ab9 845f d0b8 cf85 8034
000001c0: 5501 12b8 85d7 3636 c308 8a37 e350 4f35
000001d0: f857 5337 a2fe 7fba ac92 24ba 9ecf 5b37
000001e0: d411 9736 97dd b537 994d 07ba a57c d0b9
000001f0: 0825 d137 b29b e4b6 084e 03ba 8d10 1fba
00000200: cfa5 12b1 cf05 0030 9e35 6430 47bc e2b0
00000210: 527c c02f 7fa4 3cb0 b50e 1030 c06b 4cb2
00000220: f177 42b1 cfbc 342e 7b31 2fb0 591e 5f30
00000230: 133b 2db2 79f4 8fb2 127e 1830 db2e 1cb2
00000240: 6f46 ab2f e6a4 14b2 1498 afb1 b185 60b0
00000250: 1f4f 122d f705 29b1 6019 252f a11d 2f30
00000260: 397c 56b2 a765 08b3 ca67 a32f eb7b c1af
00000270: bff2 a52e b71e 8a2d 6b09 84b1 b188 bab1
00000280: 918e 9eb2 4f2a 3ab2 750e 11b3 7174 0cb2
00000290: 75c7 feb2 07b2 a1b2 930b bcb0 bb2a 12b2
000002a0: 914c a9b1 3aef c0b0 6914 92b2 aea6 f02e
000002b0: 4421 5a30 dced 1230 0317 05b3 86ef 2e2f
000002c0: bef5 66b2 850a 5630 4326 75b2 2f48 9c2a
000002d0: c9ce a72f d8a4 62b2 32d3 e1b1 94e5 2db2
000002e0: 6720 0e30 8718 0cb3 47b4 a6b2 00e8 6030
000002f0: db75 1d30 5b4e d6b0 6947 d4b1 8c2e d1ad
00000300: dd8e e22f 3fb2 0db3 0fcd 6530 f362 6db2
00000310: 97a8 32b2 bcb2 07b3 b54c 1cb2 dbb9 db2a
00000320: dbe5 502f 9d4c fe2e 7fbd adb1 b344 0a2f
00000330: fcb0 1bb2 e075 8ab2 1925 2830 a5ea 5430
00000340: bca4 93b0 ff4a 36b2 fbfc c62f 586d 8c2f
00000350: ad6b 97b2 cc3b cfb2 71b3 27b2 dc89 3db1
00000360: bac2 70b2 4229 c0b2 a5c9 93b0 2704 40b2
00000370: fb5a 90b2 9abd d82f c5f7 a32e 5899 f72f
00000380: 3a16 03b3 90df f0b0 4f4a acb1 2393 aeb2
00000390: becb 6530 52e5 9db1 93ea 83b2 ef9b 492d
000003a0: 3921 98b2 cc46 46af dd7a 2cb2 e589 a12e
000003b0: 79a6 372f 95f1 04b2 1b88 47b1 601f f62c
000003c0: abbd 8bb0 6d05 af2e a929 0430 e17e c62d
000003d0: 0d53 ca2f 2b13 f5b2 0a8f 9db2 236a d22f
000003e0: 2ba5 102f 611d 2e30 df89 81b2 3396 47b2
000003f0: b734 4830 da82 5aaf b567 7bb2 6149 98b2
-7.305925e-05 1.5943022e-05 2.8416882e-05 -5.6482757e-05 1.1982613e-05 -2.3500836e-05 1.7937506e-05 -0.00040726498
-9.684583e-05 1.4068046e-06 -2.1824762e-05 2.778341e-05 -0.00034511104 -0.00057360064 1.8988077e-05 -0.0003111563
1.06649095e-05 -0.0002961499 -0.00017489963 -2.7943364e-05 2.8463458e-07 -8.419265e-05 5.145143e-06 2.1802023e-05
-0.0004273092 -0.0010869672 1.0174864e-05 -1.20361965e-05 2.582895e-06 5.3746413e-07 -0.00013151018 -0.0001858359
-0.000631769 -0.000370876 -0.0011559777 -0.00027981275 -0.0010152116 -0.0006442737 -4.6819394e-05 -0.0002911832
-0.00016865841 -4.8030703e-05 -0.0005820837 3.7460886e-06 2.7162105e-05 1.8289747e-05 -0.0010606038 5.4453744e-06
-0.00046016133 2.6653865e-05 -0.00048842945 9.501423e-09 1.0448288e-05 -0.00045156115 -0.00022495365 -0.0003464505
1.7696675e-05 -0.0011164625 -0.0006642565 2.8003944e-05 1.960625e-05 -5.3381016e-05 -0.00021148344 -8.207659e-07
1.4107076e-05 -0.0011291951 2.8614513e-05 -0.00047293602 -0.0003559312 -0.0010814025 -0.00031139547 1.3359236e-08
6.5038425e-06 3.957598e-06 -0.00017309029 4.3036016e-06 -0.00031019642 -0.00055172556 2.0938416e-05 2.6510726e-05
-3.6768186e-05 -0.00036316612 1.2389552e-05 8.743952e-06 -0.0006033707 -0.0008257234 -0.00033411986 -9.442421e-05
-0.00047968383 -0.000765694 -3.679077e-05 -0.0003825766 -0.00057520263 1.3492481e-05 2.5518846e-06 1.5421861e-05
-0.0010446385 -5.9975468e-05 -0.00017161621 -0.0006956184 2.861385e-05 -0.0001573092 -0.00052561384 3.9224074e-07
-0.0006061561 -6.1630867e-06 -0.00034364636 2.5145814e-06 5.716664e-06 -0.00026487935 -9.936004e-05 2.3939216e-07
-3.4810353e-05 2.7245562e-06 1.6454962e-05 7.7231215e-07 1.2597062e-05 -0.0009765421 -0.00062779593 1.3101757e-05
4.502226e-06 2.1680067e-05 -0.0005161404 -0.0003976572 2.4931986e-05 -6.813055e-06 -0.0005008881 -0.0006067835
-2.1340048e-09 4.6574383e-10 8.302211e-10 -1.6497176e-09 3.5012931e-10 -6.8627765e-10 5.2407795e-10 -1.1898862e-08
-2.8298894e-09 4.1094957e-11 -6.3734945e-10 8.1170054e-10 -1.0083357e-08 -1.6758564e-08 5.5476435e-10 -9.091049e-09
3.1154765e-10 -8.652227e-09 -5.1104596e-09 -8.168071e-10 8.3167076e-12 -2.4596127e-09 1.5015678e-10 6.3706734e-10
-1.2484684e-08 -3.175742e-08 2.9723274e-10 -3.5194545e-10 7.546452e-11 1.5702424e-11 -3.8427763e-09 -5.4288525e-09
-1.8458453e-08 -1.0836245e-08 -3.3773592e-08 -8.175548e-09 -2.9660194e-08 -1.8823824e-08 -1.368209e-09 -8.508034e-09
-4.927252e-09 -1.4037831e-09 -1.7005918e-08 1.0943545e-10 7.935521e-10 5.345251e-10 -3.0987405e-08 1.5910304e-10
-1.3443637e-08 7.7867696e-10 -1.4269577e-08 2.7761254e-13 3.0524053e-10 -1.31924125e-08 -6.572372e-09 -1.0122125e-08
5.1705346e-10 -3.2618598e-08 -1.9406924e-08 8.1820417e-10 5.728375e-10 -1.5592819e-09 -6.1781305e-09 -2.378122e-11
4.121067e-10 -3.2991235e-08 8.360112e-10 -1.3817714e-08 -1.03992965e-08 -3.1594695e-08 -9.097836e-09 3.9031178e-13
1.8999151e-10 1.1564192e-10 -5.056506e-09 1.2575434e-10 -9.062429e-09 -1.6118918e-08 6.1170763e-10 7.74586e-10
-1.0742478e-09 -1.0610846e-08 3.6195744e-10 2.5543545e-10 -1.7627679e-08 -2.4125164e-08 -9.76148e-09 -2.7581484e-09
-1.4014114e-08 -2.2370504e-08 -1.0752969e-09 -1.1176815e-08 -1.680518e-08 3.942489e-10 7.4563945e-11 4.5037996e-10
-3.052103e-08 -1.7525839e-09 -5.0143067e-09 -2.0323176e-08 8.359925e-10 -4.595372e-09 -1.535708e-08 1.1460151e-11
-1.7710237e-08 -1.8033147e-10 -1.00396536e-08 7.345927e-11 1.6702896e-10 -7.738341e-09 -2.9035678e-09 6.995224e-12
-1.0167488e-09 7.9590425e-11 4.8080523e-10 2.256634e-11 3.6802597e-10 -2.853047e-08 -1.8342252e-08 3.8274192e-10
1.3155403e-10 6.334258e-10 -1.5080273e-08 -1.1617476e-08 7.283449e-10 -1.9873472e-10 -1.4633703e-08 -1.7728498e-08
