results/RollerAgents/RollerAgent/RollerAgent-67520.pt (torch, 431507 bytes, 39 tensors)

network_body._body_endoder.seq_layers.0.weight f4 [128, 1]
-0.52592903 -0.052754853 1.7217714 -1.1295868 0.91013527 0.75709647 -0.8587569 0.69549114
0.5139483 1.4715904 0.83175415 -0.543302 0.5857834 1.1856792 0.5029348 -2.0366771
-0.4535003 -0.12716095 -1.1176325 -0.22997233 -0.52310395 -0.74330443 -1.0395818 0.54628634
-0.40302506 0.61105645 -1.1852084 -0.2717054 0.48183772 -0.78566945 0.94128823 -1.9066287
0.6718868 -1.5773044 -0.9893148 0.5228068 -0.52280045 0.006588426 1.7960256 -0.2683032
-0.8833558 -1.5074928 0.3879229 -0.85245275 -0.6721438 -0.0069742776 0.47045505 -0.39055264
0.47105294 -0.4809351 1.5691367 1.8038551 -0.52077883 0.43133098 1.0989082 -0.31442043
-0.6633438 -1.0389488 -0.06709482 -1.8388879 1.5131447 -1.7357593 0.057348397 1.2559352
-0.87719977 -1.0853301 -1.2925099 0.71068984 1.2276276 0.35323957 0.16848795 -0.27291256
0.7158377 2.1656754 -0.40076044 1.6320522 0.20436619 0.11895434 2.364933 1.1116145
-0.61846364 0.053336676 -0.5622302 0.39585108 0.122627616 1.0492398 0.8847637 0.015501577
-1.5711021 -1.3320729 -0.5172756 0.51582235 1.3173424 -1.2335361 1.7106466 1.8189983
-0.55019426 -0.021458516 -1.38285 1.596765 0.2529606 -0.09900855 -0.96665 0.60563403
2.129814 -0.9847746 -0.6714669 0.8891938 -0.652227 -1.3793976 0.35851577 -0.9357747
-0.22150087 0.6306539 -0.968968 -1.2915412 0.71559197 0.37271586 -1.1356066 0.2087303
-1.1792213 -1.9437033 0.0396403 1.6180422 1.9764358 -0.23043741 -1.4416052 0.45659965
00000000: 49a3 06bf 7915 58bd 0163 dc3f 4d96 90bf
00000010: a0fe 683f 13d1 413f 7ed7 5bbf b50b 323f
00000020: 1e92 033f 135d bc3f d7ed 543f d715 0bbf
00000030: e7f5 153f 56c4 973f 56c0 003f eb58 02c0
00000040: 3131 e8be 7b36 02be 950e 8fbf de7d 6bbe
00000050: 24ea 05bf 3349 3ebf 0411 85bf 6cd9 0b3f
00000060: 4d59 cebe 326e 1c3f e9b4 97bf f81c 8bbe
00000070: 6fb3 f63e a221 49bf 44f8 703f 690c f4bf
00000080: c600 2c3f 1ce5 c9bf bc43 7dbf abd6 053f
00000090: 40d6 05bf b9e3 d73b 2be4 e53f 095f 89be
000000a0: 9b23 62bf 86f5 c0bf d59d c63e 583a 5abf
000000b0: 9e11 2cbf 7b88 e4bb 7cdf f03e 84f6 c7be
000000c0: da2d f13e 203d f6be 79d9 c83f b9e4 e63f
000000d0: c351 05bf 6ad7 dc3e 06a9 8c3f b7fb a0be
000000e0: e6d0 29bf 46fc 84bf 0269 89bd ae60 ebbf
000000f0: baae c13f 5c2d debf 27e6 6a3d 7cc2 a03f
00000100: 2a90 60bf 19ec 8abf f770 a5bf c5ef 353f
00000110: e722 9d3f d1db b43e 1b88 2c3e 32bb 8bbe
00000120: 2441 373f 6d9a 0a40 7930 cdbe 16e7 d03f
00000130: 5f45 513e 559e f33d 105b 1740 6249 8e3f
00000140: a253 1ebf 8f77 5a3d 52ee 0fbf feac ca3e
00000150: 3024 fb3d 7d4d 863f e07f 623f 54fa 7d3c
00000160: e019 c9bf 5d81 aabf 2c6c 04bf ef0c 043f
00000170: ad9e a83f 83e4 9dbf 78f6 da3f f0d4 e83f
00000180: 88d9 0cbf c5c9 afbc 3b01 b1bf cc62 cc3f
00000190: 0d84 813e ffc4 cabd 6076 77bf d50a 1b3f
000001a0: df4e 0840 301a 7cbf 41e5 2bbf 34a2 633f
000001b0: 59f8 26bf 1a90 b0bf 618f b73e ee8e 6fbf
000001c0: 20d1 62be 8972 213f 490e 78bf 3951 a5bf
000001d0: 0931 373f 9dd4 be3e 8f5b 91bf 65bd 553e
000001e0: b9f0 96bf 45cb f8bf de5d 223d 021c cf3f
000001f0: d9fb fc3f c9f7 6bbe 8586 b8bf 6ec7 e93e

network_body._body_endoder.seq_layers.0.bias f4 [128]
-0.0014983139 -0.0016034612 -0.00065733975 -0.0040169815 0.0015715394 0.0010704696 0.0023261781 -0.0026366028
3.2918884e-05 -0.00042731207 0.00039815306 0.0020814645 -0.0038109808 0.0011649224 -0.0021610926 -0.004193474
0.0009272742 -0.0011348557 0.0012436501 0.0017880099 -0.00081419776 -0.0043128184 0.0006636686 0.00051133946
-0.0024473607 -0.0020882178 -0.00043817522 -0.0013743683 0.0010331672 -0.002853943 0.0020285035 0.0010216088
-0.001582004 -0.0021451486 0.0005600037 0.0022984568 -0.0010376337 -0.0011681399 -0.0011014305 0.0010505058
-0.00026796287 -0.0013310387 0.0038708947 0.0011844859 0.0008981756 -0.0015625206 -0.0021059501 -0.0013765122
0.0017054742 -0.0025450515 -0.0009443602 0.0012809145 -0.0023854848 0.0005145242 -0.00043509348 -0.0009097148
0.00029596096 0.0014437848 -0.0028926511 -0.0018356771 -0.0016966263 -0.0018436015 -0.0021741726 -0.0015102234
-0.002055143 -0.003017646 0.0004021862 -0.0009748537 0.0005731982 0.001966527 0.0019137398 -0.0004193035
0.0019046747 -0.0030844556 -0.0018551768 -0.0029124245 0.0019890894 0.0031130365 0.00058514194 -0.003917131
-0.001382695 -0.00087541767 -0.0022971893 0.0014119048 -0.0014757907 -0.002244307 0.001762988 -0.0016451046
-0.0009029184 0.0016163881 -0.0018875562 -0.0023939635 -0.0013955011 -0.0017213443 0.00045624943 -0.0038030574
0.00100318 -0.0007907412 -0.00026788667 -0.002457823 -0.0006876572 0.0015539149 -0.00047792887 -0.00031262537
0.0015771046 0.000364738 0.0006412384 -0.0012700297 -0.0006427129 -0.0012957007 0.0010137871 0.001713631
0.0018953816 -0.0020106079 0.0012303273 0.00039525348 0.0015582882 0.0004819749 -0.00085154985 -0.0025233298
0.002239643 -0.0009793852 0.0012005585 -0.00047022782 0.001412521 -0.0023399084 -0.00260418 -0.0001257329
00000000: 1263 c4ba 3b2b d2ba 5351 2cba e2a0 83bb
00000010: 1dfc cd3a 004f 8c3a cb72 183b dbca 2cbb
00000020: 6212 0a38 db08 e0b9 33bf d039 2e69 083b
00000030: a6c1 79bb 4fb0 983a 1ea1 0dbb 6969 89bb
00000040: 5114 733a 70bf 94ba f901 a33a a85b ea3a
00000050: e36f 55ba 8b52 8dbb 0cfa 2d3a 690b 063a
00000060: e663 20bb 7bda 08bb e2ba e5b9 2624 b4ba
00000070: 576b 873a 3809 3bbb a4f0 043b 81e7 853a
00000080: 3f5b cfba 9f95 0cbb 36cd 123a b5a1 163b
00000090: 3601 88ba 451c 99ba e05d 90ba 20b1 893a
000000a0: 5e7d 8cb9 3f76 aeba d6ae 7d3b c040 9b3a
000000b0: 8b73 6b3a 7ecd ccba fb03 0abb 166c b4ba
000000c0: 388a df3a e1ca 26bb f18e 77ba 5ce4 a73a
000000d0: cb55 1cbb 22e1 063a 421d e4b9 ed79 6eba
000000e0: 352b 9b39 613d bd3a a292 3dbb 1a9b f0ba
000000f0: 5561 deba 00a5 f1ba 907c 0ebb b0f2 c5ba
00000100: 94af 06bb b3c3 45bb 85dc d239 538d 7fba
00000110: ae42 163a d9e0 003b 74d6 fa3a f7d5 dbb9
00000120: 47a6 f93a 9424 4abb 6729 f3ba 60de 3ebb
00000130: 625b 023b 1604 4c3b 3664 193a 475b 80bb
00000140: 8c3b b5ba 497c 65ba 718c 16bb aa0f b93a
00000150: 526f c1ba 3915 13bb 1014 e73a 8da0 d7ba
00000160: d4b1 6cba fcdc d33a e067 f7ba 0be4 1cbb
00000170: 3fe9 b6ba bb9e e1ba c334 ef39 b73c 79bb
00000180: 237d 833a be49 4fba 2473 8cb9 6d13 21bb
00000190: e543 34ba bbac cb3a 8792 fab9 dee7 a3b9
000001a0: d9b6 ce3a 4e3a bf39 c818 283a 2077 a6ba
000001b0: bc7b 28ba 80d4 a9ba 0de1 843a ea9b e03a
000001c0: 746e f83a 67c4 03bb ef42 a13a 063a cf39
000001d0: 7a3f cc3a 93b1 fc39 8b3a 5fba 735e 25bb
000001e0: f9c6 123b b75e 80ba 0f5c 9d3a e988 f6b9
000001f0: 5724 b93a 2659 19bb e4aa 2abb 2bd7 03b9

network_body._body_endoder.seq_layers.2.weight f4 [128, 128]
0.084849045 0.10672098 0.031982187 0.06582507 0.013717064 0.05576649 -0.0009401747 0.039460544
0.01720589 0.0637156 -0.075299405 0.01089604 -0.071920425 -0.10761662 0.039401848 0.059277777
-0.16912259 -0.05986109 -0.0066397875 -0.16007979 -0.026643543 -0.09420901 0.014854154 -0.06405141
-0.06721948 0.038256925 -0.14961371 -0.09840656 -0.09668802 0.0740418 -0.044807076 0.13793832
0.08075325 -0.038887285 0.12176996 0.09169723 0.0030155473 0.2350648 0.11162522 0.10573395
0.21364427 -0.027967496 -0.05102966 0.13013108 -0.04285456 -0.018913612 0.006426827 -0.09041677
-0.046798475 0.04821336 -0.030124716 -0.036256026 0.049880423 -0.037062306 0.11930153 0.22403589
-0.08274861 0.11731617 0.043628648 -0.050797597 0.11693903 -0.10171275 0.081750624 -0.033967488
0.011459323 -0.011430658 -0.00032192038 -0.044261437 -0.07060643 0.057660207 -0.18487124 0.023291627
0.016783787 0.09370021 -0.0030967044 -0.00014893911 0.06469077 0.03465777 0.024275184 -0.018875
-0.03885827 0.028483113 -0.036392935 -0.14977744 0.13666841 0.007538473 -0.046331525 -0.14285944
0.063913584 0.066967435 -0.02186564 0.05619606 0.004676055 -0.09964817 0.018673657 -0.03573375
0.10852725 -0.050247762 0.056455858 -0.07135896 -0.012012119 -0.14357586 -0.004497327 -0.057496093
0.034358475 0.17957951 0.16786504 -0.060621828 -0.07415352 -0.09883571 -0.045477003 0.0504619
-0.10342547 -0.00037852846 0.052695394 -0.012124221 -0.18845056 -0.12113665 0.15786661 0.0037677065
-0.03771608 -0.0014746209 -0.046056602 -0.08004457 -0.11432224 0.014438899 0.0692344 0.0079322215
0.09534725 0.15989767 0.08432456 0.12627962 0.008651765 0.24141155 -0.15497181 -0.120276585
0.02351454 -0.1002431 -0.043843627 0.065274544 0.07429032 -0.0722325 0.16964814 -0.04519577
-0.115415215 0.014207846 0.10835595 0.19953652 -0.08016249 -0.008779196 -0.12684962 -0.03292568
-0.14821748 0.0045635374 0.16826941 0.066192456 -0.12574103 -0.10606924 0.08659447 0.092694364
0.13274862 -0.19306004 -0.074439704 -0.062424365 -0.093326956 0.09903957 0.19916408 0.006738846
0.018170469 0.14143391 0.03918664 -0.03839776 -0.22159292 -0.08994235 -0.16999769 -0.056154106
-0.02259695 0.07591233 -0.15960538 0.20028435 0.085227415 -0.057506084 -0.023786148 0.0018974479
-0.047803428 0.03084053 0.10146976 0.07566298 -0.13274449 0.074841835 0.1671329 0.05415335
-0.0093020415 -0.056882024 -0.06290639 0.023415225 0.05232644 -0.11203708 -0.06271312 0.025140857
0.12415045 -0.013099533 0.07860752 -0.1384684 0.015657537 0.13155195 0.14908664 -0.053960577
0.06899684 0.20459557 0.031062828 0.06311374 0.073538445 0.046704385 -0.19144402 -0.07496406
0.0005799067 0.00628241 -0.11904228 -0.12434454 -0.033898722 0.15427956 -0.016931925 -0.12355339
-0.09567731 -0.16054262 0.11496471 -0.03222273 0.004295809 -0.078828566 -0.035008144 -0.027677128
-0.1222489 -0.009540021 0.011554819 -0.09087886 -0.1664497 -0.029259913 -0.014493462 0.019892432
0.039063398 -0.107801124 0.04208106 -0.02041002 -0.03058954 0.06063135 -0.041291706 0.006365234
-0.15957579 0.0874605 0.11572538 -0.062247675 -0.02131752 -0.1458443 -0.028757112 0.12927306
00000000: 56c5 ad3d 8790 da3d c1ff 023d 4bcf 863d
00000010: 89bd 603c 676b 643d 0e76 76ba 61a1 213d
00000020: 5ef3 8c3c 537d 823d 9336 9abd 4e85 323c
00000030: 044b 93bd 1a66 dcbd d563 213d 41cd 723d
00000040: 792e 2dbe e730 75bd 9392 d9bb f5eb 23be
00000050: 8f43 dabc a7f0 c0bd d65e 733c 632d 83bd
00000060: 5eaa 89bd 4bb3 1c3d 5634 19be 6189 c9bd
00000070: 5e04 c6bd 3aa3 973d a087 37bd b43f 0d3e
00000080: f661 a53d 4648 1fbd 8762 f93d c2cb bb3d
00000090: 7da0 453b d4b4 703e c39b e43d 0b8b d83d
000000a0: 90c5 5a3e 171c e5bc 7a04 51bd 1541 053e
000000b0: 4388 2fbd b8f0 9abc 2298 d23b 6d2c b9bd
000000c0: c2af 3fbd 5f7b 453d 1cc8 f6bc 3381 14bd
000000d0: 6a4f 4c3d a5ce 17bd 5c54 f43d aa69 653e
000000e0: 1a78 a9bd 7643 f03d f4b3 323d 2411 50bd
000000f0: bb7d ef3d c64e d0bd df6c a73d 7e21 0bbd
00000100: e2bf 3b3c a847 3bbc 6cc7 a8b9 7b4b 35bd
00000110: 1b9a 90bd 1c2d 6c3d e34e 3dbe 15ce be3c
00000120: 277e 893c e5e5 bf3d 14f2 4abb 8a2c 1cb9
00000130: 987c 843d 4ef5 0d3d c0dc c63c be9f 9abc
00000140: d929 1fbd 6b55 e93c c210 15bd 425f 19be
00000150: cef2 0b3e 4b05 f73b 20c6 3dbd bf49 12be
00000160: 20e5 823d 3926 893d 921f b3bc d72d 663d
00000170: 9839 993b 5714 ccbd 7ff9 983c 8d5d 12bd
00000180: 8943 de3d 99d0 4dbd 423e 673d a524 92bd
00000190: 7bce 44bc 8d05 13be 505e 93bb 0681 6bbd
000001a0: 79bb 0c3d b1e3 373e d0e4 2b3e 984e 78bd
000001b0: cddd 97bd 606a cabd 1846 3abd 23b1 4e3d
000001c0: bcd0 d3bd 3b75 c6b9 20d7 573d aba4 46bc
000001d0: 2ff9 40be 7e16 f8bd c9a7 213e a0eb 763b
000001e0: 2d7c 1abd 1148 c1ba d9a5 3cbd 68ee a3bd
000001f0: c721 eabd 2291 6c3c c4ca 8d3d 26f6 013c
00000200: 6b45 c33d 37bc 233e 5bb2 ac3d 724f 013e
00000210: 22c0 0d3c 9734 773e eeb0 1ebe 9253 f6bd
00000220: 91a1 c03c 414c cdbd 6095 33bd a9ae 853d
00000230: 8625 983d a2ee 93bd 3eb8 2d3e 331f 39bd
00000240: d05e ecbd 06c8 683c b9e9 dd3d 4d53 4c3e
00000250: 3b2c a4bd 9ed6 0fbc dee4 01be 14dd 06bd
00000260: 53c6 17be ba89 953b d14e 2c3e e98f 873d
00000270: 42c2 00be d43a d9bd 7158 b13d 8bd6 bd3d
00000280: 41ef 073e 88b1 45be d873 98bd b1b0 7fbd
00000290: 3422 bfbd 42d5 ca3d abf1 4b3e 8ad1 dc3b
000002a0: 3cda 943c 0dd4 103e 2c82 203d f846 1dbd
000002b0: 41e9 62be b233 b8bd e013 2ebe d901 66bd
000002c0: 3d1d b9bc ec77 9b3d 986f 23be 5717 4d3e
000002d0: b68b ae3d 808b 6bbd 2bdb c2bc c9b3 f83a
000002e0: 87cd 43bd 47a5 fc3c 61cf cf3d 31f5 9a3d
000002f0: 2cee 07be ad46 993d e324 2b3e e7cf 5d3d
00000300: 9767 18bc 20fd 68bd 11d5 80bd 49d1 bf3c
00000310: 4054 563d b273 e5bd bc6f 80bd 33f4 cd3c
00000320: 9742 fe3d 6c9f 56bc fbfc a03d a9ca 0dbe
00000330: 3c44 803c 8eb5 063e 2baa 183e c405 5dbd
00000340: 374e 8d3d 8081 513e 7977 fe3c c741 813d
00000350: 539b 963d 194d 3f3d e709 44be c286 99bd
00000360: e104 183a addc cd3b 70cc f3bd 5aa8 febd
00000370: 63d9 0abd 76fb 1d3e d2b4 8abc 8f09 fdbd
00000380: 77f2 c3bd 4965 24be 9e72 eb3d fbfb 03bd
00000390: dcc3 8c3b df70 a1bd b364 0fbd 25bb e2bc
000003a0: a25d fabd c04d 1cbc 6c50 3d3c b21e babd
000003b0: ca71 2abe 7cb2 efbc fc75 6dbc 74f5 a23c
000003c0: f100 203d d6c6 dcbd 315d 2c3d ea32 a7bc
000003d0: ea96 fabc 9458 783d 7e21 29bd 7493 d03b
000003e0: d667 23be 7e1e b33d 6e01 ed3d 6bf7 7ebd
000003f0: 14a2 aebc 3558 15be 0994 ebbc 2860 043e

network_body._body_endoder.seq_layers.2.bias f4 [128]
0.0024299128 -0.0008983111 -0.002957212 -0.0006844353 -0.001987766 -0.00010231219 -0.00021579892 9.243952e-06
-0.0026722844 0.00065130176 0.0009693736 -0.0027875598 -0.002231828 -0.001574837 0.0016396499 -0.0028963906
-0.0021530602 0.0018360349 0.0011857483 0.00071958627 0.0017214495 1.4455505e-05 -0.0010961742 -0.002000974
-0.00088570954 -0.001388882 -0.0021280576 -0.002338449 0.00095925166 0.0009555762 0.0006313637 -0.0025731751
0.0026212346 -0.002857675 0.0006234076 -0.00038609715 0.0011101364 0.001996902 -0.0020749797 0.0009684204
0.0017290015 0.0017090099 -9.014024e-05 -0.0022218688 -0.0027582624 -0.0026305912 -0.002102598 -0.0039177323
-0.0015787599 -0.0020506822 0.0015006934 0.0013024192 0.0018545296 -0.0028491684 -0.001261906 0.00015170971
-0.0006905026 -0.002200378 -0.0022764844 0.00025483346 -0.0013296857 -0.0022740809 -0.0032533144 0.0013464078
-0.0011330892 0.00061641686 -0.0016057355 -0.0022307127 0.0013172011 0.0021773763 0.0019632215 0.0010242997
0.001409464 0.0006768783 0.00060632516 0.0012219219 -0.0019715494 0.0022393034 -0.002058973 -0.00045339693
4.0309227e-05 8.0723476e-05 -0.002209248 -0.002564643 -0.00090493227 -0.0029424748 0.00063232257 -0.0014762365
0.00046090715 -0.0017299054 -0.00088342116 0.0009967856 -0.0019915388 0.0011802422 -1.427649e-05 -0.0028019124
-0.001630444 -0.0017955928 -0.0014043091 0.0008103381 0.00047776377 -0.0012554767 0.0015367651 0.0010347964
-0.0019895236 9.997312e-05 -0.0025138452 -0.0016965796 0.0006348386 -0.001535238 -0.0023071838 -0.0026511163
0.0004371127 0.0007437853 -0.00060102355 0.00015242811 -0.0020013654 -0.0011033623 0.0006019518 0.00070514594
0.000622682 0.0013557873 -0.0024561926 0.0006509544 -0.0024986404 0.00072752486 0.00012977907 0.000294132
00000000: 2c3f 1f3b a37c 6bba c9cd 41bb ad6b 33ba
00000010: 2e45 02bb 7090 d6b8 1548 62b9 7916 1b37
00000020: 7e21 2fbb 1fbc 2a3a 901d 7e3a 7eaf 36bb
00000030: dc43 12bb c36a ceba 85e9 d63a 5fd1 3dbb
00000040: 5b1a 0dbb 1ca7 f03a 1c6b 9b3a 9ea2 3c3a
00000050: 43a2 e13a ec85 7237 81ad 8fba c622 03bb
00000060: f62e 68ba 260b b6ba e276 0bbb aa40 19bb
00000070: 4a76 7b3a a27f 7a3a 1a82 253a b7a2 28bb
00000080: 05c9 2b3b d547 3bbb 2d6c 233a 156d cab9
00000090: ff81 913a 75de 023b 62fc 07bb 98dd 7d3a
000000a0: aa9f e23a db00 e03a ac09 bdb8 c69c 11bb
000000b0: f7c3 34bb ff65 2cbb becb 09bb 5260 80bb
000000c0: 64ee ceba bd64 06bb eab2 c43a f0b5 aa3a
000000d0: b013 f33a 1db9 3abb 8a66 a5ba 4414 1f39
000000e0: d802 35ba 3834 10bb 1231 15bb 2b9b 8539
000000f0: d948 aeba bf08 15bb 8f35 55bb f379 b03a
00000100: 2a84 94ba 0997 213a 8b77 d2ba 2631 12bb
00000110: efa5 ac3a 50b2 0e3b 64a9 003b cb41 863a
00000120: c4bd b83a 8970 313a cbf1 1e3a e528 a03a
00000130: 1c35 01bb 47c1 123b d6ef 06bb e8b5 edb9
00000140: b411 2938 164a a938 08c9 10bb 9213 28bb
00000150: fa38 6dba 89d6 40bb 73c2 253a 477e c1ba
00000160: e9a5 f139 febd e2ba 6495 67ba 93a6 823a
00000170: 7a84 02bb 5bb2 9a3a 0f85 6fb7 4aa0 37bb
00000180: 9fb4 d5ba 195a ebba cb10 b8ba df6c 543a
00000190: 5e7c fa39 cf8e a4ba 486d c93a 01a2 873a
000001a0: ab62 02bb a9a8 d138 53bf 24bb c45f deba
000001b0: 4c6b 263a 0a3a c9ba 1f34 17bb 5abe 2dbb
000001c0: 462c e539 96fa 423a 028e 1dba 1cd5 1f39
000001d0: 5729 03bb b29e 90ba 4dcc 1d3a 8bd9 383a
000001e0: 7b3b 233a acb4 b13a 13f8 20bb cfa4 2a3a
000001f0: 3bc0 23bb 5eb7 3e3a 4e15 0839 bb35 9a39

action_model._continuous_distribution.log_sigma f4 [1, 2]
-0.020205323 -0.039573565
00000000: a285 a5bc e417 22bd

action_model._continuous_distribution.mu.weight f4 [2, 128]
-0.030570379 0.028654655 0.010088149 0.026600901 -0.0049620043 0.011274602 0.009544017 0.010160257
-0.0066255117 0.0008893334 -0.014401607 -0.015695976 -0.02333784 -0.019339431 0.003043874 0.015516712
0.003786382 0.027057996 -0.00069554424 -0.004390576 -0.0008188025 0.011975159 -0.0042577772 -0.008053436
-0.011797712 -0.013511728 0.025259383 -0.015910378 -0.0144586135 -0.0032278644 0.012739166 -0.013783402
-0.007608772 0.0047891745 -0.010470351 -0.010944425 -0.0022281294 0.029418916 0.019859666 0.017224677
0.0068272697 -0.026179735 0.010938081 -0.028931135 0.011410324 -0.0065710302 -0.012825775 0.0012418511
-0.010200788 -0.0064186114 -0.026974738 0.01127383 0.007397754 0.017707488 -0.006098668 0.006085055
0.009119812 0.01044027 0.022685738 0.0027169515 -0.012228031 -0.00980162 -0.00010196598 -0.00087606057
-0.016847113 0.013107965 0.004427706 -0.003473244 0.009206967 -0.0008492444 0.019648287 0.019942671
0.014991004 -0.022237234 0.00030958743 0.010946497 -0.037827086 -0.009161598 -0.002349109 0.01021323
0.017814867 -0.012500116 0.03338884 -0.012854828 -0.016786454 0.0076395143 0.034281652 0.009880016
-0.016241098 -0.010436283 -0.0023207949 -0.0015481849 0.022439357 3.1669995e-05 0.012326098 -0.0016897562
-0.007446151 -0.010783699 0.025810907 -0.022117859 0.012706494 0.007522694 0.00012489046 -0.018549105
-0.033293445 0.008877365 -0.0030657419 -0.019234609 0.019983064 -0.021310369 -0.041289832 0.029746648
0.011793097 -0.00986611 0.009898854 0.0020515155 0.018864302 -0.01792698 0.00029717633 0.019190611
-0.022015786 0.0024851833 -0.00397787 -0.016718801 0.0027372693 0.017370408 0.0028880276 -0.017649153
0.0374622 0.0068200314 -0.006955529 0.00047195813 0.0016980836 0.01300869 -0.0013471544 0.024838079
0.00701686 0.016696712 0.016032038 0.016669203 0.00263818 -0.006125672 -0.023960302 -0.01770476
0.016861305 -0.018268628 -0.02636804 -0.01270362 0.02162988 0.007086895 -0.0014701819 0.032099295
-0.01374391 -0.010027815 0.0067130458 0.012438879 0.025920475 -0.0169193 -0.011890438 0.0035908835
0.020321611 -0.008411337 -0.023005087 -0.012944486 -0.019149162 -0.03499445 0.009047362 -0.001128336
-0.019762821 0.014084757 0.00089154893 0.025103882 -0.031155204 0.010072141 -0.0005888506 0.00062115595
-0.009999166 0.0004371634 -0.0025304225 -0.019601095 -0.043538064 -0.0162888 -0.008390744 0.006547022
0.014050438 0.006318918 0.0056326506 0.0044916803 -0.010644803 -0.00094938494 -0.0037302845 -0.028128404
-0.0051832884 0.05340632 0.001821004 0.02321969 -0.006022627 0.015784709 -0.029679498 0.021207763
-0.005742995 0.009795054 0.0010176423 -0.005339828 -0.015072147 0.0140556395 0.05496634 0.016175989
0.0017263555 -0.024313185 0.008211801 0.003375418 -0.020951869 -0.0023649218 -0.014253801 0.016968705
-0.006483345 -0.012990887 -0.014260888 -0.014920288 0.06010521 -0.028602665 -0.021602254 0.008200583
-0.007733292 -0.009048085 0.026450211 -0.021204095 -0.008232556 0.0066707074 -0.0018730394 0.0034593178
0.009470025 0.0033184155 0.019681657 -0.0038499343 0.009274791 -0.007007057 9.620248e-05 -0.016881144
-0.0037726976 0.008490128 -0.012983833 0.003798271 0.0117228525 -0.0153636895 0.015305397 0.006392612
-0.0025051965 -0.013205717 0.019585254 -0.0022103249 -0.041202012 0.005317092 0.0058209747 0.0079766475
00000000: bb6e fabc 2bbd ea3c c448 253c 22ea d93c
00000010: 4f98 a2bb 1cb9 383c 825e 1c3c 3577 263c
00000020: d21a d9bb 2722 693a b8f4 6bbc d994 80bc
00000030: ff2e bfbc ba6d 9ebc bb7b 473b cf39 7e3c
00000040: f324 783b bba8 dd3c 2f55 36ba d2de 8fbb
00000050: e8a4 56ba 7533 443c d384 8bbb 8ff2 03bc
00000060: 314b 41bc 4b60 5dbc c4ec ce3c 7b56 82bc
00000070: d2e3 6cbc 948a 53bb efb7 503c c7d3 61bc
00000080: 0153 f9bb 82ee 9c3b d68b 2bbc 3f50 33bc
00000090: cf05 12bb f0ff f03c bdb0 a23c c41a 8d3c
000000a0: 4ab7 df3b e276 d6bc a335 333c fd00 edbc
000000b0: 5ef2 3a3c cc51 d7bb 3323 52bc 9cc5 a23a
000000c0: 3521 27bc 3753 d2bb 20fa dcbc dfb5 383c
000000d0: dc68 f23b 4b0f 913c 56d7 c7bb 2465 c73b
000000e0: 446b 153c ab0d 2b3c 71d7 b93c e20e 323b
000000f0: 1458 48bc f996 20bc 92d6 d5b8 6ea7 65ba
00000100: f502 8abc cac2 563c 4a16 913b 5d9f 63bb
00000110: d2d8 163c d49f 5eba 72f5 a03c d05e a33c
00000120: d49c 753c dc2a b6bc 1f50 a239 f058 333c
00000130: 93f0 1abd 871a 16bc 82f3 19bb 6455 273c
00000140: 7cf0 913c 49cd 4cbc bcc2 083d 0e9d 52bc
00000150: bf83 89bc e454 fa3b eb6a 0c3d cadf 213c
00000160: 0d0c 85bc f2fc 2abc 7a18 18bb 77ec caba
00000170: bed2 b73c 66d5 0438 67f3 493c cf7a ddba
00000180: d8fe f3bb 1dae 30bc 6571 d33c 8330 b5bc
00000190: e62e 503c ee80 f63b 07f5 0239 4bf4 97bc
000001a0: b55e 08bd 5e72 113c 9dea 48bb e691 9dbc
000001b0: 86b3 a33c 1593 aebc 871f 29bd 3eaf f33c
000001c0: d537 413c 77a5 21bc ce2e 223c b872 063b
000001d0: 4f89 9a3c 9adb 92bc 55ce 9b39 a135 9d3c
000001e0: 735a b4bc 75de 223b cb58 82bb def5 88bc
000001f0: c263 333b 634c 8e3c 1045 3d3b f594 90bc
00000200: f771 193d 927a df3b 35eb e3bb 2671 f739
00000210: 3b92 de3a 6722 553c 0093 b0ba 3a79 cb3c
00000220: b0ed e53b 8bc7 883c 9f55 833c da8d 883c
00000230: 51e5 2c3b dcb9 c8bb 6548 c4bc 9309 91bc
00000240: b820 8a3c 17a8 95bc ca01 d8bc d822 50bc
00000250: 2531 b13c 2f39 e83b 1eb3 c0ba 8d7a 033d
00000260: 232e 61bc b44b 24bc 1cf9 db3b 71cc 4b3c
00000270: 2d57 d43c 589a 8abc 1dd0 42bc 0755 6b3b
00000280: 8279 a63c b4cf 09bc 2a75 bcbc 1c15 54bc
00000290: b4de 9cbc 5756 0fbd 633b 143c ace4 93ba
000002a0: a4e5 a1bc c1c3 663c d6b6 693a a8a6 cd3c
000002b0: 3339 ffbc 9f05 253c 185d 1aba 12d5 223a
000002c0: 8bd3 23bc 1433 e539 72d5 25bb 7a92 a0bc
000002d0: f854 32bd 1770 85bc 5579 09bc 6788 d63b
000002e0: cf33 663c ed0e cf3b 1992 b83b f22e 933b
000002f0: 8a67 2ebc 25e0 78ba ca77 74bb 8a6d e6bc
00000300: 93d8 a9bb 96c0 5a3d c1ae ee3a 3837 be3c
00000310: 7559 c5bb ef4e 813c 6b22 f3bc e7bb ad3c
00000320: bc2f bcbb 6f7b 203c 6962 853a b9f9 aebb
00000330: 2bf1 76bc a049 663c 6324 613d 8283 843c
00000340: e146 e23a 722c c7bc ca8a 063c 1e36 5d3b
00000350: 41a3 abbc cefc 1abb c688 69bc f401 8b3c
00000360: 3d72 d4bb bbd7 54bc 80a6 69bc 3974 74bc
00000370: e130 763d 2350 eabc 36f7 b0bc bd5b 063c
00000380: 8e67 fdbb 6b3e 14bc 1dae d83c 36b4 adbc
00000390: d8e1 06bc f395 da3b c680 f5ba b9b5 623b
000003a0: 2a28 1b3c c679 593b 6d3b a13c 2e4f 7cbb
000003b0: 4bf5 173c 749b e5bb 50c0 c938 534a 8abc
000003c0: 5d3f 77bb 2e1a 0b3c 25ba 54bc 6aec 783b
000003d0: 3511 403c fcb7 7bbc 7dc3 7a3c 1e79 d13b
000003e0: 392e 24bb cb5c 58bc 4171 a03c 19db 10bb
000003f0: 71c3 28bd 003b ae3b e0bd be3b 7cb0 023c

action_model._continuous_distribution.mu.bias f4 [2]
0.0015236465 -0.0018833913
00000000: 18b5 c73a 20dc f6ba

action_model._discrete_distribution.branches.0.weight f4 [1, 128]
-0.0017283701 0.009939398 0.009695056 0.0027452137 -0.0069204546 0.0090967165 -0.0065122 -0.00031931043
0.0031142307 0.012327451 -0.016513893 -0.013266767 -0.007844577 0.003511153 -0.002505517 0.019400476
0.004410083 0.0072459886 0.011825014 -0.012604787 0.008526414 -0.002554432 -0.006707869 -0.0033747752
-0.01622083 0.0013014198 -0.01682007 0.0034718607 0.0061113094 -0.0027674346 -0.0042753555 -0.018245054
0.008868176 -0.0008156647 -0.006611373 -0.004444223 0.007186553 0.013015053 -0.0041181007 0.010325162
0.00424228 0.0054159258 -0.005311636 0.0015375786 -0.0026199704 -0.0018155696 0.0026800428 0.005947603
-0.0021402773 -0.00407635 -0.008800193 0.0002372508 -0.009922819 0.006262162 -0.0065450245 -0.009383892
-0.008016813 -0.0048094057 -0.0027832983 -0.0017991463 0.0015490227 -0.0033992573 0.0034795303 0.0013296661
-0.01724786 -0.014349191 0.00088065554 0.015872864 0.008944428 0.0055003073 0.0022266489 0.010901577
0.015626779 -0.0025951362 -0.011047447 -0.012762834 0.009895376 -0.019024381 -0.009266933 -0.0062683257
0.005165472 -0.0177418 0.0093576275 -0.02208542 -0.00041376325 -0.013960351 0.0017218795 0.0036723823
0.014780465 -0.0057635703 0.0021222474 0.00048373718 -0.0028667757 -0.0029787817 -0.01993223 0.00032394394
0.0032011867 -0.009432807 0.00521816 0.0049800947 -0.00976532 0.004801383 -0.00051307946 0.0022896803
-0.0001791514 0.019685507 -0.0031411366 -0.010835263 -0.001765804 0.0005469511 0.011404989 0.0055533983
-0.002972192 -0.0033995942 -0.0017542643 0.008162998 0.0069963234 0.009847763 -0.0097303735 0.010731433
0.006916947 -0.008981749 0.0047262665 0.001323443 -0.012517931 -0.0022909036 -0.005048608 0.015500641
00000000: 7a8a e2ba dbd8 223c 03d8 1e3c 0be9 333b
00000010: fbc4 e2bb 650a 153c 4b64 d5bb 1f69 a7b9
00000020: 1f18 4c3b 14f9 493c 2548 87bc db5c 59bc
00000030: 8a86 00bc 5f1b 663b 9a33 24bb bfed 9e3c
00000040: 7582 903b c26f ed3b b4bd 413c 4f84 4ebc
00000050: 5fb2 0b3c 4268 27bb afcd dbbb 552b 5dbb
00000060: 8ce1 84bc 6794 aa3a 3eca 89bc 2888 633b
00000070: 6141 c83b d95d 35bb 4818 8cbb a776 95bc
00000080: d34b 113c 55d2 55ba 37a4 d8bb d8a0 91bb
00000090: 2d7d eb3b 173d 553c 22f1 86bb de2a 293c
000000a0: d302 8b3b 1478 b13b 3b0d aebb 9488 c93a
000000b0: cfb3 2bbb 68f8 edba a8a3 2f3b 1ce4 c23b
000000c0: e543 0cbb e792 85bb af2e 10bc 87c6 7839
000000d0: 5293 22bc d232 cd3b a577 d6bb e5be 19bc
000000e0: f358 03bc 3898 9dbb ff67 36bb 55d1 ebba
000000f0: 9408 cb3a 13c6 5ebb d508 643b 3148 ae3a
00000100: 624b 8dbc df18 6bbc cbdb 663a cf07 823c
00000110: a68b 123c ec3b b43b f8ec 113b 879c 323c
00000120: bb03 803c 2913 2abb 5a00 35bc 351b 51bc
00000130: 3720 223c 05d9 9bbc 56d4 17bc 8766 cdbb
00000140: 1f43 a93b 4057 91bc bc50 193c 7cec b4bc
00000150: 5dee d8b9 f5b9 64bc b0b0 e13a 5aac 703b
00000160: c329 723c 55dc bcbb 6715 0b3b 1b9e fd39
00000170: 84e0 3bbb aa37 43bb ea48 a3bc 05d7 a939
00000180: 00cb 513b 0f8c 1abc 19fd aa3b 1030 a33b
00000190: b9fe 1fbc eb54 9d3b 2e80 06ba 760e 163b
000001a0: 96da 3bb9 8043 a13c 87db 4dbb 6386 31bc
000001b0: 8d72 e7ba 4461 0f3a fedb 3a3c 48f9 b53b
000001c0: 1bc9 42bb bacb 5ebb 58ef e5ba 18be 053c
000001d0: 6a41 e53b 8358 213c 256c 1fbc e4d2 2f3c
000001e0: 8fa7 e23b 3028 13bc ccde 9a3b 6177 ad3a
000001f0: 0218 4dbc fc22 16bb cb6e a5bb 67f6 7d3c

exp_avg f4 [128, 1]
-1.6720205e-05 -3.4722656e-05 0.00013631347 6.465256e-07 0.00012404009 -0.00027643243 -2.0077992e-07 6.399875e-05
-0.00014358343 -8.207043e-05 -0.00017037103 1.7614885e-06 -5.345777e-06 -2.0374138e-05 0.00018706435 -1.6431047e-08
-2.164256e-06 1.3274566e-05 -3.9545816e-06 5.095719e-06 4.3446553e-06 2.6622065e-06 2.7053995e-06 0.00014325952
9.1984975e-06 1.6312666e-05 -2.70358e-06 -2.5995116e-06 0.00011423215 7.117252e-06 7.440322e-05 -2.726379e-07
0.00026225677 -3.5785197e-07 8.573171e-06 0.0002786165 3.0297062e-05 7.948678e-05 1.1983294e-05 2.5677386e-07
1.0923717e-05 1.3754483e-06 5.0133815e-05 9.036921e-06 8.059599e-06 5.1324438e-05 -3.1827865e-05 1.5007386e-05
-0.00018570997 -5.0735985e-06 0.00031656426 2.0552712e-05 -1.5730287e-05 8.5343934e-05 0.000114438095 -1.9695255e-05
4.9414602e-06 6.955513e-06 2.738899e-05 -1.5278617e-07 -0.00020100518 -2.7375911e-08 5.5539845e-06 0.00018240696
-1.1805692e-05 -1.7871555e-06 -8.764248e-07 -1.5146463e-05 8.007912e-05 0.00019869437 -1.4832902e-05 2.143308e-06
0.0003162359 -6.7522175e-05 3.98058e-06 -0.00015808397 0.00019949664 5.701153e-05 0.00026866843 -7.408282e-05
-1.1455336e-05 0.00019360807 7.998206e-06 0.00016352447 5.254036e-05 5.5868786e-05 0.0003017808 3.968287e-05
-2.6123848e-07 -1.3349285e-06 -2.33084e-06 0.00017492798 -0.000118183285 1.0445132e-06 -1.5121979e-06 0.00014479349
1.5281355e-05 2.7939184e-05 -1.0088668e-06 0.00014277596 -0.00011521781 -7.0598486e-05 3.405391e-06 0.00027769047
0.00018068342 5.2577434e-06 -6.3766e-06 0.00034029703 -3.3475193e-05 9.210799e-07 0.0004335681 5.3524313e-06
4.934051e-06 -0.00025924266 5.6058343e-06 -2.2188458e-06 0.00014213464 -5.197673e-05 -5.862758e-06 -9.228834e-05
-2.4242913e-06 -5.986914e-09 -0.00014302281 0.00013850984 -8.304003e-05 5.7200486e-07 -1.04736806e-07 0.00013041559
00000000: 5e42 8cb7 2ba3 11b8 5eef 0e39 e78c 2d35
00000010: c210 0239 22ee 90b9 f795 57b4 1137 8638
00000020: e28e 16b9 3a1d acb8 a0a5 32b9 496c ec35
00000030: e05f b3b6 21e9 aab7 b426 4439 4124 8db2
00000040: a33d 11b6 d4b5 5e37 99b1 84b6 e5fb aa36
00000050: 4ec8 9136 5ca8 3236 698e 3536 ef37 1639
00000060: 3f53 1a37 2fd7 8837 276f 35b6 4573 2eb6
00000070: eb8f ef38 bbd0 ee36 ed08 9c38 115f 92b4
00000080: 827f 8939 cd1e c0b4 7dd5 0f37 4613 9239
00000090: 7226 fe37 24b2 a638 db0b 4937 bbda 8934
000000a0: 0245 3737 0b9c b835 c646 5238 489d 1737
000000b0: b737 0737 3245 5738 e97e 05b8 3bc8 7b37
000000c0: 24bb 42b9 e13d aab6 89f8 a539 9d68 ac37
000000d0: 89f4 83b7 adfa b238 7cfe ef38 3d37 a5b7
000000e0: d2ce a536 6763 e936 68c1 e537 8b0d 24b4
000000f0: ebc4 52b9 4428 ebb2 5d5c ba36 7f44 3f39
00000100: 1011 46b7 32de efb5 7443 6bb5 901d 7eb7
00000110: 26f0 a738 9d58 5039 d4da 78b7 c0d5 0f36
00000120: 77cc a539 b19a 8db8 ec90 8536 58c3 25b9
00000130: f92f 5139 aa1f 6f38 11dc 8c39 e95c 9bb8
00000140: 4b30 40b7 4503 4b39 0830 0637 c477 2b39
00000150: c85e 5c38 a754 6a38 5538 9e39 2871 2638
00000160: 5840 8cb4 cb2b b3b5 876b 1cb6 df6c 3739
00000170: 2bd9 f7b8 3331 8c35 b9f6 cab5 b5d3 1739
00000180: 7630 8037 f15e ea37 6668 87b5 21b6 1539
00000190: 17a1 f1b8 460e 94b8 2c88 6436 fc96 9139
000001a0: d675 3d39 ac6b b036 94f6 d5b6 e569 b239
000001b0: b767 0cb8 2140 7735 8650 e339 0999 b336
000001c0: 2d8f a536 f6ea 87b9 c019 bc36 7be7 14b6
000001d0: fa09 1539 9701 5ab8 b5b8 c4b6 ed8a c1b8
000001e0: 02b1 22b6 74b5 cdb1 65f8 15b9 f43c 1139
000001f0: c725 aeb8 e08b 1935 abeb e0b3 2bc0 0839

exp_avg_sq f4 [128, 1]
2.4832612e-09 6.986393e-08 9.606717e-08 3.5748786e-11 1.6078961e-07 5.545556e-07 1.5436449e-11 5.1691086e-07
1.3175577e-07 1.5586535e-07 2.43895e-07 8.544074e-10 2.127846e-08 3.0283516e-07 6.835793e-07 2.850576e-15
4.7321697e-10 2.1113102e-09 8.1875014e-11 6.779184e-10 1.2370988e-10 4.56136e-11 5.707759e-11 1.5607445e-07
3.6527978e-09 1.6210889e-06 4.4025734e-11 1.5970178e-10 3.4739384e-07 2.0920546e-10 1.5452309e-06 5.20256e-13
7.4109573e-07 9.82675e-13 3.452864e-10 1.5769604e-06 6.0671477e-09 2.60631e-07 2.2219782e-09 1.6965571e-11
6.4872996e-10 1.09224635e-11 1.0233702e-07 4.640749e-10 2.6758032e-10 4.4401844e-08 2.6614758e-08 1.5856065e-09
1.8881163e-06 9.575644e-09 4.3584572e-07 9.0450726e-08 2.0966984e-09 5.5256493e-08 1.42846e-07 2.023097e-09
6.1154287e-10 2.996376e-10 1.024737e-08 1.0451901e-12 5.999076e-07 5.3410423e-13 2.6016437e-07 1.6382123e-07
1.5138537e-09 8.270732e-11 1.2597899e-11 1.2372618e-07 9.429256e-08 1.495256e-06 8.913159e-08 8.9901336e-11
1.6677797e-06 3.6290882e-07 6.8396595e-09 3.5933144e-07 2.6814282e-06 2.2079407e-08 8.400011e-07 5.2679976e-08
1.1095063e-09 1.8338957e-07 9.903083e-09 1.0623534e-06 3.4469488e-07 3.5090802e-06 9.990197e-07 9.840287e-08
3.4217974e-13 7.187634e-11 5.423248e-09 5.6216544e-07 8.700373e-08 5.7124666e-11 3.8757952e-07 1.03256816e-07
1.1592848e-09 3.4051514e-08 5.9428933e-12 1.0843727e-06 1.2742014e-07 7.8814594e-08 5.0150255e-11 3.4833545e-07
8.2662575e-07 2.2827895e-10 3.2927938e-09 7.493405e-07 5.857976e-09 1.0182853e-11 1.1586235e-06 7.019943e-10
2.594104e-10 8.36688e-07 3.3351621e-10 4.0297616e-11 9.724859e-07 8.917174e-08 2.0847955e-10 3.2612888e-07
1.3705055e-10 1.431189e-14 2.8422022e-07 3.2005215e-07 5.449406e-07 6.075093e-10 6.357985e-12 1.0982317e-07
00000000: fea5 2a31 1a08 9633 7c4d ce33 8e39 1d2e
00000010: 83a5 2c34 c5dc 1435 cbc7 872d d8c1 0a35
00000020: c078 0d34 f15b 2734 acf0 8234 93db 6a30
00000030: d4c7 b632 5995 a234 367f 3735 d967 4d27
00000040: af13 0230 9016 1131 890b b42e 4458 3a30
00000050: 3c05 082f 599c 482e a707 7b2e 6b95 2734
00000060: b304 7b31 3194 d935 92a0 412e 0e98 2f2f
00000070: 7281 ba34 1a06 662f bb65 cf35 6570 122b
00000080: b6ef 4635 994c 8a2b bed2 bd2f f2a7 d335
00000090: 3277 d031 daec 8b34 74b1 1831 123b 952d
000000a0: 5052 3230 6726 402d 5fc4 db33 bc20 ff2f
000000b0: 951a 932f 58b4 3e33 799e e432 92ec d930
000000c0: 2f6b fd35 2182 2432 2efe e934 d03d c233
000000d0: 8215 1031 2853 6d33 3661 1934 b306 0b31
000000e0: 8119 2830 3eba a42f 690c 3032 f118 932b
000000f0: 5609 2135 4456 162b b8ac 8b34 d6e6 2f34
00000100: fe0f d030 15e0 b52e e59f 5d2d 98d9 0434
00000110: e27d ca33 9bb0 c835 9c68 bf33 f4b1 c52e
00000120: 79d8 df35 cfd5 c234 4802 eb31 23ea c034
00000130: 96f2 3336 21a9 bd32 707c 6135 3f42 6233
00000140: 487d 9830 bee9 4434 3822 2a32 2f96 8e35
00000150: 810e b934 8a7d 6b36 0e16 8635 8d51 d333
00000160: 4ca1 c02a c80e 9e2e 6557 ba31 b7e7 1635
00000170: ced6 ba33 a83c 7b2e 8614 d034 09be dd33
00000180: b554 9f30 0940 1233 d318 d12c c38a 9135
00000190: fbd0 0834 c840 a933 2b90 5c2e dc02 bb34
000001a0: 4ae5 5d35 d0fe 7a2f 7147 6231 4926 4935
000001b0: 4d47 c931 7e23 332d 0082 9b35 75f6 4030
000001c0: c59c 8e2f c398 6035 3c5a b72f 153b 312e
000001d0: 5c86 8235 af7e bf33 c739 652f d016 af34
000001e0: 4db0 162f f9e8 8028 ee96 9834 a2d3 ab34
000001f0: 0848 1235 abfd 2630 a3b3 df2c edd7 eb33

exp_avg f4 [128]
-3.3440413e-06 -6.9445273e-06 2.7262691e-05 1.2930515e-07 2.4808025e-05 -5.5286477e-05 -4.0155967e-08 1.2799753e-05
-2.8716691e-05 -1.6414082e-05 -3.40742e-05 3.522978e-07 -1.0691535e-06 -4.074822e-06 3.7412883e-05 -3.2862084e-09
-4.3285127e-07 2.6549142e-06 -7.9091626e-07 1.0191444e-06 8.689312e-07 5.3244145e-07 5.4108e-07 2.8651903e-05
1.8396988e-06 3.2625335e-06 -5.4071586e-07 -5.199021e-07 2.2846436e-05 1.4234503e-06 1.4880617e-05 -5.4527575e-08
5.245137e-05 -7.157038e-08 1.714634e-06 5.57233e-05 6.059412e-06 1.5897362e-05 2.3966593e-06 5.1354803e-08
2.184744e-06 2.7508963e-07 1.0026761e-05 1.8073845e-06 1.6119199e-06 1.0264884e-05 -6.365571e-06 3.0014764e-06
-3.7141996e-05 -1.0147187e-06 6.3312844e-05 4.1105445e-06 -3.1460584e-06 1.7068785e-05 2.2887618e-05 -3.9390516e-06
9.882922e-07 1.3911026e-06 5.477798e-06 -3.0557228e-08 -4.0201037e-05 -5.4751776e-09 1.1108009e-06 3.648139e-05
-2.3611387e-06 -3.5743088e-07 -1.7528498e-07 -3.0292967e-06 1.6015825e-05 3.9738876e-05 -2.9665787e-06 4.2866148e-07
6.324719e-05 -1.3504439e-05 7.9611596e-07 -3.1616793e-05 3.9899336e-05 1.1402302e-05 5.3733685e-05 -1.48165645e-05
-2.2910663e-06 3.8721617e-05 1.5996399e-06 3.270488e-05 1.0508073e-05 1.1173744e-05 6.0356142e-05 7.93657e-06
-5.224768e-08 -2.669857e-07 -4.6616756e-07 3.4985584e-05 -2.3636658e-05 2.0890262e-07 -3.0244593e-07 2.8958704e-05
3.0562705e-06 5.5878386e-06 -2.0177332e-07 2.8555198e-05 -2.3043563e-05 -1.4119701e-05 6.810782e-07 5.5538116e-05
3.6136673e-05 1.0515488e-06 -1.2753202e-06 6.805942e-05 -6.695037e-06 1.8421589e-07 8.6713626e-05 1.0704861e-06
9.8681e-07 -5.1848536e-05 1.1211669e-06 -4.437692e-07 2.842694e-05 -1.0395347e-05 -1.1725515e-06 -1.8457666e-05
-4.8485833e-07 -1.197382e-09 -2.8604563e-05 2.7701959e-05 -1.6608006e-05 1.1440088e-07 -2.0947368e-08 2.6083118e-05
00000000: 316a 60b6 0905 e9b6 2fb2 e437 21d7 0a34
00000010: d41a d037 67e3 67b8 f477 2cb3 85be 5637
00000020: a0e4 f0b7 f9b0 89b7 e5ea 0eb8 7123 bd34
00000030: d67f 8fb5 74ba 88b6 c7eb 1c38 97d3 61b1
00000040: a062 e8b4 142b 3236 5a4f 54b5 89c9 8835
00000050: 7f40 6935 19ed 0e35 bc3e 1135 7e59 f037
00000060: 92eb f635 e6f1 5a36 b625 11b5 668f 0bb5
00000070: 59a6 bf37 610d bf35 c3a7 7937 b431 6ab3
00000080: 3bff 5b38 3cb2 99b3 6022 e635 70b8 6938
00000090: f451 cb36 535b 8537 4bd6 2036 3491 5c33
000000a0: 9e9d 1236 08b0 9334 9c38 2837 4295 f235
000000b0: 2559 d835 5737 2c37 d797 d5b6 f96c 4936
000000c0: eac8 1bb8 7831 88b5 d3c6 8438 4fed 8936
000000d0: df20 53b6 f02e 8f37 c9fe bf37 322c 84b6
000000e0: 76a5 8435 ecb5 ba35 edcd b736 073e 03b3
000000f0: 899d 28b8 2c20 bcb1 d416 9535 9803 1938
00000100: 0e74 1eb6 ede4 bfb4 f835 3cb4 ec4a 4bb6
00000110: b959 8637 4bad 2638 6f15 47b6 c922 e634
00000120: 94a3 8438 2091 62b7 acb4 5535 469c 04b8
00000130: 9659 2738 844c 3f37 1b60 6138 a994 78b7
00000140: 38c0 19b6 0569 2238 35b3 d635 992c 0938
00000150: d44b 3037 dd76 3b37 ea26 7d38 4f27 0537
00000160: ef66 60b3 3c56 8fb4 9545 fab4 7cbd 1238
00000170: 5647 c6b7 b74e 6034 da5f a2b4 58ec f237
00000180: 541a 4d36 2b7f bb36 07a7 58b4 d289 ef37
00000190: ad4d c1b7 a7e3 6cb7 56d3 3635 99f1 6838
000001a0: 7591 1738 f122 8d35 ab2b abb5 1fbb 8e38
000001b0: eea5 e0b6 e1cc 4534 06da b538 9fad 8f35
000001c0: 8972 8435 f177 59b8 007b 9635 2d3f eeb4
000001d0: 6476 ee37 ad67 2eb7 9060 9db5 89d5 9ab7
000001e0: 3627 02b5 2291 a4b0 d5f3 efb7 8161 e837
000001f0: 6c51 8bb7 8dac f533 c0ef b3b2 12cd da37

exp_avg_sq f4 [128]
9.933041e-11 2.7945575e-09 3.8426884e-09 1.4299499e-12 6.4315864e-09 2.2182228e-08 6.1745775e-13 2.0676424e-08
5.270228e-09 6.2346146e-09 9.755796e-09 3.4176297e-11 8.511385e-10 1.2113404e-08 2.7343177e-08 1.1402304e-16
1.8928688e-11 8.44524e-11 3.2749996e-12 2.7116745e-11 4.9483915e-12 1.824541e-12 2.2831032e-12 6.242978e-09
1.46112e-10 6.484355e-08 1.7610293e-12 6.388073e-12 1.3895761e-08 8.368217e-12 6.180921e-08 2.0810253e-14
2.964383e-08 3.9306977e-14 1.3811458e-11 6.307837e-08 2.4268604e-10 1.0425237e-08 8.887916e-11 6.786234e-13
2.5949215e-11 4.3689867e-13 4.0934816e-09 1.8562991e-11 1.0703207e-11 1.7760745e-09 1.0645906e-09 6.34243e-11
7.552467e-08 3.8302564e-10 1.743381e-08 3.6180308e-09 8.3867954e-11 2.210259e-09 5.7138405e-09 8.092388e-11
2.4461731e-11 1.1985506e-11 4.0989473e-10 4.1807632e-14 2.3996291e-08 2.1364187e-14 1.04065805e-08 6.5528525e-09
6.055411e-11 3.3082937e-12 5.039162e-13 4.949043e-09 3.771699e-09 5.981023e-08 3.565262e-09 3.5960544e-12
6.6711216e-08 1.4516359e-08 2.735864e-10 1.4373262e-08 1.07257165e-07 8.8317653e-10 3.3600053e-08 2.1071984e-09
4.4380253e-11 7.3355833e-09 3.9612338e-10 4.2494143e-08 1.3787807e-08 1.4036331e-07 3.996078e-08 3.9361163e-09
1.3687181e-14 2.8750548e-12 2.1692989e-10 2.248661e-08 3.4801502e-09 2.2849877e-12 1.5503177e-08 4.1302695e-09
4.637141e-11 1.3620609e-09 2.3771566e-13 4.337492e-08 5.096803e-09 3.1525855e-09 2.0060097e-12 1.3933415e-08
3.306504e-08 9.1311516e-12 1.3171171e-10 2.9973634e-08 2.3431898e-10 4.0731432e-13 4.634495e-08 2.8079768e-11
1.0376413e-11 3.3467526e-08 1.33406446e-11 1.6119035e-12 3.8899433e-08 3.5668695e-09 8.33918e-12 1.3045153e-08
5.4820224e-12 5.724757e-16 1.1368808e-08 1.28020945e-08 2.179763e-08 2.4300367e-11 2.5431914e-13 4.392926e-09
00000000: 0d6e da2e 600a 4031 a508 8431 603f c92b
00000010: d5fc dc31 3c8b be32 85cc 2d2b f09b b132
00000020: 6a15 b531 4038 d631 729a 2732 174f 162e
00000030: 8cf5 6930 501b 5032 48e0 ea32 a975 0325
00000040: 9e7f a62d 7ab6 b92e 2675 662c 7b85 ee2d
00000050: 261b ae2c 0264 002c bba8 202c d181 d631
00000060: dfa6 202f 1e40 8b33 c4d7 f72b a5c2 e02c
00000070: 34ba 6e32 1937 132d f9bb 8433 2d71 bb28
00000080: 79a3 fe32 dc05 3129 47f9 722d b375 8733
00000090: 066b 852f ad1a 3332 8572 c32e f803 3f2b
000000a0: 7040 e42d bcf3 f52a a5a6 8c31 2448 a32d
000000b0: f64a 3c2d 111a f430 f450 9230 b578 8b2e
000000c0: 2030 a233 1192 d22f 5bc1 9532 12a1 7831
000000d0: 766d b82e 4ae3 1731 7953 c431 18f4 b12e
000000e0: ec2a d72d ecd9 522d 8e57 e12f eb48 3c29
000000f0: 6720 ce32 766e c028 a0c8 3232 8027 e131
00000100: ef28 852e eccc 682c fdd6 0d2b 3e0c aa31
00000110: 3798 8131 0671 8033 c100 7531 c20c 7d2c
00000120: e142 8f33 9f63 7932 dd67 962f 46ee 7632
00000130: 4055 e633 06c4 7230 a64f 1033 3ace 1031
00000140: b92f 432e 790c fc31 69c5 d92f ce82 3633
00000150: 6bdf 6c32 c6b6 1634 58a1 2b33 723e 8731
00000160: fb90 7628 6250 4a2c 5684 6e2f 9428 c132
00000170: 7327 6f31 aeca 202c d92b 8532 3cea 8d31
00000180: 91f1 4b2e 4233 bb30 70d2 852a 3b4b 3a33
00000190: f41f af31 dfa4 5831 0f29 0d2c cf5f 6f32
000001a0: 6503 0e33 0da3 202d 8dd1 102f 5cbc 0033
000001b0: 77d1 802f 2e4c e52a d00c 4733 04fe f62d
000001c0: 368b 362d efbd 0f33 ecb0 6a2d f2da e22b
000001d0: 6112 2733 081d 7531 54b4 122d 311d 6032
000001e0: abe1 c02c 4001 2526 8c50 4332 35f0 5b32
000001f0: 7f3d bb32 90bf d52d 402b 8f2a 96f0 9631

exp_avg f4 [128, 128]
-1.2544155e-08 -8.184128e-09 6.1109216e-07 -1.4045708e-09 3.1985093e-07 2.6286108e-07 -4.113499e-09 2.393153e-07
1.6944557e-07 5.2206013e-07 2.9073396e-07 -1.1973577e-08 1.971661e-07 4.198865e-07 1.6503792e-07 -2.7232154e-11
-1.5116228e-08 -1.5643591e-08 -1.4800844e-09 -1.9631234e-08 -1.2651752e-08 -6.250036e-09 -2.030915e-09 1.8212731e-07
-1.6814798e-08 2.0700698e-07 -1.1191631e-09 -1.972105e-08 1.5705145e-07 -5.374739e-09 3.313137e-07 -4.9038777e-11
2.3040879e-07 -2.098966e-10 -2.4806852e-09 1.7311932e-07 -1.26604265e-08 1.1464752e-09 6.374717e-07 -1.9742096e-08
-3.7411074e-09 -2.8473868e-10 1.2068783e-07 -4.209616e-09 -8.01165e-09 -1.2630594e-09 1.523828e-07 -1.7220973e-08
1.5285731e-07 -1.4122129e-08 5.5679664e-07 6.4040165e-07 -1.2718799e-08 1.3732289e-07 3.8848972e-07 -1.9184196e-08
-8.2465395e-09 -2.036887e-09 -9.987064e-09 -6.620193e-11 5.367492e-07 -1.0465625e-10 1.1530104e-08 4.4495567e-07
-3.822879e-09 -1.682959e-09 -7.1525474e-10 2.4523374e-07 4.349484e-07 1.0725219e-07 4.1925773e-08 -1.9715214e-08
2.4738466e-07 7.685874e-07 -1.6890588e-08 5.7900564e-07 5.348868e-08 2.7377014e-08 8.3961555e-07 3.928464e-07
-9.523944e-09 1.0706122e-08 -1.130757e-08 1.2359527e-07 2.8154524e-08 3.7036673e-07 3.105178e-07 2.794952e-09
-2.1584665e-10 -6.0560884e-10 -1.2844263e-08 1.7004628e-07 4.6690997e-07 -9.1473346e-10 6.072114e-07 6.4547487e-07
-1.173333e-08 -3.6336032e-09 -4.8706716e-10 5.664967e-07 6.995978e-08 -1.3285987e-08 -2.710462e-09 2.0509404e-07
7.561918e-07 -2.5242457e-09 -8.026578e-09 3.119423e-07 -8.545096e-09 -4.9401827e-10 1.09213055e-07 -3.0622218e-09
-1.9520847e-08 2.145414e-07 -2.6889702e-09 -7.181015e-10 2.4726543e-07 1.1457982e-07 -1.3727838e-09 5.4629222e-08
-1.149956e-09 -4.146718e-11 7.773809e-09 5.742378e-07 7.016988e-07 -1.964532e-08 -3.7788417e-10 1.4713021e-07
-1.3021087e-06 -8.490623e-07 6.346521e-05 -1.4584283e-07 3.3218505e-05 2.7284055e-05 -4.2686744e-07 2.485464e-05
1.7585902e-05 5.4197888e-05 3.0180827e-05 -1.2431523e-06 2.0457706e-05 4.3594056e-05 1.7144337e-05 -2.8237348e-09
-1.5688953e-06 -1.6220552e-06 -1.5351546e-07 -2.0384546e-06 -1.3143367e-06 -6.4920005e-07 -2.1094635e-07 1.8920126e-05
-1.7464706e-06 2.1499105e-05 -1.1613182e-07 -2.0478262e-06 1.6306132e-05 -5.582038e-07 3.4400833e-05 -5.0856634e-09
2.3935287e-05 -2.1778867e-08 -2.5781995e-07 1.797846e-05 -1.3156508e-06 1.2329313e-07 6.6196866e-05 -2.0499424e-06
-3.888563e-07 -2.9600066e-08 1.2534625e-05 -4.3745902e-07 -8.3283254e-07 -1.2717871e-07 1.5806922e-05 -1.7890945e-06
1.586525e-05 -1.4665114e-06 5.7825175e-05 6.6492175e-05 -1.3198592e-06 1.4261797e-05 4.035124e-05 -1.9916413e-06
-8.5619695e-07 -2.1169895e-07 -1.0349393e-06 -6.8748975e-09 5.5732657e-05 -1.0871002e-08 1.1998728e-06 4.6211062e-05
-3.96785e-07 -1.7469971e-07 -7.418513e-08 2.545349e-05 4.5162466e-05 1.1136408e-05 4.348253e-06 -2.0473697e-06
2.5689948e-05 7.980733e-05 -1.7543014e-06 6.0117083e-05 5.5527084e-06 2.8511906e-06 8.718466e-05 4.078016e-05
-9.885287e-07 1.1166637e-06 -1.1745523e-06 1.2831858e-05 2.9286193e-06 3.8462545e-05 3.2247743e-05 2.9413212e-07
-2.239013e-08 -6.283278e-08 -1.3340805e-06 1.7664863e-05 4.8469552e-05 -9.505544e-08 6.304479e-05 6.702848e-05
-1.2196191e-06 -3.7307115e-07 -5.050106e-08 5.8829184e-05 7.25802e-06 -1.3817486e-06 -2.8168046e-07 2.1304817e-05
7.8521385e-05 -2.6249427e-07 -8.328293e-07 3.240059e-05 -8.86484e-07 -5.1360118e-08 1.1347272e-05 -3.1796756e-07
-2.0268872e-06 2.2273445e-05 -2.792921e-07 -7.447162e-08 2.5673618e-05 1.188868e-05 -1.4242154e-07 5.671679e-06
-1.1932273e-07 -4.307797e-09 8.018115e-07 5.962435e-05 7.2855015e-05 -2.039824e-06 -3.925326e-08 1.5281243e-05
00000000: c781 57b2 2d9a 0cb2 ef09 2435 f10a c1b0
00000010: fab7 ab34 5a1f 8d34 b856 8db1 3f7b 8034
00000020: d8f0 3534 b323 0c35 2c16 9c34 59b4 4db2
00000030: 9bb4 5334 c36c e134 4735 3134 5c89 efad
00000040: f0d8 81b2 9f60 86b2 d76b cbb0 8aa1 a8b2
00000050: fe5a 59b2 e6bf d6b1 3c90 0bb1 c68e 4334
00000060: 2270 90b2 a545 5e34 0dd1 99b0 0c67 a9b2
00000070: f9a1 2834 b4ac b8b1 68df b134 c1ac 57ae
00000080: 4966 7734 a4c8 66af ad78 2ab1 ade2 3934
00000090: 2581 59b2 0392 9d30 b91e 2b35 5495 a9b2
000000a0: 218b 80b1 6889 9caf 6b96 0134 2da4 90b1
000000b0: 9ca3 09b2 f497 adb0 aa9e 2334 52ed 93b2
000000c0: 1921 2434 c89d 72b2 c676 1535 11e8 2b35
000000d0: df81 5ab2 0773 1334 9f91 d034 7eca a4b2
000000e0: aaac 0db2 4cf9 0bb1 9293 2bb2 6094 91ae
000000f0: 2015 1035 3b24 e6ae ef15 4632 3ee2 ee34
00000100: 665a 83b1 db4d e7b0 949b 44b0 aba8 8334
00000110: da82 e934 8452 e633 e011 3433 375a a9b2
00000120: 4ad0 8434 ed50 4e35 cc16 91b2 f76c 1b35
00000130: 6dbb 6533 b12a eb32 f161 6135 66e8 d234
00000140: c09e 23b2 06ee 3732 3843 42b2 9cb5 0434
00000150: 74d8 f132 d1d6 c634 3eb5 a634 5111 4031
00000160: 6e53 6daf ef77 26b0 aba9 5cb2 f795 3634
00000170: 9eab fa34 a570 7bb0 40ff 2235 b244 2d35
00000180: bb93 49b2 06b3 79b1 4ee2 05b0 5b11 1835
00000190: cc3c 9633 6440 64b2 f442 3ab1 d237 5c34
000001a0: 1bfd 4a35 0077 2db1 43e5 09b2 0679 a734
000001b0: bbcd 12b2 72cb 07b0 8388 ea33 2d6f 52b1
000001c0: ccae a7b2 b15c 6634 ddc8 38b1 e763 45b0
000001d0: e7bf 8434 ec0e f633 89ac bcb0 77a1 6a33
000001e0: 7b0c 9eb0 e55f 36ae 938d 0532 5225 1a35
000001f0: 605c 3c35 84c0 a8b2 78be cfaf d8fa 1d34
00000200: 1dc4 aeb5 1eeb 63b5 a018 8538 f998 1cb4
00000210: 1954 0b38 10e0 e437 372c e5b4 ef7e d037
00000220: 7085 9337 8a52 6338 d52c fd37 63da a6b5
00000230: 979c ab37 c3d8 3638 2fd1 8f37 ab0b 42b1
00000240: d592 d2b5 64b5 d9b5 02d6 24b4 62cc 08b6
00000250: 4468 b0b5 b044 2eb5 7e80 62b4 a9b6 9e37
00000260: 4668 eab5 fa58 b437 2564 f9b3 636d 09b6
00000270: 27c9 8837 79d7 15b5 9d49 1038 f8bd aeb1
00000280: a3c8 c837 3c14 bbb2 816a 8ab4 73d0 9637
00000290: 6b95 b0b5 8f62 0434 2cd3 8a38 be91 09b6
000002a0: 01c4 d0b4 3c43 feb2 ce4b 5237 e9db eab4
000002b0: d18f 5fb5 9e8e 08b4 1b99 8437 d220 f0b5
000002c0: 5d16 8537 f3d4 c4b5 4f89 7238 b771 8b38
000002d0: 0426 b1b5 f445 6f37 d03e 2938 23a8 05b6
000002e0: 68d5 65b5 5d4f 63b4 3ee8 8ab5 3d38 ecb1
000002f0: 7cc2 6938 2cc3 3ab2 510b a135 c0d2 4138
00000300: b705 d5b4 1795 3bb4 b54f 9fb3 f484 d537
00000310: d46c 3d38 82d6 3a37 35e7 9136 8b65 09b6
00000320: be80 d737 3c5e a738 5675 ebb5 3a26 7c38
00000330: 6751 ba36 1557 3f36 e8d6 b638 5d0b 2b38
00000340: 96ad 84b5 46e0 9535 4fa5 9db5 6948 5737
00000350: 4c89 4436 d852 2138 c041 0738 36e9 9d34
00000360: 6b54 c0b2 b0ee 86b3 a80e b3b5 012f 9437
00000370: c94b 4b38 4821 ccb3 ea36 8438 a491 8c38
00000380: cbb1 a3b5 824a c8b4 81e6 58b3 5bbf 7638
00000390: eb89 f336 8574 b9b5 de39 97b4 bfb7 b237
000003a0: d9ab a438 f0ec 8cb4 988f 5fb5 dee5 0738
000003b0: b7f6 6db5 0c97 5cb3 2a60 3e37 21b5 aab4
000003c0: a805 08b6 dcd7 ba37 9df1 95b4 35ed 9fb3
000003d0: ad5d d737 7e75 4737 89ec 18b4 5a4f be36
000003e0: 2f1f 00b4 c803 94b1 113c 5735 2915 7a38
000003f0: bdc9 9838 e9e3 08b6 6a97 28b3 3830 8037
