results/RollerAgents/RollerAgent/RollerAgent-45760.onnx (onnx, 75694 bytes, 8 tensors)

network_body._body_endoder.seq_layers.0.weight f4 [128, 1]
000000 97 be b1 3f e4 6b b9 3e 5f 96 7d bd 00 6a ef 3f
       1.3886288 0.36215127 -0.061910983 1.8704224
000010 65 f8 7a 3e b1 f3 c8 3e 99 4e 2f be 6b d4 cd 3f
       0.24508817 0.39248422 -0.17119826 1.608045
000020 d9 b4 c0 be 9b de d5 bd 57 26 9b be cb 97 4a bf
       -0.37637976 -0.10442849 -0.30302688 -0.7913787
000030 12 c6 6f 3f 78 8f 77 be fc e2 4c 3f 5d 7e bb 3e
       0.93661606 -0.24175823 0.8003385 0.36619845
000040 2f 90 ac 3e a4 78 87 bf 46 9c ac be 2e bd 0d bf
       0.33703753 -1.0583692 -0.33712977 -0.5536679
000050 c0 2d a2 3e 3c 20 c4 3f 86 da 8e 3f 1d f5 f4 bf
       0.3167553 1.5322337 1.1160438 -1.9137303
000060 db df 0b c0 ff 8f 4a 3f 5a 53 f0 bf ef 4e af bf
       -2.185538 0.7912597 -1.8775437 -1.3695964
000070 81 7e e4 be 10 82 17 3f 88 04 fd 3e 22 b9 08 3f
       -0.44627765 0.59182835 0.4941752 0.5340749
000080 50 fb 2f 40 84 9f 3e bf 4a 9e 86 bf f3 c7 1b bf
       2.749714 -0.7446215 -1.0517056 -0.60851973
000090 03 1a cd be e5 55 53 3e b9 d1 93 3e 63 9b 1a 3f
       -0.40058908 0.20638235 0.28870943 0.6039335
0000a0 9b 07 ac 3f e9 73 0a bf e1 10 29 3e 28 88 e4 3f
       1.3439821 -0.54083115 0.16510345 1.7854052
0000b0 18 f4 2d 3f e1 90 84 bf c0 b9 aa be 24 a7 1c 3e
       0.6795058 -1.0356714 -0.3334484 0.15298134
0000c0 16 f0 05 3f 76 7d 45 3f fd 45 08 c0 46 11 40 3e
       0.5231947 0.77144563 -2.1292717 0.1875659
0000d0 67 c6 1e 3f e8 c2 6c bf 77 1c c0 3f 8c 84 b6 bd
       0.6202149 -0.92484903 1.5008687 -0.08912
0000e0 e5 9d b0 3f 3e 1a ea be 05 58 9f 3e 5b fc 88 bf
       1.3798186 -0.45723146 0.3112184 -1.0702013
0000f0 7a f1 8f 3e 11 a1 ca 3d bd 46 80 3e de 83 d5 3f
       0.2811392 0.09894002 0.2505397 1.6680868
000100 b6 5b 3d 3f 78 4a d5 3e 5b e0 5f 3f 9f 71 0a c0
       0.73968065 0.41658378 0.87451714 -2.163185
000110 a8 42 48 3f 1d 04 cb bf 94 e7 9c 3f c6 ee ff 3d
       0.7822671 -1.586063 1.2258172 0.12496714
000120 c2 ee 8a 3f 46 a4 80 3d a6 44 17 3f 48 92 f9 be
       1.0854113 0.06281333 0.59089124 -0.48744416
000130 97 f6 8c 3f 1a 23 2e bf 04 fc 93 3e 7b 61 e9 3e
       1.1012753 -0.6802231 0.2890321 0.45582184
000140 d4 12 31 bf 9a 01 41 3e 83 eb 01 40 03 f5 3a 3f
       -0.69169354 0.18848267 2.0299995 0.7303011
000150 31 1e 92 be 45 aa be bf e9 be 06 3f 78 46 96 3f
       -0.2853866 -1.4895712 0.52635056 1.1740255
000160 c2 43 2b be 62 86 11 be bf a5 07 40 f5 de 82 3f
       -0.16725066 -0.14211419 2.1194913 1.0224291
000170 36 24 64 3e 46 42 22 3e 44 f6 08 3f be 51 fc bf
       0.22279438 0.15845594 0.5350077 -1.9712446
000180 82 d1 82 bf b0 cf a2 bf fd ed eb 3e 81 2c 4d 3e
       -1.0220187 -1.2719631 0.46080008 0.20036508
000190 4b 9d 25 bf 5e 14 23 be 91 ae 5d 3f 8d 29 04 3f
       -0.64693135 -0.15925738 0.8659449 0.516259
0001a0 94 71 99 be 23 59 ab 3f 89 59 b8 bf 77 d9 19 40
       -0.29969466 1.3386577 -1.4402324 2.403898
0001b0 d3 4f 17 bf 24 c6 2f 3c cf ee 3a be e0 12 4f 3f
       -0.5910618 0.010728393 -0.18255161 0.80888176
0001c0 78 62 63 3f 3c 5d 33 be 85 51 dc 3f 69 9f ff 3f
       0.88822126 -0.17516035 1.7212378 1.9970523
0001d0 6e 33 00 3e ba 2c f7 3f 7e 03 4e bf f0 57 d7 bf
       0.12519619 1.9310524 -0.8047408 -1.6823711
0001e0 0d 9a b4 be cc 6e 2b bf 82 ce 3b c0 96 cc b0 3f
       -0.3527378 -0.6696594 -2.9344792 1.3812435
0001f0 90 08 13 bf 7a a4 0d 3f 22 c7 83 3f 9a 8c ad be
       -0.5743494 0.55329096 1.0295146 -0.33896333

network_body._body_endoder.seq_layers.0.bias f4 [128]
000000 ca c3 be ba 24 5b cd b9 af 6e 94 ba bf 6b 1b bb
       -0.0014554199 -0.00039168552 -0.001132449 -0.0023715345
000010 62 ff 7c 3a 4f b8 8e ba 25 69 91 ba 87 32 30 ba
       0.0009651092 -0.0010888668 -0.0011093958 -0.00067213963
000020 78 c7 8a ba 81 61 d7 b9 81 f9 b9 3a 1a b2 ff 39
       -0.0010588011 -0.00041080642 0.0014188738 0.00048770086
000030 41 b0 30 3b 66 a3 09 bb 7d d4 d9 bb 7a b9 dd 39
       0.0026960524 -0.0021001934 -0.006647645 0.00042290596
000040 1f dc ab ba 73 43 5f ba 57 db 1a bb 19 6a e9 3a
       -0.0013111866 -0.00085168256 -0.0023629272 0.0017808109
000050 af 86 9b ba ad 88 0b bb 90 d5 ef b9 00 67 cf ba
       -0.00118657 -0.0021291182 -0.0004574475 -0.0015823543
000060 56 d4 a0 ba 04 9a 94 ba ce 3c b4 3a 48 92 44 bb
       -0.0012270312 -0.0011337404 0.0013751031 -0.0029994417
000070 a1 bc be ba 79 53 d2 39 4e a8 c0 ba 78 fc 7b ba
       -0.0014552065 0.00040116513 -0.0014698596 -0.0009612511
000080 9f 6a 9f ba 04 dc 9e ba bc ed de ba 32 e4 e6 3a
       -0.0012162513 -0.0012120013 -0.0017008106 0.0017615615
000090 23 2b 6d ba 7b 8a f2 ba 75 01 be ba a7 63 21 bb
       -0.00090472604 -0.0018504405 -0.0014496284 -0.0024626048
0000a0 b8 da 31 ba b6 75 e3 39 99 a1 73 b9 95 0d 94 ba
       -0.0006784606 0.00043384515 -0.00023234486 -0.0011295552
0000b0 2b e3 dc ba d3 55 cd 3a a6 25 17 bb c0 31 30 ba
       -0.0016852369 0.0015665836 -0.0023063212 -0.00067212805
0000c0 0c 1a c5 ba 90 5e ba 39 db e1 93 b8 b5 26 62 3a
       -0.001503767 0.0003554714 -7.051575e-05 0.00086269836
0000d0 9e de 67 3a 1e 2c ed ba 79 34 08 39 3a 8a fa 3a
       0.0008845123 -0.0018094813 0.00012989518 0.0019114681
0000e0 23 4c 23 3a dd 29 46 3a a4 80 ef 39 ef 00 08 3a
       0.0006229302 0.00075593387 0.00045681477 0.00051881274
0000f0 34 2b 22 bb b1 a7 80 3a ee 20 3b bb 5b 1b ac ba
       -0.002474499 0.0009815601 -0.0028553563 -0.0013130711
000100 d0 54 c7 ba d9 f0 e8 38 00 ab 55 3a ee ff e4 39
       -0.0015207771 0.000111074834 0.0008150786 0.0004367823
000110 89 cc 14 39 3d e0 5e 3a 01 21 9f 3a 04 00 6f 39
       0.00014190575 0.0008502042 0.0012140573 0.00022792822
000120 7a 27 43 3a 03 5c 8b 3a 23 9f e6 ba 0b 68 0b 39
       0.0007444542 0.001063228 -0.0017595034 0.00013294832
000130 6a ac b3 3a 9d 4a b1 ba fa a6 98 ba a3 94 c9 ba
       0.0013708 -0.0013526265 -0.0011646443 -0.001537938
000140 b9 e6 df ba 14 b3 96 ba a9 36 5f bb a5 70 87 bb
       -0.001708231 -0.0011497461 -0.003405968 -0.0041333013
000150 ca 8e e4 b9 87 2a 21 3a 46 9c 3c b9 b9 83 f3 ba
       -0.00043593935 0.00061479997 -0.00017987294 -0.0018578685
000160 86 5a 6a 39 16 d1 3a ba af 39 6c ba f2 3a 69 3a
       0.00022349702 -0.0007126493 -0.0009011281 0.0008897028
000170 c4 2e d8 39 ab 35 d6 3a ec 9e 38 b9 a3 b6 89 38
       0.00041233574 0.0016342899 -0.0001760681 6.566688e-05
000180 d3 5d eb bb aa 30 ce b9 a7 59 92 3a ca 02 30 37
       -0.0071828156 -0.0003932764 0.0011165634 1.0491067e-05
000190 19 3f 9a 3a 92 77 22 3b ce 9a 97 ba 29 fe 4d ba
       0.0011768072 0.0024790508 -0.0011566521 -0.0007858002
0001a0 42 16 44 ba e6 f3 3d ba 08 43 b3 39 f1 c4 45 3a
       -0.00074801233 -0.00072461215 0.00034191483 0.00075443
0001b0 8c a3 a6 39 16 5b b3 3a d8 51 af 3a 76 a5 92 ba
       0.0003178384 0.0013683762 0.0013375832 -0.0011188227
0001c0 a9 8b 1f 3a 35 f6 9f 3a 74 0e 71 bb 44 0a cb ba
       0.00060861796 0.0012204113 -0.0036782296 -0.001549073
0001d0 3c 23 b1 ba a6 b8 96 bb 95 48 ed ba 31 5b a2 39
       -0.0013514529 -0.0045996485 -0.0018103296 0.0003096699
0001e0 2c ca 60 b9 7b 71 77 ba c4 46 8c b9 ca 69 c9 3a
       -0.0002143762 -0.0009439212 -0.00026755605 0.0015366611
0001f0 2b 5b b2 3a cc fd 9b bb 25 eb 2b ba 50 fa 6e 39
       0.0013607492 -0.0047604796 -0.00065581716 0.00022790697

network_body._body_endoder.seq_layers.2.weight f4 [128, 128]
000000 d6 9e ca 39 73 28 c4 3b e2 4b c6 3c 68 e7 8e 3d
       0.00038646784 0.0059862672 0.024206106 0.06977731
000010 c6 0c bd 3b 98 21 d3 3b 6a 65 ac bd ab 12 59 bd
       0.005769345 0.0064432137 -0.08417781 -0.05299632
000020 cd 05 9b 3d 48 af 62 3d 00 e3 1e 3e 47 4a 9d 3d
       0.07569466 0.055342942 0.15516281 0.07680183
000030 55 89 41 bd 07 02 b0 3d e8 5f 4c bb 92 4c 28 3d
       -0.04725011 0.08594137 -0.0031185094 0.04108865
000040 e6 f9 82 3b e7 53 b5 3c e9 82 a2 3d e3 6e 5b 3e
       0.0039970754 0.022134734 0.079351254 0.21429019
000050 e3 44 5a 3d 47 c5 7c bd 92 bd af 3c 95 aa c3 bc
       0.05328835 -0.061711576 0.021452699 -0.02388505
000060 0e 3e 20 3e 3b 12 78 3d d5 7a bb bc 44 0b 12 bd
       0.15648672 0.06056426 -0.02288572 -0.035655275
000070 81 b2 d3 bc 74 7b 30 be cc 5f f6 3d 10 37 37 3d
       -0.025841953 -0.17234594 0.120299906 0.044730246
000080 db 55 8f bd 91 fb 88 3d 83 35 a3 bd 8f 91 28 bd
       -0.069987975 0.066886075 -0.07969191 -0.04115444
000090 d4 30 2a 3d 11 bf a0 bc 47 d6 e6 3d e8 2c a1 bd
       0.041550472 -0.019622358 0.11271339 -0.07869893
0000a0 04 9a c4 3b cf 91 24 be 9b ba 6f bb e8 02 de 3c
       0.0059998054 -0.16071247 -0.0036579731 0.027100995
0000b0 57 7d f1 3d 20 b0 d8 3d 28 2c 95 bc 5e bc 4f 3e
       0.11791485 0.10580468 -0.018209532 0.202867
0000c0 b3 09 3e be a0 f2 28 bc a5 cd 34 3d 91 32 3f 3d
       -0.18558387 -0.010311753 0.04414143 0.046679083
0000d0 b4 09 16 3d 0c a0 3e bd a0 ae ad bd 4c 09 01 3e
       0.036630347 -0.04653935 -0.08480573 0.12601203
0000e0 cb 64 8a bb e9 b2 2e 3d 0a 7e 07 bc f5 b5 c6 3d
       -0.0042234412 0.04265109 -0.008269796 0.09702674
0000f0 b0 26 20 3d fa fa 72 3d a4 1c 0c 3e 5f 96 9b 3c
       0.039099395 0.05932138 0.136828 0.018992601
000100 b1 2c 73 3d 8b 31 a6 3d 6a 98 ae 3c 75 b3 af bc
       0.059368793 0.08114918 0.021312911 -0.021447876
000110 82 3f 96 bc bf 63 1b 3d 5c 56 d8 bc 14 74 84 bd
       -0.01834083 0.037936922 -0.026408367 -0.06467453
000120 c5 37 3b 3b a6 68 9f bc 6d c7 02 bc 7e f9 cc bc
       0.0028567177 -0.01945908 -0.007982117 -0.02502131
000130 53 ff 8c 3d 9d a9 14 bd f4 d2 ac bc be 20 c7 3d
       0.06884637 -0.03629457 -0.021096684 0.09723042
000140 7d 2a 5d 3c a3 f3 c1 bd 7a 7e c7 b9 50 ea 3b bc
       0.0134988995 -0.09470298 -0.0003805047 -0.011469439
000150 9e 4b 05 3c d6 dc 83 3d 70 72 1f bd bc 67 ec 3d
       0.008135704 0.064386055 -0.038927495 0.11543223
000160 43 fc 34 bc 72 6b 3b bd d6 3b 89 bc 88 98 a1 bc
       -0.011046472 -0.045756765 -0.016752165 -0.019726053
000170 41 d2 ab bb bb a9 6e bc 97 f5 47 be 06 81 39 be
       -0.00524357 -0.014566834 -0.19527279 -0.18115625
000180 8d ec e9 bd b8 7f 23 3e 59 87 45 bc 5a 66 f6 39
       -0.114220716 0.1596669 -0.012056195 0.00046997034
000190 c7 c2 c4 3c 32 90 e6 3d f3 4a 90 3d ee 41 8c bd
       0.024018658 0.11257972 0.070455454 -0.068485126
0001a0 c3 c6 32 bd 6c 10 11 bd ff 0d 97 3d a7 21 e3 bc
       -0.043646585 -0.03541605 0.073757164 -0.027726008
0001b0 ac e9 96 3d 48 7b 9e 3d 6d ce d6 bd 4d 36 49 bc
       0.07368788 0.07738358 -0.10488591 -0.012281013
0001c0 c1 39 bc 3d 82 9d 83 3d 86 2c cf 3d 8c 52 7b 3d
       0.09190703 0.064265266 0.10115914 0.06135802
0001d0 e8 ed af 3c 3a 8b 70 3d 2e 59 b1 3d a0 fc 0e 3d
       0.021475747 0.058726527 0.08659588 0.03490889
0001e0 4b 9e d9 3c 09 e4 fd 3d 96 e1 d1 bd a7 61 cb bd
       0.026564738 0.1239701 -0.10248105 -0.09930735
0001f0 a6 64 e9 ba 26 cd cc 3d 64 28 89 3b e5 e4 8c bd
       -0.0017806485 0.100000665 0.004185723 -0.06879596
000200 45 08 c0 3c 42 df 4a 3e 74 f5 a6 bb 0f b4 36 3d
       0.023441443 0.19811729 -0.0050951783 0.04460531
000210 72 b8 ac bd cb 6d a6 3b db 2e 4f 3e db 28 b3 3d
       -0.08433618 0.0050790063 0.20232718 0.08748027
000220 b5 9a 4c 3d 47 18 46 bd 60 75 22 bd 55 57 77 bd
       0.049952228 -0.048362996 -0.03966272 -0.06038602
000230 4f cb 8f bd 46 50 a0 3d 18 a3 11 3b db 85 09 3e
       -0.070212 0.07827811 0.0022222456 0.13429968
000240 5c f7 a7 bd 79 6a 3c 3d 69 69 d3 bd ad 05 03 3c
       -0.08201477 0.045999978 -0.1032284 0.007996959
000250 76 1a 13 bd f0 9e d9 bc 44 6f 15 bd ab f0 8f bd
       -0.035913907 -0.026565045 -0.036483064 -0.07028326
000260 e1 4e 23 bd fd ad 2f bb 99 47 91 3d 6b 11 eb bd
       -0.039870147 -0.0026806586 0.07093734 -0.114779316
000270 b5 cb c6 bd cd a6 81 3d 2e c1 c8 3c 05 04 8e bd
       -0.09706823 0.06330643 0.024506178 -0.069343604
000280 18 7d 45 bd c0 3e 85 3d 1a 48 8f bd bd 8b d7 bd
       -0.048215 0.06506109 -0.06996174 -0.105247
000290 05 0f 47 3d e8 07 03 bd 9e b4 4c 3d fe 34 f4 bd
       0.048598308 -0.03198996 0.049976937 -0.1192417
0002a0 3c 25 a4 3a 80 f4 e5 3c fd e0 22 bd e8 31 16 3e
       0.0012523304 0.028070688 -0.039765347 0.14667475
0002b0 8e 01 88 3b b4 ce f2 3b f8 6f d5 bd 62 ca f4 3d
       0.004150576 0.007409895 -0.10421747 0.11952664
0002c0 15 6f e0 3d 9d 86 82 3d ec f5 ac bd 76 d4 27 3d
       0.10958687 0.06373332 -0.084453434 0.040974103
0002d0 bc d8 72 3d 0f c8 03 bd 72 18 15 bc 32 1d 3a 3d
       0.059288725 -0.032173213 -0.0091000665 0.045438
0002e0 a3 64 95 3b f0 c3 be 3d 09 26 05 be 7e 39 84 3d
       0.004559116 0.09314716 -0.1300279 0.06456278
0002f0 4a bc 4d bd 46 89 24 3d cd d6 20 3e 86 dc af bd
       -0.050228395 0.040169977 0.1570694 -0.085869834
000300 76 c9 f1 3d 81 d5 e1 3d a5 57 16 3e 1f 5b aa 3b
       0.11806004 0.11027051 0.14681871 0.0051988508
000310 73 e3 e0 bd 6d df 6d be 35 a9 74 3d b4 03 45 bd
       -0.109808825 -0.23229761 0.05973168 -0.048099235
000320 24 86 e0 bd 29 c2 96 3c 5b 63 af bd e6 9c 9e 3c
       -0.10963085 0.01840313 -0.085638724 0.019361924
000330 30 a8 b6 3d 80 fe 95 bd 36 d1 a5 bd ff 37 32 3d
       0.08918798 -0.07323933 -0.080965444 0.043510433
000340 41 59 b9 3d 1b 32 83 bd fd 14 55 3d 19 49 8a bd
       0.09050227 -0.06406041 0.05202197 -0.067522235
000350 9a 43 99 3c 3e d1 21 be 94 d0 c6 bc 22 1e 24 bd
       0.018708993 -0.15802476 -0.02426938 -0.0400678
000360 e8 c6 fc 3d 18 42 0a b9 9f 51 07 3c 38 ae b0 3d
       0.12342626 -0.00013185327 0.008259206 0.086269796
000370 88 52 33 be 88 63 ea bd 6b 8c 80 bd 64 63 e7 bd
       -0.17511952 -0.11444765 -0.062767826 -0.11298254
000380 fd b4 1b 3d ca 09 fa bc 57 ed 2d 3e 26 32 1a 3d
       0.0380144 -0.030522246 0.16985069 0.03764548
000390 40 5e f7 bd b1 24 dc bd e4 3d d2 bb 0b fd 36 bd
       -0.12078524 -0.10749186 -0.0064160693 -0.044674914
0003a0 b1 0e d8 bd 12 66 e0 bd d1 49 bf 3d ff e2 a3 3c
       -0.10549677 -0.10956968 0.09340251 0.020005701
0003b0 66 aa a2 bd 69 40 94 3d 95 0a 70 bc 2a 68 26 be
       -0.07942657 0.07238848 -0.01465096 -0.16250673
0003c0 a5 3b 83 3d 40 9d 9c be 5a 16 d4 bd f4 b2 61 3d
       0.06407861 -0.30588722 -0.10355826 0.055102304
0003d0 7f 18 af 3c f3 ef 53 be 02 3f f2 bd e7 c4 3a bc
       0.021373985 -0.20697002 -0.11828424 -0.011399484
0003e0 26 65 e0 bc a8 71 7e bd 95 94 54 3e 33 8b 21 be
       -0.027391981 -0.06212011 0.20759805 -0.15775757
0003f0 be 4a f8 3d 29 4f a4 3d ac 7e 5f 3e c0 5a 26 bd
       0.12123631 0.08022911 0.21825665 -0.04061389

network_body._body_endoder.seq_layers.2.bias f4 [128]
000000 b3 ef 94 ba fa 4d b0 ba b3 ff b6 ba 04 a7 77 ba
       -0.001136294 -0.0013450973 -0.0013961702 -0.00094471895
000010 5b 8c f2 ba ef 64 85 3a 16 07 0c 3a 20 63 08 3a
       -0.0018504964 0.0010177175 0.0005341632 0.0005202759
000020 fb 5a eb ba a4 10 9f b9 21 b2 75 ba d4 9a be ba
       -0.0017956191 -0.00030339241 -0.00093725516 -0.0014541992
000030 43 e2 1b 3a d0 e2 fb 38 d9 8d d8 ba bb ce 86 ba
       0.00059464964 0.0001201086 -0.0016521766 -0.0010284999
000040 99 37 85 3a c0 9e 9c 38 b9 db 37 b8 8b a1 8e ba
       0.0010163664 7.468229e-05 -4.3835233e-05 -0.0010881884
000050 5b 72 57 39 da 5e 01 bb b1 b0 67 3a f4 e4 b7 b9
       0.00020546599 -0.0019740374 0.000883828 -0.00035075063
000060 78 7a ee ba b0 1f c4 ba b8 62 38 ba 15 67 6b 3a
       -0.0018194458 -0.0014963057 -0.0007033753 0.0008979899
000070 8b 6b 9d ba 85 27 01 bb cc ce 01 bb 44 88 29 ba
       -0.00120102 -0.0019707393 -0.0019807098 -0.00064671435
000080 68 8e c1 ba 15 20 03 bb ae 4b 85 b8 a4 27 a4 b9
       -0.0014767172 -0.0020008136 -6.356031e-05 -0.00031310052
000090 91 b2 05 bb e1 f8 ab b9 87 d4 0f 3a 39 71 c5 3a
       -0.0020400623 -0.0003280109 0.0005486686 0.001506365
0000a0 42 f9 9a 39 92 7d 29 ba ec 7f 5f 39 28 08 56 39
       0.0002955888 -0.000646555 0.00021314592 0.00020411669
0000b0 08 c7 a4 ba c3 72 f5 ba 16 c2 02 3b f9 4c ce ba
       -0.0012571523 -0.0018726218 0.001995211 -0.0015739492
0000c0 12 5f 9b b9 d2 e8 5b ba 26 e7 f9 b9 20 40 21 b9
       -0.00029634737 -0.000838888 -0.000476652 -0.00015378045
0000d0 e6 94 7a b9 7a ce 06 bb ab d8 5a ba c5 53 e8 b8
       -0.00023897327 -0.0020569847 -0.0008348326 -0.00011078225
0000e0 ad 80 1c bb e9 91 b4 ba 97 d1 61 bb ad 04 8a b8
       -0.0023880408 -0.0013776395 -0.00344572 -6.581224e-05
0000f0 93 cd ee 39 51 41 16 ba 45 8f 4b 39 59 fb 03 bb
       0.00045548062 -0.0005731779 0.0001941296 -0.0020138829
000100 c2 4a 67 b9 ba dc ea ba 67 56 51 b8 1c fa cf ba
       -0.00022057726 -0.0017918565 -4.990995e-05 -0.0015867385
000110 a5 5d 24 3a b7 05 cb ba 93 0a 28 ba 61 c1 b2 39
       0.00062700576 -0.0015489374 -0.0006410267 0.00034094884
000120 ed 24 d1 3a 9d e3 bc ba 06 b7 4d 3a 8c db 25 3a
       0.0015956439 -0.0014411096 0.0007847402 0.00063269655
000130 a6 f9 9f ba ca 88 b1 39 35 22 3c b8 27 be 41 3a
       -0.0012205138 0.00033861987 -4.485455e-05 0.00073907006
000140 e6 12 43 39 14 2b 61 ba 9a f6 b0 ba 05 e6 3b 3a
       0.0001860369 -0.0008589488 -0.0013501227 0.00071677595
000150 34 00 54 ba e4 00 f3 ba 00 19 a9 ba a0 41 00 bb
       -0.00080871885 -0.0018539694 -0.0012901127 -0.0019570366
000160 57 fa d2 b8 ec a6 71 b9 8e 08 8c b6 71 ec 9b ba
       -0.0001006021 -0.00023045734 -4.173321e-06 -0.0011896027
000170 b6 a5 4c ba d2 ec 04 b8 68 56 52 ba cf 83 2e ba
       -0.0007806675 -3.169181e-05 -0.000802374 -0.0006657214
000180 81 88 24 b9 9a 60 fd ba 54 d0 8f b9 af ba ad ba
       -0.0001569111 -0.0019331158 -0.00027430302 -0.0013254489
000190 98 b8 df ba 58 50 69 38 6f 19 95 b8 8a fb 07 bb
       -0.0017068563 5.5626355e-05 -7.109611e-05 -0.0020749294
0001a0 50 e3 d5 39 72 13 cd ba d2 1c b7 ba e1 09 17 3a
       0.00040795887 -0.0015646054 -0.0013970381 0.0005761665
0001b0 83 3e 8d bb a6 d9 f6 ba de 9b cf b9 2b 2b 23 39
       -0.0043104305 -0.0018833175 -0.00039598247 0.00015560973
0001c0 5a 96 de ba 9b b7 61 39 4e 93 2e bb 70 f9 8e 38
       -0.0016982064 0.0002152607 -0.0026638093 6.817549e-05
0001d0 f0 db f2 39 d1 e5 a3 ba e9 5c 25 39 09 3c bb ba
       0.00046321703 -0.0012504404 0.00015770238 -0.001428486
0001e0 f7 a0 99 38 76 ad 08 bb 73 d0 48 bb 42 c2 27 3a
       7.3255906e-05 -0.0020855344 -0.0030641824 0.0006399491
0001f0 fd 18 5f ba cc 6d 07 bb 1e 0b 46 ba 5b bf f3 39
       -0.00085104984 -0.002066481 -0.0007554757 0.00046491143

action_model._continuous_distribution.log_sigma f4 [1, 2]
000000 a7 f0 4c bc fc b2 cf bc
       -0.012508548 -0.025353901

action_model._continuous_distribution.mu.weight f4 [2, 128]
000000 cf 90 31 bc 5b 82 11 bc 87 85 e1 3a 94 a6 bb bc
       -0.010837748 -0.008881177 0.0017205932 -0.02290658
000010 b1 0d 53 bb f0 6c 22 3d 65 53 0b 3d cf 91 04 3c
       -0.0032204206 0.039654672 0.034015078 0.008091404
000020 7f 11 b9 bb 27 42 c0 bc 11 a0 43 bc 0e ef d9 bb
       -0.0056478377 -0.023469044 -0.011940018 -0.006650812
000030 4e ce 6d 3c fe aa e6 bc db ba 6d bc 45 11 a8 3b
       0.014514519 -0.028157707 -0.014509882 0.005129012
000040 54 a6 b7 3c 3d 48 98 3b c3 a3 c3 b9 77 0c c7 bc
       0.022418179 0.0046472833 -0.0003731531 -0.024297936
000050 4c 89 8f bc 02 fc a1 3c 16 d7 8c 3c 29 32 d1 3c
       -0.017521523 0.019773487 0.017192405 0.025536614
000060 1d 07 27 bc fd cd 50 bc 4c 0a 01 3b f9 03 f3 3c
       -0.010194567 -0.012744424 0.0019689975 0.02966498
000070 b3 29 24 3c ad e3 95 3c a2 87 5b bb 9e 6d 20 3d
       0.0100197075 0.01829704 -0.0033497592 0.03916704
000080 c6 22 d7 3c 33 2d 53 3c ef f9 99 bc d6 5c 14 3c
       0.026261698 0.012889194 -0.018795935 0.009055337
000090 59 f7 89 ba 76 87 58 3c 1c 92 92 3c 6e 23 cf bb
       -0.0010525986 0.01321589 0.017891936 -0.006321362
0000a0 a3 0f 5a 3c 75 46 8c 3b 96 c2 c9 bb c1 8a b7 3c
       0.013309392 0.00428086 -0.0061572297 0.02240503
0000b0 4c 71 a0 3c 13 3d bb ba 0f 6b 51 bc e2 34 13 3c
       0.019585274 -0.0014285169 -0.012781872 0.008984776
0000c0 78 08 6c 3c 56 69 bc bb 07 cf 9e 3b 15 7a 11 3a
       0.014406316 -0.0057498617 0.004846457 0.00055495027
0000d0 c0 27 cd bb 34 df 06 3c bd e1 a2 bb ab 49 db 3b
       -0.006260842 0.008231927 -0.0049707578 0.0066921315
0000e0 8e 5c 6a 39 7b 6b 12 3c 44 6a 65 3a 80 8a 30 bd
       0.00022350458 0.008936758 0.00087514916 -0.043100834
0000f0 0a 57 19 3d c7 7f 53 bc 94 ae e0 bc 16 46 8f bb
       0.037436523 -0.012908882 -0.027426995 -0.0043723686
000100 af e1 98 bb 4c 12 8b 3b 8e ba f0 3c 82 86 01 3d
       -0.0046655755 0.0042441245 0.029385831 0.031622417
000110 e6 e8 16 3d 56 10 32 bc a4 d3 86 3b d8 29 d1 bc
       0.036843203 -0.010868153 0.004114585 -0.025532648
000120 e7 31 4d bb 80 91 46 3b ed 81 56 3c 5f 0a 2d 3c
       -0.0031310262 0.0030299127 0.0130925 0.010561555
000130 b2 24 e3 bc 6c d5 97 3b e9 26 35 3c 52 df 70 bc
       -0.027727459 0.004633596 0.01105664 -0.014701681
000140 78 83 7c 3c 61 d3 91 bb 3c 2a c8 bb 67 99 28 3b
       0.015412204 -0.004450247 -0.0061085504 0.00257262
000150 31 32 05 bc 5a ce 5d 3c 92 f6 d4 bc 41 a4 b0 3c
       -0.008129642 0.013537968 -0.02599648 0.021562697
000160 00 41 b8 bb 11 63 41 3c 45 03 8b bc 9f 7c d9 bc
       -0.005622983 0.011803404 -0.016969332 -0.026548682
000170 60 70 f6 3c 3d af d6 3a c7 32 e8 3a 6d 13 38 bc
       0.030082881 0.0016379129 0.0017715328 -0.0112351
000180 e8 f2 6d bc bc 74 5a 3b 5f 6f 12 3c 9b e7 ec bc
       -0.014523245 0.003333374 0.008937686 -0.028919032
000190 ac 3a 77 bc 39 8b f9 ba b3 ca 80 3b 16 38 3d 3c
       -0.015089672 -0.0019038684 0.0039304136 0.011549016
0001a0 d2 c6 e8 bc 70 5a 4f bc 12 eb c8 bc 1e 6e a1 3c
       -0.028415117 -0.012655839 -0.024526153 0.019705828
0001b0 00 92 68 ba 19 c6 e2 bc 7b 61 5b bc 62 8a 88 b9
       -0.00088718534 -0.027682351 -0.01338994 -0.00026043045
0001c0 7d cd 15 3c b3 49 57 3c 74 0a cd ba ed 9d 96 39
       0.0091432305 0.01314013 -0.0015643374 0.00028727893
0001d0 1b 66 f8 3b 7d f1 96 bc 44 17 6d ba 1f 1a f1 bc
       0.0075805313 -0.018425697 -0.00090442994 -0.0294314
0001e0 49 d7 26 3b 96 77 c3 bc b5 47 d8 b9 19 6d a3 ba
       0.002545791 -0.023860734 -0.00041252156 -0.0012468427
0001f0 d8 a1 96 3c 18 ed 5e bc fb ca eb 3b bb 8b 93 3c
       0.01838772 -0.013606332 0.007195828 0.018010965
000200 f0 b4 b0 3c da 04 3e bb 6c d5 8d bc 11 41 e2 3c
       0.021570653 -0.002899459 -0.017313682 0.027618917
000210 56 5f 2b 3c e2 77 73 3c c0 6a 0d bc 63 06 c9 3b
       0.010459742 0.014860125 -0.008631408 0.0061347946
000220 31 eb 43 bc e3 e4 9c 3c 4d 14 9a 3c 78 5b 8f bc
       -0.0119579295 0.01915211 0.018808508 -0.01749967
000230 41 10 03 bb 2a e6 2f bb 90 7c 3f 3c b5 bd d1 bb
       -0.0019998702 -0.002684007 0.011687413 -0.0064007887
000240 23 7e 25 3d f9 31 db bb 2a cb 0c bd 68 23 96 3c
       0.040403496 -0.006689307 -0.03437344 0.01832743
000250 cb 32 fd bc 08 9b c9 ba fa 00 39 3c 9c 88 de 3b
       -0.030908009 -0.0015381286 0.011291737 0.0067911875
000260 49 de 8f bc 16 7b 8f bb 07 79 00 3d 71 6c ba 3b
       -0.017562049 -0.0043786867 0.03136542 0.0056891968
000270 42 db fe ba 79 23 93 3b 0f 5b 96 3b 29 02 2b bc
       -0.0019444006 0.0044903127 0.0045884917 -0.010437527
000280 9e f4 18 bd 8e 41 88 3a 37 f7 22 3c 01 87 2d bb
       -0.03734266 0.0010395513 0.009946636 -0.0026478174
000290 1a 0a 43 3c ae 33 80 bc db fa 55 bc 7a 57 85 ba
       0.011904264 -0.015649643 -0.013060297 -0.0010173165
0002a0 53 e3 7f bb 5b 0e 71 3c 58 c6 f9 bc 74 2b 83 bc
       -0.0039045408 0.014712895 -0.030490085 -0.016011931
0002b0 1c 82 a7 3b 7f 22 02 bc d5 3f 01 bd 96 32 17 bb
       0.005111946 -0.007942795 -0.031555016 -0.0023070923
0002c0 1e 80 a0 ba 22 40 29 39 f5 ab 4b bc cf 28 fe bc
       -0.0012245213 0.00016140987 -0.0124311345 -0.031025318
0002d0 6f d6 f2 3c b4 c2 2d 3c 8c a6 bb 39 53 39 f7 bb
       0.029643266 0.010605503 0.00035791507 -0.0075446754
0002e0 f4 52 ad bb 1e c1 b9 bc f7 00 03 bb 91 d0 0f bc
       -0.00528943 -0.022675093 -0.0019989589 -0.008777753
0002f0 4f 77 16 bc ce f9 f8 3c 24 75 35 bd c6 8c ab bb
       -0.009183719 0.030392554 -0.044301167 -0.0052352874
000300 c8 c8 7d bc 5b 8f 29 bc 58 3b b9 39 b8 d4 00 3c
       -0.0154897645 -0.01034912 0.00035330164 0.007863216
000310 59 54 8d bc 56 fa 5b bb a2 ad aa bb 64 9e 8c bc
       -0.017252134 -0.003356596 -0.005208687 -0.01716537
000320 a8 74 a1 bc 0f ea 2c bc 70 90 08 3c ba 4b 24 3c
       -0.019708946 -0.010553851 0.008335218 0.01002782
000330 71 c2 d9 3a 51 32 43 3c e8 36 e1 bc ee a6 cb 3c
       0.0016613734 0.011913852 -0.027492002 0.024859872
000340 1e 53 d9 bc ac 87 3f 3c 02 92 16 3c 46 45 bd 3c
       -0.026528891 0.011690062 0.009190084 0.023104321
000350 31 89 c9 3c 44 4c 6f 3c 11 b8 fc bc f1 1d 34 ba
       0.02460155 0.0146055855 -0.030849488 -0.00068709167
000360 0f ef 0a 3d eb 24 ac ba 28 1d 7a bc 4d 13 15 3c
       0.03391939 -0.0013133561 -0.01526574 0.00909884
000370 c5 80 96 bc d4 25 63 3c 5d f6 80 3b 98 b7 d2 3c
       -0.018371949 0.013863999 0.003935619 0.02572231
000380 f9 84 17 3a 34 81 a3 3c 0f 64 9a bc 6b 30 7d bc
       0.00057800073 0.01995907 -0.01884654 -0.015453438
000390 20 5f 3f 3b ec 65 1c bd d1 2e 03 3c fd b1 9d 3b
       0.0029200986 -0.038183138 0.008006767 0.0048124776
0003a0 90 d9 17 bc e7 7f af bb 80 83 0d bc dc 6c 6e bc
       -0.00926818 -0.0053558233 -0.008637309 -0.014552321
0003b0 41 91 42 b9 1b 5a ca 3b e0 ba 52 3c e6 08 34 3c
       -0.00018555393 0.006175292 0.012861937 0.01098845
0003c0 40 73 84 3c af 0e 9f bc f3 1b 68 3b 99 1e 1c 3c
       0.016168237 -0.019416181 0.003541705 0.009528779
0003d0 dd a8 f0 3b 4a de 1f 3c af 54 20 3d 65 e0 1a bc
       0.007344349 0.009757588 0.03914326 -0.009452914
0003e0 67 ac e9 3b 75 e8 f1 bb 39 41 02 bb e8 cf e6 3c
       0.0071311477 -0.0073824474 -0.0019875302 0.02817531
0003f0 ca a2 90 bb a5 49 37 bb 80 f7 22 bd 87 13 0f bc
       -0.004413937 -0.002796748 -0.039786816 -0.008732683

action_model._continuous_distribution.mu.bias f4 [2]
000000 e5 ac 8a 3a df 3f 84 3a
       0.0010580091 0.0010089836

action_model._discrete_distribution.branches.0.weight f4 [1, 128]
000000 39 11 99 3b 1b 96 9d bb e7 20 48 3b 07 5f a9 bb
       0.0046712426 -0.0048091537 0.003053719 -0.005168799
000010 93 ba cd 3b 13 31 98 3b 7b d5 a2 3b f2 c6 8b 3b
       0.006278345 0.004644522 0.0049692965 0.0042656595
000020 17 fa 4a bb d5 a8 22 b9 a3 a2 81 3b eb 55 13 3c
       -0.003097182 -0.00015512419 0.0039561554 0.008992652
000030 ef f7 d1 3b 05 91 74 3c 3d a8 63 bc 20 ce 64 3c
       0.00640773 0.0149271535 -0.013895092 0.01396516
000040 d3 f4 31 3c 0f 43 45 3c 88 23 e7 3a 7d f1 4f bc
       0.010861593 0.012039914 0.001763449 -0.012691853
000050 22 3e 97 bb 3a 98 1b 3c 7b 22 65 3b 9b e1 29 3c
       -0.004615561 0.009496743 0.003496318 0.01036873
000060 88 5f 47 bb ac 9e 92 bb 63 84 8a b8 7d 75 fa ba
       -0.0030421931 -0.0044744816 -6.605012e-05 -0.00191085
000070 5f 76 f1 ba cf e3 76 3c 29 b2 2a 3b ea b5 30 3b
       -0.0018422118 0.015068962 0.0026046133 0.0026963898
000080 3f ea 0f 3c e5 8e 8c bb 2a 7f ca bb d1 cc b1 bb
       0.008783876 -0.0042894953 -0.00617971 -0.0054260273
000090 23 72 b2 3b 7b 6f 1d bc 31 70 8b bc 6a cf 63 3c
       0.005445735 -0.009609099 -0.01702127 0.013904432
0000a0 41 85 02 bc 17 a9 6b 3c 21 25 0b 3c ca a1 9c bb
       -0.0079663405 0.014383576 0.008492739 -0.004780029
0000b0 34 2b 8e 3b 77 6c b6 3c c6 2a a0 bc da 95 54 3b
       0.0043386463 0.022268517 -0.019551646 0.0032437951
0000c0 d3 ea 94 3b 6c 89 a3 3c 1f aa b7 b7 69 b6 37 bb
       0.004544595 0.019962989 -2.1894519e-05 -0.002803231
0000d0 70 a1 f2 ba b0 de da bc 43 2c 96 bb d6 71 8f 3b
       -0.0018511247 -0.026717514 -0.004582913 0.004377584
0000e0 38 7b 37 3c 4f 62 60 bb ed a5 50 bc a7 3d 0a bc
       0.011198811 -0.0034238284 -0.012734872 -0.008437551
0000f0 20 c4 8e bc df 55 82 bb e3 55 a6 3a 3c 38 be b9
       -0.017427504 -0.003977522 0.0012690391 -0.00036281522
000100 32 b2 0f 3c bd 3e fd bb 6b b2 bc 3a c1 26 ac 3a
       0.008770512 -0.0077284263 0.0014396434 0.0013134108
000110 11 c5 c6 ba 50 8f 61 3b 1b 18 e9 ba a5 4a e6 3b
       -0.0015164932 0.0034417696 -0.0017783673 0.0070279413
000120 ed e5 c2 bb 38 97 1b 3b 7f de 03 bc 03 b3 58 bb
       -0.0059478194 0.0023741256 -0.008048653 -0.0033065684
000130 7d 2b 5c 3c fb d5 6f 3c 91 43 84 3c f4 c0 84 3b
       0.013438103 0.014638419 0.0161455 0.004051322
000140 e3 39 6c 3c 6f eb 43 bb d9 33 8d bb b3 d1 f8 39
       0.014418098 -0.0029894968 -0.0043091592 0.00047458484
000150 07 42 8d 3b 97 24 1c ba 38 a8 80 3a 07 3c c3 b9
       0.0043108496 -0.000595638 0.0009815758 -0.00037238022
000160 15 e7 2b bb 84 7d 10 3c 86 6f 43 bc 7a 64 b1 39
       -0.0026230265 0.008818988 -0.011928445 0.00033834932
000170 4a d4 86 3b f5 fd 8c 3b 23 f7 63 bb 2a 58 c1 3b
       0.0041146623 0.004302735 -0.0034784756 0.0059004026
000180 bd db 71 3a 9f 9c f6 bb 33 23 2c 3c 70 4a 68 3b
       0.0009226164 -0.007525995 0.010506439 0.0035444759
000190 95 df 1c bc 80 0a 6d bc a1 85 9d bc 83 17 2d bb
       -0.0095747905 -0.014467835 -0.019228758 -0.002641172
0001a0 46 fc 82 38 78 37 14 bb 5c 15 0d 3c 8a 61 f7 3b
       6.245873e-05 -0.002261607 0.0086110495 0.0075494694
0001b0 5d c1 55 3c 7b 95 d8 bb 02 6f 7d 3b 73 a5 e4 3b
       0.01304659 -0.0066096163 0.0038670902 0.006977731
0001c0 17 57 9d bb 9c 52 b3 3a 93 fb 32 3c 5c 88 27 3b
       -0.0048016417 0.0013681236 0.010924238 0.0025563454
0001d0 91 e9 09 bb cf 89 ab 3c af 9f 37 3b cb d7 c2 ba
       -0.0021043757 0.020939736 0.0028018763 -0.0014865337
0001e0 28 d5 85 3c 9a f7 ce 3b 79 16 0b 3c 02 7e 67 3c
       0.016336992 0.0063161375 0.008489245 0.014129164
0001f0 b6 7b 34 3c c9 00 2d bc 0d 0f bd 3b 5c d2 0f bc
       0.011015823 -0.010559269 0.0057696165 -0.008778181
