results/RollerAgents/RollerAgent/RollerAgent-52736.pt (torch, 431507 bytes, 39 tensors)

network_body._body_endoder.seq_layers.0.weight f4 [128, 1]
0	0xbec4e008	-0.38452172
1	0x3f7804df	0.9688243
2	0xbe75b541	-0.23994924
3	0xbf6389db	-0.88882226
4	0xbe6b5108	-0.2298013
5	0xbdbc16ef	-0.09184062
6	0xbe255fa6	-0.16149768
7	0xbfec7c5c	-1.8475451
8	0x3ed85168	0.42249608
9	0xbc61e941	-0.013788522
10	0x3f1ce90d	0.6129311
11	0xbf2646d3	-0.6495182
12	0xbf80e957	-1.007121
13	0x3ec08e26	0.3760845
14	0xbff2f2e1	-1.8980371
15	0x3f9cd485	1.2252356
16	0xbffbab8b	-1.9661726
17	0xbf97c776	-1.1857746
18	0xbf8f11e1	-1.1177331
19	0x3f30d6a6	0.6907753
20	0xbef5e071	-0.48022798
21	0xbfaf1fb2	-1.3681548
22	0xbb788f8b	-0.0037927355
23	0xbda65752	-0.08122124
24	0xbee50484	-0.44730008
25	0xbe8da2cc	-0.27663267
26	0xbfaacf07	-1.334443
27	0x3db0fd24	0.08642033
28	0xc000cfc8	-2.012682
29	0x400c3533	2.190747
30	0xbe642f28	-0.22283614
31	0xbf06e363	-0.52690715
32	0xbf657ad6	-0.8964056
33	0x3fedea0e	1.8587053
34	0xbe815529	-0.25260285
35	0xbec54721	-0.3853083
36	0xbf97d151	-1.1860753
37	0x3ffca409	1.973756
38	0xbd811843	-0.06303456
39	0xbf99d55f	-1.2018241
40	0x3d3c34da	0.04594884
41	0x3f6128b4	0.87952733
42	0xbe845f2d	-0.25853863
43	0xbff166db	-1.8859514
44	0xbdf1bcdc	-0.118036
45	0x3b8c5a58	0.0042832308
46	0x3f755fcc	0.958493
47	0xbeec8119	-0.46192244
48	0xbdcebc7d	-0.10094545
49	0x3f893bdd	1.0721394
50	0x3f4f4b73	0.809745
51	0x3f02486e	0.5089177
52	0xbfed57ad	-1.8542382
53	0xbf9eb7b8	-1.2399817
54	0xbdae7f86	-0.08520417
55	0xbf8bd602	-1.0924685
56	0x3f6813f4	0.90655446
57	0xbf5ba05c	-0.85791564
58	0xbdc13896	-0.09434621
59	0x400ac890	2.1684914
60	0xbf50d1ee	-0.8157033
61	0x3fabcfe4	1.3422818
62	0x3f6874aa	0.90803015
63	0xbfe9e9d3	-1.8274482
64	0x3fb3ba33	1.4041198
65	0x3d3995da	0.045308925
66	0x3ff4e782	1.913315
67	0xbf41d251	-0.7571154
68	0xbc0f7922	-0.008756908
69	0xbeea8f47	-0.45812437
70	0xbf26de80	-0.6518326
71	0x3feadd92	1.8348868
72	0xbae6f610	-0.001762094
73	0xbfb26e62	-1.3939936
74	0x3f37ce50	0.7179918
75	0xbf6a2925	-0.9146903
76	0x3ec1353b	0.37735924
77	0x3eb532fc	0.3539046
78	0x3ec143c7	0.37747023
79	0x3f26bb28	0.6512933
80	0x3f84fd55	1.0389811
81	0xbff029db	-1.8762773
82	0x3f20c73c	0.6280401
83	0x3cd9eba3	0.026601618
84	0xbfce348a	-1.6109784
85	0xc0026538	-2.037428
86	0x3ecd69d8	0.40119815
87	0xbdf15f41	-0.11785746
88	0xbe9fb0d7	-0.31189606
89	0xbfc4cb6e	-1.5374582
90	0x3f4e932b	0.8069331
91	0xbf1c19d2	-0.609769
92	0xc01e732e	-2.47578
93	0xbd380ab1	-0.04493207
94	0xbfc071e9	-1.5034763
95	0xc00a5676	-2.1615272
96	0x3bc503ac	0.0060124006
97	0xbf80cd7c	-1.0062709
98	0xbfa910bb	-1.3208231
99	0xbe122b7c	-0.142744
100	0xbe37b253	-0.17939119
101	0x3f2b39a9	0.6688486
102	0xbf42f63d	-0.7615698
103	0xbc8135e9	-0.015772777
104	0x3f22fcc2	0.6366693
105	0xbf6cd2be	-0.9250907
106	0x3e0a4dc2	0.13506225
107	0x3ef428b5	0.47687307
108	0x3f364295	0.71195346
109	0xbfbed827	-1.4909714
110	0xbf3f8ec6	-0.7482723
111	0x3b838c83	0.004014553
112	0xbfbc5725	-1.4714094
113	0xbf309a6a	-0.6898562
114	0x40194d8e	2.3953586
115	0xbf48ff07	-0.7851414
116	0x3f8587f4	1.0432115
117	0x40062517	2.0960138
118	0xbf91452b	-1.1349233
119	0xbfba0aa5	-1.4534498
120	0x3f92f560	1.1481133
121	0x3fadc8f9	1.3576957
122	0xbfb5ec66	-1.4212768
123	0x3e8f333b	0.27968773
124	0xbd9ecc37	-0.07753795
125	0x3d08a98c	0.033364818
126	0x3e62aad9	0.22135486
127	0xbecc9939	-0.3996065

network_body._body_endoder.seq_layers.0.bias f4 [128]
0	0xba8a3570	-0.001054449
1	0x39e3a2be	0.00043418066
2	0xba8412bd	-0.0010076385
3	0xba3311c1	-0.00068309536
4	0xba93b200	-0.0011268258
5	0x3b130807	0.0022435205
6	0x3a58888a	0.0008260092
7	0xbb17b480	-0.0023148358
8	0xbac53e85	-0.001504854
9	0xba98ff72	-0.0011672808
10	0x3abab47a	0.001424446
11	0xb9611bb6	-0.00021467995
12	0x39348cf5	0.00017218648
13	0x3a8d07d2	0.0010759777
14	0xba06cc9d	-0.0005142184
15	0xbb5934b7	-0.0033142993
16	0xbab26024	-0.0013608974
17	0x39f7cd51	0.00047264484
18	0xb87336ac	-5.7986632e-05
19	0x39fc291a	0.0004809581
20	0xb9d4ea98	-0.00040610577
21	0x3a8b910c	0.0010648086
22	0x3af22fb9	0.0018477357
23	0xbaa5bc83	-0.0012644682
24	0xba346635	-0.0006881685
25	0xbb1844d1	-0.0023234377
26	0xbb01d18f	-0.0019808745
27	0xbb224230	-0.002475869
28	0xba9d34e7	-0.0011993916
29	0x3a90972b	0.001103138
30	0xba0dcaf6	-0.00054089667
31	0xbb467229	-0.0030280447
32	0x3a971c80	0.0011528879
33	0x3ab0d5fe	0.0013491509
34	0xbb1b5d33	-0.0023706674
35	0xbaf4c0ca	-0.0018673178
36	0xbac93f2d	-0.0015353911
37	0x39907819	0.000275553
38	0x39ada3cf	0.00033119178
39	0xbb198f29	-0.0023431277
40	0xbacb823c	-0.0015526484
41	0xb9eede57	-0.00045560554
42	0xba368aad	-0.00069634133
43	0x3aeb8998	0.0017970083
44	0x3ac7ff8a	0.0015258652
45	0xbb01782d	-0.0019755468
46	0xba91bc1e	-0.0011118685
47	0x3aade060	0.0013265721
48	0xbaa68ef3	-0.0012707397
49	0x3aba85b6	0.0014230523
50	0xba8d59fb	-0.0010784263
51	0x3a82d5c8	0.0009981925
52	0x3a96fc34	0.0011519254
53	0x388d5c98	6.740651e-05
54	0xbb092915	-0.0020929028
55	0xb86512b8	-5.4615288e-05
56	0xb909e2a1	-0.00013149764
57	0xba986f8d	-0.0011629924
58	0xbabee85e	-0.00145651
59	0xbac9c9cc	-0.0015395223
60	0xbad4f4d2	-0.0016247279
61	0xbae8f631	-0.0017773566
62	0xbb0152bb	-0.001973315
63	0x3884c49e	6.330873e-05
64	0xba3c02d2	-0.0007172051
65	0xbb682bb7	-0.0035426447
66	0x3a4f8e06	0.00079175865
67	0xb9ffa2aa	-0.00048758584
68	0xbb0c0be0	-0.0021369383
69	0x3939fa1b	0.00017736146
70	0xbb04019b	-0.0020142558
71	0xbb53800d	-0.003227237
72	0x3a717642	0.0009211042
73	0xb83db825	-4.523261e-05
74	0xba47261b	-0.0007596926
75	0xb9b72d21	-0.00034938104
76	0x3ac2afa6	0.0014853373
77	0xba89b4bb	-0.0010506132
78	0xbab212c2	-0.0013585913
79	0x39acf23b	0.00032986872
80	0xbaf70a52	-0.001884768
81	0xbab86441	-0.0014067964
82	0xbaf68977	-0.0018809278
83	0xbbc91e4b	-0.0061376444
84	0xbb15b02e	-0.0022840607
85	0xbad20d09	-0.0016025613
86	0x39e0fd70	0.00042913435
87	0xbab7ed45	-0.0014032504
88	0xbaa67433	-0.0012699425
89	0xbab653b1	-0.001391044
90	0xb9d09368	-0.00039782678
91	0xba1a4270	-0.0005884534
92	0x38b18eaa	8.466591e-05
93	0xba714456	-0.0009203603
94	0x3ae1b28a	0.0017219346
95	0xbad1efdd	-0.0016016919
96	0xbb15b539	-0.0022843613
97	0x39ac52ec	0.00032868178
98	0x3a3cd20a	0.0007202929
99	0x3ab67e30	0.0013923105
100	0xbaaa13d3	-0.0012975879
101	0x3aa50128	0.0012588846
102	0x3acc9e6d	0.0015611179
103	0x3af72a5c	0.0018857229
104	0x3a44fadf	0.00075141893
105	0xba2e2176	-0.00066425593
106	0xbb0b55bc	-0.0021260818
107	0xb9cbae86	-0.00038849207
108	0x3a227405	0.0006197098
109	0x3a79e579	0.000953279
110	0x39b82002	0.00035119063
111	0x3aaf7f18	0.0013389317
112	0x3ab34cc4	0.0013679494
113	0x3a891db1	0.0010461119
114	0xba1b1bed	-0.0005916942
115	0xbb03751c	-0.0020058816
116	0xbb243d40	-0.0025060922
117	0xbb1e3bfa	-0.0024144636
118	0xba47d27d	-0.0007622613
119	0x3a975fab	0.0011548897
120	0xbaf76b39	-0.0018876559
121	0xbad64dce	-0.0016350092
122	0xbb0be40c	-0.0021345643
123	0x3afd7b9a	0.0019339204
124	0x3b18369a	0.0023225904
125	0xb73267d3	-1.06338e-05
126	0xb9bb822b	-0.00035764402
127	0x3ac92e45	0.0015348872

network_body._body_endoder.seq_layers.2.weight f4 [128, 128]
0	0xbd4a7c91	-0.049435202
1	0xbd2e57f4	-0.042564347
2	0x3ca4c64a	0.020114083
3	0xbdf697b8	-0.12040657
4	0xbdb84168	-0.0899685
5	0x3d1fe3af	0.039035495
6	0xbdda6708	-0.10664183
7	0xbcff1f4d	-0.031142855
8	0x3c17266f	0.009225472
9	0xbdf5eba2	-0.12007834
10	0x3db569f5	0.088581
11	0x3e76f354	0.2411626
12	0x3bb8ea19	0.005643141
13	0x3d13d6b6	0.036093436
14	0xbe4a6660	-0.19765615
15	0xbd64b6ca	-0.055838384
16	0xbdc729e2	-0.097247854
17	0xbdf59f90	-0.11993325
18	0x3df19fe6	0.11798076
19	0x3da8d556	0.082438156
20	0x3d5a3517	0.053273287
21	0xbb246280	-0.0025083125
22	0x3c0cc7a8	0.008592524
23	0xbd47df0e	-0.048796706
24	0x3d9d20b9	0.07672257
25	0xbd6f5ae9	-0.058436308
26	0x3e0c4969	0.13699879
27	0xbcb4d36c	-0.02207347
28	0x3dbff2e7	0.09372502
29	0xbb32499d	-0.0027204521
30	0x3c8fcc6e	0.017553534
31	0xbcc7a5d1	-0.02437106
32	0xbd676e0a	-0.056501426
33	0x3d179426	0.03700652
34	0x3dcabfcb	0.09899863
35	0xbe82df45	-0.25560966
36	0x3d6ace4a	0.05732564
37	0xbd80a1fd	-0.06280897
38	0x3e0abefe	0.1354942
39	0x3d927192	0.07150568
40	0xbc150043	-0.009094301
41	0x3d3bf813	0.04589088
42	0x3db2c134	0.08728257
43	0xbb9d7875	-0.0048056194
44	0x3d503976	0.05083605
45	0x3dae3e28	0.08507949
46	0x3c3a2a15	0.011362572
47	0x3e1e4e0b	0.15459459
48	0x3e321d1b	0.17393915
49	0x3dfb62c5	0.12274698
50	0x3d812932	0.063066855
51	0x3cc42e3f	0.023947833
52	0xbe000705	-0.12502678
53	0x3e44ce3f	0.19219302
54	0xbd8b4d03	-0.06801798
55	0x3d578b0f	0.05262285
56	0x3ccbed3b	0.024893394
57	0xbd3126d6	-0.043249927
58	0x3e139e69	0.14415897
59	0x3dfffabc	0.12498996
60	0x3dcee81e	0.101028666
61	0x3e1b60b2	0.15173605
62	0xbd1b6663	-0.03793944
63	0x3d205a88	0.039148837
64	0xbe03fedb	-0.12890188
65	0x3e5fd030	0.21856761
66	0xbe5968db	-0.21231405
67	0x3e4a5bce	0.19761583
68	0xbdec6c42	-0.11544086
69	0xbd15432f	-0.036441024
70	0xbba772b0	-0.0051101074
71	0xbdc2846e	-0.09497915
72	0xbd1699ac	-0.036767647
73	0xbd9e76f6	-0.07737534
74	0x3da3c130	0.07995832
75	0xbe25f199	-0.16205443
76	0xbde8b4aa	-0.11362584
77	0x3c21dff4	0.009880055
78	0x3de7c143	0.113161586
79	0x3e340332	0.17579344
80	0xbd8d8938	-0.06910938
81	0xbd3f8a46	-0.046762727
82	0x3e047236	0.12934193
83	0x3d234116	0.039856993
84	0x3ddfe039	0.10931439
85	0xbe09ab00	-0.13444138
86	0x3da559cd	0.08073769
87	0xbd5bd411	-0.05366904
88	0xbc76a2c1	-0.015053452
89	0xbde0745d	-0.109596945
90	0x3e4d23c6	0.20033178
91	0xbb9cefc9	-0.004789327
92	0xbd8be278	-0.06830305
93	0x3d9d1f7a	0.07672019
94	0xbd4f3122	-0.050583966
95	0xbda4fbdd	-0.080558516
96	0x3c497c88	0.012297757
97	0x3c3e462c	0.01161341
98	0x3b9780f9	0.004623529
99	0xbe1883d5	-0.1489404
100	0xbcb910a9	-0.022590952
101	0x3e81b275	0.25331464
102	0xbbf16cf9	-0.007367727
103	0xbd23a527	-0.039952423
104	0xbdc431d9	-0.0957982
105	0x3df4b73d	0.119490124
106	0xbd316dd1	-0.04331762
107	0xbcd141a6	-0.025543999
108	0x3c95ce07	0.018286718
109	0xbc630396	-0.013855835
110	0xbd42cc64	-0.047558203
111	0x3ca5ec2c	0.020254217
112	0xbc1d13fa	-0.009587282
113	0xbcf468a7	-0.029835058
114	0xbe5411cb	-0.20709912
115	0xbdea7859	-0.11448736
116	0xbdc50ded	-0.09621797
117	0x3d5db298	0.0541254
118	0xbd589a7c	-0.052881703
119	0x3e137936	0.14401707
120	0x3d2a44e2	0.041569598
121	0xba01faf2	-0.0004958353
122	0x3cd3b803	0.02584458
123	0xbc3c1be4	-0.011481259
124	0xbe17192a	-0.14755693
125	0x3ccc89a3	0.024967974
126	0xbe374ce2	-0.17900422
127	0x3d960650	0.07325423
128	0x3cfde1f6	0.030991536
129	0x3c658e10	0.014010921
130	0xbd8d12c6	-0.068883464
131	0xbe44e7f3	-0.19229107
132	0xbbaf0f1b	-0.005342377
133	0x3df7cc3f	0.12099504
134	0x3d792615	0.060827333
135	0xbd13a7ce	-0.036048703
136	0x3d5902cc	0.052981183
137	0xbbb5471f	-0.00553216
138	0xbc7ebdd5	-0.015548189
139	0xbd0523c2	-0.032504804
140	0x3db9427f	0.09045886
141	0x3c65d385	0.014027481
142	0xbe0e6ebd	-0.13909431
143	0x3dcc2e17	0.099697284
144	0xbc72e94b	-0.014826129
145	0xbd468e7f	-0.04847574
146	0x3dae4359	0.08508939
147	0x3ded73e7	0.11594372
148	0x3d28858c	0.041142985
149	0x3d765b51	0.06014568
150	0xbd99fc68	-0.07518846
151	0x3deed29d	0.11661265
152	0x3db47324	0.08811024
153	0x3cf83fcc	0.030303858
154	0xbd196673	-0.03745122
155	0xbd30da74	-0.043177083
156	0xbcfc52d1	-0.030801209
157	0x3d57986d	0.0526356
158	0xbcc66cf9	-0.024221884
159	0x3daf9f7e	0.085753426
160	0x3d359413	0.044330668
161	0xbd3f37bf	-0.046684023
162	0x3e0ec425	0.1394201
163	0x3e12ac4b	0.14323537
164	0x3df740d1	0.120729096
165	0xbbfa9558	-0.0076471977
166	0x3d976fc7	0.07394367
167	0x3c79619d	0.015221027
168	0x3b99467a	0.004677591
169	0x3d9a34cd	0.07529602
170	0xbde2b37d	-0.11069391
171	0x3ddeae42	0.10873081
172	0x3ccef3f3	0.025262808
173	0xbde5149d	-0.11185572
174	0xbe0964c1	-0.13417341
175	0xbd81a921	-0.06331087
176	0xbda9b41d	-0.08286307
177	0x3cdab374	0.026696898
178	0x3e115189	0.1419126
179	0xbe235e68	-0.15953982
180	0xbdee0c5a	-0.116234496
181	0xbd83ba2d	-0.064319946
182	0xbdffbdb0	-0.12487352
183	0xbdfdc53d	-0.12391136
184	0xbd9644f4	-0.073373705
185	0x3e126f00	0.14300156
186	0x3b992e91	0.0046747406
187	0xbcec2bed	-0.02882954
188	0xbd8f9207	-0.070102744
189	0xbd599879	-0.053123925
190	0xbc18f619	-0.009336018
191	0xbe4dd7fb	-0.20101921
192	0x3d60ffe3	0.054931533
193	0x3d63f5ec	0.05565445
194	0xbca18c6c	-0.019720279
195	0x3deaf236	0.11471979
196	0x3b5b9907	0.003350796
197	0xbe260579	-0.16213025
198	0x3d99ecac	0.07515845
199	0xbc514236	-0.012772134
200	0xbb86bf20	-0.0041121393
201	0x3c7ce09f	0.015434413
202	0xbdc0a7fe	-0.09407042
203	0xbdbead82	-0.09310438
204	0x3d1fc312	0.039004393
205	0x3da711ba	0.08157678
206	0xbe1611e3	-0.1465526
207	0xbc5a6494	-0.013329644
208	0x3d992c1a	0.07479115
209	0x3d2b0c57	0.041759815
210	0xbd64f2f8	-0.055895776
211	0x3d449a1c	0.047998533
212	0x3e09f081	0.13470651
213	0xbb471258	-0.0030375924
214	0xbe3bd32b	-0.18342273
215	0x3dbfd6fe	0.093671784
216	0x3d5cfc7e	0.053951733
217	0xbd8dd435	-0.06925241
218	0xbce4d5c0	-0.027933955
219	0x3da0a306	0.07843594
220	0x3d717852	0.058952637
221	0xbce72251	-0.028214606
222	0x3deb5834	0.11491433
223	0x3b32104a	0.0027170354
224	0xbcc3d277	-0.023904068
225	0x3d980d24	0.074243814
226	0xbd07f018	-0.033187956
227	0xbdc5fc12	-0.09667219
228	0x3d17682f	0.03696459
229	0x3d53c8d0	0.05170518
230	0x3e424ab3	0.18973808
231	0x3ca2f5d9	0.01989262
232	0xbc820429	-0.015871124
233	0x3d129209	0.0357838
234	0x3d9bc722	0.07606341
235	0xbd838550	-0.06421912
236	0x3e2927ca	0.16519085
237	0xbbf72c8d	-0.0075431527
238	0xbcf42b73	-0.029805874
239	0xbce68b7b	-0.028142681
240	0xbd712634	-0.058874324
241	0x3ccc7b00	0.024960995
242	0x3d537cb5	0.0516326
243	0xbd209acd	-0.03921013
244	0xbd14c6be	-0.036322348
245	0xbcdd1155	-0.026985804
246	0x3e3a93a5	0.18220384
247	0xbbbec316	-0.005821596
248	0xbe4682e0	-0.19385862
249	0xbdb1bf03	-0.08679011
250	0x3ca9e9f1	0.020741435
251	0x3df19a3b	0.11796995
252	0xbe474b1f	-0.1946225
253	0xbdf22214	-0.11822906
254	0xbcb5b3b1	-0.02218041
255	0xbd6a6c07	-0.05723193

network_body._body_endoder.seq_layers.2.bias f4 [128]
0	0xbb0d971f	-0.0021604968
1	0x3a89e5ef	0.0010520796
2	0x3aa507eb	0.0012590861
3	0xbb104cca	-0.0022018426
4	0x3a9c006c	0.0011901981
5	0x3a20f137	0.00061394594
6	0x3a175f91	0.00057744334
7	0xba644fe9	-0.00087094173
8	0x3a3ddc05	0.00072425633
9	0xb9ce93db	-0.00039401543
10	0x3a826ae0	0.0009950064
11	0xbaa40e42	-0.0012516456
12	0xb7db10b5	-2.6114614e-05
13	0xba622461	-0.00086266367
14	0xbabd51c7	-0.0014443927
15	0x3a622d35	0.0008627952
16	0xbac24803	-0.0014822487
17	0xbabe591a	-0.0014522404
18	0xba458993	-0.0007535454
19	0xba60ed9b	-0.0008580328
20	0x3ac58431	0.0015069303
21	0x3a31de7e	0.0006785168
22	0xbb02a8f7	-0.0019937137
23	0xbaece77e	-0.0018074361
24	0x39e23563	0.00043145855
25	0xba57a91b	-0.0008226798
26	0xbb0b8f96	-0.00212953
27	0xbb0b4256	-0.0021249256
28	0xbb07e963	-0.0020738475
29	0xb8d68436	-0.000102289414
30	0xbaba043f	-0.0014191939
31	0xbab1a8a9	-0.0013554293
32	0xbb0c46de	-0.0021404545
33	0x3a576452	0.0008216548
34	0xbaa9a176	-0.0012941796
35	0xba3ea154	-0.00072719646
36	0xbb20c6d3	-0.002453257
37	0xbaec98bc	-0.001805089
38	0x362bf58f	2.562392e-06
39	0xbb42622e	-0.002966057
40	0x3ab261ba	0.0013609447
41	0xba07e0b5	-0.0005183325
42	0x3a187156	0.0005815228
43	0xbaeb0569	-0.001793069
44	0xb9ccc1c5	-0.00039054282
45	0x3ab8e92d	0.0014107578
46	0x3a6dc0d7	0.0009069568
47	0x3a8b15f2	0.0010611399
48	0xbaff5713	-0.0019480906
49	0xbb00cd41	-0.001965359
50	0xb85d6298	-5.278233e-05
51	0xbb147c90	-0.0022657253
52	0x3aadedcc	0.0013269722
53	0x3ac24722	0.0014822225
54	0x3a677f29	0.0008830899
55	0x3b0c9f46	0.002145724
56	0x3ab6b524	0.0013939482
57	0xbaa99a90	-0.001293974
58	0xbad4a401	-0.0016223193
59	0xb9a4b812	-0.0003141766
60	0xba03477e	-0.00050079066
61	0xba6f929a	-0.0009138972
62	0xba80d322	-0.0009828547
63	0x39bd63a6	0.00036123133
64	0x38b6e41b	8.720924e-05
65	0xba4f2e17	-0.0007903291
66	0xbb06e4da	-0.0020583184
67	0x393600c0	0.00017357152
68	0xbb0fb69c	-0.0021928912
69	0x3ab6c450	0.0013944004
70	0x3a74e806	0.00093424355
71	0x3a652f4f	0.0008742706
72	0xbaf5ae3c	-0.0018743942
73	0xbad835eb	-0.0016495561
74	0x3aa6b0ab	0.0012717446
75	0xbb189f25	-0.0023288217
76	0xbb1ca368	-0.0023901109
77	0xba86d1df	-0.0010285935
78	0xbacf0abe	-0.0015796048
79	0x394d7069	0.000195922
80	0xbb195ce9	-0.0023401326
81	0xba8b26e5	-0.001061645
82	0xba72b222	-0.0009258111
83	0x39cdd0ac	0.0003925612
84	0xba8f4aee	-0.0010932365
85	0x37f21900	2.886029e-05
86	0x3a49062b	0.00076684606
87	0xbafbd132	-0.0019212125
88	0x3ab2896f	0.0013621281
89	0x3a86fd46	0.001029887
90	0x385ac332	5.215704e-05
91	0xba8e9ac2	-0.0010879862
92	0x3a4b1743	0.0007747302
93	0xbaffa3dd	-0.0019503791
94	0xb84163b4	-4.610764e-05
95	0x3a447302	0.0007493944
96	0xbaff9d5f	-0.0019501856
97	0xb9a009d4	-0.000305249
98	0xb9af29cd	-0.00033409745
99	0xbae4569c	-0.0017420831
100	0x3a61648a	0.00085980503
101	0xb9dfa48f	-0.0004265648
102	0x3ad4fa30	0.0016248878
103	0x3a03aff7	0.0005023474
104	0xbb30ebdc	-0.0026996052
105	0xbb021e4f	-0.001985449
106	0xbb078946	-0.0020681187
107	0x3a605fdc	0.0008559206
108	0xba073319	-0.00051574555
109	0x3906f0dd	0.00012868964
110	0xba81df8d	-0.0009908542
111	0x3a82a191	0.0009966363
112	0xbaea0415	-0.0017854
113	0xb999d50a	-0.0002934116
114	0xba9b0e73	-0.0011829868
115	0xb9c9a518	-0.00038460712
116	0x38a47dd5	7.8435674e-05
117	0xbabb6547	-0.0014297151
118	0xba3b9daa	-0.00071569777
119	0x3a4209c0	0.00074019656
120	0xba39f391	-0.0007093484
121	0x3a916a5d	0.0011094321
122	0xbad0e494	-0.0015937262
123	0x39e88c6b	0.00044355108
124	0x38fd31ba	0.000120732424
125	0xbac6db30	-0.0015171524
126	0x398d24a9	0.0002692093
127	0xba2a775b	-0.00065027707

action_model._continuous_distribution.log_sigma f4 [1, 2]
0	0xbd052b23	-0.03251184
1	0xbc96f26e	-0.018426146

action_model._continuous_distribution.mu.weight f4 [2, 128]
0	0x3c2e87b2	0.0106524695
1	0x3ba5f561	0.005064652
2	0xbd25e06f	-0.04049724
3	0x3cea7d61	0.028624238
4	0x3cf35246	0.029702317
5	0x39bb67ab	0.00035744658
6	0xbd1b1582	-0.03786231
7	0x3c22e6d8	0.009942733
8	0xbc410ec4	-0.011783306
9	0x3b010caa	0.0019691386
10	0xbce91cbc	-0.028456084
11	0xbc0f7cc0	-0.00875777
12	0xbc432b8c	-0.011912238
13	0xbcaaa74b	-0.020831725
14	0x3ca9dc20	0.020734847
15	0x3d045baa	0.03231398
16	0x3ce35e30	0.027754873
17	0x3d1dfa69	0.038568888
18	0xbc451ae4	-0.012030337
19	0xbc7806e9	-0.015138366
20	0xbc9e869e	-0.0193513
21	0xbcb5fdce	-0.02221575
22	0xbc69e5b0	-0.014275953
23	0xbc8adafd	-0.016950125
24	0x3ccda676	0.025103789
25	0x3c9991cd	0.018746281
26	0x3aa168a4	0.001231451
27	0x3b878d1d	0.004136695
28	0x3bd958b3	0.006632888
29	0xbad0d75a	-0.001593332
30	0xbb693d0b	-0.0035589363
31	0xbb598805	-0.0033192646
32	0x3c6a6f2c	0.014308732
33	0xbb000c3a	-0.0019538538
34	0xbc63615b	-0.013878192
35	0xbc3276f6	-0.01089262
36	0xbcc2e40c	-0.023790382
37	0x3acdb88a	0.0015695256
38	0xbc933888	-0.017971292
39	0x3b732e3c	0.0037106415
40	0xbc390368	-0.011292316
41	0x3be33617	0.0069339382
42	0xbc97974f	-0.018504767
43	0x3b8d5c89	0.0043140096
44	0x3c6efe01	0.014586926
45	0xbd175e0e	-0.036954932
46	0x3cca1173	0.024666524
47	0xbc2f6c48	-0.010706969
48	0x3d09c0aa	0.033631004
49	0xbb86e428	-0.004116554
50	0xbaad4002	-0.0013217928
51	0xbcad6590	-0.021166593
52	0xbc688890	-0.014192715
53	0x3ca03370	0.019555777
54	0x3b8ecf84	0.004358234
55	0x3d2aeadf	0.041727897
56	0x3d302b07	0.043009784
57	0x3bc7dfdc	0.006099684
58	0xb82bc3d6	-4.0951963e-05
59	0xbc9edfa4	-0.01939375
60	0xbb0a1036	-0.0021066791
61	0xbc354fcf	-0.011066391
62	0x3c74d6b4	0.014943767
63	0xbbacc45c	-0.0052724313
64	0x3c89bf02	0.016814712
65	0xbb0fb18a	-0.002192589
66	0x3c0b24b3	0.0084926365
67	0xbd1ef158	-0.038804382
68	0x3c891588	0.0167339
69	0xbc6bf51b	-0.014401699
70	0xbbdfa238	-0.006824758
71	0x3c571e64	0.013129804
72	0x3c5dae17	0.013530276
73	0x3bbdd016	0.005792628
74	0x3ccec868	0.025242046
75	0xbd2f6813	-0.042823862
76	0xbcadf7e0	-0.02123636
77	0x3c31a8cf	0.01084347
78	0xbcf155eb	-0.029459914
79	0x3c610e18	0.01373627
80	0xbbbe7a1c	-0.0058128964
81	0xbc4b54af	-0.012410327
82	0x3cd06559	0.025438951
83	0x3cef7676	0.029231291
84	0x3c8cb5e1	0.01717657
85	0x3ca9a694	0.020709313
86	0xba223484	-0.0006187635
87	0x3bfbd7ce	0.007685638
88	0xbc2f1fe4	-0.010688756
89	0xbd220bb8	-0.039561957
90	0x3babdd08	0.005244855
91	0x3bf89363	0.0075859292
92	0xbb691111	-0.003556315
93	0x3d034efd	0.03205775
94	0x3b42eca3	0.0029743097
95	0xbc8d6aa4	-0.017262764
96	0x3ca9a629	0.020709114
97	0x3b287c44	0.0025708834
98	0x3a4e5bfc	0.0007871983
99	0x3b675565	0.0035298702
100	0xbc23c539	-0.009995752
101	0xbcb422ea	-0.021989305
102	0xbcfa4cde	-0.030554231
103	0xbceaedd5	-0.02867786
104	0x3d359aba	0.044337012
105	0x3c474caf	0.012164279
106	0x3bc7282d	0.0060777874
107	0xbca8c4e6	-0.020601701
108	0x3ca7ec39	0.020498382
109	0x3ca6b2f9	0.020349013
110	0xbcafe33c	-0.021470658
111	0x3c7bab39	0.015360647
112	0xbcad60fa	-0.021164406
113	0xbc0237d1	-0.007947878
114	0x3c852a22	0.016255442
115	0xbc0f16f5	-0.008733501
116	0xbbc3f081	-0.005979598
117	0x3b9c2f0b	0.00476635
118	0xbc2008e9	-0.009767749
119	0xbc6b5c03	-0.014365199
120	0xbb96a5ba	-0.004597393
121	0xbcc1a033	-0.02363596
122	0x39f9db8c	0.00047656556
123	0x3c7f06f9	0.015565627
124	0xbcd4e9e3	-0.025990432
125	0x3ca229cc	0.01979532
126	0xbb951baf	-0.0045504193
127	0xbaff70f7	-0.0019488622
128	0x3c5d5986	0.013510114
129	0xbc220dce	-0.009890987
130	0x3b684c98	0.0035446044
131	0x3bf6913e	0.0075246384
132	0x3d390c48	0.045177728
133	0xbc6ef0c3	-0.014583769
134	0x3c3b55c6	0.011434024
135	0xbc8ceec0	-0.017203689
136	0x3ad640a2	0.0016346166
137	0xbae486fd	-0.0017435249
138	0x3be896d0	0.0070980564
139	0x3c06292e	0.008188529
140	0x3bbdba23	0.0057900115
141	0x3ca2f5ac	0.019892536
142	0xbc0705aa	-0.0082410965
143	0xbbcc50d0	-0.0062352195
144	0xbc30410e	-0.010757698
145	0xbc88783f	-0.0166589
146	0x3d0b3e6f	0.03399509
147	0x3ce07f7e	0.027404543
148	0xbc199438	-0.009373717
149	0xbb53b147	-0.003230171
150	0x3a8462ea	0.001010028
151	0x3bf41393	0.0074486225
152	0xbd3baff3	-0.045822095
153	0xbc83c86b	-0.016086778
154	0xbc4454fe	-0.011983154
155	0x3c424576	0.011857381
156	0x3d0b742b	0.034046333
157	0x3c96fc4c	0.018430851
158	0x3c40b82f	0.011762663
159	0x3cad3c5e	0.02114695
160	0x3be22c13	0.0069022267
161	0xbcc01db3	-0.023451662
162	0xbbfcb09c	-0.007711483
163	0x3c66cc11	0.014086739
164	0xbc37f6c3	-0.011228266
165	0xbd262a1b	-0.0405675
166	0x3c6e6a2b	0.01455168
167	0x3a49f9e0	0.0007704776
168	0xbcc5c082	-0.024139646
169	0xbc2a21ed	-0.010384065
170	0x3bdbb843	0.0067053153
171	0x3c01c006	0.007919317
172	0xbc2e247b	-0.010628815
173	0x38cd6998	9.79483e-05
174	0xb9fd91a9	-0.00048364446
175	0x3cf077a9	0.029353933
176	0x3cafae73	0.021445489
177	0xbca13295	-0.01967744
178	0x3ccd99f6	0.025097828
179	0xbc6edbef	-0.014578803
180	0xbcf19a27	-0.02949245
181	0xbaca8cae	-0.0015453303
182	0xbb624d29	-0.0034530854
183	0xbbeae7db	-0.0071687526
184	0x3cfe699a	0.031056214
185	0xbb6f168e	-0.003648195
186	0x3c69c6c1	0.014268578
187	0x3d0b3d98	0.033994287
188	0xbb5a7dcd	-0.0033339143
189	0x3d2deb27	0.042460587
190	0xbc985e68	-0.018599704
191	0xbacc78af	-0.0015599931
192	0xbbc38363	-0.0059665903
193	0xbb1c49e1	-0.0023847746
194	0x3c690ce7	0.014224268
195	0x3cebadc5	0.028769383
196	0xba78a204	-0.00094845914
197	0xbd0b8a34	-0.034067348
198	0xbbdb87c3	-0.0066995337
199	0x3b214164	0.0024605626
200	0x3ccddfd1	0.025131138
201	0x3d1982a7	0.037478115
202	0x3c162184	0.009163264
203	0xbbf223af	-0.0073895077
204	0xbc584bd2	-0.013201671
205	0xbd03d409	-0.032184634
206	0x3c6a03c1	0.014283122
207	0xbc307003	-0.010768893
208	0xbbe79f06	-0.0070685176
209	0x3c72b470	0.014813527
210	0xbc859d1d	-0.016310269
211	0xbc438f02	-0.011935951
212	0xbcbdc38d	-0.023164535
213	0xbc45638d	-0.012047661
214	0xbcd61dd0	-0.026137263
215	0x3d1118d2	0.03542406
216	0xbc311427	-0.010808027
217	0x3bb218e0	0.0054350942
218	0x3b7a5ff2	0.003820416
219	0xbb9d1124	-0.004793303
220	0xbc0727f2	-0.00824927
221	0x3cfc4207	0.030793203
222	0xbc1e3ee4	-0.009658549
223	0x3b8fe60b	0.004391437
224	0x3c190a89	0.009340891
225	0xbbd898e6	-0.006610024
226	0xbc06bba6	-0.00822345
227	0xbb8d70fa	-0.0043164464
228	0xbc8c6007	-0.017135633
229	0x3cc3cbbe	0.023900863
230	0xbc569677	-0.013097397
231	0x3c6462a3	0.013939532
232	0x3ccda0d7	0.025101108
233	0x3d4fee34	0.050764278
234	0x3d23a12a	0.03994862
235	0xbb6add88	-0.003583761
236	0xbca6abd1	-0.0203456
237	0xbc2e1c3f	-0.010626852
238	0x3c81e8ae	0.01585802
239	0x3cc861de	0.02446073
240	0x3bffc1b3	0.007805073
241	0x3c73b358	0.014874302
242	0xbbe0f703	-0.0068653836
243	0x3cb2a2bd	0.021806115
244	0x3d02fa0a	0.031976737
245	0xbbb13e7a	-0.005409059
246	0x3c0c6450	0.008568838
247	0xbb9f4aca	-0.0048612105
248	0x3c123450	0.008923605
249	0xbd049b2e	-0.032374553
250	0xbcecd38c	-0.028909467
251	0xbbd0a17b	-0.006366906
252	0x3ca1970a	0.019725341
253	0xbc052241	-0.008125843
254	0xbc217ae7	-0.009855962
255	0x3c40a7db	0.01175877

action_model._continuous_distribution.mu.bias f4 [2]
0	0xbad2263e	-0.0016033126
1	0xba90ba04	-0.0011041765

action_model._discrete_distribution.branches.0.weight f4 [1, 128]
0	0xbb804827	-0.003914851
1	0xba7b92b7	-0.00095967524
2	0x3afd0d98	0.0019306419
3	0x3c70d0b3	0.014698195
4	0x3b3931ae	0.0028258371
5	0xba76ff9d	-0.00094222446
6	0xbbb0f3d8	-0.005400162
7	0x39cd174f	0.00039118013
8	0xbbee0a13	-0.0072643845
9	0xbbac4f91	-0.0052585085
10	0x3bf500bd	0.0074768947
11	0xb809332f	-3.2711014e-05
12	0x3bbed277	0.005823429
13	0xbbaa3ad0	-0.0051949993
14	0x3c4a2cf3	0.012339818
15	0x3c505e82	0.012717845
16	0x3b9676f2	0.004591816
17	0xbbffaf02	-0.007802845
18	0xbbf8c0d2	-0.0075913453
19	0xb988a7a8	-0.00026064855
20	0xbc92a973	-0.017903065
21	0x3c2c7633	0.010526228
22	0xbc1e3f0b	-0.009658585
23	0xbb8140fd	-0.003944515
24	0x3ae7f973	0.0017698243
25	0xb9ed0620	-0.00045208726
26	0x3c73c8af	0.01487939
27	0xbc29db5b	-0.01036724
28	0x39d56b37	0.00040706407
29	0x3c190a95	0.009340902
30	0xbbd7ff4d	-0.0065917135
31	0x3a89ed57	0.0010523003
32	0xbc94f121	-0.018181385
33	0x39b34ba7	0.00034197906
34	0xbb09b96e	-0.0021015066
35	0xbba99228	-0.005174894
36	0x3bc69b93	0.0060610264
37	0x3bd67e30	0.0065458044
38	0x3c8129e3	0.015767043
39	0x3bb5aad2	0.005544045
40	0xb99bafb7	-0.00029694822
41	0xbba66117	-0.005077492
42	0xbb291d42	-0.0025804793
43	0xbc231c38	-0.009955458
44	0x3c69b98b	0.014265428
45	0x3c3ce049	0.011528083
46	0x3ba1afde	0.004934295
47	0x3a2e55d9	0.00066503655
48	0x3c3c95fa	0.011510367
49	0xbabdb178	-0.0014472445
50	0x3c0d1bd7	0.008612595
51	0xbb7fa5fa	-0.0039008842
52	0x3c1a3607	0.009412295
53	0x3ca26d8a	0.019827623
54	0xbc40c46d	-0.011765582
55	0x3a8055c7	0.0009791189
56	0x3c316527	0.010827339
57	0xbbec3fbd	-0.0072097466
58	0xb9d10a4f	-0.00039871267
59	0x3ace9e35	0.0015763702
60	0xbba76819	-0.005108845
61	0xb9c25c1b	-0.00037071187
62	0xbc59abaf	-0.013285561
63	0xbb86b453	-0.004110852
64	0xbbcbdd6d	-0.0062214644
65	0xbaca98ee	-0.0015456954
66	0xbbb95a51	-0.0056565185
67	0xbc194ac3	-0.0093562035
68	0xbc38f4cf	-0.011288836
69	0xbb93022c	-0.004486343
70	0x3c2f779e	0.010709671
71	0x3ada6b32	0.0016664027
72	0xbc0089a1	-0.007845313
73	0x3aa04bfa	0.0012229674
74	0xbb55ade3	-0.0032604865
75	0xbc9a536e	-0.01883861
76	0x3c24dddc	0.010062661
77	0xbc56aaa5	-0.013102208
78	0x3c3404aa	0.01098744
79	0xbc6174fd	-0.013760802
80	0x3c3a9665	0.011388396
81	0xbbbaf0df	-0.0057049836
82	0xbab929ff	-0.0014126896
83	0x3bd9e3d2	0.0066494728
84	0xbb028ead	-0.0019921467
85	0x3c2e5f77	0.010642878
86	0xbb14b80b	-0.0022692706
87	0x3b8f993f	0.004382282
88	0xbc0ab7df	-0.00846669
89	0x3b83017e	0.0039979806
90	0x3c8fa72f	0.017535774
91	0xbc15a7bf	-0.009134232
92	0x3be18e6d	0.0068834336
93	0x3bf55090	0.0074864104
94	0x3c13b6bc	0.009015735
95	0xbb1bbfc6	-0.002376543
96	0x3b8eec5e	0.0043616733
97	0x3bf5ac83	0.0074973716
98	0xbbc78a3f	-0.0060894783
99	0x3b82babf	0.003989547
100	0x3b97f0ef	0.004636876
101	0xbc07a73c	-0.008279618
102	0x39323c8c	0.00016997958
103	0x3bcb552d	0.006205222
104	0xbadb543f	-0.0016733481
105	0x3b6e1255	0.0036326845
106	0xbbf53b9b	-0.007483912
107	0xbc2a032e	-0.010376735
108	0x3c4e2018	0.012580894
109	0xbc188834	-0.009309817
110	0xbc4f4b52	-0.012652235
111	0x3c525be2	0.012839289
112	0x3c939f59	0.018020319
113	0x3afff963	0.0019529279
114	0xbb537fd5	-0.0032272239
115	0x3c403a11	0.011732594
116	0x3a83e2ef	0.0010062138
117	0x3bce86af	0.0063026766
118	0xbc35d8b9	-0.011099034
119	0xbc673135	-0.014110853
120	0xbb4a5274	-0.00308719
121	0xbca5284e	-0.02016082
122	0xbb7ccf7d	-0.003857582
123	0xbcd8ffbd	-0.026489133
124	0x3a8d286e	0.0010769495
125	0x3bd23acd	0.006415701
126	0x3c179754	0.009252388
127	0x3a4e9258	0.0007880083

exp_avg f4 [128, 1]
0	0x37fc8fdd	3.0107733e-05
1	0x39e7e556	0.00044230622
2	0xb49d33c5	-2.9281196e-07
3	0x37f19cc2	2.8802435e-05
4	0x375900fc	1.2934437e-05
5	0xb7388648	-1.0998519e-05
6	0xb81f66ce	-3.80043e-05
7	0xb2f47e9d	-2.8462916e-08
8	0xb9acd8a5	-0.0003296781
9	0xb863d141	-5.43159e-05
10	0xb977d03e	-0.00023633332
11	0x382a7203	4.063734e-05
12	0x373840e8	1.0982367e-05
13	0xb6d4737e	-6.3315374e-06
14	0xb49747de	-2.8178232e-07
15	0x388ee442	6.813604e-05
16	0xb37a1042	-5.8222447e-08
17	0xb6dc323e	-6.56236e-06
18	0xb55d7001	-8.24919e-07
19	0xba127d95	-0.0005588171
20	0xb7e830a5	-2.7679207e-05
21	0x3595537a	1.112566e-06
22	0xb90dde6a	-0.00013529664
23	0xb8b49b5b	-8.612006e-05
24	0x37ea333b	2.791883e-05
25	0x36ada008	5.174432e-06
26	0x347759c4	2.3036324e-07
27	0x381947e4	3.6544996e-05
28	0x33200f31	3.726672e-08
29	0xb9517739	-0.00019976207
30	0x36d995a0	6.4845226e-06
31	0x36035fd3	1.9576298e-06
32	0x370af498	8.28239e-06
33	0x35a8acba	1.2567245e-06
34	0x3458cdcb	2.0191435e-07
35	0x368ca0f7	4.191064e-06
36	0x368d053d	4.2027373e-06
37	0x39890e1e	0.00026141194
38	0x3867927f	5.5211127e-05
39	0xb312e93a	-3.4205392e-08
40	0x39832dba	0.00025020336
41	0x394edcde	0.0001972797
42	0x3502f259	4.8781436e-07
43	0xb40cb742	-1.3105185e-07
44	0xb72796f5	-9.989123e-06
45	0x38cfe801	9.913743e-05
46	0x3990de24	0.00027631328
47	0xb751d9ab	-1.25080505e-05
48	0x382901e7	4.029451e-05
49	0xb8d741c3	-0.00010264248
50	0x39753cef	0.0002338772
51	0x38c62f96	9.450239e-05
52	0xb4539aef	-1.9707271e-07
53	0xb63cfff8	-2.8163176e-06
54	0x37e87943	2.7713022e-05
55	0xb7174b76	-9.017871e-06
56	0x379bd2cd	1.8575602e-05
57	0xb78c4aac	-1.6724072e-05
58	0x380207c6	3.1001655e-05
59	0xb909c71b	-0.0001313951
60	0xb72b82f2	-1.0222882e-05
61	0x39a9a318	0.00032355706
62	0xb74b8fb1	-1.2133199e-05
63	0x32588436	1.2602916e-08
64	0x396a42f6	0.00022340924
65	0x38686bfc	5.541368e-05
66	0x3931035f	0.00016881291
67	0x36aa4e95	5.075543e-06
68	0x366b1200	3.5028206e-06
69	0xb72c0447	-1.0252995e-05
70	0x367e19c0	3.7863938e-06
71	0x38dc01c9	0.0001049075
72	0xb905a7b5	-0.00012746344
73	0xb5bfc7b0	-1.4288726e-06
74	0x39fa6e82	0.0004776605
75	0xb6c82344	-5.96457e-06
76	0x3806380e	3.2000295e-05
77	0x3a062e66	0.0005118608
78	0xb98c89f2	-0.00026805658
79	0xb91aea68	-0.00014773908
80	0x39a22fef	0.0003093476
81	0x341cdd15	1.4609061e-07
82	0x3779762f	1.4869073e-05
83	0x38669cec	5.4982418e-05
84	0x3507d160	5.05961e-07
85	0x32aa8b82	1.9854046e-08
86	0x38f188c3	0.000115172494
87	0xb84e1b62	-4.913973e-05
88	0xb62baf07	-2.5582865e-06
89	0x3523f517	6.1078885e-07
90	0x39c23c1c	0.00037047348
91	0xb790134e	-1.7175127e-05
92	0xb21e5938	-9.217096e-09
93	0xb8e2d499	-0.00010816119
94	0xb4cbfb6d	-3.7994633e-07
95	0xb28877c8	-1.5886954e-08
96	0x38c645f1	9.454403e-05
97	0xb6f0bb46	-7.174359e-06
98	0xb5d56576	-1.5899266e-06
99	0x37b6a2f9	2.177198e-05
100	0x3769167b	1.3893116e-05
101	0x38488b7e	4.7813628e-05
102	0x374b5440	1.2119359e-05
103	0x38319619	4.2339878e-05
104	0xb8b86c0e	-8.7939305e-05
105	0xb7112f17	-8.653637e-06
106	0x37a6a534	1.986567e-05
107	0x39a386d7	0.00031190246
108	0xba02b168	-0.0004985542
109	0x34a9430e	3.1527492e-07
110	0x3780fec6	1.5377427e-05
111	0xb9050353	-0.00012685107
112	0x341e70e4	1.4755966e-07
113	0xb83ce9b1	-4.5040335e-05
114	0x394c641b	0.00019492248
115	0xb4216003	-1.5029222e-07
116	0x38ddaa9f	0.00010569882
117	0xb93e85cf	-0.0001816966
118	0x36f8dd79	7.4167588e-06
119	0x353eccaa	7.107834e-07
120	0x3997e7a6	0.00028973556
121	0x38a5404e	7.879791e-05
122	0x3587ca95	1.0117243e-06
123	0xb955722c	-0.00020355795
124	0xb84cac66	-4.879795e-05
125	0x38fbfe0c	0.000120159326
126	0xb9754392	-0.00023390193
127	0xb7017f18	-7.7185905e-06

exp_avg_sq f4 [128, 1]
0	0x30f38c50	1.7720456e-09
1	0x350c18ad	5.218997e-07
2	0x2e1a43ce	3.507577e-11
3	0x30f27651	1.7641445e-09
4	0x3067d90e	8.4345764e-10
5	0x31313726	2.5788238e-09
6	0x316ef248	3.477128e-09
7	0x299c335c	6.936701e-14
8	0x350cadf4	5.24072e-07
9	0x33c003ec	8.94141e-08
10	0x355e4475	8.280106e-07
11	0x3167afe6	3.371491e-09
12	0x2fac8ad0	3.138525e-10
13	0x3505a838	4.979115e-07
14	0x2a546f3d	1.8867976e-13
15	0x3338e928	4.3052893e-08
16	0x296db6c4	5.2783095e-14
17	0x2ee9a121	1.06242355e-10
18	0x2d78ebf3	1.4149559e-11
19	0x3576f0e3	9.199268e-07
20	0x3100c54a	1.8738597e-09
21	0x2d0b9c7f	7.935984e-12
22	0x3406edec	1.2566278e-07
23	0x33aa52e3	7.931319e-08
24	0x30fdcebe	1.8466932e-09
25	0x2ee6b9b2	1.0492175e-10
26	0x2cefc49b	6.814616e-12
27	0x34debc0a	4.148754e-07
28	0x28e6d9ac	2.562953e-14
29	0x34eceda7	4.413134e-07
30	0x2f7e1db3	2.3111717e-10
31	0x2e04a2b5	3.0157838e-11
32	0x30755f32	8.926576e-10
33	0x34dcc742	4.1123172e-07
34	0x2cc9becf	5.7339476e-12
35	0x315207af	3.056339e-09
36	0x2f28d194	1.5353968e-10
37	0x345e5c66	2.0708976e-07
38	0x3219bca4	8.948664e-09
39	0x2e4326bf	4.437228e-11
40	0x33fcb471	1.17674865e-07
41	0x33c99cc4	9.3883074e-08
42	0x2acd99f4	3.6522142e-13
43	0x2ad1860b	3.721887e-13
44	0x2ef04d30	1.0927648e-10
45	0x33a76745	7.795328e-08
46	0x3431dc04	1.6564451e-07
47	0x31a350cf	4.7531112e-09
48	0x3276003c	1.4319138e-08
49	0x34a3be95	3.0499783e-07
50	0x33f7f57b	1.15464864e-07
51	0x3591923c	1.0845902e-06
52	0x2b4a993e	7.197748e-13
53	0x2de25d7d	2.5734742e-11
54	0x322bfcf7	1.0011028e-08
55	0x2f5b29e1	1.9932812e-10
56	0x33f02ead	1.1184361e-07
57	0x30b02081	1.2814924e-09
58	0x332c1727	4.0067928e-08
59	0x33ed00e6	1.1036336e-07
60	0x307604d0	8.950112e-10
61	0x3586c92d	1.0042328e-06
62	0x34aaf18d	3.184072e-07
63	0x28a057a9	1.7801585e-14
64	0x343d8078	1.7648733e-07
65	0x31ecc94f	6.89139e-09
66	0x34cb7b44	3.7901384e-07
67	0x2fd496ed	3.8669815e-10
68	0x34a7fb89	3.128919e-07
69	0x30481de0	7.280203e-10
70	0x31ffc0ca	7.4433943e-09
71	0x32bfb7be	2.2318883e-08
72	0x331d76ff	3.6662637e-08
73	0x2cefc4a2	6.814619e-12
74	0x3506c79c	5.020936e-07
75	0x2f0c0d65	1.2737685e-10
76	0x34008e58	1.1972713e-07
77	0x3531ea49	6.627857e-07
78	0x349434e9	2.7605645e-07
79	0x340e6414	1.3261189e-07
80	0x350339ac	4.8885227e-07
81	0x2926896d	3.6978602e-14
82	0x355ea46d	8.2940716e-07
83	0x31ce2666	5.9997545e-09
84	0x2c87e056	3.861837e-12
85	0x293c20f2	4.177296e-14
86	0x344d3c9f	1.9114167e-07
87	0x33f94d85	1.1609067e-07
88	0x2e318efa	4.037213e-11
89	0x2b76ae44	8.76386e-13
90	0x34a3214b	3.038534e-07
91	0x30705d89	8.7444413e-10
92	0x26003150	4.447575e-16
93	0x3388997b	6.3609114e-08
94	0x2cd5b4ac	6.0738827e-12
95	0x27d18478	5.8152776e-15
96	0x34028ba5	1.2157996e-07
97	0x2f52192d	1.9108333e-10
98	0x2d106a3f	8.209044e-12
99	0x30b4314e	1.3110737e-09
100	0x2fd16004	3.8085102e-10
101	0x35a118f2	1.2002695e-06
102	0x320b8163	8.120284e-09
103	0x3390efee	6.7491655e-08
104	0x342560fb	1.5402104e-07
105	0x2f4a96f6	1.8425425e-10
106	0x3402cf26	1.2182554e-07
107	0x349e0223	2.9431348e-07
108	0x35326a04	6.646444e-07
109	0x2c213fd4	2.2914908e-12
110	0x30f303cb	1.7681655e-09
111	0x349a4eb5	2.8742002e-07
112	0x2cb038c0	5.0085214e-12
113	0x3229035d	9.837859e-09
114	0x34106332	1.3447132e-07
115	0x2fdc4d46	4.0072673e-10
116	0x34b49262	3.363412e-07
117	0x3407b182	1.2637432e-07
118	0x2eeec6b1	1.08582816e-10
119	0x2c993b3a	4.355097e-12
120	0x348e7ba6	2.6539527e-07
121	0x35a27753	1.2104668e-06
122	0x2cd5f38a	6.0808624e-12
123	0x3552cc4b	7.852838e-07
124	0x32fd94e7	2.952079e-08
125	0x333e0bc6	4.424853e-08
126	0x34118be0	1.3555064e-07
127	0x3174bf4b	3.561541e-09

exp_avg f4 [128]
0	0x36ca0cb0	6.021546e-06
1	0x38b98445	8.8461245e-05
2	0xb37b8631	-5.8562538e-08
3	0x36c14a35	5.760487e-06
4	0x362d9a66	2.586888e-06
5	0xb6139ea0	-2.1997039e-06
6	0xb6ff0adf	-7.6008578e-06
7	0xb1c39881	-5.6925846e-09
8	0xb88a46ec	-6.593563e-05
9	0xb7364102	-1.0863181e-05
10	0xb8464030	-4.7266658e-05
11	0x37085b38	8.12747e-06
12	0x3613671f	2.1964731e-06
13	0xb5a9f5de	-1.2663038e-06
14	0xb3720c99	-5.6356473e-08
15	0x3764a069	1.3627207e-05
16	0xb2480d00	-1.1644488e-08
17	0xb5b02831	-1.3124719e-06
18	0xb4312668	-1.6498382e-07
19	0xb8ea6286	-0.00011176341
20	0xb6b9c083	-5.535841e-06
21	0x346eebf7	2.2251321e-07
22	0xb7e2fd7b	-2.7059335e-05
23	0xb7907c48	-1.722401e-05
24	0x36bb5c2f	5.583766e-06
25	0x358ae66c	1.0348863e-06
26	0x3345e161	4.6072618e-08
27	0x36f53fcb	7.3089955e-06
28	0x32000c24	7.453341e-09
29	0xb8279294	-3.9952414e-05
30	0x35ae114f	1.2969048e-06
31	0x34d232e9	3.915259e-07
32	0x35de5427	1.656478e-06
33	0x3486f08c	2.5134466e-07
34	0x332d716f	4.038287e-08
35	0x35610192	8.3821317e-07
36	0x3561a1fe	8.405476e-07
37	0x385b49ca	5.228239e-05
38	0x373941ff	1.1042225e-05
39	0xb1eb0f76	-6.841158e-09
40	0x3851e2c4	5.0040675e-05
41	0x38257d7d	3.9455936e-05
42	0x33d183c2	9.7562875e-08
43	0xb2e12535	-2.6210367e-08
44	0xb606125d	-1.9978245e-06
45	0x37a65333	1.9827485e-05
46	0x3867c9d8	5.5262673e-05
47	0xb627e151	-2.501609e-06
48	0x370734b9	8.0589025e-06
49	0xb7ac34a0	-2.0528503e-05
50	0x384430bd	4.6775433e-05
51	0x379e8c86	1.8900504e-05
52	0xb32948bb	-3.9414527e-08
53	0xb517332e	-5.632636e-07
54	0x36b9fa9b	5.542604e-06
55	0xb5f2125b	-1.8035747e-06
56	0x3679514b	3.715121e-06
57	0xb6607778	-3.344814e-06
58	0x36d00c72	6.200332e-06
59	0xb7dc71c3	-2.6279018e-05
60	0xb6093590	-2.0445768e-06
61	0x3887b5af	6.471143e-05
62	0xb622d96a	-2.4266433e-06
63	0x312d369c	2.5205855e-09
64	0x383b68c8	4.468186e-05
65	0x3739efff	1.1082738e-05
66	0x380d9c4b	3.376258e-05
67	0x35883edb	1.0151083e-06
68	0x353c0e83	7.0056575e-07
69	0xb6099d05	-2.0505988e-06
70	0x354b47c6	7.5727837e-07
71	0x37b0016e	2.09815e-05
72	0xb7d5d923	-2.549269e-05
73	0xb4996c8c	-2.857745e-07
74	0x38c8586b	9.553212e-05
75	0xb5a01c39	-1.1929143e-06
76	0x36d6c00a	6.4000533e-06
77	0x38d6b0a5	0.00010237218
78	0xb860dcb6	-5.3611315e-05
79	0xb7f7dd74	-2.9547817e-05
80	0x3881bff2	6.186952e-05
81	0x32fafb51	2.9218116e-08
82	0x36479202	2.9738299e-06
83	0x37387d89	1.0996483e-05
84	0x33d94f03	1.0119222e-07
85	0x31886f9b	3.970809e-09
86	0x37c13a33	2.3034494e-05
87	0xb724e2b8	-9.827949e-06
88	0xb50958d1	-5.116572e-07
89	0x34032a7a	1.2215779e-07
90	0x389b634a	7.40947e-05
91	0xb666854c	-3.435026e-06
92	0xb0fd5b90	-1.8434196e-09
93	0xb7b576df	-2.1632235e-05
94	0xb3a32f8d	-7.5989284e-08
95	0xb15a593d	-3.1773901e-09
96	0x379e9e59	1.8908804e-05
97	0xb5c095cf	-1.4348715e-06
98	0xb4aab793	-3.1798535e-07
99	0x36921bfa	4.354396e-06
100	0x363a7860	2.7786227e-06
101	0x37206f9c	9.562729e-06
102	0x3622a9d0	2.4238725e-06
103	0x370e11a7	8.46797e-06
104	0xb79389a1	-1.7587854e-05
105	0xb5e84b58	-1.7307275e-06
106	0x368550ed	3.97313e-06
107	0x3882d243	6.238047e-05
108	0xb8d11bd9	-9.971084e-05
109	0x338768d7	6.3054976e-08
110	0x364e6471	3.0754857e-06
111	0xb7d4d225	-2.5370226e-05
112	0x32fd8168	2.9511924e-08
113	0xb717215e	-9.00807e-06
114	0x38238346	3.8984486e-05
115	0xb30119e2	-3.0058693e-08
116	0x37b15553	2.1139776e-05
117	0xb8186b0b	-3.6339316e-05
118	0x35c71793	1.4833516e-06
119	0x3418a3b9	1.4215665e-07
120	0x38730c3d	5.7947113e-05
121	0x3784336a	1.5759568e-05
122	0x34594420	2.0234484e-07
123	0xb82ac1c1	-4.0711606e-05
124	0xb723bd1e	-9.759589e-06
125	0x37c9980a	2.4031866e-05
126	0xb844360f	-4.6780387e-05
127	0xb5cf31be	-1.5437179e-06

exp_avg_sq f4 [128]
0	0x2e9bdeed	7.0881835e-11
1	0x32b352ce	2.0875998e-08
2	0x2bc57589	1.4030314e-12
3	0x2e9b2cfb	7.056574e-11
4	0x2e1461f4	3.3738304e-11
5	0x2ee2d5f0	1.0315293e-10
6	0x2f18ecf9	1.3908509e-10
7	0x2747efd6	2.7746813e-15
8	0x32b411e2	2.096289e-08
9	0x3175c79a	3.5765653e-09
10	0x330e4048	3.3120415e-08
11	0x2f14479c	1.3485962e-10
12	0x2d5cdaa6	1.2554102e-11
13	0x32ab14c0	1.9916456e-08
14	0x2807f547	7.5471915e-15
15	0x30ecaf8d	1.7221155e-09
16	0x2718230d	2.1113239e-15
17	0x2c9585d6	4.2496935e-12
18	0x2b1f4f57	5.6598254e-13
19	0x331e0ace	3.679707e-08
20	0x2ea4d392	7.495439e-11
21	0x2ab2b3d5	3.1743935e-13
22	0x31acb5a8	5.0265108e-09
23	0x315a03ae	3.1725267e-09
24	0x2ea26fd6	7.386773e-11
25	0x2c93aa0d	4.1968707e-12
26	0x2a99739a	2.7258474e-13
27	0x328e8cd1	1.6595012e-08
28	0x2693be81	1.025181e-15
29	0x3297a253	1.765253e-08
30	0x2d22a25b	9.244684e-12
31	0x2ba9c606	1.2063135e-12
32	0x2e1d09bd	3.5706316e-11
33	0x328d4c53	1.6449269e-08
34	0x2a811df3	2.2935785e-13
35	0x2f066b51	1.2225355e-10
36	0x2cd81681	6.1415877e-12
37	0x320e4fa2	8.283594e-09
38	0x2fc4c882	3.5794662e-10
39	0x2bf9cb39	1.774892e-12
40	0x31a1bb2a	4.706995e-09
41	0x3181082c	3.755323e-09
42	0x288395c0	1.4608865e-14
43	0x28861857	1.4887544e-14
44	0x2c99cb01	4.3710595e-12
45	0x315646ba	3.1181302e-09
46	0x31e3a8ff	6.625782e-09
47	0x2f510b49	1.9012449e-10
48	0x301d70cd	5.7276567e-10
49	0x325197cc	1.2199916e-08
50	0x319eb198	4.6185953e-09
51	0x333a54d0	4.3383636e-08
52	0x2901a9c4	2.8791002e-14
53	0x2b90dfac	1.0293897e-12
54	0x2fdc2514	4.0044112e-10
55	0x2d0c43c6	7.973127e-12
56	0x3199b77b	4.4737454e-09
57	0x2e61714d	5.125971e-11
58	0x30dc469a	1.6027173e-09
59	0x3197aeaf	4.4145376e-09
60	0x2e1d73b8	3.5800446e-11
61	0x332c869d	4.01693e-08
62	0x325aced1	1.2736295e-08
63	0x264d3cfc	7.120631e-16
64	0x31f28ff0	7.0594908e-09
65	0x2f978b16	2.7565566e-10
66	0x32823a6a	1.5160555e-08
67	0x2d880eaa	1.5467922e-11
68	0x32570488	1.2515677e-08
69	0x2e001320	2.9120817e-11
70	0x2fa3ae8d	2.9773553e-10
71	0x3075660b	8.927549e-10
72	0x30c98e14	1.4665056e-09
73	0x2a99739a	2.7258474e-13
74	0x32ac849c	2.008374e-08
75	0x2cb34450	5.09507e-12
76	0x31a48d3e	4.7890856e-09
77	0x32e3bb45	2.6511438e-08
78	0x323db456	1.1042252e-08
79	0x31b642aa	5.304476e-09
80	0x32a7f7e5	1.9554088e-08
81	0x26d52acc	1.4791444e-15
82	0x330e7db4	3.3176278e-08
83	0x2f83ef9d	2.3999017e-10
84	0x2a2debee	1.5447341e-13
85	0x26f0ce08	1.670919e-15
86	0x320359fe	7.645665e-09
87	0x319f8dc7	4.6436273e-09
88	0x2be34662	1.6148855e-12
89	0x291de02a	3.5055434e-14
90	0x3250ce7b	1.2154142e-08
91	0x2e19d575	3.497776e-11
92	0x23a41625	1.7790294e-17
93	0x312ed8f0	2.5443647e-09
94	0x2a88c590	2.429554e-13
95	0x25861750	2.3261092e-16
96	0x31a71921	4.8631965e-09
97	0x2d06767f	7.6433295e-12
98	0x2ab8d9ea	3.2836174e-13
99	0x2e66a583	5.244295e-11
100	0x2d85fffc	1.523403e-11
101	0x334e3467	4.8010772e-08
102	0x2fb2911b	3.2481115e-10
103	0x31398503	2.6996652e-09
104	0x31d3af5b	6.160844e-09
105	0x2d01a848	7.370167e-12
106	0x31a76f89	4.8730198e-09
107	0x324a402d	1.1772539e-08
108	0x32e45ec5	2.658579e-08
109	0x29ce662d	9.1659624e-14
110	0x2e9b878f	7.072664e-11
111	0x32458374	1.1496798e-08
112	0x2a619058	2.0034094e-13
113	0x2fd8563c	3.9351444e-10
114	0x31b8d0e2	5.378852e-09
115	0x2d8cfe44	1.6029074e-11
116	0x326721c9	1.34536515e-08
117	0x31adb005	5.0549738e-09
118	0x2c98d115	4.3433126e-12
119	0x2a4422d8	1.7420386e-13
120	0x323660d2	1.0615809e-08
121	0x334ff4e9	4.8418688e-08
122	0x2a88edc7	2.4323444e-13
123	0x3306e921	3.1411336e-08
124	0x30a24ad8	1.1808323e-09
125	0x30f34241	1.7699407e-09
126	0x31ba4ca2	5.4220246e-09
127	0x2f1ca364	1.4246165e-10

exp_avg f4 [128, 128]
0	0xb5e9a7cb	-1.7408687e-06
1	0x380f2186	3.4125078e-05
2	0xb6045589	-1.971932e-06
3	0xb4c4db11	-3.6667237e-07
4	0xb603ba77	-1.9629058e-06
5	0xb5a9e357	-1.2657646e-06
6	0xb5ed6f5d	-1.7690287e-06
7	0xb1db8e72	-6.389933e-09
8	0x37609a27	1.3387332e-05
9	0xb4732735	-2.2645402e-07
10	0x37ae33cb	2.0766534e-05
11	0xb567af03	-8.630888e-07
12	0xb477db7f	-2.308352e-07
13	0x3741edda	1.1559076e-05
14	0xb1aef4a5	-5.0918794e-09
15	0x38361216	4.3409025e-05
16	0xb1813569	-3.760466e-09
17	0xb3ef7b98	-1.1151786e-07
18	0xb41dfa4a	-1.4712819e-07
19	0x37c73a84	2.3749897e-05
20	0xb5be0a9c	-1.4159191e-06
21	0xb35e7763	-5.1796984e-08
22	0xb3a2218a	-7.5498136e-08
23	0xb59a1a99	-1.1481635e-06
24	0xb5cde8d8	-1.5341457e-06
25	0xb6042b3a	-1.9694694e-06
26	0xb380e1e4	-6.001554e-08
27	0x35face06	1.8686412e-06
28	0xb151ca68	-3.0528557e-09
29	0x38a30d8b	7.774968e-05
30	0xb6031def	-1.9537945e-06
31	0xb5a815fb	-1.2523373e-06
32	0xb4bebccd	-3.5527628e-07
33	0x388a54c2	6.59614e-05
34	0xb604ad87	-1.977054e-06
35	0xb5e9a000	-1.7406419e-06
36	0xb3f04277	-1.1187961e-07
37	0x3892ece7	7.005949e-05
38	0xb57af6f2	-9.349161e-07
39	0xb3e0e151	-1.0471798e-07
40	0x357316f9	9.0557984e-07
41	0x38016cc5	3.0857296e-05
42	0xb604ae44	-1.9770969e-06
43	0xb1b843ed	-5.362827e-09
44	0xb5c897f5	-1.4945387e-06
45	0x33b71793	8.52589e-08
46	0x380d972f	3.375782e-05
47	0xb5c68321	-1.4790313e-06
48	0xb5b44706	-1.3431716e-06
49	0x381ed0bc	3.7864535e-05
50	0x37ecf3b2	2.8246872e-05
51	0x378c4e2b	1.67257e-05
52	0xb1d4222c	-6.173897e-09
53	0xb3bef4ce	-8.892094e-08
54	0xb59fdf1b	-1.1911355e-06
55	0xb42f8ec1	-1.6350079e-07
56	0x380566da	3.180546e-05
57	0xb4dd5fbc	-4.1234114e-07
58	0xb5abdf0e	-1.280541e-06
59	0x38a176bb	7.6991935e-05
60	0xb50193b0	-4.827116e-07
61	0x3847b65f	4.7615144e-05
62	0x3805da81	3.191317e-05
63	0xb1ef00d5	-6.95591e-09
64	0x3850d038	4.9784983e-05
65	0x356ec5ff	8.895003e-07
66	0x388e678e	6.790376e-05
67	0xb51f9484	-5.9448234e-07
68	0xb41b9bee	-1.4492227e-07
69	0xb5c8f741	-1.4973122e-06
70	0xb56631f2	-8.5754357e-07
71	0x3888900e	6.5118176e-05
72	0xb3124c91	-3.406291e-08
73	0xb346e400	-4.6307832e-08
74	0x37d00c8d	2.4801377e-05
75	0xb4b24f5e	-3.321283e-07
76	0x3742d7d5	1.1613553e-05
77	0x37345bb6	1.0750189e-05
78	0x37434a53	1.1640211e-05
79	0x37ba7e3a	2.2231707e-05
80	0x3819ed69	3.6699148e-05
81	0xb1c09ca9	-5.6057456e-09
82	0x37b37375	2.1392227e-05
83	0x34ffe893	4.766667e-07
84	0xb29c43fa	-1.8191702e-08
85	0xb13b8fc6	-2.7293807e-09
86	0x3752418b	1.2532236e-05
87	0xb5c7cfac	-1.4887096e-06
88	0xb6012688	-1.9244926e-06
89	0xb2d6c290	-2.5001356e-08
90	0x37ec18d2	2.814495e-05
91	0xb5839b61	-9.805482e-07
92	0xafcaa353	-3.6859635e-10
93	0xb53cbf81	-7.031413e-07
94	0xb2f87956	-2.8926177e-08
95	0xb0d5d7f9	-1.5559173e-09
96	0x33f9378c	1.160507e-07
97	0xb47832e7	-2.3115318e-07
98	0xb3880df2	-6.33553e-08
99	0xb5dee0b7	-1.660569e-06
100	0xb5f78774	-1.8442356e-06
101	0x37c03304	2.291194e-05
102	0xb51d5385	-5.8608595e-07
103	0xb49409b2	-2.7574202e-07
104	0x37b5cfc5	2.1673632e-05
105	0xb4aaa88e	-3.1787607e-07
106	0x3656272e	3.191129e-06
107	0x378233f8	1.5521407e-05
108	0x37ce0590	2.4559704e-05
109	0xb3032335	-3.0532835e-08
110	0xb524e268	-6.1424225e-07
111	0x338129f0	6.014659e-08
112	0xb30eaeb2	-3.3220836e-08
113	0xb54a06c8	-7.526073e-07
114	0x38b24cc8	8.502003e-05
115	0xb510f7ce	-5.4004784e-07
116	0x381a8e6d	3.6849106e-05
117	0x389bf56e	7.436691e-05
118	0xb413fc6b	-1.3782271e-07
119	0xb31a659e	-3.594834e-08
120	0x382a7880	4.0643383e-05
121	0x384a08cb	4.8168742e-05
122	0xb331df1c	-4.141394e-08
123	0x370548b6	7.944347e-06
124	0xb59604bb	-1.1177248e-06
125	0x352b0800	6.3714106e-07
126	0x36c62e4f	5.906251e-06
127	0xb5e31bb4	-1.6920881e-06
128	0xb34f2ce1	-4.823676e-08
129	0x357dcd87	9.4548926e-07
130	0xb36a97be	-5.462038e-08
131	0xb22e7f9e	-1.015715e-08
132	0xb3698750	-5.4372606e-08
133	0xb315df01	-3.4894587e-08
134	0xb35270e6	-4.8997116e-08
135	0xaf41f376	-1.7639742e-10
136	0x34c6aff7	3.7008405e-07
137	0xb1e2db8d	-6.6024257e-09
138	0x351a8b98	5.7572606e-07
139	0xb2cd7765	-2.3919435e-08
140	0xb1dc0c5c	-6.404248e-09
141	0x34ac3b6b	3.208073e-07
142	0xaf1acb47	-1.4078437e-10
143	0x35a145f6	1.2015796e-06
144	0xaee44ced	-1.03819044e-10
145	0xb1545c53	-3.090254e-09
146	0xb18c6d99	-4.086996e-09
147	0x35309ff8	6.5797894e-07
148	0xb3284b42	-3.9183995e-08
149	0xb0c5b913	-1.4386238e-09
150	0xb0fca6b2	-1.8382791e-09
151	0xb309734b	-3.2002657e-08
152	0xb3366dad	-4.2474927e-08
153	0xb36a364c	-5.4531753e-08
154	0xb0e3c130	-1.6571331e-09
155	0x335c3934	5.1274768e-08
156	0xaeb977df	-8.4341194e-11
157	0x36108929	2.153751e-06
158	0xb36875e4	-5.412393e-08
159	0xb314c406	-3.4637218e-08
160	0xb2297961	-9.864693e-09
161	0x35f54470	1.827384e-06
162	0xb36b2a63	-5.475375e-08
163	0xb34ecc50	-4.8148934e-08
164	0xb15471e7	-3.0914806e-09
165	0x36023dc3	1.940746e-06
166	0xb2def206	-2.5954261e-08
167	0xb146af12	-2.8912308e-09
168	0x32d829bb	2.5164686e-08
169	0x35656462	8.5455224e-07
170	0xb36b2a9f	-5.4753965e-08
171	0xaf23c060	-1.4893109e-10
172	0xb331b9aa	-4.1379884e-08
173	0x310f5094	2.0855042e-09
174	0x357aee88	9.3479366e-07
175	0xb3302e23	-4.1020154e-08
176	0xb32055ad	-3.7330825e-08
177	0x358cd1c9	1.0491868e-06
178	0x35520f25	7.8253134e-07
179	0x34f91645	4.6396067e-07
180	0xaf3c7fd0	-1.7143909e-10
181	0xb12961dc	-2.4648363e-09
182	0xb30e5000	-3.313471e-08
183	0xb19ba168	-4.5294435e-09
184	0x356ca136	8.8151444e-07
185	0xb243b8fd	-1.1392555e-08
186	0xb31910f7	-3.5638518e-08
187	0x360f0bcc	2.1315527e-06
188	0xb2651719	-1.3334806e-08
189	0x35b0e9ed	1.3181103e-06
190	0x356d0e9e	8.831065e-07
191	0xaf544dd8	-1.9308943e-10
192	0x35b91e02	1.3792308e-06
193	0x32d27ac0	2.4503038e-08
194	0x35fc7bcb	1.8811492e-06
195	0xb28dc201	-1.6502783e-08
196	0xb195372f	-4.3427444e-09
197	0xb331d646	-4.1405904e-08
198	0xb2cb89de	-2.3695005e-08
199	0x35f20c0f	1.8033915e-06
200	0xb08396ba	-9.574344e-10
201	0xb0b077cb	-1.2839733e-09
202	0x35387311	6.8712785e-07
203	0xb21dba53	-9.180968e-09
204	0x34ad10c4	3.223596e-07
205	0x349fb9a0	2.9751118e-07
206	0x34acc249	3.2178858e-07
207	0x352567db	6.161842e-07
208	0x35885955	1.0158789e-06
209	0xaf2ae9e7	-1.5544509e-10
210	0x351ed340	5.9166996e-07
211	0x32627f4f	1.3183878e-08
212	0xb00a17d4	-5.023797e-10
213	0xaea5c642	-7.538549e-11
214	0x34baa6b6	3.4766498e-07
215	0xb331bc0f	-4.1382062e-08
216	0xb364bcff	-5.3257278e-08
217	0xb03e7507	-6.9287903e-10
218	0x35515421	7.798099e-07
219	0xb2e8ded0	-2.7109678e-08
220	0xad33d22e	-1.0221641e-11
221	0xb2a9607f	-1.971807e-08
222	0xb05cd2a6	-8.0334883e-10
223	0xae3cf1a6	-4.2960878e-11
224	0x3147ede9	2.9093548e-09
225	0xb1dc33a0	-6.408712e-09
226	0xb0f13e66	-1.7552793e-09
227	0xb34590be	-4.599928e-08
228	0xb35b6181	-5.107859e-08
229	0x352a86b0	6.352593e-07
230	0xb28bc442	-1.6270977e-08
231	0xb1fae301	-7.301765e-09
232	0x35214995	6.008425e-07
233	0xb2173e0d	-8.8034655e-09
234	0x33bc8b15	8.779731e-08
235	0x34e6aed3	4.296804e-07
236	0x35369f59	6.8032165e-07
237	0xb06920a1	-8.4811275e-10
238	0xb2927879	-1.7051422e-08
239	0x3106c6d9	1.9612598e-09
240	0xb07db073	-9.2291613e-10
241	0xb2b346db	-2.0870564e-08
242	0x361e0b69	2.3550476e-06
243	0xb28029be	-1.4920143e-08
244	0x3588e1a1	1.0198456e-06
245	0x360a3880	2.059649e-06
246	0xb1833da7	-3.819611e-09
247	0xb08927e1	-9.979396e-10
248	0x359705a1	1.1252015e-06
249	0x35b2f3f9	1.3333039e-06
250	0xb09d4689	-1.1443301e-09
251	0x346ce708	2.2063261e-07
252	0xb304207b	-3.0763186e-08
253	0x3299b8e4	1.7895623e-08
254	0x342f3e54	1.632082e-07
255	0xb3498343	-4.691834e-08
