results/RollerAgents/RollerAgent/RollerAgent-9600.pt (torch, 146174 bytes, 13 tensors)

network_body._body_endoder.seq_layers.0.weight f4 [128, 1]
-0.25181264 -1.5143949 1.1195083 0.038063012 0.7850043 -0.6123977 0.5050193 -0.38669592
-0.008887803 0.031836845 -0.019092135 -1.2009777 0.5916769 -0.7836179 -0.13744952 -1.4317371
-0.6584289 -1.1099733 0.56619793 1.0448036 0.86776316 -0.45220053 0.4269123 0.81362474
0.4619451 -0.87214875 0.8931293 2.1068606 0.963259 -0.2421105 -2.5048347 -1.3811222
1.212705 -2.3064196 -0.51426923 -0.9180291 -0.73923534 -0.14385699 0.64718 0.39420596
0.5560772 -0.35958064 -0.03485119 0.83708525 2.0152576 0.762772 -0.018899353 0.12210178
1.1226983 0.280296 0.6345424 -0.27411586 1.0329455 -0.04771104 -0.12610956 -0.18395784
1.0702069 -0.08991631 -0.5330587 0.02134597 -0.04725708 1.7223595 0.4745678 -0.39019763
-1.0579104 0.87589 -0.79920095 0.45499638 -1.3804699 -0.18880814 -0.27356187 -1.4837445
0.854386 0.105161496 -2.005089 -0.092613295 0.08516727 -0.25699836 0.54732746 -0.7315988
0.3672122 0.7311501 0.7285718 1.2859049 1.115808 -0.63062114 0.105502136 -1.7913505
-0.5176722 -0.69166386 -0.608966 0.42060903 -0.13697612 0.5270774 1.9733505 0.43011096
-0.521379 0.51232785 -0.4534037 0.081848666 -0.038912654 -1.0615183 -2.0973916 -1.0597575
0.027977759 -0.16511707 -2.568914 -0.106218465 -0.466468 -1.5179572 0.46693033 2.4973516
-1.1884588 -1.5760612 -1.233767 1.0972718 -0.12178027 -0.1189179 -0.514099 -0.599076
-0.8333053 0.10214232 0.27245817 0.685849 0.0046076383 -0.3202462 0.97596323 0.03455726
00000000: 96ed 80be b1d7 c1bf 0c4c 8f3f f6e7 1b3d
00000010: 0bf6 483f 18c6 1cbf f248 013f 02fd c5be
00000020: 269e 11bc 5a67 023d 1c67 9cbc a3b9 99bf
00000030: 2378 173f 2f9b 48bf 91bf 0cbe 2943 b7bf
00000040: cc8e 28bf 9b13 8ebf 59f2 103f 20bc 853f
00000050: ba25 5e3f d486 e7be 4094 da3e b649 503f
00000060: 1184 ec3e 2445 5fbf 1fa4 643f ced6 0640
00000070: 2498 763f d1eb 77be 364f 20c0 9dc8 b0bf
00000080: eb39 9b3f 619c 13c0 26a7 03bf f503 6bbf
00000090: 873e 3dbf 3f4f 13be 97ad 253f 5dd5 c93e
000000a0: 135b 0e3f f41a b8be 1fc0 0ebd 384b 563f
000000b0: fbf9 0040 0745 433f d1d2 9abc 7f10 fa3d
000000c0: 94b4 8f3f f582 8f3e 5f71 223f ea58 8cbe
000000d0: 8f37 843f a76c 43bd dd22 01be 725f 3cbe
000000e0: 8afc 883f 0b26 b8bd 8976 08bf bedd ae3c
000000f0: a490 41bd 4776 dc3f 8dfa f23e fcc7 c7be
00000100: 9c69 87bf 543a 603f 6f98 4cbf 49f5 e83e
00000110: 3db3 b0bf ec56 41be 4d10 8cbe 57eb bdbf
00000120: 0ab9 5a3f e95e d73d 6153 00c0 0aac bdbd
00000130: 2d6c ae3d 4a95 83be a71d 0c3f 0f4a 3bbf
00000140: 3d03 bc3e a72c 3b3f ae83 3a3f 8898 a43f
00000150: ccd2 8e3f 6370 21bf 8111 d83d f94a e5bf
00000160: 2a86 04bf e210 31bf 32e5 1bbf 115a d73e
00000170: 7843 0cbe 8bee 063f c096 fc3f 8137 dc3e
00000180: 1879 05bf eb27 033f 8824 e8be 46a0 a73d
00000190: e062 1fbd d5df 87bf aa3b 06c0 22a6 87bf
000001a0: 9d31 e53c 7314 29be 1669 24c0 1189 d9bd
000001b0: e5d4 eebe 6c4c c2bf 7e11 ef3e 9cd4 1f40
000001c0: 6b1f 98bf 60bc c9bf 14ec 9dbf 6773 8c3f
000001d0: ef67 f9bd 3a8b f3bd fe9b 03bf 0b5d 19bf
000001e0: 7f53 55bf fe2f d13d a37f 8b3e cd93 2f3f
000001f0: acfb 963b 4ff7 a3be bad8 793f ea8b 0d3d

network_body._body_endoder.seq_layers.0.bias f4 [128]
0.0 0.0 0.0 0.0 0.0 0.0 0.0 0.0
0.0 0.0 0.0 0.0 0.0 0.0 0.0 0.0
0.0 0.0 0.0 0.0 0.0 0.0 0.0 0.0
0.0 0.0 0.0 0.0 0.0 0.0 0.0 0.0
0.0 0.0 0.0 0.0 0.0 0.0 0.0 0.0
0.0 0.0 0.0 0.0 0.0 0.0 0.0 0.0
0.0 0.0 0.0 0.0 0.0 0.0 0.0 0.0
0.0 0.0 0.0 0.0 0.0 0.0 0.0 0.0
0.0 0.0 0.0 0.0 0.0 0.0 0.0 0.0
0.0 0.0 0.0 0.0 0.0 0.0 0.0 0.0
0.0 0.0 0.0 0.0 0.0 0.0 0.0 0.0
0.0 0.0 0.0 0.0 0.0 0.0 0.0 0.0
0.0 0.0 0.0 0.0 0.0 0.0 0.0 0.0
0.0 0.0 0.0 0.0 0.0 0.0 0.0 0.0
0.0 0.0 0.0 0.0 0.0 0.0 0.0 0.0
0.0 0.0 0.0 0.0 0.0 0.0 0.0 0.0
00000000: 0000 0000 0000 0000 0000 0000 0000 0000
00000010: 0000 0000 0000 0000 0000 0000 0000 0000
00000020: 0000 0000 0000 0000 0000 0000 0000 0000
00000030: 0000 0000 0000 0000 0000 0000 0000 0000
00000040: 0000 0000 0000 0000 0000 0000 0000 0000
00000050: 0000 0000 0000 0000 0000 0000 0000 0000
00000060: 0000 0000 0000 0000 0000 0000 0000 0000
00000070: 0000 0000 0000 0000 0000 0000 0000 0000
00000080: 0000 0000 0000 0000 0000 0000 0000 0000
00000090: 0000 0000 0000 0000 0000 0000 0000 0000
000000a0: 0000 0000 0000 0000 0000 0000 0000 0000
000000b0: 0000 0000 0000 0000 0000 0000 0000 0000
000000c0: 0000 0000 0000 0000 0000 0000 0000 0000
000000d0: 0000 0000 0000 0000 0000 0000 0000 0000
000000e0: 0000 0000 0000 0000 0000 0000 0000 0000
000000f0: 0000 0000 0000 0000 0000 0000 0000 0000
00000100: 0000 0000 0000 0000 0000 0000 0000 0000
00000110: 0000 0000 0000 0000 0000 0000 0000 0000
00000120: 0000 0000 0000 0000 0000 0000 0000 0000
00000130: 0000 0000 0000 0000 0000 0000 0000 0000
00000140: 0000 0000 0000 0000 0000 0000 0000 0000
00000150: 0000 0000 0000 0000 0000 0000 0000 0000
00000160: 0000 0000 0000 0000 0000 0000 0000 0000
00000170: 0000 0000 0000 0000 0000 0000 0000 0000
00000180: 0000 0000 0000 0000 0000 0000 0000 0000
00000190: 0000 0000 0000 0000 0000 0000 0000 0000
000001a0: 0000 0000 0000 0000 0000 0000 0000 0000
000001b0: 0000 0000 0000 0000 0000 0000 0000 0000
000001c0: 0000 0000 0000 0000 0000 0000 0000 0000
000001d0: 0000 0000 0000 0000 0000 0000 0000 0000
000001e0: 0000 0000 0000 0000 0000 0000 0000 0000
000001f0: 0000 0000 0000 0000 0000 0000 0000 0000

network_body._body_endoder.seq_layers.2.weight f4 [128, 128]
0.016780637 -0.1498948 -0.10290214 0.14068115 -0.14644615 0.013515655 -0.015709085 0.043099448
-0.0814855 -0.07305008 0.04646889 -0.040133428 -0.06109099 -0.0048571746 -0.018224772 0.14259993
0.0010862746 -0.07068123 0.02068931 -0.07237234 0.088123806 0.10006234 -0.026040731 0.062209927
-0.063323386 0.050630666 -0.063288905 0.06976592 0.02839171 -0.026855532 0.07308684 0.036297485
0.0021179668 -0.14740257 0.09794765 -0.14757217 0.016508922 -0.12225259 0.0029880973 -0.014962786
-0.0033433833 0.09879206 0.073088884 -0.05547643 -0.09859044 0.011897339 0.04165467 0.06443854
0.14596356 0.26033026 -0.14321901 -0.12088779 -0.08328425 -9.7014614e-05 -0.03378808 -0.11687347
-0.087749295 -0.1445701 -0.14107023 0.12475927 0.10352294 -0.11803947 0.009546919 0.04736647
0.086448014 0.116313405 0.08989064 0.16533738 -0.00016708972 -0.109963536 0.12855792 -0.0057899873
0.059510402 0.059254475 -0.020438585 0.00087823643 -0.003265463 -0.14460377 -0.2035347 0.054447796
-0.060937956 0.09906705 0.19114213 0.043432187 -0.058593523 -0.013114686 -0.045045823 0.012899747
-0.23875377 0.06416086 0.10408797 0.052998144 -0.11215261 0.043427203 0.04672073 -0.0990241
-0.13368523 0.0054230806 0.029711418 -0.0565741 0.0288517 -0.100996554 0.08560685 0.16720156
0.044987362 -0.05853658 0.062080663 -0.06924315 0.109598726 -0.035397824 0.11143579 0.0049915942
0.1462733 -0.07678956 -0.06493678 -0.003022393 0.036788236 0.13729407 0.027551007 -0.019211784
-0.099753246 0.085425936 -0.08729547 0.02231659 0.08751054 0.04201634 0.040413402 -0.022591026
-0.11796466 -0.15678675 -0.046610124 0.07877593 0.055338033 -0.09933168 0.03081113 0.044413343
0.05901554 -0.01975973 0.06849896 -0.1400446 0.10276471 0.09891205 -0.10544606 0.1093185
-0.11151885 -0.024849415 0.05207859 0.057109762 0.023071446 -0.11319585 0.009350467 -0.058232583
0.0776582 0.17604743 -0.074366555 0.0899987 0.028126452 0.043260675 0.058094304 -0.007270125
-0.17378937 -0.067553684 -0.015252401 0.096669495 0.1297803 0.15715995 0.110049464 -0.01814167
-0.01258203 0.059246708 -0.10860526 -0.04414649 0.016358856 -0.10470832 0.06946353 -0.07968616
0.01312408 0.0057592415 0.055146784 0.22570714 -0.09760138 -0.08469787 -0.12668926 0.023150444
-0.054333523 -0.04281944 0.016527105 -0.07876356 -0.039189782 0.059973717 -0.12132993 -0.21228307
-0.03906038 0.08138703 0.01627972 0.0249016 0.06862179 0.19284274 0.006524457 0.065924585
0.033558317 -0.07358309 -0.11265393 0.18972966 0.009646312 0.078734964 -0.013017017 -0.17786153
-0.012323213 -0.026281908 0.12212739 -0.21183902 0.0308664 -0.07144293 -0.059761696 -0.023924112
-0.083848596 -0.012380988 -0.010143148 0.0322865 -0.22172551 0.13707142 0.086687565 -0.023326188
-0.049314503 -0.04570344 -0.2588953 0.07704413 -0.015342912 0.037753098 -0.19539903 -0.19105427
0.063110866 -0.041451506 -0.038807366 0.0064986935 0.070834 -0.0035050537 0.091270275 -0.10996152
0.13121799 -0.031677656 0.076407194 0.045941696 -0.0121692475 0.017659903 -0.053766653 0.034349922
0.0678359 -0.10115019 0.022855626 -0.013970656 -0.12870409 0.13307165 0.02943623 -0.0073568816
00000000: 8c77 893c 067e 19be 5bbe d2bd b80e 103e
00000010: fbf5 15be c470 5d3c 57b0 80bc 0c89 303d
00000020: dfe1 a6bd 489b 95bd 2a56 3e3d f362 24bd
00000030: 8c3a 7abd ef28 9fbb 1e4c 95bc b705 123e
00000040: 5461 8e3a 52c1 90bd a17c a93c f337 94bd
00000050: 417a b43d 7ced cc3d 5f53 d5bc d6cf 7e3d
00000060: b1af 81bd 1a62 4f3d 9d9d 81bd 6fe1 8e3d
00000070: bb95 e83c 2200 dcbc 8eae 953d acac 143d
00000080: 96cd 0a3b b3f0 16be c798 c83d 291d 17be
00000090: b83d 873c 915f fabd f4d3 433b 7926 75bc
000000a0: aa1c 5bbb 7e53 ca3d a0af 953d 413b 63bd
000000b0: c9e9 c9bd 0eed 423c 169e 2a3d 5af8 833d
000000c0: 7977 153e 024a 853e 01a8 12be 0594 f7bd
000000d0: ef90 aabd 5374 cbb8 5f65 0abd 5c5b efbd
000000e0: e7b5 b3bd 2f0a 14be b774 10be ca81 ff3d
000000f0: d603 d43d adbe f1bd ae6a 1c3c 5803 423d
00000100: a80b b13d b935 ee3d 9518 b83d 344e 293e
00000110: ce34 2fb9 9034 e1bd b0a4 033e efb9 bdbb
00000120: 2ec1 733d d2b4 723d d26e a7bc 7339 663a
00000130: 6101 56bb 0313 14be 676b 50be a704 5f3d
00000140: 149a 79bd aae3 ca3d c3ba 433e f3e5 313d
00000150: c3ff 6fbd fbde 56bc f881 38bd 7659 533c
00000160: de7b 74be c566 833d 132c d53d 9514 593d
00000170: 45b0 e5bd b9e0 313d 3c5e 3f3d 26cd cabd
00000180: c8e4 08be 19b4 b13b 5c65 f33c 3eba 67bd
00000190: 665a ec3c 48d7 cebd a552 af3d e336 2b3e
000001a0: ab44 383d 0ec4 6fbd 4b48 7e3d 5acf 8dbd
000001b0: 4c75 e03d 4ffd 10bd 7338 e43d 8790 a33b
000001c0: abc8 153e d843 9dbd 93fd 84bd 5713 46bb
000001d0: 43af 163d d196 0c3e a6b2 e13c 0862 9dbc
000001e0: 6e4b ccbd cbf3 ae3d f8c7 b2bd 48d1 b63c
000001f0: ba38 b33d 5319 2c3d 8688 253d d110 b9bc
00000200: 7597 f1bd b58c 20be 42ea 3ebd 4655 a13d
00000210: 22aa 623d 686e cbbd 9f67 fc3c c4ea 353d
00000220: 47ba 713d 28df a1bc 2f49 8c3d da67 0fbe
00000230: 4e76 d23d 6792 ca3d 1bf4 d7bd 61e2 df3d
00000240: ff63 e4bd 0091 cbbc 5c50 553d edeb 693d
00000250: 5400 bd3c 3ad3 e7bd b332 193c 4a85 6ebd
00000260: 430b 9f3d c745 343e 7e4d 98bd 3d51 b83d
00000270: 7269 e63c 1b32 313d 4bf4 6d3d 3b3a eebb
00000280: d7f5 31be 9659 8abd 35e5 79bc a8fa c53d
00000290: 21e5 043e 8aee 203e 9d61 e13d d79d 94bc
000002a0: dc24 4ebc adac 723d 6f6c debd f3d2 34bd
000002b0: 0203 863c 5171 d6bd e542 8e3d 7f32 a3bd
000002c0: 6206 573c 05b8 bc3b 98e1 613d c61f 673e
000002d0: 3be3 c7bd 1476 adbd d4ba 01be 00a6 bd3c
000002e0: d48c 5ebd 7063 2fbd da63 873c ca4e a1bd
000002f0: 7785 20bd 00a7 753d d47b f8bd bc60 59be
00000300: c7fd 1fbd 3eae a63d 0c5d 853c 71fe cb3c
00000310: 9589 8c3d 9178 453e 1dcb d53b 7803 873d
00000320: 7274 093d bbb2 96bd 1bb7 e6bd 7e48 423e
00000330: 910b 1e3c cc3f a13d 5445 55bc 5521 36be
00000340: 4de7 49bc 284d d7bc ed1d fa3d 54ec 58be
00000350: 88db fc3c ac50 92bd aec8 74bd 80fc c3bc
00000360: d0b8 abbd a1d9 4abc 722f 26bc d93e 043d
00000370: 030c 63be 735c 0c3e 4089 b13d 9016 bfbc
00000380: 01fe 49bd 8833 3bbd ed8d 84be 50c9 9d3d
00000390: d660 7bbc fea2 1a3d af16 48be bba3 43be
000003a0: 4540 813d 0ec9 29bd 79f4 1ebd fef2 d43b
000003b0: 6b11 913d 0bb5 65bb e9eb ba3d 8133 e1bd
000003c0: 025e 063e 6ec0 01bd 607b 9c3d 5c2d 3c3d
000003d0: 8661 47bc 80ab 903c 6c3a 5cbd 81b2 0c3d
000003e0: 8ced 8a3d d527 cfbd b93b bb3c 2ee5 64bc
000003f0: 01cb 03be ef43 083e 4024 f13c ff11 f1bb

network_body._body_endoder.seq_layers.2.bias f4 [128]
0.0 0.0 0.0 0.0 0.0 0.0 0.0 0.0
0.0 0.0 0.0 0.0 0.0 0.0 0.0 0.0
0.0 0.0 0.0 0.0 0.0 0.0 0.0 0.0
0.0 0.0 0.0 0.0 0.0 0.0 0.0 0.0
0.0 0.0 0.0 0.0 0.0 0.0 0.0 0.0
0.0 0.0 0.0 0.0 0.0 0.0 0.0 0.0
0.0 0.0 0.0 0.0 0.0 0.0 0.0 0.0
0.0 0.0 0.0 0.0 0.0 0.0 0.0 0.0
0.0 0.0 0.0 0.0 0.0 0.0 0.0 0.0
0.0 0.0 0.0 0.0 0.0 0.0 0.0 0.0
0.0 0.0 0.0 0.0 0.0 0.0 0.0 0.0
0.0 0.0 0.0 0.0 0.0 0.0 0.0 0.0
0.0 0.0 0.0 0.0 0.0 0.0 0.0 0.0
0.0 0.0 0.0 0.0 0.0 0.0 0.0 0.0
0.0 0.0 0.0 0.0 0.0 0.0 0.0 0.0
0.0 0.0 0.0 0.0 0.0 0.0 0.0 0.0
00000000: 0000 0000 0000 0000 0000 0000 0000 0000
00000010: 0000 0000 0000 0000 0000 0000 0000 0000
00000020: 0000 0000 0000 0000 0000 0000 0000 0000
00000030: 0000 0000 0000 0000 0000 0000 0000 0000
00000040: 0000 0000 0000 0000 0000 0000 0000 0000
00000050: 0000 0000 0000 0000 0000 0000 0000 0000
00000060: 0000 0000 0000 0000 0000 0000 0000 0000
00000070: 0000 0000 0000 0000 0000 0000 0000 0000
00000080: 0000 0000 0000 0000 0000 0000 0000 0000
00000090: 0000 0000 0000 0000 0000 0000 0000 0000
000000a0: 0000 0000 0000 0000 0000 0000 0000 0000
000000b0: 0000 0000 0000 0000 0000 0000 0000 0000
000000c0: 0000 0000 0000 0000 0000 0000 0000 0000
000000d0: 0000 0000 0000 0000 0000 0000 0000 0000
000000e0: 0000 0000 0000 0000 0000 0000 0000 0000
000000f0: 0000 0000 0000 0000 0000 0000 0000 0000
00000100: 0000 0000 0000 0000 0000 0000 0000 0000
00000110: 0000 0000 0000 0000 0000 0000 0000 0000
00000120: 0000 0000 0000 0000 0000 0000 0000 0000
00000130: 0000 0000 0000 0000 0000 0000 0000 0000
00000140: 0000 0000 0000 0000 0000 0000 0000 0000
00000150: 0000 0000 0000 0000 0000 0000 0000 0000
00000160: 0000 0000 0000 0000 0000 0000 0000 0000
00000170: 0000 0000 0000 0000 0000 0000 0000 0000
00000180: 0000 0000 0000 0000 0000 0000 0000 0000
00000190: 0000 0000 0000 0000 0000 0000 0000 0000
000001a0: 0000 0000 0000 0000 0000 0000 0000 0000
000001b0: 0000 0000 0000 0000 0000 0000 0000 0000
000001c0: 0000 0000 0000 0000 0000 0000 0000 0000
000001d0: 0000 0000 0000 0000 0000 0000 0000 0000
000001e0: 0000 0000 0000 0000 0000 0000 0000 0000
000001f0: 0000 0000 0000 0000 0000 0000 0000 0000

action_model._continuous_distribution.log_sigma f4 [1, 2]
0.0 0.0
00000000: 0000 0000 0000 0000

action_model._continuous_distribution.mu.weight f4 [2, 128]
-0.00983401 0.011592857 0.0032175027 -0.009587949 0.0006223134 -0.021325247 0.039108567 0.033330586
-0.008349788 0.028315349 0.02420577 -0.017155183 -0.01768401 0.03540656 0.0010061776 -0.026210451
-0.0014884921 -0.008968008 -0.027178047 -0.011334902 0.0016352395 -0.031810638 -0.03398247 -0.013235717
-0.015785297 -0.014018826 0.0058301776 0.017865589 -0.0152942045 -0.0013948245 -0.0020073329 0.012955725
0.008870327 0.022311447 0.0026759368 0.0159981 0.0043151677 -0.0073967264 0.004093498 0.025426889
-0.0006040489 -0.0005269276 -0.03556794 0.019995928 -0.017103573 -0.04133896 -0.0035109818 -0.021715628
-0.017326925 0.024880756 0.030628106 -0.003252356 -0.029582983 -0.0002727112 -0.0035296925 0.04119539
0.005780063 -0.008504906 0.01954427 0.017980339 -0.0074889525 -0.0106430305 0.0023057384 -0.02601093
-0.0023019318 -0.014458174 0.014586972 -0.013324769 -0.011422782 0.016630506 0.012968659 0.026768425
0.026115661 -0.029277597 -0.025939753 0.023403972 -0.0121959215 -0.017196631 0.009282755 -0.022562327
0.010167976 0.028425498 -0.006957635 0.022528468 -0.02511839 -0.0151915345 -0.016935857 0.022790566
0.0075609023 -0.009596243 0.0007825033 -0.0002786327 -0.023775999 -0.004802745 -0.043886572 0.0028157888
0.03573468 0.0053028986 0.016622044 0.022776188 -0.029874373 -0.012699119 0.0150543 0.023400184
-0.01190319 0.01725306 -0.0036468462 -0.011109068 -0.00717605 8.439666e-06 0.00015082581 0.01618236
-0.00842163 0.0057372926 0.02080287 -0.031006446 -0.014238167 0.011077362 0.053121474 0.020081237
-0.017173408 0.017241534 -0.008388816 0.009374185 0.016472492 0.02006164 0.0013058552 0.007020776
-0.017370531 -0.012759608 0.0074449717 -0.013321473 -0.031195624 0.013180042 -0.0054262565 0.018794894
0.006520963 0.017294798 -0.026372746 -0.008107003 -0.05125634 -0.027095182 0.0064734123 -0.013200021
0.011504088 0.005177639 0.024707064 0.006718652 0.011350997 -0.007957142 -0.011389547 0.002772092
0.0060091093 0.025921792 0.006397868 -0.016548473 0.034515675 -0.017946817 -0.007437311 0.0032274358
-0.035480183 -0.006093195 -0.025328249 -0.037211057 -0.005778008 -0.010334577 -0.038320914 0.009853493
0.008831043 -0.03367568 -0.011031491 -0.0048379274 0.016240692 -0.021471158 0.013121234 0.00695462
-0.022259941 0.018762233 0.010605012 0.0026200267 -0.02574633 0.015203579 0.02873286 -0.03446395
0.02523318 0.004197513 0.0039556096 0.035555728 -0.006390229 -0.019355668 -0.036817186 0.008041714
-0.033536557 -0.0051738597 -0.0054451963 -0.01970235 0.008290331 0.03133027 -0.013037353 0.018525703
-0.027279645 0.0053446447 -0.004214672 0.008078097 0.022627933 -0.0005444874 0.0054825163 0.006523799
-0.0026918773 -0.014853271 -0.022627413 0.009563458 0.026211942 -0.017611206 0.017990535 -0.0035700363
0.033929598 0.020877216 -0.0068807043 -0.00021440974 -0.01674409 0.0041440264 0.015641147 0.013630844
0.010958805 -0.016126102 0.0045614853 -0.0028996556 0.013998921 0.018133327 0.0080884015 0.0003524859
-0.01735319 0.009561341 0.010459113 0.023721877 -0.027966088 -0.009485926 0.0037422925 -0.015219003
-0.0061098854 -0.008561636 0.04629558 0.012654717 -0.005756265 -0.0033843645 0.003945622 0.004558073
-0.00067565794 0.01550207 -0.0013966121 -0.023443153 0.004151079 -0.011186329 0.028356815 -0.01843558
00000000: d41e 21bc f7ef 3d3c bddc 523b c616 1dbc
00000010: bf22 233a 49b2 aebc 4e30 203d a785 083d
00000020: 8dcd 08bc 97f5 e73c 2e4b c63c 0789 8cbc
00000030: 0fde 90bc 7806 113d b8e1 833a 4db7 d6bc
00000040: 8219 c3ba 8dee 12bc 7fa4 debc 06b6 39bc
00000050: 8855 d63a df4b 02bd 3431 0bbd 9fda 58bc
00000060: 2b50 81bc 38af 65bc 130b bf3b db5a 923c
00000070: 8b94 7abc 8bd2 b6ba 758d 03bb 4044 543c
00000080: d954 113c 7fc6 b63c c55e 2f3b 730e 833c
00000090: 4066 8d3b 3d60 f2bb c022 863b 0d4c d03c
000000a0: 0959 1eba 8321 0aba b0af 11bd 80ce a33c
000000b0: cb1c 8cbc 0b53 29bd 8018 66bb f9e4 b1bc
000000c0: 32f1 8dbc bad2 cb3c cbe7 fa3c 7b25 55bb
000000d0: 0358 f2bc adfa 8eb9 6a52 67bb 7fbc 283d
000000e0: af66 bd3b 2958 0bbc 4e1b a03c 814b 933c
000000f0: e365 f5bb 1b60 2ebc df1b 173b e014 d5bc
00000100: 02dc 16bb fae1 6cbc 32fe 6e3c 2250 5abc
00000110: 9f26 3bbc b33c 883c 807a 543c 7549 db3c
00000120: 83f0 d53c 92d7 efbc 9b7f d4bc b0b9 bf3c
00000130: 67d1 47bc f3df 8cbc b216 183c a1d4 b8bc
00000140: 9597 263c 97dc e83c dffc e3bb 9f8d b83c
00000150: 15c5 cdbc eae5 78bc 11bd 8abc 48b3 ba3c
00000160: 72c1 f73b 8f39 1dbc e820 4d3a 7315 92b9
00000170: e2c5 c2bc 5860 9dbb 68c2 33bd 1989 383b
00000180: 875e 123d f0c3 ad3b f42a 883c 2195 ba3c
00000190: 1abb f4bc f70f 50bc 50a6 763c beb1 bf3c
000001a0: 9905 43bc 4a56 8d3c edff 6ebb cf02 36bc
000001b0: 1225 ebbb 1798 0d37 ff26 1e39 de90 843c
000001c0: e0fa 09bc e6ff bb3b c86a aa3c 3b01 febc
000001d0: 3347 69bc d37d 353c e795 593d 6881 a43c
000001e0: 3faf 8cbc 1e3e 8d3c 3f71 09bc 2f96 193c
000001f0: 52f1 863c 4f58 a43c 3b29 ab3a 8a0e e63b
00000200: a54c 8ebc ad0d 51bc f3f4 f33b 4f42 5abc
00000210: f78d ffbc 1af1 573c bdce b1bb c0f7 993c
00000220: cdad d53b d2ad 8d3c a80b d8bc 3cd3 04bc
00000230: 2bf2 51bd b7f6 ddbc eb1e d43b e744 58bc
00000240: a47b 3c3c 2fa9 a93b 7866 ca3c 2328 dc3b
00000250: 88f9 393c ac5e 02bc 399b 3abc fcab 353b
00000260: 10e8 c43b f059 d43c 35a5 d13b aa90 87bc
00000270: 4f60 0d3d 3405 93bc b0b4 f3bb 6383 533b
00000280: ab53 11bd 6da9 c7bb 307d cfbc 9f6a 18bd
00000290: 7255 bdbb 5c52 29bc 64f6 1cbd 8c70 213c
000002a0: 14b0 103c 83ef 09bd 6dbd 34bc 7a87 9ebb
000002b0: 330b 853c 48e4 afbc 72fa 563c 95e3 e33b
000002c0: 7b5a b6bc 41b3 993c a5c0 2d3c c1b4 2b3b
000002d0: f8e9 d2bc 6f18 793c 2d61 eb3c 122a 0dbd
000002e0: d0b5 ce3c 4b8b 893b 0f9e 813b e2a2 113d
000002f0: 2065 d1bb c78f 9ebc 9ecd 16bd 65c1 033c
00000300: a15d 09bd 7b89 a9bb 9e6d b2bb d366 a1bc
00000310: 2bd4 073c 2b54 003d 9f9a 55bc 37c3 973c
00000320: 9079 dfbc 2122 af3b 3b1b 8abb ff59 043c
00000330: 375e b93c eebb 0eba aea6 b33b 98c5 d53b
00000340: 356a 30bb 225b 73bc 205d b9bc 0db0 1c3c
00000350: 6dba d63c 6045 90bc e360 933c 45f7 69bb
00000360: c3f9 0a3d b206 ab3c 8877 e1bb 2dd3 60b9
00000370: e72a 89bc 9dca 873b dd21 803c e753 5f3c
00000380: 8f8c 333c e31a 84bc 8378 953b 2608 3ebb
00000390: bb5b 653c 588c 943c 3785 043c dbcd b839
000003a0: 4728 8ebc 2ca7 1c3c b35c 2b3c 6254 c23c
000003b0: 2319 e5bc db6a 1bbc 4041 753b 2059 79bc
000003c0: 6f35 c8bb 1b46 0cbc 6fa0 3d3d bb55 4f3c
000003d0: 0d9f bcbb 37cc 5dbb 474a 813b e35b 953b
000003e0: a31e 31ba 65fc 7d3c 870e b7ba db0b c0bc
000003f0: c605 883b dd46 37bc 8d4c e83c 3706 97bc

action_model._continuous_distribution.mu.bias f4 [2]
0.0 0.0
00000000: 0000 0000 0000 0000

action_model._discrete_distribution.branches.0.weight f4 [1, 128]
0.0010958761 0.0005133875 -0.010424505 0.011356159 0.005077039 0.021291882 0.00046408965 -0.009467057
0.008856403 -0.00036851715 -0.019243395 -0.0117875915 -0.0022022645 -0.008445893 0.007647616 -0.0011217196
0.0040484346 -0.006911607 -0.0058472096 -0.013567539 0.00982723 -0.018409891 -0.009889699 0.0023288652
0.0019472492 -0.0069890893 -0.0020943868 0.01240621 -0.0015831304 -0.008969416 -0.0028170997 -0.0030312135
0.012396893 0.0015265553 -0.007892973 0.00080022163 0.013019564 -0.0009072004 0.0020707161 0.00069897383
-0.0033391726 0.0072231437 0.00025251665 -0.0009372607 0.0018281117 -0.006759699 -0.0049960893 -0.0006252361
-0.00144245 -0.013182691 -0.0006341587 0.007881671 0.0149337 0.012577935 0.0010398768 -0.0072729024
0.0007151121 0.014287084 0.018520867 -0.0029358265 -0.00044919984 0.009504221 0.0007588868 -0.0053300257
0.0023662306 -0.008984549 0.010763681 0.010745235 -0.0032422368 0.014124617 0.006215032 0.008184899
0.00749414 0.014167229 0.005495315 -0.0019526331 -0.019885084 -0.012504743 -0.01568558 -0.003237767
0.013421244 -0.0017464337 0.009536196 -0.009000843 0.0044576544 -0.022323903 -0.010957953 -0.009745113
0.003712038 -0.0005549857 -0.0040254192 -0.020851038 -0.0013251171 -0.0067620985 -0.003166788 0.008086994
-0.002796634 0.0133967 0.012362838 0.014841409 -0.009054311 -0.0021292837 0.0004623851 -0.0007029331
0.0054084463 0.0013910736 -0.0059366836 0.0072450936 0.012504662 -0.010467748 -0.01524962 0.0012532522
0.00045549875 0.01282647 -0.019277915 0.0011635582 -0.004951706 -0.0058331606 0.0051384866 0.00068860454
0.0014055788 -0.008895054 -0.018361498 -0.000104653474 0.0021089793 -0.006591444 -0.0039570476 0.0051407833
00000000: 80a3 8f3a da94 063a 8bcb 2abc 2f0f 3a3c
00000010: 4a5d a63b 506c ae3c 0f51 f339 b71b 1bbc
00000020: 721a 113c 8935 c1b9 53a4 9dbc be20 41bc
00000030: de53 10bb a560 0abc da98 fa3b aa06 93ba
00000040: bba8 843b c37a e2bb f399 bfbb 624a 5ebc
00000050: 6402 213c 57d0 96bc 6708 22bc e09f 183b
00000060: d73a ff3a bb04 e5bb fb41 09bb 6b43 4b3c
00000070: 0b81 cfba 75f4 12bc 179f 38bb 53a7 46bb
00000080: 571c 4b3c b216 c83a 8751 01bc f7c5 513a
00000090: 0250 553c 30d1 6dba dab4 073b 573b 373a
000000a0: 05d6 5abb 1fb0 ec3b 3664 8439 80b2 75ba
000000b0: 409d ef3a 7780 ddbb 3cb6 a3bb e2e6 23ba
000000c0: 9710 bdba 37fc 57bc ac3d 26ba 2022 013c
000000d0: 7aac 743c af13 4e3c 7a4c 883a 8751 eebb
000000e0: 5c76 3b3a 6014 6a3c 13b9 973c ff66 40bb
000000f0: 9582 ebb9 98b7 1b3c 08f0 463a 7fa7 aebb
00000100: c312 1b3b ee33 13bc 265a 303c c80c 303c
00000110: b57b 54bb f06a 673c 78a7 cb3b f419 063c
00000120: 6791 f53b aa1d 683c 0b12 b43b 7fef ffba
00000130: 0be6 a2bc b2e0 4cbc 0c7f 80bc b730 54bb
00000140: c7e4 5b3c 97e8 e4ba b43d 1c3c 4678 13bc
00000150: 8411 923b 9ee0 b6bc fc88 33bc f7a9 1fbc
00000160: aa45 733b 767c 11ba aae7 83bb cccf aabc
00000170: 8daf adba 9894 ddbb e389 4fbb 507f 043c
00000180: bc47 37bb d57d 5b3c 808d 4a3c 6229 733c
00000190: 8858 14bc 748b 0bbb 476c f239 0b45 38ba
000001a0: 5639 b13b af54 b63a 8388 c2bb 4068 ed3b
000001b0: 5be0 4c3c eb80 2bbc 8bd9 79bc 2a44 a43a
000001c0: 02d0 ee39 1d26 523c b8ec 9dbc 8982 983a
000001d0: ec41 a2bb 1924 bfbb c060 a83b 7883 343a
000001e0: 663b b83a 90bc 11bc da6a 96bc 6879 dbb8
000001f0: cd36 0a3b 0afd d7bb 1faa 81bb 0474 a83b

network_body._body_endoder.seq_layers.0.weight f4 [128, 1]
0.60301507 0.9902844 0.010587876 -0.27479488 -0.37789768 -0.2019807 0.019565389 1.3911651
-0.008997828 -1.7269154 -0.4763133 -0.31501764 0.4670547 -2.380798 -0.19792023 1.2268553
0.5653016 -0.35891932 0.6478696 -0.75357836 0.06322931 -0.043865595 -0.9748938 0.47290957
0.75894266 -0.0304123 -0.39145765 -0.028739914 -0.93110627 0.7198207 0.375947 1.5602918
-0.0133303255 2.1398447 -0.5212031 0.5962736 2.0257802 -0.55544454 -1.005351 -0.86388844
-0.21214855 0.081806585 -0.05987344 0.63609517 -0.14171672 -0.25424808 -1.1000386 0.24768919
1.0929788 2.6212692 -0.8313487 0.020566367 0.27270353 0.8620034 0.5649137 1.1155968
0.29773775 -0.6910612 -0.025357755 -0.34792048 1.541614 0.207157 0.5511447 -0.10989116
-0.18209043 -1.2921382 0.25470862 0.04404565 0.14731069 -1.5852165 1.1022403 0.31933993
-0.96054 0.28796396 -1.037803 -0.5562996 1.2235146 0.16170397 -0.94175124 0.11554264
-0.24077442 1.4086211 -0.7992063 -0.23218758 0.31818813 0.77048147 0.7403724 0.75234157
0.9182367 -0.41880348 -1.3712417 0.68571717 -2.1544175 0.4608539 0.45203504 -0.2892935
-0.6696876 0.54178536 0.016636178 -1.5801418 0.06716862 0.88599396 -0.898247 -2.0285578
-1.8669165 -0.51478714 -1.0374682 -0.652748 -2.3852067 -0.12685294 -0.72999537 0.825548
-0.47521874 0.011921562 -0.6891086 -0.16889094 1.0002544 -0.46153596 0.41944802 0.5015997
-0.98660433 0.195337 0.35955286 0.9028841 0.14828078 0.21773718 -0.7612605 -0.25693503
00000000: 325f 1a3f 4783 7d3f c578 2d3c eab1 8cbe
00000010: ce7b c1be 07d4 4ebe 9847 a03c b311 b23f
00000020: a06b 13bc 900b ddbf 56df f3be fe49 a1be
00000030: cb21 ef3e ff5e 18c0 9aab 4abe 9809 9d3f
00000040: 9bb7 103f 46c4 b7be c8da 253f 83ea 40bf
00000050: 5e7e 813d 69ac 33bd a492 79bf 3421 f23e
00000060: 114a 423f 3723 f9bc 236d c8be f86f ebbc
00000070: fb5c 6ebf 2b46 383f 207c c03e a4b7 c73f
00000080: 7067 5abc 37f3 0840 916d 05bf 63a5 183f
00000090: 62a6 0140 9d31 0ebf 57af 80bf cb27 5dbf
000000a0: 783d 59be 368a a73d da3d 75bd 22d7 223f
000000b0: 301e 11be ce2c 82be 11ce 8cbf 3ca2 7d3e
000000c0: bbe6 8b3f e0c2 2740 45d3 54bf cc7a a83c
000000d0: cc9f 8b3e 41ac 5c3f 2f9e 103f e0cb 8e3f
000000e0: 1571 983e 63e9 30bf 11bb cfbc a222 b2be
000000f0: 9c53 c53f f720 543e d217 0d3f 9e0e e1bd
00000100: ea75 3abe c964 a5bf 2b69 823e 3669 343d
00000110: 9dd8 163e 60e8 cabf 3616 8d3f 8680 a33e
00000120: f3e5 75bf 0370 933e bbd6 84bf a769 0ebf
00000130: 209c 9c3f ba95 253e 9c16 71bf 9fa1 ec3d
00000140: 928d 76be b24d b43f c998 4cbf 95c2 6dbe
00000150: 8ee9 a23e 463e 453f 0c89 3d3f 7599 403f
00000160: 8f11 6b3f 696d d6be d984 afbf 298b 2f3f
00000170: fae1 09c0 0bf5 eb3e 2371 e73e 471e 94be
00000180: a670 2bbf 72b2 0a3f 9848 883c 1642 cabf
00000190: b48f 893d 80d0 623f 84f3 65bf e4d3 01c0
000001a0: 1ff7 eebf 17c9 03bf c2cb 84bf 7e1a 27bf
000001b0: 3aa7 18c0 bde5 01be fae0 3abf 1d57 533f
000001c0: df4f f3be a852 433c 6c69 30bf bff1 2cbe
000001d0: 5608 803f 714e ecbe e4c1 d63e d768 003f
000001e0: 1a92 7cbf 6c06 483e 5017 b83e 6a23 673f
000001f0: ebd6 173e 7ff6 5e3e f8e1 42bf fd8c 83be

network_body._body_endoder.seq_layers.0.bias f4 [128]
0.0 0.0 0.0 0.0 0.0 0.0 0.0 0.0
0.0 0.0 0.0 0.0 0.0 0.0 0.0 0.0
0.0 0.0 0.0 0.0 0.0 0.0 0.0 0.0
0.0 0.0 0.0 0.0 0.0 0.0 0.0 0.0
0.0 0.0 0.0 0.0 0.0 0.0 0.0 0.0
0.0 0.0 0.0 0.0 0.0 0.0 0.0 0.0
0.0 0.0 0.0 0.0 0.0 0.0 0.0 0.0
0.0 0.0 0.0 0.0 0.0 0.0 0.0 0.0
0.0 0.0 0.0 0.0 0.0 0.0 0.0 0.0
0.0 0.0 0.0 0.0 0.0 0.0 0.0 0.0
0.0 0.0 0.0 0.0 0.0 0.0 0.0 0.0
0.0 0.0 0.0 0.0 0.0 0.0 0.0 0.0
0.0 0.0 0.0 0.0 0.0 0.0 0.0 0.0
0.0 0.0 0.0 0.0 0.0 0.0 0.0 0.0
0.0 0.0 0.0 0.0 0.0 0.0 0.0 0.0
0.0 0.0 0.0 0.0 0.0 0.0 0.0 0.0
00000000: 0000 0000 0000 0000 0000 0000 0000 0000
00000010: 0000 0000 0000 0000 0000 0000 0000 0000
00000020: 0000 0000 0000 0000 0000 0000 0000 0000
00000030: 0000 0000 0000 0000 0000 0000 0000 0000
00000040: 0000 0000 0000 0000 0000 0000 0000 0000
00000050: 0000 0000 0000 0000 0000 0000 0000 0000
00000060: 0000 0000 0000 0000 0000 0000 0000 0000
00000070: 0000 0000 0000 0000 0000 0000 0000 0000
00000080: 0000 0000 0000 0000 0000 0000 0000 0000
00000090: 0000 0000 0000 0000 0000 0000 0000 0000
000000a0: 0000 0000 0000 0000 0000 0000 0000 0000
000000b0: 0000 0000 0000 0000 0000 0000 0000 0000
000000c0: 0000 0000 0000 0000 0000 0000 0000 0000
000000d0: 0000 0000 0000 0000 0000 0000 0000 0000
000000e0: 0000 0000 0000 0000 0000 0000 0000 0000
000000f0: 0000 0000 0000 0000 0000 0000 0000 0000
00000100: 0000 0000 0000 0000 0000 0000 0000 0000
00000110: 0000 0000 0000 0000 0000 0000 0000 0000
00000120: 0000 0000 0000 0000 0000 0000 0000 0000
00000130: 0000 0000 0000 0000 0000 0000 0000 0000
00000140: 0000 0000 0000 0000 0000 0000 0000 0000
00000150: 0000 0000 0000 0000 0000 0000 0000 0000
00000160: 0000 0000 0000 0000 0000 0000 0000 0000
00000170: 0000 0000 0000 0000 0000 0000 0000 0000
00000180: 0000 0000 0000 0000 0000 0000 0000 0000
00000190: 0000 0000 0000 0000 0000 0000 0000 0000
000001a0: 0000 0000 0000 0000 0000 0000 0000 0000
000001b0: 0000 0000 0000 0000 0000 0000 0000 0000
000001c0: 0000 0000 0000 0000 0000 0000 0000 0000
000001d0: 0000 0000 0000 0000 0000 0000 0000 0000
000001e0: 0000 0000 0000 0000 0000 0000 0000 0000
000001f0: 0000 0000 0000 0000 0000 0000 0000 0000

network_body._body_endoder.seq_layers.2.weight f4 [128, 128]
-0.051416148 -0.054711338 0.18834534 -0.044617023 -0.2557945 -0.12620792 -0.07453805 -0.10338174
-0.11944778 0.10870365 -0.18804269 -0.09405204 -0.05129947 0.03581425 0.006066543 -0.11741917
0.10861958 -0.022943009 0.16802023 -0.13553418 0.05020915 -0.09627894 0.09776849 -0.09780497
-0.09433478 0.0038020646 -0.06794115 -0.05460021 0.091166206 0.031334784 0.07637916 -0.02858634
-0.023868553 -0.027152821 0.032665405 -0.07078096 -0.029801577 -0.12595409 -0.011408719 0.0017401446
-0.06761972 0.11106575 0.04625303 -0.13958374 -0.08007866 -0.122356534 -0.08615567 -0.052114468
-0.11596413 0.17779404 0.021899616 -0.039441567 0.051770102 0.035887025 0.0395963 -0.25658917
0.09331902 0.008934589 -0.042252485 0.07210121 -0.016968727 0.10858873 -0.041706298 0.034360994
-0.07591821 -0.005225315 0.059750136 0.1146962 0.043814737 0.06329309 0.049899656 -0.07745841
0.049888164 0.035258293 -0.041461475 0.0085427165 -0.07621124 0.032252785 -0.11118056 -0.021052958
0.18961294 0.07051019 0.076455094 -0.027774844 -0.03991592 -0.020785617 -0.00476982 0.10351615
-0.042665374 -0.06702098 0.0038947065 0.039093774 0.11471614 0.08006142 0.005692942 -0.12870678
0.08689609 0.0004247395 -0.010043075 -0.025183294 0.13365719 0.08486957 0.06650629 -0.07672729
-0.0010407306 0.28683147 -0.1925276 -0.0015620718 -0.0761374 -0.00907819 0.025670065 -0.06683417
-0.1303363 0.021486389 0.018384336 -0.027084937 0.012529715 -0.061357033 0.044428498 0.05686736
0.016813708 -0.0015944294 -0.03205998 -0.07621566 0.027774647 0.14209677 0.093035616 -0.027551064
-0.01672136 -0.18151286 0.025270863 -0.08518532 0.09311496 -0.057463113 -0.16824307 -0.1443311
-0.017116515 -0.04185343 -0.008546851 0.043513186 -0.026828682 0.10733318 0.021544546 -0.07431579
-0.0073930114 0.009218493 -0.04277401 -0.014599627 -0.020049028 0.1814019 -0.17034307 0.025787206
-0.0658631 0.07188068 -0.1292862 -0.07546947 -0.0031147872 -0.20299873 0.12949601 -0.14990427
0.032403067 0.017774137 0.107893415 -0.02619028 0.008823823 -0.09807161 -0.086650975 -0.05459347
0.11472642 -0.04495895 -0.045363273 -0.13553888 0.08061803 -0.09784188 -0.12748986 -0.07315881
-0.23478074 -0.17612553 0.06602635 -0.011080679 -0.053832702 -0.18118706 -0.13969977 -0.11811316
0.080279104 0.025383322 0.0699019 0.07330481 0.09987985 0.016224468 -0.10536754 -0.054949705
0.08538207 -0.008881561 0.10462188 0.109922476 0.14444582 0.2270454 -0.14692612 0.009165349
-0.010324175 0.07485642 0.027434517 0.07128035 -0.12651902 0.05235635 -0.038698368 0.07510121
-0.0198817 -0.056139555 -0.019817036 0.049932025 -0.011038795 0.0052124495 -0.0230106 -0.0026843771
0.010394616 0.12416625 -0.13393955 0.016994862 0.0020644062 -0.030941498 -0.015518341 -0.13116957
0.21078272 -0.03365814 -0.066046715 -0.10793102 -0.009773875 0.036672406 0.023718463 -0.10966272
0.04940732 -0.13184986 -0.013609059 -0.14267117 0.06033987 -0.17590526 -0.14874625 0.0016725439
0.002633329 -0.13153483 -0.093911536 -0.037215434 -0.14303303 0.1250049 0.07233058 -0.06725645
-0.13634552 0.03953264 -0.12575786 -0.045448314 -0.0040666214 -0.016237445 -0.0027914117 -0.09660793
00000000: bd99 52bd ff18 60bd 9add 403e 57c0 36bd
00000010: 7ff7 82be a63c 01be 68a7 98bd ceb9 d3bd
00000020: 0aa1 f4bd 05a0 de3d 438e 40be 5b9e c0bd
00000030: 651f 52bd f7b1 123d dac9 c63b 7679 f0bd
00000040: f173 de3d faf2 bbbc 7f0d 2c3e 79c9 0abe
00000050: 1ca8 4d3d e52d c5bd d93a c83d f94d c8bd
00000060: 9832 c1bd 0f2c 793b bb24 8bbd 78a4 5fbd
00000070: 59b5 ba3d e758 003d ad6c 9c3d e62d eabc
00000080: fc87 c3bc 986f debc 29cc 053d 9cf5 90bd
00000090: 7022 f4bc 1cfa 00be a3eb 3abc 9015 e43a
000000a0: 357c 8abd 7176 e33d d173 3d3d 0aef 0ebe
000000b0: 4800 a4bd 1096 fabd 6272 b0bd fb75 55bd
000000c0: 9a7e edbd a40f 363e d366 b33c 7b8d 21bd
000000d0: e30c 543d 46fe 123d bb2f 223d a85f 83be
000000e0: 0b1e bf3d 6262 123c f110 2dbd cda9 933d
000000f0: 0002 8bbc c563 de3d 39d4 2abd 1dbe 0c3d
00000100: 027b 9bbd 1f39 abbb 8fbc 743d d7e5 ea3d
00000110: 1577 333d cf9f 813d 9563 4c3d 84a2 9ebd
00000120: 8857 4c3d 006b 103d 82d3 29bd c0f6 0b3c
00000130: a314 9cbd 7f1b 043d a2b2 e3bd 4177 acbc
00000140: e529 423e a667 903d 7d94 9c3d 1288 e3bc
00000150: e07e 23bd 9946 aabc 264c 9cbb 4600 d43d
00000160: e3c1 2ebd 4c42 89bd 553e 7f3b cb20 203d
00000170: 4cf0 ea3d 3ef7 a33d dc8b ba3b b6cb 03be
00000180: 94f6 b13d 92af de39 b68b 24bc 324d cebc
00000190: 6edd 083e 19d0 ad3d 7334 883d 3323 9dbd
000001a0: 2069 88ba 93db 923e f525 45be 6fbe ccba
000001b0: eded 9bbd b0bc 14bc 074a d23c 5ae0 88bd
000001c0: e176 05be 3904 b03c bf9a 963c 3be1 ddbc
000001d0: 6f49 4d3c 8351 7bbd a8fa 353d c0ed 683d
000001e0: e7bc 893c 2cfc d0ba 5351 03bd f516 9cbd
000001f0: a887 e33c d181 113e 7589 be3d c5b2 e1bc
00000200: 3cfb 88bc 82de 39be d704 cf3c a475 aebd
00000210: 0eb3 be3d 715e 6bbd e947 2cbe 88cb 13be
00000220: ef37 8cbc 816e 2bbd 1708 0cbc e23a 323d
00000230: d3c7 dbbc 80d1 db3d 307e b03c e032 98bd
00000240: 1341 f2bb 2909 173c cd33 2fbd 4633 6fbc
00000250: dc3d a4bc 6bc1 393e 6a6e 2ebe b13f d33c
00000260: 3ce3 86bd 2e36 933d 9a63 04be bd8f 9abd
00000270: 7521 4cbb e6de 4fbe 9a9a 043e 8180 19be
00000280: 14b9 043d 119b 913c 39f7 dc3d 008d d6bc
00000290: cc91 103c c5d9 c8bd 1176 b1bd 679d 5fbd
000002a0: aff5 ea3d e026 38bd d7ce 39bd b4ca 0abe
000002b0: 111b a53d 5361 c8bd b48c 02be 49d4 95bd
000002c0: 5d6a 70be 405a 34be d338 873d bc8b 35bc
000002d0: ae7f 5cbd 1a89 39be 750d 0fbe 50e5 f1bd
000002e0: 5f69 a43d aff0 cf3c ba28 8f3d d520 963d
000002f0: cf8d cc3d 2de9 843c f0ca d7bd f112 61bd
00000300: cbdc ae3d f883 11bc ff43 d63d 091f e13d
00000310: 9be9 133e 977e 683e cd73 16be 432a 163c
00000320: ba26 29bc 534e 993d 5abe e03c 6ffb 913d
00000330: 348e 01be 9d73 563d 2e82 1ebd aace 993d
00000340: f2de a2bc 97f2 65bd 5657 a2bc 8685 4c3d
00000350: 10dc 34bc 32cd aa3b ba80 bcbc 60ec 2fbb
00000360: 2e4e 2a3c e04a fe3d 7327 09be cf38 8b3c
00000370: fd4a 073b 0679 fdbc a440 7ebc 5151 06be
00000380: 6dd7 573e 1edd 09bd 8043 87bd f00a ddbd
00000390: 9a22 20bc ce35 163d 394d c23c d996 e0bd
000003a0: 545f 4a3d a603 07be 88f8 5ebc 6418 12be
000003b0: f126 773d 8220 34be f050 18be 4339 db3a
000003c0: ee93 2c3b 11b1 06be b154 c0bd 366f 18bd
000003d0: 4077 12be 4901 003e 0e22 943d c0bd 89bd
000003e0: 299e 0bbe faec 213d abc6 00be 0328 3abd
000003f0: 4b41 85bb 6404 85bc 1ef0 36bb 61da c5bd

network_body._body_endoder.seq_layers.2.bias f4 [128]
0.0 0.0 0.0 0.0 0.0 0.0 0.0 0.0
0.0 0.0 0.0 0.0 0.0 0.0 0.0 0.0
0.0 0.0 0.0 0.0 0.0 0.0 0.0 0.0
0.0 0.0 0.0 0.0 0.0 0.0 0.0 0.0
0.0 0.0 0.0 0.0 0.0 0.0 0.0 0.0
0.0 0.0 0.0 0.0 0.0 0.0 0.0 0.0
0.0 0.0 0.0 0.0 0.0 0.0 0.0 0.0
0.0 0.0 0.0 0.0 0.0 0.0 0.0 0.0
0.0 0.0 0.0 0.0 0.0 0.0 0.0 0.0
0.0 0.0 0.0 0.0 0.0 0.0 0.0 0.0
0.0 0.0 0.0 0.0 0.0 0.0 0.0 0.0
0.0 0.0 0.0 0.0 0.0 0.0 0.0 0.0
0.0 0.0 0.0 0.0 0.0 0.0 0.0 0.0
0.0 0.0 0.0 0.0 0.0 0.0 0.0 0.0
0.0 0.0 0.0 0.0 0.0 0.0 0.0 0.0
0.0 0.0 0.0 0.0 0.0 0.0 0.0 0.0
00000000: 0000 0000 0000 0000 0000 0000 0000 0000
00000010: 0000 0000 0000 0000 0000 0000 0000 0000
00000020: 0000 0000 0000 0000 0000 0000 0000 0000
00000030: 0000 0000 0000 0000 0000 0000 0000 0000
00000040: 0000 0000 0000 0000 0000 0000 0000 0000
00000050: 0000 0000 0000 0000 0000 0000 0000 0000
00000060: 0000 0000 0000 0000 0000 0000 0000 0000
00000070: 0000 0000 0000 0000 0000 0000 0000 0000
00000080: 0000 0000 0000 0000 0000 0000 0000 0000
00000090: 0000 0000 0000 0000 0000 0000 0000 0000
000000a0: 0000 0000 0000 0000 0000 0000 0000 0000
000000b0: 0000 0000 0000 0000 0000 0000 0000 0000
000000c0: 0000 0000 0000 0000 0000 0000 0000 0000
000000d0: 0000 0000 0000 0000 0000 0000 0000 0000
000000e0: 0000 0000 0000 0000 0000 0000 0000 0000
000000f0: 0000 0000 0000 0000 0000 0000 0000 0000
00000100: 0000 0000 0000 0000 0000 0000 0000 0000
00000110: 0000 0000 0000 0000 0000 0000 0000 0000
00000120: 0000 0000 0000 0000 0000 0000 0000 0000
00000130: 0000 0000 0000 0000 0000 0000 0000 0000
00000140: 0000 0000 0000 0000 0000 0000 0000 0000
00000150: 0000 0000 0000 0000 0000 0000 0000 0000
00000160: 0000 0000 0000 0000 0000 0000 0000 0000
00000170: 0000 0000 0000 0000 0000 0000 0000 0000
00000180: 0000 0000 0000 0000 0000 0000 0000 0000
00000190: 0000 0000 0000 0000 0000 0000 0000 0000
000001a0: 0000 0000 0000 0000 0000 0000 0000 0000
000001b0: 0000 0000 0000 0000 0000 0000 0000 0000
000001c0: 0000 0000 0000 0000 0000 0000 0000 0000
000001d0: 0000 0000 0000 0000 0000 0000 0000 0000
000001e0: 0000 0000 0000 0000 0000 0000 0000 0000
000001f0: 0000 0000 0000 0000 0000 0000 0000 0000

value_heads.value_heads.extrinsic.weight f4 [1, 128]
-0.087659016 -0.03268447 0.15033144 -0.14296813 -0.025346976 0.15423298 -0.10496305 0.028463423
0.028865775 0.035809945 -0.1764412 -0.039011914 -0.1550918 0.21158653 0.14700252 -0.1641855
0.15525064 -0.080891706 -0.023726916 -0.16276217 0.14739402 -0.053458698 -0.0083814105 0.11228694
0.086790174 0.13134168 -0.12540604 -0.07910149 -0.13744235 0.11489356 -0.08359314 0.10515864
0.08116034 -0.20859902 0.0892132 0.061935388 0.19894958 0.20136294 0.19510351 0.043512486
0.017383985 -0.04881154 0.05955802 0.009138796 0.028426941 0.13490103 -0.033115283 -0.0062437183
-0.1928687 0.16827452 0.1988782 -0.16555522 -0.1782788 0.013404617 0.013236452 -0.07484375
-0.076938815 0.12211794 0.11017392 0.090288855 0.035326403 -0.06894978 -0.06938289 0.08049393
-0.08278661 0.04448651 -0.11966775 0.025545543 0.18617736 -0.13839598 0.07561453 0.1648339
0.071575515 0.17402367 0.10664053 -0.0975026 -0.02640939 0.10380973 0.2015158 0.12422505
0.16777222 0.08476772 0.17801584 0.16248906 0.052402623 0.21242546 -0.082743 -0.084804006
0.09533449 -0.104648426 -0.14681447 0.111423984 0.0074702334 -0.10524789 -0.09873808 0.0074333404
-0.036019076 -0.17674194 0.13393721 -0.08951689 -0.19181995 -0.08238621 -0.071370535 0.124014825
-0.12241195 0.1590929 0.11480901 -0.1715143 0.051538274 0.11667591 0.021943793 0.15735556
-0.17314203 -0.0076854206 -0.028994668 -0.00080895715 -0.07543551 0.19055146 -0.14430186 -0.1982539
0.19409665 -0.114115804 0.03384634 -0.15496036 -0.19092773 0.04036091 -0.1671304 -0.10156339
00000000: 9286 b3bd 27e0 05bd 7cf0 193e 3d66 12be
00000010: 76a4 cfbc 40ef 1d3e def6 d6bd 202c e93c
00000020: eb77 ec3c 73ad 123d 00ad 34be f5ca 1fbd
00000030: 63d0 1ebe 24aa 583e d487 163e 3e20 28be
00000040: 06fa 1e3e 8daa a5bd f35e c2bc 20ab 26be
00000050: 75ee 163e 82f7 5abd 2f52 09bc b2f6 e53d
00000060: 0cbf b13d 6f7e 063e 716a 00be f6ff a1bd
00000070: b0bd 0cbe 514d eb3d e132 abbd 6a5d d73d
00000080: 6437 a63d fb9a 55be 69b5 b63d f6af 7d3d
00000090: 70b9 4b3e 1632 4e3e 37c9 473e 263a 323d
000000a0: dc68 8e3c 9cee 47bd 1cf3 733d e3ba 153c
000000b0: 9edf e83c 7f23 0a3e e4a3 07bd 1b98 ccbb
000000c0: 5f7f 45be 2850 2c3e baa6 4b3e 4f87 29be
000000d0: b88e 36be 0a9f 5b3c b4dd 583c ae47 99bd
000000e0: 1992 9dbd f818 fa3d dda2 e13d 5de9 b83d
000000f0: 6bb2 103d 8b35 8dbd 9e18 8ebd 00da a43d
00000100: 078c a9bd 7d37 363d 5e14 f5bd e344 d13c
00000110: 47a5 3e3e adb7 0dbe cadb 9a3d 38ca 283e
00000120: 2f96 923d 4333 323e 5a66 da3d 71af c7bd
00000130: 8158 d8bc 329a d43d 285a 4e3e b469 fe3d
00000140: 7bcc 2b3e b39a ad3d c949 363e 8863 263e
00000150: 22a4 563d 0f86 593e 2975 a9bd b9ad adbd
00000160: bb3e c33d ea51 d6bd 8856 16be 4232 e43d
00000170: dcc8 f43b 358c d7bd 3137 cabd 6193 f33b
00000180: bd88 13bd d7fb 34be d626 093e a254 b7bd
00000190: 736c 44be 1aba a8bd b72a 92bd 7cfb fd3d
000001a0: 1eb3 fabd 40e9 223e fc20 eb3d 72a1 2fbe
000001b0: cc19 533d c8f3 ee3d 78c3 b33c d121 213e
000001c0: 254c 31be fbd5 fbbb 3a86 edbc 3210 54ba
000001d0: ef7d 9abd ec1f 433e dec3 13be 1203 4bbe
000001e0: 46c1 463e 8cb5 e9bd 76a2 0a3d eead 1ebe
000001f0: 8f82 43be 7b51 253d 3b24 2bbe 7700 d0bd
